NEURAL_MODELS/LSTM/apricot-pyramid-32.pth (torch, 298823 bytes, 14 tensors)

weight_ih_l0 f4 [200, 87]
000000 a8 3b 4f 3d 6b e7 30 3e e4 79 1d 3e f6 bc 26 bd
       0.050594002 0.17275779 0.15378529 -0.04070755
000010 e1 f7 cd 3e 57 38 fe bd f7 12 1b 3d a0 0e 5b be
       0.4022818 -0.1241309 0.037859883 -0.21392298
000020 98 ea 16 3f 9a 7f 26 3e a3 14 75 3d 43 c6 62 3e
       0.5895171 0.16259614 0.059834134 0.22145943
000030 bf 12 85 3f 2e 34 4e 3e 36 9b 15 3e cb 6d bb bd
       1.0396346 0.20137092 0.1460999 -0.09151801
000040 fe ca 80 3e 4d c8 07 bf 40 a2 ef be 98 f2 aa bb
       0.2515487 -0.5304001 -0.46803474 -0.0052169077
000050 88 b5 43 3e cd 8d 25 3e 4d a7 8a 3e 19 1f 4e 3f
       0.19112217 0.16167374 0.27080765 0.805162
000060 1f 85 1e 3f cd 43 09 bf 7c 99 a2 be e6 ce 08 3c
       0.61921877 -0.5361908 -0.31757724 0.00835011
000070 4d 36 10 3d 2c f1 7d 3d 5a 1f 43 3f 2d fb 0f 3e
       0.035208035 0.061997578 0.76219714 0.1406066
000080 22 fa 1e 3e 85 c1 ea 3e d2 23 a4 3e ba 64 06 3d
       0.15525106 0.4585077 0.3205858 0.032810904
000090 b6 8a 16 3e 76 66 82 3d 0a e4 9f 3e 58 a0 eb be
       0.14701352 0.06367199 0.31228667 -0.4602077
0000a0 36 27 1b 3e 66 fe c3 bf 4e 82 8d 3f 03 c6 2c bc
       0.15151677 -1.5312011 1.1055391 -0.010545257
0000b0 7a e9 a8 3d 7d a2 81 3e 8b 40 23 3e 09 f8 c9 3e
       0.08247657 0.2531928 0.1594259 0.39447048
0000c0 2f d4 45 3e 8c e0 81 3d 7e 5f 16 bd 67 c0 2d be
       0.19319223 0.06341657 -0.036712162 -0.16967927
0000d0 cb 70 54 be c3 d2 08 3d 9d 3f e4 3b f4 e1 00 3f
       -0.20746152 0.033404123 0.006965591 0.5034478
0000e0 e0 b4 44 3d 71 14 95 bf c0 aa 1b 3f 22 96 a5 3d
       0.04802406 -1.1646863 0.6080742 0.08085276
0000f0 58 f6 2d bd db 29 10 3e 39 79 51 3e f0 43 b2 3d
       -0.04247126 0.14078467 0.20456399 0.08704364
000100 52 ee 95 bd 4d 54 3f 3e 82 2d 14 bd e7 2f 9e 3c
       -0.073208466 0.18684502 -0.036176212 0.019309951
000110 65 a0 6f be 0f 82 18 3f f4 a9 43 be ee b3 ae be
       -0.2340103 0.59573454 -0.191078 -0.3412165
000120 0f 7d a2 3b 3d 09 c2 3e 38 bc 14 3f 3f ef 00 3f
       0.004958756 0.37897673 0.580997 0.5036506
000130 60 7f e2 be e6 60 55 3e 26 2d c5 3e e9 b2 2a 3e
       -0.44237804 0.20837745 0.38511008 0.16669811
000140 1e 75 12 be 0f e0 3a 3d 10 b3 88 be fa 39 2c be
       -0.14302489 0.045623835 -0.26699114 -0.16818991
000150 1f d2 49 3e 8b 10 c5 3f f5 f7 2f bd bc 22 2d 3d
       0.19709061 1.5395674 -0.04296108 0.042269453
000160 74 fd 55 3e 4e 87 45 be cb 19 6a bf 89 35 ac 3f
       0.20897466 -0.19289896 -0.91445607 1.3453838
000170 ea 41 92 3e 9f b0 bf 3f 0c ea ae 3f 11 75 09 be
       0.28565913 1.4975775 1.3665175 -0.13423564
000180 74 15 79 bc e8 df 0d 40 ea 8a ec 3f 23 3e 92 3f
       -0.015202869 2.2167912 1.8479893 1.1425213
000190 2c 99 8f bf e8 44 87 3e 25 29 47 bf 19 55 84 3f
       -1.1218619 0.2641976 -0.77797157 1.033847
0001a0 5f 23 24 bf 30 e4 12 bd 30 c4 62 bf 0e 77 cc 3f
       -0.6411647 -0.035862148 -0.8858061 1.5973833
0001b0 db 90 81 bf 9b 93 18 be 7e 54 a4 3f 0b 9e 8d be
       -1.0122331 -0.14900057 1.2838285 -0.2765964
0001c0 e7 d3 95 be 45 f2 76 bf 7f 1d 7d bf 2f 2e 61 3e
       -0.2926323 -0.96463424 -0.9887313 0.21990274
0001d0 9d 4a 28 bf 5b 93 36 3f 54 63 9d 3e 81 b3 9a 3e
       -0.6573885 0.71318597 0.30739844 0.30215076
0001e0 15 f7 52 be 01 1b c5 3e 58 13 de 3f 91 77 6b bf
       -0.20602067 0.38497165 1.7349653 -0.9197932
0001f0 39 0b ae 3f ff 4c d9 be d9 7b aa bf 74 06 ad 3f
       1.3597175 -0.42441556 -1.3319045 1.3517594
000200 ea 8a 35 bf 09 91 85 bf 4c cc fb be da c1 ae be
       -0.7091509 -1.0434886 -0.49179304 -0.34132272
000210 e1 f9 04 bf 8e af 52 bf 5b 83 e9 3e c9 1c 3d 3e
       -0.51943785 -0.82299125 0.4560803 0.18468012
000220 1b 22 a1 bf 02 39 0a 3f db c9 68 3f 70 fb aa 3d
       -1.2588533 0.53993237 0.90933007 0.08348739
000230 63 64 e9 3f 0a 40 99 be f8 b7 74 bf fe 7e c7 3d
       1.823376 -0.2993167 -0.95593214 0.09741019
000240 16 7d 3f 3d 57 cf 6a 3d a7 de a5 bc fe ff bb 3d
       0.04675015 0.05732664 -0.02024777 0.09179686
000250 75 4f b8 3e 4b 0d 33 be 53 9d 46 bd 7f af f0 be
       0.3599812 -0.1748554 -0.04848988 -0.47008893
000260 9f a9 8b bf 41 aa fc 3f 30 44 0e bf 3f f0 e8 3e
       -1.0911139 1.9739457 -0.55572796 0.45495793
000270 d2 f2 b9 be 04 39 06 bf 6d c3 94 3f d8 ab 4e 3f
       -0.3631807 -0.5243075 1.1622139 0.8073096
000280 dd 3e 79 bf e4 fb 02 3e ee 48 8c bf 6f a6 63 3f
       -0.97361547 0.12791401 -1.0959756 0.8892583
000290 d6 23 83 3f a6 64 86 bf 69 23 44 bf ca 3c ed be
       1.0245311 -1.0499465 -0.7661653 -0.4633544
0002a0 80 5d 0e 3e 63 36 a5 3e 9b b4 ca be 31 4f 2a bf
       0.13902855 0.32268056 -0.39590916 -0.66527086
0002b0 9c 49 95 bf 43 90 98 bf c2 36 af 3d d4 19 95 bf
       -1.1663089 -1.1919025 0.08555366 -1.1648507
0002c0 33 a3 39 be 07 6a 5d bc 19 25 d1 be 3b 37 72 3f
       -0.18128662 -0.013514048 -0.40848616 0.94615525
0002d0 4f f8 99 bf 14 4e f1 3d 57 dd 2e bf 8a d6 85 3f
       -1.2028903 0.1178247 -0.6830649 1.0456097
0002e0 d7 72 fd be e6 fd 80 3e 7b e4 56 bf 2a 19 33 be
       -0.49501678 0.2519371 -0.83942384 -0.17490068
0002f0 79 ca 03 40 ba 7f d6 3e bb 4c f7 bd aa 89 49 bf
       2.059233 0.41894323 -0.12075182 -0.78725684
000300 f1 a6 4c bf c0 4c 9d 3f 2f d8 a1 3e d8 7c d1 be
       -0.7994223 1.2289047 0.31610247 -0.4091556
000310 de 7b 1a bf 65 1e 22 bf 72 0b fd be 12 7a ae be
       -0.60345256 -0.6332763 -0.49422795 -0.34077507
000320 f5 1e d5 be a5 aa 51 bf 32 c6 80 3e 03 1c 4b bf
       -0.4162518 -0.8190101 0.2515121 -0.7933962
000330 9e 34 2f be 48 de 49 bf 37 56 3a 3f 70 65 79 be
       -0.17109916 -0.788548 0.72787803 -0.24355102
000340 c1 cd 65 bf 1d 6d 9d bf 85 a6 dc 3c dc a5 86 bf
       -0.8976708 -1.2298924 0.026934871 -1.0519366
000350 2b 2e f6 be 3b be b5 be b1 6f c7 3e 14 1f 65 bf
       -0.48082098 -0.35496697 0.389524 -0.89500546
000360 55 6e da 3e b9 61 25 bf 85 8c f7 be 51 ac a2 3e
       0.42662302 -0.6460224 -0.48349395 0.31772092
000370 c2 9a 76 bf 69 27 aa 3e ab b1 5c 3f 72 c9 31 3f
       -0.9632989 0.33233193 0.862086 0.69448006
000380 4d 3a 5e be d6 0f 61 3f b0 ea ab 3e e9 aa 1d 3e
       -0.21701927 0.8791479 0.3357749 0.15397228
000390 79 d6 98 be ea 81 d4 3c f8 4c 8e bc b3 7e 35 bf
       -0.2985113 0.025940854 -0.017370686 -0.7089645
0003a0 d0 96 f3 bc 44 b8 70 3f 68 2a ee bd e2 d9 6c 3f
       -0.029734999 0.9403117 -0.11629182 0.9251996
0003b0 55 ed 03 bf 11 11 03 bd 35 e6 2e bf 58 50 a2 bd
       -0.51534015 -0.031998698 -0.6832002 -0.079254806
0003c0 85 48 ff 3e 7e 69 9e 3d 8c e0 64 3f 95 c8 22 3f
       0.49860016 0.07734965 0.8940513 0.63587314
0003d0 fb 18 13 bf c7 de 5c 3e 26 c5 c7 bd f6 8d e8 be
       -0.5745999 0.21569358 -0.097544 -0.45420808
0003e0 71 f3 a0 3e ca 71 ce 3e a0 40 cd 3d 95 3b 03 3f
       0.3143573 0.4032119 0.10022092 0.5126279
0003f0 0e 2d 42 bf 34 0f 44 bf 5c 2f 81 3e d5 53 a6 3f
       -0.7585 -0.765857 0.25231445 1.2994334

weight_hh_l0 f4 [200, 50]
000000 5d f9 f4 bd 2c 91 f9 3c d6 f6 dc bc 2c ef 8d bb
       -0.11961625 0.030464731 -0.02697317 -0.00433149
000010 15 cb 86 be 3f ba 10 3f 8c 09 18 be d2 4e e0 bd
       -0.26326814 0.5653419 -0.14847392 -0.10952534
000020 74 11 95 bd 1b 35 1c 3e e4 19 24 be b8 1b 76 bc
       -0.072787195 0.15254633 -0.16025501 -0.015021257
000030 1b a8 96 bd ae 24 89 3c fd 3d 70 3e 8e ff d2 bc
       -0.07356282 0.016741123 0.23461147 -0.025756624
000040 10 9b fd bd 50 ab 8d bd 91 7d 20 be 6d 05 0e be
       -0.123830914 -0.06917441 -0.156729 -0.13869257
000050 2c a9 98 bd 20 13 88 bd bf a6 5a bd df 44 f9 bd
       -0.07454142 -0.06644273 -0.053381678 -0.12171339
000060 c0 bc 3f be 50 55 93 3c 28 a0 a3 3c a4 45 ef 3d
       -0.18724346 0.017985016 0.01997383 0.11683205
000070 44 09 27 be 35 6d ee 3d 8c df 90 bc 64 7e 92 bd
       -0.16312128 0.11641923 -0.01768472 -0.07153013
000080 4f 82 3d be d8 7d 60 3c 99 6a 31 bc 6e 9a 21 3e
       -0.1850674 0.0137018785 -0.0108286375 0.15781567
000090 ee 12 30 be d3 49 86 3c 12 f8 03 bc ec db bf 3d
       -0.17194721 0.016392624 -0.00805475 0.09368119
0000a0 b5 52 97 3a f6 44 a0 bd 1f 71 a8 be d6 cc 26 be
       0.0011545034 -0.07825653 -0.32898805 -0.16289076
0000b0 23 80 83 bc c9 70 9a 3e 6f 01 a8 be 91 9b 4a 3d
       -0.016052311 0.30164173 -0.32813594 0.049464766
0000c0 60 8e c2 3c 23 54 51 be 6e 1e be 3e c6 1f fa ba
       0.02374953 -0.20442252 0.3713259 -0.0019082956
0000d0 97 f2 59 3d ef 29 a3 3e be 51 a5 3e e7 d3 dc 3d
       0.053209867 0.3186793 0.32288927 0.10782605
0000e0 2a 70 3d 3e e2 f2 d4 bd 5b 30 3c 3d ec f0 f3 be
       0.18499818 -0.10397889 0.045944553 -0.47644746
0000f0 79 87 71 bd ae ff 6d 3e cb c6 00 bf 73 0d 7a be
       -0.058967087 0.23242065 -0.50303334 -0.24419193
000100 96 83 4d 3e d0 33 bf 3e f3 22 b0 bc 5e 44 1c 3e
       0.20069727 0.37344217 -0.02150104 0.15260455
000110 bf a0 0d bf 5f 49 00 bf 00 fa b1 3f c4 48 8a 3e
       -0.55323404 -0.50111955 1.3904419 0.2700864
000120 24 5f 13 3e dd d1 0c be 1c f1 09 bf 3e 7a 58 3d
       0.14391762 -0.13751931 -0.5388353 0.052850954
000130 e6 f9 ed be fb 5b 80 3e d1 ea 2c 3e b0 6c 5f 3b
       -0.4647972 0.25070176 0.1688645 0.0034091882
000140 09 56 4c 3e fc e4 59 3c 46 e5 40 bc 50 03 c3 be
       0.19954695 0.013299223 -0.011773413 -0.38088465
000150 2d da 97 3e 9a 8c e6 3e 1d 49 82 bd ab 43 ac 3d
       0.29658642 0.45029145 -0.063616015 0.08411344
000160 a0 c2 23 3f 59 82 81 3e ed 2f cc bb e8 ca cc 3d
       0.6396885 0.2529476 -0.006231299 0.09999639
000170 e0 71 eb 3e 85 16 13 3e c5 25 8f 3e 0d c6 fd 3d
       0.45985317 0.1436406 0.27958503 0.12391291
000180 11 47 25 3f cf 65 8a be b6 11 9a 3c 19 fc db bd
       0.64561564 -0.270308 0.018807273 -0.10741443
000190 33 9a 50 3e 23 2e de be 01 81 86 3e fb 8f 8e be
       0.20371322 -0.43394575 0.26270297 -0.27844223
0001a0 6c ff 87 3f 01 32 23 be 17 f1 23 bf a8 37 7f be
       1.0624824 -0.15937044 -0.6403975 -0.24923575
0001b0 41 79 f8 be 57 81 09 3e cf 3a da 3e 52 4a 09 be
       -0.4853001 0.13428245 0.42622992 -0.13407257
0001c0 14 78 82 3e 3d 1c f7 3d 72 1f 35 3e f6 46 87 3e
       0.25482237 0.12065933 0.17687777 0.26421326
0001d0 5d 38 04 3f b3 0c 2b bd b7 5c 81 3d 8a 19 3a 3f
       0.51648504 -0.041760158 0.06316512 0.7269522
0001e0 f1 8c 80 3f aa dc d8 be 5e b6 26 3e 58 c1 1b bc
       1.0043012 -0.42355853 0.16280505 -0.009506546
0001f0 42 b5 f9 bd 3c f1 3b be 27 68 33 3a fd e9 7a bf
       -0.12192775 -0.18353742 0.0006843828 -0.9801329
000200 a0 ba e8 3d d7 f5 81 3e 62 26 81 be 1d ef c4 3e
       0.11363721 0.25382873 -0.25224596 0.3846368
000210 c9 d9 97 be bc 79 95 be c5 39 2d be da fb 9d 3d
       -0.29658344 -0.29194438 -0.16916569 0.077140525
000220 72 71 96 be 4c 6f e0 3e ad 5d d2 be e6 20 0d bd
       -0.29383427 0.43834913 -0.41087094 -0.034455203
000230 1c 1e 1b be 40 2f b1 3e e7 78 95 be a3 90 09 be
       -0.15148205 0.3460636 -0.29193804 -0.13434081
000240 43 d6 3a 3d e6 cb 2b bd 92 ae 09 3f 8c 41 cf bd
       0.045614492 -0.0419425 0.53782 -0.10119924
000250 a2 4e 4b 3e fb 84 73 bd 5a 86 83 be 5e 06 3a 3e
       0.19854215 -0.059452992 -0.2568844 0.18166491
000260 6f fe ed 3e 8b b1 b9 3d e9 02 55 3f 2a 88 3b 3f
       0.4648318 0.09067067 0.83207566 0.73254645
000270 b0 9c 19 bf 2d 11 6e bf e4 54 a1 3e 7d 19 74 be
       -0.6000471 -0.9299496 0.3151008 -0.23837848
000280 0b 15 db be 8d a1 62 3e 5d 23 ec be f4 69 0a 3f
       -0.42789492 0.22131939 -0.4612073 0.5406792
000290 c4 81 cf 3d 53 36 f6 be 8e 4a 08 be 19 4f db be
       0.10132173 -0.4808832 -0.1330969 -0.42833784
0002a0 45 bc c6 be 40 85 a5 be f0 1b 98 3d 39 88 4a 3e
       -0.38815513 -0.32328224 0.07427204 0.19778527
0002b0 50 a8 b8 be 12 85 37 bf c1 87 f2 bd 77 4e c4 3e
       -0.36065912 -0.71687424 -0.11842299 0.38341114
0002c0 35 f6 da 3d 13 43 6f bf 41 8d d4 be fa 9b 58 3d
       0.106914915 -0.9346172 -0.41514018 0.052883126
0002d0 38 98 10 bf 0b 05 09 3f 56 40 21 3e 30 58 9d 3e
       -0.5648227 0.5352332 0.15747198 0.30731344
0002e0 97 a0 9f 3e 52 b2 5a 3c 0e bd e0 be 34 b1 3c 3f
       0.31177208 0.013348179 -0.43894237 0.7370789
0002f0 d1 9c 89 3e 6b 4c c0 3b 86 fd 0b 3e 26 03 53 be
       0.26877454 0.0058684847 0.1367093 -0.2060667
000300 1a 64 2a bf 73 b8 94 be bc c3 10 be 3b ab 6b bc
       -0.6655899 -0.29046974 -0.14137167 -0.014384086
000310 06 35 bf 3e b1 b2 5b 3e 20 5d 81 bd 83 ad 1b be
       0.3734514 0.21454884 -0.0631659 -0.15202908
000320 2a 84 28 3e c4 e2 2d 3c 09 a0 f3 3e 90 e4 b0 be
       0.16456667 0.010613147 0.47583035 -0.3454938
000330 03 6e 3c 3f 9c cd a7 3e 6d 36 bb be e0 8c 44 be
       0.73605365 0.32774055 -0.3656496 -0.19194365
000340 bd 42 06 bf ce 4f 0c be 8f 61 35 be 4e a9 82 be
       -0.52445585 -0.13702318 -0.17712997 -0.25519794
000350 95 89 ce 3e 2a ac b1 3e f4 a1 32 3f a9 fe a2 be
       0.40339342 0.34701663 0.6977837 -0.31834915
000360 20 ff a1 3e d8 f0 6f 3e ff d3 fa 3e da 6b d2 3e
       0.31639957 0.23431718 0.48989865 0.4109791
000370 f0 8b 18 3f 17 62 d9 be 3e 30 2a be b1 25 98 3c
       0.5958853 -0.4245765 -0.16619965 0.01857266
000380 f0 95 97 3e d7 16 a0 be e7 2a d0 3e f0 ee e8 3e
       0.2960658 -0.31267425 0.40657732 0.45494795
000390 a0 8b 47 be b1 fb eb 3e ea 75 ea bd 0a 13 bd be
       -0.19486856 0.46090463 -0.114482716 -0.36928588
0003a0 ab 64 9d be fc 9e 23 3e 5b df bf be 08 e8 c1 be
       -0.30740866 0.15978616 -0.37475094 -0.37872338
0003b0 ad 0c 29 bd 25 6c d9 3e dc 4b 5f 3f e1 bf 09 bf
       -0.041271854 0.4246532 0.8722513 -0.5380841
0003c0 b7 7b a1 be 34 7d 9e bd a8 45 90 bd a3 dd 2b bc
       -0.315397 -0.07738724 -0.07044536 -0.010489854
0003d0 4c f5 c0 3d b6 4c 3d be 68 e7 17 bf eb 60 94 be
       0.09421787 -0.18486294 -0.5933747 -0.28980193
0003e0 39 4d f7 3e 3c bf 03 3f 3a 31 fd be cb d1 cc be
       0.48301104 0.51463675 -0.4945162 -0.4000381
0003f0 59 32 bd 3d a7 0f 0c be 6f d4 56 3e 63 7e 30 3e
       0.09238119 -0.13677846 0.20979474 0.17235713

bias_ih_l0 f4 [200]
000000 b1 f8 ee 3d 7a 41 8a 3e 9a f5 e2 bd 69 97 41 3f
       0.11668528 0.2700308 -0.11082001 0.7562166
000010 9e 61 88 bc 46 9d 50 3e bc 16 90 3d bf d6 87 3e
       -0.01664811 0.20372495 0.07035586 0.26531026
000020 2b c1 08 3c 97 25 18 3d d0 1d 68 3d 56 32 e2 3d
       0.008346836 0.037145223 0.056669056 0.11044757
000030 f8 9c 8e 3e 4d e7 b0 3e 03 a5 d9 3d 6e e1 09 3e
       0.27854133 0.34551468 0.106271766 0.13464901
000040 50 f6 6b bd 31 0e 6d 3e d0 92 28 3e ef 33 82 3a
       -0.05760795 0.23149945 0.16462255 0.000993369
000050 c3 6e 4a 3d ee 0a d5 3d 46 56 94 3d ea 82 b7 3e
       0.049422037 0.10402475 0.07243018 0.35842067
000060 51 8b 46 bd 5f fc 91 3e 73 42 36 3e 19 13 cc 3c
       -0.048472706 0.28512856 0.17798786 0.02491145
000070 18 d6 cf 3b 92 8f 45 3e 34 e8 48 3e 1f b6 87 3d
       0.0063426606 0.19293049 0.19619828 0.06626534
000080 28 6b 93 3e 3c 32 48 3e 0b fd 51 3e f1 aa 23 3e
       0.2879269 0.19550413 0.20506684 0.15983178
000090 dc 62 c7 3e c2 2f 52 3e 22 6b fa 3d a5 77 84 3e
       0.3894261 0.2052603 0.12227465 0.25872532
0000a0 a8 b0 5a be 6b ad 24 3e 77 33 77 3e f6 7a b4 3d
       -0.21356452 0.16081779 0.24140726 0.088125154
0000b0 9b 2d 10 3d ea 8e aa 3e 99 09 65 3d 9c 34 1f 3d
       0.035199743 0.3331216 0.055917356 0.03886853
0000c0 ae 22 96 3e 01 1c 96 3e 1f 30 c9 3d 7d 63 45 3c
       0.29323334 0.2931824 0.098236315 0.012047646
0000d0 af 6b 5f 3e c5 b4 92 3c 28 f0 03 3e 8b 45 c3 bd
       0.21818422 0.017908463 0.12884581 -0.09534749
0000e0 1f 90 60 b9 a3 2e 86 bd ee a5 43 bd 4f 0b 0c be
       -0.00021415994 -0.06551864 -0.047765665 -0.13676189
0000f0 7a 9c e6 bd 85 fc 33 3d 4a 4d bf bd 63 01 f7 3d
       -0.11260314 0.043941993 -0.093409136 0.12060811
000100 50 b5 ba bd 98 67 f1 3d 02 f8 11 3e 28 d0 a5 bd
       -0.09116614 0.11787337 0.14254764 -0.08096343
000110 77 e3 3d 3e 85 17 42 be 92 25 ae 3d 30 6c f1 3d
       0.18543802 -0.18954284 0.0850326 0.11788213
000120 2d e5 0d 3c ff 98 ab be 21 42 bf 3d 3d 8d 45 be
       0.008660597 -0.33515164 0.09338785 -0.1929216
000130 12 82 77 3d 94 cd a4 be 92 fe e1 bd 37 38 58 bc
       0.06042678 -0.32188094 -0.110348836 -0.013196996
000140 c4 24 14 3d e5 48 37 be 8f 7e 4b 3d f0 0c f7 3d
       0.036167875 -0.17898901 0.049681243 0.120630145
000150 7f fe cc 3d 2a bb 4b 3d 39 33 55 3e f0 c1 8a bc
       0.10009479 0.04973904 0.20820321 -0.01693818
000160 9b 12 b1 be 5f c5 98 3b a1 08 ce be 72 8d f5 3c
       -0.34584507 0.0046622003 -0.40240958 0.029974673
000170 34 c7 e7 bd 62 b8 14 3e 34 91 f7 3d 4c 81 3b bd
       -0.11317292 0.14523461 0.12088242 -0.045777604
000180 5a 27 ac bc d6 6d 90 3d 5e e3 80 be d4 ad 1a 3d
       -0.021014858 0.070521995 -0.25173467 0.03776343
000190 96 60 41 be 1b b9 38 3d 9b 37 ee bc d4 4b e5 3c
       -0.18884501 0.045098405 -0.02907925 0.02799026
0001a0 3c b9 d8 bc 6a de 98 3d 57 79 f0 bd 52 40 4a be
       -0.026455514 0.07464297 -0.11741894 -0.19751099
0001b0 3b 84 36 3e 8f 6c d8 3d b4 53 8d bc e1 44 fc 3d
       0.1782388 0.10567581 -0.017251827 0.12317825
0001c0 0d 8d c5 3c 82 a2 6e 3e 1e cd 11 be 6d 66 5d be
       0.02411511 0.2330418 -0.14238402 -0.21621104
0001d0 ff 4c 1a be 74 b9 55 bd f1 a0 0d be 81 96 31 be
       -0.15068434 -0.052178815 -0.13830926 -0.17342569
0001e0 33 d3 07 bc 8d 2f 28 3e a3 28 c9 bd a6 80 1e 3d
       -0.0082901 0.16424389 -0.09822204 0.038696907
0001f0 99 d8 1f be 60 e0 10 3e 90 e6 66 be 58 8c 4d 3c
       -0.15609969 0.14148092 -0.2254889 0.012545668
000200 cd 83 38 be f7 7b 40 be ac b6 1b be 82 66 4e be
       -0.18019028 -0.18797289 -0.15206403 -0.20156291
000210 6e 0f 75 3e 31 6e 63 3c 40 c1 7d 3e e5 0a 14 3e
       0.23931667 0.013881252 0.2478075 0.14457281
000220 49 55 f7 bd a4 cb 30 3e 8b 6d 1b be c5 1d 29 3e
       -0.12076814 0.17265183 -0.15178506 0.16515262
000230 e5 97 08 bd 29 dd 4a be ff c7 65 be 29 a0 c6 bd
       -0.033347983 -0.19810928 -0.22439574 -0.09698517
000240 c9 47 7f bd ba 89 59 3c 22 b4 3f 3d 9d 6d 5b 3e
       -0.06232432 0.0132774655 0.046802647 0.21428533
000250 ac 06 89 bd a5 ce 7a be 42 cc ae be 65 aa 53 be
       -0.06690726 -0.24492891 -0.3414021 -0.20670469
000260 8f a7 89 be e4 bd d8 bd 7f b5 c6 be 19 4c 0f bc
       -0.2688565 -0.10583094 -0.38810346 -0.00874617
000270 0e 85 46 be e4 15 82 bd 5b ff 4e be cb 98 35 3e
       -0.19386694 -0.063518316 -0.20214598 0.17734067
000280 fe 92 12 be 6b fd 13 be 10 9f 58 bd 86 e6 94 be
       -0.14313886 -0.1445214 -0.05288607 -0.29082125
000290 15 ed 64 3e 55 d6 63 be 7b 33 21 3c 2a c1 5f be
       0.22356065 -0.2224973 0.009838934 -0.2185103
0002a0 5c fd 23 be ba d7 04 bd 11 f1 d3 3c d5 31 b4 be
       -0.16014618 -0.032432295 0.025871785 -0.3519427
0002b0 ac db fa be 9b cb 4d bd e5 cb e1 be 84 25 a7 be
       -0.4899572 -0.050243 -0.44100872 -0.3264581
0002c0 7f db 48 be 1a d3 1e 3e 41 fa c7 be 4e 75 cc be
       -0.19614981 0.15510216 -0.39058116 -0.39933246
0002d0 1d de 1d be 8b 31 cf bd 12 ee 81 bd ff 78 e0 be
       -0.1541676 -0.101168714 -0.063442364 -0.43842313
0002e0 f8 0a e7 bd 06 6a d5 3c dc c1 50 be 73 43 8f be
       -0.11281389 0.026051532 -0.20386451 -0.27981147
0002f0 40 57 36 3e 5f 07 88 be ea cb 3c be 6f cb ef be
       0.1780672 -0.26568124 -0.18437162 -0.46834895
000300 58 c0 db be 6a 43 94 be c0 26 6e be cc 79 8f bc
       -0.42920184 -0.28957683 -0.2325697 -0.017514132
000310 10 4f 84 3d 73 f8 62 be ee 8f 0b be 86 76 12 bf
       0.064603925 -0.22165088 -0.13629124 -0.572121

bias_hh_l0 f4 [200]
000000 15 f5 e6 bc 55 c3 89 3e 75 db ac 3d d2 96 32 3f
       -0.028193036 0.2690684 0.084402956 0.69761384
000010 ea 75 46 be 87 7e 3c 3e 6a 73 8d 3d bd 7c dd 3e
       -0.19380918 0.18407641 0.06906779 0.4325923
000020 4a c0 3a 3e a3 60 99 3d 4a 79 1c 3d 87 fe a8 3e
       0.18237415 0.07489135 0.038201608 0.3300669
000030 61 0b 8d 3e e3 3d 6b 3e 07 2d 57 3e 20 a6 02 3e
       0.27547744 0.22972827 0.2101327 0.12758684
000040 53 62 01 3e 01 e9 93 3e f7 c6 41 3e 1c 1a ac bd
       0.12635164 0.28888705 0.18923555 -0.084034175
000050 e8 71 f6 3d 10 09 c2 ba fa d4 b6 3d 77 41 ab 3e
       0.12033445 -0.0014803726 0.08927341 0.33448383
000060 57 24 8f 3b 42 1d 9f 3e b0 87 0c 3e 4a d2 d3 3c
       0.0043683457 0.3107701 0.13723636 0.02585711
000070 2e f6 b7 3b 6e d5 9b 3c 92 e3 8f 3e dd 84 c5 3d
       0.0056140637 0.01902267 0.2810331 0.09644482
000080 4a 86 3b 3e d9 6b 42 3e bf 45 5e 3e 73 65 83 3e
       0.18312946 0.18986453 0.21706294 0.25663337
000090 cc 1f c7 3e e3 3c 85 3e e7 b2 2d bb c2 e6 38 3e
       0.38891447 0.26023015 -0.002650434 0.18056777
0000a0 61 4d 4d be 32 0e 4f 3e 08 ab 58 3e fe 2f 0c 3e
       -0.20049049 0.20220259 0.21158993 0.13690183
0000b0 33 ea 9b bc 8c da fb 3e 94 75 c8 bd 1e 59 22 3e
       -0.019032573 0.49190176 -0.09788051 0.15854308
0000c0 e3 15 b6 3e f8 39 5b 3e 10 48 40 bc e0 73 e8 bd
       0.35563573 0.21408832 -0.011735931 -0.113502264
0000d0 2f b0 50 3e 3e 76 75 bd 91 ca a2 3e 01 ea 7a be
       0.20379709 -0.059927218 0.3179517 -0.24503328
0000e0 f1 fd 07 3d 8f 2f ab bd c9 a8 6d 3c f7 e8 14 be
       0.03320116 -0.083586805 0.014505574 -0.14541994
0000f0 12 94 75 be fe df f3 3d 86 a6 26 be 25 65 94 bd
       -0.23982266 0.119079575 -0.16274461 -0.07245854
000100 e5 72 28 bc 4b cc 0f 3e 22 aa 8b b9 1f b3 53 be
       -0.010281299 0.14042775 -0.00026638905 -0.20673798
000110 05 5b 14 3e cf 6d c8 be 34 a4 07 3e bc 3a 83 3d
       0.14487846 -0.39146277 0.13246232 0.06407687
000120 6b 3a fb 3d cd fe ce bd 55 65 26 3e 1b 61 f6 bd
       0.12267002 -0.10107193 0.16249593 -0.1203024
000130 31 f6 b1 bd 6d 04 9c be fe fe a9 3d 3e dc 4b 3c
       -0.086895354 -0.30472127 0.08300589 0.012442647
000140 c7 a1 09 3e ad 71 2e be 00 66 ed 3c 11 0e 51 3e
       0.1344062 -0.17035551 0.028979301 0.20415522
000150 ae 0f 89 3e 61 21 23 3d 49 c1 c9 3d 92 d8 63 bc
       0.26769775 0.039826754 0.09851319 -0.013906615
000160 da 4a a3 be 83 d3 ca bc 82 4a a5 be bf 25 dd 3d
       -0.31893045 -0.02475906 -0.32283407 0.10798215
000170 07 95 9e bd 1c 3d af 3d d4 bd 95 bd 7b 6d 90 bd
       -0.077432685 0.085565776 -0.073115975 -0.07052132
000180 b3 e8 18 bd fd ad 79 3e 44 57 96 be 60 d3 5f bd
       -0.037331294 0.24382778 -0.29363453 -0.054644942
000190 56 06 5a be ac c1 02 3e ad c2 0a 3d 5a 19 38 3e
       -0.2129148 0.12769192 0.033877064 0.17978421
0001a0 1c fd 3f 3e da 15 dc 3d a7 5a 8c bd 48 f0 17 be
       0.18748897 0.10746355 -0.06853228 -0.14837754
0001b0 9f 1b 35 3e 99 69 7f bd f3 5d 14 be 66 3f 50 3e
       0.17686318 -0.062356565 -0.14488964 0.20336685
0001c0 5a 8a 54 be 20 70 25 3d 46 8d 51 bd bc f9 4e be
       -0.20755902 0.040390134 -0.05116012 -0.20212454
0001d0 12 09 2b be 4d dd ca bd 38 b8 cc bd f1 97 d3 bd
       -0.16702679 -0.09905491 -0.099960744 -0.10331715
0001e0 77 b3 42 3d d1 96 df 3d b7 8c 7c be 85 bf 57 3d
       0.047534432 0.10917438 -0.24663053 0.05267288
0001f0 a7 22 3b be 4a 06 d4 bb bd c1 10 be b8 35 32 3e
       -0.18274938 -0.0064704763 -0.14136405 0.17403305
000200 84 78 d3 bd 04 de 08 bc bd 61 bd bd ee 39 b5 bd
       -0.10325721 -0.008353714 -0.09247158 -0.0884894
000210 d3 60 90 3d 5e 48 13 3e 09 d1 4d 3e 95 60 b3 3d
       0.07049718 0.14383075 0.20099272 0.08758656
000220 6d 0b 4f be 1f c8 3a 3e 95 f6 ec bd 21 b4 19 3e
       -0.20219202 0.18240403 -0.11570469 0.1501012
000230 7f e0 15 3e 32 eb 97 3a f8 bf 1f be 76 4a 18 be
       0.1463642 0.0011590479 -0.15600574 -0.14872155
000240 eb 0f b5 bd 96 94 27 3e 20 6a 49 3a 39 c3 1c 3e
       -0.08840927 0.16365275 0.00076833554 0.15308847
000250 64 58 06 be 03 32 03 be 41 73 fe bd 17 35 52 be
       -0.13119656 -0.12812047 -0.12424327 -0.20528065
000260 18 74 cf bd 4d 27 0e be 36 48 82 be 54 0c b0 bd
       -0.10129565 -0.1388218 -0.25445718 -0.085961014
000270 43 d9 e0 bd c4 e6 34 be ae 2b 2f be 7d b0 8b 3e
       -0.109789394 -0.17666155 -0.17106506 0.27283087
000280 7c f6 66 be da a4 c0 bd fd 89 ae bc aa c1 21 be
       -0.22554964 -0.09406443 -0.021306032 -0.15796533
000290 0d de 00 3e 82 c9 d3 be 21 17 f0 bd 6a f4 0f be
       0.12584706 -0.41364676 -0.117231615 -0.1405808
0002a0 7c 22 2d be 59 e5 c8 3c 87 6d 9a 3d 29 56 92 be
       -0.16907686 0.024523424 0.07540422 -0.2858136
0002b0 99 15 9d be a9 01 c7 bd b7 c8 97 be 3b 94 c4 be
       -0.3068054 -0.097171135 -0.2964532 -0.3839434
0002c0 f4 9d 92 be 94 57 28 3d 61 a4 0f bf c3 ee 98 be
       -0.28636134 0.041099146 -0.561102 -0.2986966
0002d0 85 1f 22 be 95 a4 c6 bc 0d 80 9b be c1 c7 c8 be
       -0.15832336 -0.0242484 -0.30371132 -0.392149
0002e0 2e 75 29 be c3 4e fa bd 46 e4 50 be 9f af 68 be
       -0.16548607 -0.12222054 -0.2039958 -0.22723244
0002f0 2c 0d af bc 52 54 f3 bd ee c4 18 be 76 a1 d2 be
       -0.021368586 -0.11881317 -0.14918873 -0.4113881
000300 db e8 11 bf 03 53 de be f6 70 8a be 17 9e 7f be
       -0.56995934 -0.43422708 -0.27039307 -0.2496265
000310 57 8f 0a 3e 2a 73 08 be c7 3e 11 be ad da 14 bf
       0.13531242 -0.13325182 -0.14184104 -0.5814617

weight_ih_l1 f4 [200, 50]
000000 95 33 16 be 84 b1 18 3e 6d 78 2e 3e 64 b5 c8 3d
       -0.14668114 0.14911467 0.17038126 0.098002225
000010 67 d9 99 3e 44 d1 0d 3e 91 dd f4 bd 78 56 53 bd
       0.30048677 0.1384936 -0.11956323 -0.051596135
000020 72 19 4a 3d e4 28 a3 3e d0 c6 e6 bc bc 31 55 3e
       0.049340673 0.31867135 -0.028170973 0.20819753
000030 2b 4e 3b bd 6e 4d 80 3e 1a d4 84 bc 1c e1 a7 bd
       -0.045728844 0.25059074 -0.01621442 -0.08197233
000040 ea fe 0f be 4e 0d 06 be b8 f8 28 be 9e 4d 4c bd
       -0.14062086 -0.13091013 -0.16501129 -0.04987871
000050 67 c2 ca 3d 01 2d 23 3e 3b 4c ea 3c 7d 32 11 be
       0.099003606 0.15935136 0.028600803 -0.14179416
000060 b5 f4 00 be 02 38 50 bb 96 7d 52 be 51 95 a3 be
       -0.12593348 -0.0031771665 -0.2055572 -0.31949857
000070 ff 61 1e be 3f 99 33 be 99 0b 7e bd 14 22 63 bd
       -0.1546707 -0.17538927 -0.06202278 -0.05545242
000080 b2 78 43 bd 74 af 53 3d bc ca 2a 3c f3 12 6e 3d
       -0.047722526 0.051680997 0.010424312 0.05812354
000090 2b e0 60 bd ed 4c e1 3e 02 48 27 3e af b2 85 3d
       -0.054901283 0.44004002 0.16336063 0.06528222
0000a0 c7 d8 82 3e 1d dd ac 3d 94 c6 33 be c7 1d 11 bd
       0.25556013 0.084406115 -0.1755622 -0.03542879
0000b0 28 7d a6 bc 86 85 ed 3c 8f 37 e9 3d 5d 16 3b 3c
       -0.020323351 0.028994333 0.1138755 0.011418906
0000c0 b9 4e 05 3c 8e 39 2a 3c f4 64 f2 bd 0a 28 1f 3d
       0.008136445 0.010389699 -0.118356615 0.038856544
0000d0 b9 99 0a bd bc 7c 53 bd 7d cc 23 3d 99 a3 43 3d
       -0.033838008 -0.051632628 0.039989937 0.04776344
0000e0 c2 bf 21 3c b8 61 02 be 9b 18 b3 3d 45 2c 67 be
       0.009872379 -0.12732589 0.087449275 -0.22575481
0000f0 8b 85 a9 bc c5 17 32 3e 66 78 b9 3b 90 a4 ec 3b
       -0.020693561 0.1739188 0.0056601046 0.007221766
000100 32 e5 bc bd c3 e1 a0 bd 39 71 a0 ba 2d 79 a7 3d
       -0.09223403 -0.07855561 -0.0012240774 0.08177409
000110 da 28 0e bd 86 e8 64 be 39 34 32 3e 7b f2 5e 3d
       -0.034706928 -0.22354326 0.17402734 0.054430466
000120 c2 0a e7 bd 07 ef 9e bc bc 74 8d bd a0 70 04 3e
       -0.11281349 -0.019401086 -0.06907031 0.12933588
000130 7e 6e 8a bd 5c a7 96 be 47 f3 50 be 76 e3 4b bc
       -0.06759356 -0.2942456 -0.20405303 -0.012444368
000140 43 a9 9c 3b ee bf f1 bd 01 89 1e 3e b4 dd 2c 3d
       0.0047809198 -0.11804186 0.1548195 0.04220362
000150 6b 72 78 3d bd d8 80 3d 49 1c 2a be e2 e9 9f bd
       0.060655992 0.062913395 -0.16612352 -0.078082815
000160 ad 92 89 3d 08 9d 09 3e 08 7f 8f 3e e2 6e 71 bd
       0.06717429 0.13438809 0.28026605 -0.058943637
000170 6f 59 ba bc 64 b9 17 be f5 a5 9c bc e9 cd 34 3e
       -0.022747723 -0.14816815 -0.019122103 0.17656673
000180 5f 2d 9b be 58 35 1e 3e 1c 9e 83 be bf e6 1d bd
       -0.30308053 0.15450037 -0.25706565 -0.038550135
000190 ee 1a 8d 3c 8a 52 77 3e cc fe e1 3c cd 53 07 3e
       0.017224755 0.2415258 0.027587317 0.13215561
0001a0 45 79 97 3d c3 ea 65 3e bb 62 eb bd 80 73 3c be
       0.07396177 0.22452836 -0.11493441 -0.18403435
0001b0 f9 8a 4a 3d e6 70 93 3e 57 17 66 be b7 dd c6 3d
       0.04944894 0.28797072 -0.22469841 0.097102575
0001c0 99 84 d4 bd 3f bc 9d bd 90 ec 19 bc f2 86 3d bd
       -0.103768535 -0.07701921 -0.00939478 -0.046271272
0001d0 8e 2c 22 be ce 90 3f be 34 2d 14 be 16 36 92 be
       -0.15837309 -0.18707582 -0.14470369 -0.2855689
0001e0 38 88 c1 3d 00 c6 0c 3e 4a 8e 3f be fe c1 f0 bd
       0.0944981 0.13747406 -0.18706623 -0.11755751
0001f0 ba 7f 0b be 58 8b d5 3c 26 e1 47 be 87 29 3d bf
       -0.13622943 0.02606742 -0.19519481 -0.7389149
000200 50 70 43 be 3f d9 3c be 4f c3 91 bd 0d ce a8 3d
       -0.19085813 -0.18442248 -0.0711733 0.08242426
000210 d9 ce 8a 3e a3 d7 94 3d f6 f6 19 3e 87 38 bb 3b
       0.27110937 0.07267692 0.15035614 0.0057135257
000220 b4 46 f6 bd d7 e3 6b be aa e3 51 3e ef e0 c1 3d
       -0.12025204 -0.23036133 0.20497003 0.09466731
000230 ca 21 79 3e b7 4e 32 be 1f e2 69 be 66 76 a8 bd
       0.24329296 -0.1741284 -0.22840165 -0.08225708
000240 d3 e8 b3 bd b1 54 41 3e 5c 73 c7 be 17 e5 a2 3d
       -0.08784642 0.18879963 -0.389552 0.07953852
000250 98 4e 8f be cc e4 6f be 84 3d 8b bf eb 72 31 3d
       -0.2798965 -0.23427123 -1.0878148 0.043322485
000260 68 79 06 be 91 d4 13 be 4f 05 7b be e8 80 a5 be
       -0.1313225 -0.14436556 -0.24513744 -0.3232491
000270 29 ce 92 3e 5e f5 81 3e 87 bf 97 be 75 8a 7c 3d
       0.28672913 0.25382513 -0.2963831 0.06165548
000280 e5 24 d7 be 38 e4 5b 3e 6d b7 7f 3e 21 59 86 be
       -0.42020336 0.21473777 0.24972315 -0.26239875
000290 a9 2a 7b be 8b bb ed be 18 df 77 be 79 16 d8 bd
       -0.24527992 -0.46432146 -0.24206197 -0.10551161
0002a0 cd 72 dd bc 29 f7 f8 be a2 87 93 be e3 66 7e be
       -0.02703228 -0.48626068 -0.28814417 -0.24843936
0002b0 e3 83 b1 bd 87 8c e5 be 72 92 a7 3e eb 2c 72 be
       -0.086677335 -0.44833776 0.32728916 -0.23649947
0002c0 5a 35 a5 bd 73 8e e2 be 94 88 d3 be 4f 0d a8 3e
       -0.08066817 -0.44249305 -0.41315138 0.32822654
0002d0 c0 4c 6d 3e 9e a0 22 3f 22 d6 6d be 7a de 02 3f
       0.23173809 0.6352633 -0.23226216 0.5112072
0002e0 1f f9 0b 3d 09 73 2d bf a7 d5 6a 3e 1c 81 3c be
       0.034173127 -0.67753655 0.22933064 -0.18408626
0002f0 70 37 7d 3e 6a e6 99 be 8a 86 bd be 0f f0 c7 be
       0.24728179 -0.30058604 -0.37016708 -0.39050338
000300 92 0e dd bd 43 bb 16 bf fb 5b b1 bf d7 51 94 be
       -0.10793795 -0.5887949 -1.3856195 -0.2896869
000310 dd bc 20 3e 8c d3 21 3f 44 ff 44 3e c2 05 17 3e
       0.15697046 0.6321342 0.19238001 0.1474829
000320 69 2f a8 3c 2e a9 ad bd b2 81 a8 3d c2 8e 53 3e
       0.02053042 -0.08479534 0.082278624 0.20659927
000330 5b 9f 38 3d 2d 55 3c 3e ee 1f 16 be 81 81 cf bd
       0.04507385 0.18391867 -0.14660618 -0.10132123
000340 26 de 72 3d a2 7f 22 3f f5 29 b6 3d f9 5e d3 3d
       0.05929389 0.63476 0.088947214 0.10320849
000350 03 61 8c bc c3 25 76 3e d0 ac f2 bd c7 8b ca 3c
       -0.017136103 0.24037842 -0.118493676 0.024724854
000360 4a 80 db bd f5 c7 e2 bd e8 46 73 be 28 9f d4 bd
       -0.107178286 -0.11073295 -0.23757517 -0.10381919
000370 5e 92 38 3e 5e ee 39 3e aa 66 c8 3c d5 81 62 bd
       0.18024585 0.18157336 0.024463017 -0.0552996
000380 30 f5 fa bd ae 37 a3 bb d0 fd ae bb f8 02 a7 bd
       -0.12253797 -0.004981003 -0.0053403154 -0.08154863
000390 92 ff 53 be d9 b2 42 bd d8 28 81 be f7 99 84 bd
       -0.20702961 -0.047533844 -0.25226474 -0.06474679
0003a0 d1 e9 17 3e c9 f0 b2 3d a2 57 78 3e 5b e4 5d 3d
       0.14835288 0.087373324 0.2425218 0.054172855
0003b0 7b 13 79 be 8c ff 11 3f 3d 81 a4 bd 7f ac 77 3d
       -0.24323837 0.5703056 -0.08032463 0.06046724
0003c0 9c 48 9f 3e 60 52 f6 bd 52 5a bd bc 64 3f 64 3c
       0.31110084 -0.120274305 -0.023114357 0.013931129
0003d0 19 2b 39 be ad b7 26 bc 3a 93 e5 3e dd ec 76 3e
       -0.18082847 -0.010175628 0.44838887 0.24113794
0003e0 67 d0 1e bc e3 51 18 be 44 9c 14 be 41 48 b1 3d
       -0.009693242 -0.14874987 -0.14512736 0.086563595
0003f0 e3 36 53 3e 2a 19 0f 3e a5 bd 0e 3e 29 b5 fb 3d
       0.20626406 0.13974443 0.13939531 0.12290413

weight_hh_l1 f4 [200, 50]
000000 83 a0 49 3e 59 e9 eb 3d 8a d7 76 3d 26 14 89 3c
       0.19690137 0.11519117 0.060264148 0.01673324
000010 d0 98 d9 3d 71 2e 00 3e d2 71 6a 3d c0 e8 da 3d
       0.1062485 0.12517716 0.057237454 0.10688925
000020 97 df 24 3c cc 95 d9 bd 42 b0 ac bc 3d e7 5e 3e
       0.010063074 -0.106242746 -0.02108014 0.21767898
000030 50 f9 89 3b a9 0a a8 3c 30 6e 12 3d 51 c1 0e 3d
       0.0042106286 0.020512896 0.035749614 0.03485233
000040 53 52 1a 3e 94 89 d7 bc 17 d7 7c 3c a6 b1 8b 3c
       0.15070467 -0.02631072 0.015432141 0.017052483
000050 8b 65 77 bd 37 42 64 be 86 3d e6 bd d9 29 bd bc
       -0.060399573 -0.22290884 -0.112422034 -0.023091244
000060 1f d7 97 bd e2 0b 0a bd d5 cf 0d 3e 8e fc 02 3d
       -0.07414078 -0.03370274 0.13848813 0.031979136
000070 87 bf 62 3e 2f e7 f9 bd ce 97 fa bc ff a6 37 3e
       0.22143374 -0.12202298 -0.030589964 0.17934798
000080 a3 f2 10 3c f8 6d 19 be 09 bb 2f be 11 7f 46 be
       0.008846912 -0.14983356 -0.17161192 -0.1938441
000090 08 b7 35 3e ff 8f 2f bd 4d 04 67 3d 09 58 3c be
       0.17745602 -0.042861935 0.056400586 -0.18392958
0000a0 38 4d 9e bd c5 55 f2 3b d8 13 b5 bd b1 47 98 3d
       -0.07729572 0.0073954784 -0.088416755 0.07435549
0000b0 e2 30 35 be 05 22 48 bb 1a 40 76 be bf 8a 8e bd
       -0.17694429 -0.0030537855 -0.2404789 -0.069600575
0000c0 08 e4 15 be 03 e2 ec bc 52 cd 5a 3c ee ab c5 3d
       -0.14637768 -0.028916365 0.013354616 0.096519336
0000d0 dd 79 fb bd b9 84 37 3e da 37 19 bb cc 68 03 bd
       -0.12279103 0.17921723 -0.0023379237 -0.032082364
0000e0 8e e3 4f 3e f7 bf 94 3d 7b f5 0b be 31 0f 85 b9
       0.20301649 0.07263177 -0.13667862 -0.00025379055
0000f0 21 88 cf 3c 76 2d 30 3d 89 43 fe 3d d9 cb 37 3c
       0.025333466 0.043012105 0.12415225 0.011218035
000100 50 2c 28 bd 18 7c a5 3c 66 ba 80 bc 9a ef 96 be
       -0.041057885 0.020200774 -0.015713882 -0.29479676
000110 b2 83 04 be ac 67 5a 3c 0a 7a 21 3b e6 92 dd bd
       -0.12940863 0.013330381 0.0024639391 -0.10819034
000120 48 46 a7 bd 15 3b 4e 3d 73 b9 20 be 1b 18 92 3d
       -0.08167702 0.050349314 -0.15695743 0.07133504
000130 f9 13 4b 3e da 59 cd 3d 4d 49 3a 3e b0 09 5e bd
       0.19831838 0.100269035 0.18192025 -0.054208457
000140 c2 df e9 bd ad b2 49 3d 46 d3 9b bd 3b 01 84 bd
       -0.114196315 0.049242664 -0.076086566 -0.06445547
000150 57 be ec 3c 4c 78 8f be 07 35 f3 3d 86 58 c5 3d
       0.028899355 -0.28021467 0.118753485 0.09636025
000160 a3 cf 17 3e 26 b5 3b be 7d 59 17 3b bc 3e e2 3c
       0.14825301 -0.18330821 0.002309411 0.027617805
000170 d5 11 2d 3d 0c 42 19 3d 1b 8c 64 bd 9c 30 fb 3c
       0.042253334 0.037416503 -0.055797677 0.030662827
000180 d3 1a ab bd ac 2e 49 bd 81 ae 22 bd e0 08 2f 3e
       -0.08354726 -0.049116775 -0.0397172 0.1709323
000190 78 6b d0 3d 19 72 1c 3e 15 a0 dc 3b 6a 52 1a 3e
       0.10176748 0.152779 0.0067329505 0.15070501
0001a0 17 02 ee 3d 19 e6 36 3e 00 7d 30 3d e2 07 96 3b
       0.11621492 0.17861213 0.04308796 0.0045785764
0001b0 cd 78 cb 3d e9 67 4e 3d ea 84 e7 bc 97 ce 10 bc
       0.0993515 0.050392065 -0.02826162 -0.008838317
0001c0 67 ee 46 3e 78 1d 76 3b 0e 3d 36 be 65 b9 0e 3d
       0.19426881 0.0037554186 -0.17796728 0.034844775
0001d0 4f 2c 16 3e 82 18 4a be e9 ba 6c bc ae a0 12 3b
       0.1466534 -0.19735911 -0.01444886 0.0022373605
0001e0 32 be 0b bd 49 36 ca bd 97 42 0c be 93 f7 e8 3c
       -0.03411693 -0.09873635 -0.13697277 0.028438365
0001f0 95 89 04 3c 20 eb d0 3d 4a ea 26 3e b1 83 36 bd
       0.008089443 0.102010965 0.16300312 -0.044559184
000200 46 88 b6 3d 87 25 b5 bb b4 78 4f bd 0a 4d 39 3d
       0.08912711 -0.0055281552 -0.05065222 0.045239486
000210 6a b4 24 be 9f 33 3f 3c fc 4f 58 3d 94 66 d5 bd
       -0.16084448 0.011670022 0.052810654 -0.10419956
000220 4b 74 20 3e 80 68 87 bc dc 36 27 3d 78 7a a8 bd
       0.15669362 -0.016529322 0.040823802 -0.08226484
000230 95 a9 bc bd da 87 82 3d 97 cc 1c be 1c fa b9 3d
       -0.09212033 0.06373568 -0.1531242 0.09080908
000240 f0 ec 07 bd dc 48 e0 3d 23 cd 9f 3c 42 46 f8 bc
       -0.033184946 0.10951397 0.019506996 -0.030306939
000250 19 e4 4f be 94 69 73 3d 80 00 31 bf f9 dd 1d bd
       -0.20301856 0.05942686 -0.6914139 -0.038541768
000260 5b ba 1c 3e 8e f5 2e bf a5 c9 da be c9 07 91 be
       0.15305464 -0.68343437 -0.42731968 -0.28326252
000270 0a 13 aa 3c 61 37 87 bd a8 1a a1 3e 8c b4 36 3f
       0.020761032 -0.066023596 0.3146565 0.7136924
000280 b7 f4 85 3e 08 a8 ff be da 80 3c 3d 85 2f 84 3e
       0.26163265 -0.49932885 0.04602132 0.25817505
000290 b9 16 66 3e 10 d3 9a 3f 7f 3e ca bd 99 c7 94 3d
       0.22469606 1.2095661 -0.098752014 0.07264633
0002a0 08 13 df bd a2 28 6a be 07 61 81 3e 3e dd 67 3e
       -0.10892302 -0.22867063 0.25269338 0.22642991
0002b0 ad a2 cc 3d 78 f7 7c 3f 8b 54 be 3d c9 5a 51 3e
       0.099919654 0.9881511 0.09293469 0.20444788
0002c0 f4 6c 12 3b 96 f1 75 3d 0b 13 5d bc 09 5c a1 39
       0.0022342773 0.060044847 -0.01349331 0.00030776885
0002d0 ed 6e 8b bf e7 9d c9 3e 37 7b ef 3d 96 0e 0e bf
       -1.0893227 0.39378282 0.11693423 -0.55491006
0002e0 e7 5a 8e 3d 51 79 7f 3f 38 ec 2d 3d 3c e4 97 3e
       0.06950932 0.9979449 0.042461604 0.29666317
0002f0 0d 26 75 3f f5 b7 11 3e 16 34 17 3d 60 46 3c 3d
       0.95761186 0.1423033 0.036914907 0.045965552
000300 cc ba 3c 3f 8d 39 62 3e 31 8c 24 bf 38 43 72 be
       0.7372253 0.22092266 -0.64276415 -0.23658454
000310 6b b9 84 3e 8d 23 b1 bf 45 d3 84 be 03 7d e1 be
       0.25922713 -1.3838974 -0.25942436 -0.4404069
000320 15 8f 1f 3e 5e 28 1c 3e 26 6f 64 be 5b dc 7c bc
       0.15581925 0.15249774 -0.22308025 -0.015433396
000330 b1 04 02 3e 6b 50 61 3e fd c9 b1 3d 86 4f 1e 3d
       0.12697102 0.22003333 0.08681104 0.03865006
000340 da d0 c7 3c c9 a2 02 be f1 d5 a9 bb 06 6e b8 3d
       0.02439158 -0.1275741 -0.0051829745 0.0900536
000350 a2 ab 27 3e e6 af 9f bd f1 75 84 3c 71 1e 06 3d
       0.16374066 -0.07797222 0.01616952 0.032743875
000360 8d 90 37 3d ae 0d 70 be e4 c4 64 bd e2 3c b5 bc
       0.04481559 -0.23442718 -0.055851832 -0.022123758
000370 11 91 4a be 83 3a 0f be ee 30 76 be 2f 74 4b bd
       -0.19781901 -0.13987164 -0.24042103 -0.04967135
000380 36 61 e6 bd d5 97 0d 3e a9 4a 47 bb 84 bb 43 3d
       -0.1124901 0.1382745 -0.003040949 0.04778625
000390 75 e0 88 3d cd 93 14 bd ca 44 a7 bd 3e 6c 93 3e
       0.06683437 -0.036273766 -0.08167417 0.2879352
0003a0 15 ac d3 3b 3f 10 1f be 1a 0b 4b be f2 08 de bd
       0.0064597228 -0.15533541 -0.19828454 -0.1084155
0003b0 db b8 e7 bc 91 8e 59 3e 8d 05 6c 3d ba 06 45 be
       -0.028286388 0.21245791 0.05762248 -0.19240847
0003c0 e2 44 92 3c db 8a 3b bd 1d b9 61 be 85 fe 4a 3e
       0.017855112 -0.04578672 -0.22043271 0.19823654
0003d0 23 40 0d be 99 de 2c bd fc 12 05 be 91 fe 06 be
       -0.13793997 -0.042204473 -0.12995523 -0.13183047
0003e0 41 50 e2 3c 29 a6 52 3d bf f0 69 3e 53 ff 07 bd
       0.027626159 0.051427994 0.22845744 -0.03320248
0003f0 24 c5 87 bd 3e 94 6f bd 76 1d 78 3d b2 a3 6b 3e
       -0.066293985 -0.058490984 0.06057497 0.23011664

bias_ih_l1 f4 [200]
000000 91 d9 62 3e cc 7f 2c 3e ee 70 f9 3d db db 58 3e
       0.22153307 0.16845626 0.12179743 0.21177618
000010 ff 0d 51 3e c7 9b 7e 3e dc 1a 6c 3d 4c b6 b5 bb
       0.20415495 0.24864112 0.057642803 -0.005545413
000020 1e ee 1e 3e d0 c4 e1 bd ff fb 69 3e cc d2 07 3e
       0.15520522 -0.11023867 0.22850035 0.13264006
000030 e9 e3 33 bc e9 44 aa 3d 7c 0e 50 3c 2e 0b 8d 3e
       -0.010979631 0.08313925 0.012698766 0.27547592
000040 ff ff 7f 3e 37 88 13 be f1 74 63 be a1 1b 4d 3d
       0.24999999 -0.1440743 -0.22212578 0.050075177
000050 b5 3f 2c be c2 5d 4d bc 38 a5 53 3d cf 63 6e 3e
       -0.16821177 -0.012534561 0.051671237 0.23280261
000060 ae 49 5d 3e 7f c0 65 3e ae f1 23 be ee 95 af 3d
       0.21610138 0.22436713 -0.16010162 0.08573519
000070 fd 41 b6 be bd 76 cc 3d 98 60 8b bc a8 31 0d be
       -0.3559722 0.09983585 -0.017013833 -0.13788474
000080 1e cc 4a 3e 44 58 10 3d 3a dc 46 3e 6c e3 8d 3d
       0.19804427 0.035240427 0.19419947 0.06928143
000090 8f 4f d8 bc 52 f6 d9 bc 84 23 9b 3e 3e d5 b7 3d
       -0.026405124 -0.026606712 0.30300534 0.089762196
0000a0 e8 2d be 3d 11 27 2c bd cf ab 07 3d dd cd 1d be
       0.092861 -0.042029444 0.033122834 -0.15410562
0000b0 ba 2a 87 3e 44 06 56 3d d5 3f 3e 3e b0 17 8e 3d
       0.26399785 0.05225207 0.18579037 0.06938112
0000c0 37 d6 d0 bb d5 1d 52 be de e8 f6 3d 5e 63 91 3d
       -0.0063731926 -0.20519193 0.12056135 0.07099031
0000d0 2a 36 07 3e 5f 52 9b bd 26 17 59 3e 64 75 24 3e
       0.13204256 -0.075840704 0.21200237 0.16060406
0000e0 fb 1f e1 3a 75 3a 6d 3d 93 bd 33 3e 6b a5 56 be
       0.0017175669 0.057917077 0.17552786 -0.2096154
0000f0 e1 68 4a 3e e3 cf 62 3e 54 07 d0 3b 14 d5 13 3e
       0.1976657 0.22149615 0.00634853 0.14436752
000100 1d b3 42 3e 1d f6 17 be 9a 78 bd bd 91 7d 4d be
       0.19013639 -0.14839979 -0.092515185 -0.20067431
000110 79 38 43 3d b1 a9 51 3e 1e aa 36 3c 55 ff 9d 3d
       0.04766128 0.20474888 0.011148958 0.07714716
000120 3b f9 3e bd 9b 36 aa 3d 7a d8 1c bd 01 a6 44 3e
       -0.046624403 0.083111964 -0.038292386 0.1920395
000130 6e af ab bd 52 a2 6b 3d 7b 8e e3 3d 39 e8 03 3e
       -0.0838307 0.057527848 0.1111116 0.12881555
000140 0a f5 9c 3d a9 de 82 3d d8 48 92 3d 8f 72 d3 bc
       0.07663925 0.06390125 0.071428 -0.025811462
000150 1e f8 0c 3e 96 1b 56 be 22 4d 2f 3e 78 48 39 3e
       0.13766524 -0.2090896 0.17119268 0.18094051
000160 5b 61 2d bd 5c 49 cf 3c e8 b3 f9 3d c2 67 d5 3d
       -0.042329174 0.025303535 0.121925175 0.10420181
000170 4c 13 72 3e 97 1a 04 be b3 ec 0a 3e 52 f6 9a 3d
       0.23640174 -0.12900768 0.13566856 0.07566513
000180 c9 c6 23 bd a4 59 96 be 64 23 01 3e e1 0b bf 3e
       -0.0399845 -0.29365265 0.12611157 0.3731375
000190 db 8d e3 3d 7a ac ce 3d 6c 7c a9 bd 0c 40 68 3d
       0.11111041 0.10091491 -0.08275685 0.056701705
0001a0 60 40 c0 3d 26 31 27 3e c5 92 d0 3d 1e 93 7a 3e
       0.093872786 0.16327342 0.10184244 0.24470183
0001b0 5c f7 27 3e e0 66 92 bd 73 ca ed 3c 54 02 16 3e
       0.16402954 -0.07148528 0.0290272 0.14649326
0001c0 93 89 37 3e ae aa 5b be 87 bb 53 be 94 36 b6 bd
       0.17923574 -0.21451828 -0.20677005 -0.08897129
0001d0 ed 39 91 3d a5 b8 db 3c 32 1d e1 bb 43 68 08 be
       0.070911266 0.026821444 -0.0068699354 -0.13321023
0001e0 c7 fb 0c 3e f6 d9 59 be 17 f5 48 be 7f 95 20 3e
       0.1376792 -0.21274552 -0.19624744 0.15682028
0001f0 47 a7 59 be 72 53 ad 3d 81 51 10 3d 95 0b 4c be
       -0.21255217 0.084631816 0.03523398 -0.19926293
000200 6c 85 3e 3e a3 8f 4a be 2f 84 06 be 06 75 c8 3d
       0.18605584 -0.19781356 -0.13136362 0.097879454
000210 58 ec 76 bd 2b 51 71 be 03 b4 5b be c1 bb 6f 3d
       -0.06028399 -0.2356612 -0.21455388 0.058528665
000220 2c 01 92 3d eb ac 73 3e 07 47 d7 3d 80 ed 07 be
       0.0712913 0.23796432 0.10511594 -0.13274193
000230 50 be f9 bd 60 1d ec 3d 9e 17 50 be 3e 9b 25 bd
       -0.12194502 0.1152904 -0.20321509 -0.040431254
000240 9c c9 63 be 02 d8 0e be 2a e6 6c be fc 16 03 be
       -0.22244877 -0.13949588 -0.23134676 -0.12801737
000250 bf bc 73 be 64 fa 0a be d0 c3 91 be 88 34 89 be
       -0.2380247 -0.13572079 -0.28469706 -0.2679789
000260 ad e4 a7 bd 12 ab 3a be 34 cb 1c bf 28 fd a6 bd
       -0.08197913 -0.1822932 -0.61247563 -0.081537545
000270 62 3f 70 bd 4a 44 04 3d 81 19 6a be f7 49 c5 bd
       -0.058654197 0.032291688 -0.22861291 -0.09633248
000280 10 1c 05 3d 0a eb 3c be 0c f1 06 be 65 da b8 bc
       0.032497466 -0.18449035 -0.1317789 -0.022565076
000290 72 0c 00 3d 90 ba 8f 3e 22 52 3f bd 1c 41 4d bd
       0.03126187 0.28072023 -0.046709187 -0.05011092
0002a0 60 0e 00 3e 8f 6a 98 be 9b 5d 35 be fb e9 b5 bd
       0.12505484 -0.29768798 -0.17711489 -0.08882519
0002b0 41 5e e6 be f8 b9 f2 be 43 dd 46 bd ed fa 2b bd
       -0.44993785 -0.47407508 -0.048550855 -0.04198735
0002c0 8e a7 fe 3d 96 1c 4f be e5 70 b9 3c 40 35 d0 be
       0.12434302 -0.20225748 0.02263684 -0.40665627
0002d0 ba 5d 97 bd 64 5d 1a bd d8 06 9a 3d 06 cc 8b bd
       -0.07390924 -0.03768672 0.075208366 -0.06826024
0002e0 e7 77 d0 bd 28 32 6e 3d dc ad ba bd 22 83 27 be
       -0.101791196 0.0581533 -0.09115192 -0.16358617
0002f0 3f e4 cc 3d ac 59 8d be 4c b5 0d be 32 1e 27 be
       0.10004472 -0.27607477 -0.1383869 -0.16320112
000300 7f 4b cd bd 33 02 04 3e bd a4 ac bc db b6 f2 bd
       -0.10024165 0.12891464 -0.021074647 -0.11851283
000310 0c b7 a8 bd 3c 28 7a be a9 b3 b9 bc 60 f2 aa 3c
       -0.082380384 -0.2442941 -0.022668676 0.020867527

bias_hh_l1 f4 [200]
000000 d9 08 3b 3c 2d 73 7f 3d 6d 82 1a 3d 19 32 2c 3d
       0.011415684 0.0623657 0.03772204 0.042039964
000010 33 ee 30 3e 64 8a cb 3d 10 07 10 3e cb 08 9b 3d
       0.17278366 0.09938505 0.14065194 0.075700365
000020 7d 74 e4 3a 57 4f 87 3d d1 a6 2c 3d c5 93 3f 3e
       0.0017429736 0.0660693 0.042151276 0.18708713
000030 f1 c0 31 3c c1 ff 31 3e 63 57 38 3d a2 e4 cf 3e
       0.0108492235 0.17382719 0.045005213 0.4060412
000040 77 91 e6 3c 72 ee e4 bd 7e 9e 2c be 83 54 82 3c
       0.028145535 -0.11178292 -0.16857335 0.015909439
000050 df 3c 5a bd c9 8e 42 3e a5 a0 cb 3d 9b e8 6e 3e
       -0.053280707 0.1899978 0.0994275 0.2333092
000060 3a 4c c9 3d b9 25 82 3e 89 ee aa bb 91 1d 0c bd
       0.09828992 0.25419405 -0.005216424 -0.034207884
000070 db f1 06 bf f2 d5 f2 3c ce 19 70 3e 0a 0d 2d bd
       -0.5271279 0.029643033 0.23447344 -0.042248763
000080 23 64 47 3e 96 b2 10 3e 42 09 4d 3e 33 89 fb 3c
       0.19471793 0.14130625 0.20023063 0.03070507
000090 5e e2 71 3c 90 40 0c 3c 73 c6 a9 3e 21 97 0d 3e
       0.014763443 0.008560315 0.33159217 0.13827182
0000a0 c2 eb 62 bc 1e 4c 0a 3e fa f6 50 3e 60 1a 83 be
       -0.013850154 0.13505599 0.20406714 -0.2560606
0000b0 1b 7c 9d 3d 78 b6 9c 3c 13 bf 79 3e 93 61 2b bd
       0.07689687 0.019129977 0.24389295 -0.0418411
0000c0 0b 52 1b 3d 32 61 0c be 71 3c 9f 3d 88 3c 31 3e
       0.03792004 -0.13708952 0.077752 0.17308247
0000d0 0d 85 48 3e 92 08 c3 bd 8a dd 2a 3c 80 77 29 3d
       0.19582005 -0.09523119 0.010428796 0.04137373
0000e0 f6 28 c6 bc 44 53 2c 3e 7c 46 51 3d 85 99 7f be
       -0.024189454 0.16828638 0.05109261 -0.24960907
0000f0 e3 8a b5 3d 66 7f 86 3c 19 c4 e1 bc c1 cb 2d 3e
       0.08864381 0.01641817 -0.027559327 0.16972257
000100 68 2c d3 bc a7 15 b1 3d ac b9 c2 3d c4 5a a7 be
       -0.02577801 0.08646708 0.0950807 -0.32686436
000110 80 4a c4 bc 42 66 fe 3a c8 0e 4e be f2 64 35 3e
       -0.023961306 0.0019409137 -0.20122826 0.17714289
000120 e9 84 a7 38 ed df 8a 3b 49 c5 03 3d ac 3c 12 3e
       7.987937e-05 0.00423812 0.032170568 0.14280957
000130 7d c3 3a be ae 83 67 3e f9 d5 68 3d 3c cf 8c 3d
       -0.18238635 0.22608826 0.056844685 0.06875464
000140 bd f4 b1 3d 39 44 d1 bb 29 6a 54 3e c3 f6 4f 3e
       0.08689258 -0.0063863066 0.20743622 0.20308976
000150 38 ae c8 3d 8b e0 a8 be ef 23 44 3e e4 e4 21 3e
       0.097988546 -0.32983813 0.19154333 0.15809971
000160 35 65 9d 3d 73 f5 46 3e 94 c6 2a 3e 80 22 35 bb
       0.07685319 0.19429569 0.16677314 -0.0027638972
000170 6c cf f6 3c 24 cf 05 be 57 97 05 3e 7a 92 6c 3e
       0.030128203 -0.13067299 0.13046013 0.23102751
000180 7d 16 44 3d 4d af be be 76 42 41 3e 86 5d 68 3e
       0.04787301 -0.3724312 0.18873009 0.22691926
000190 68 2f 29 3e 1d 18 21 3d da 80 0b be 62 f4 b6 3d
       0.1652199 0.039329637 -0.13623372 0.08933331
0001a0 e7 85 26 3e 83 f2 b5 3d 32 44 71 3e f0 d2 4e 3e
       0.16262017 0.08884146 0.2356117 0.20197654
0001b0 5b 8a 40 3e 0e 49 a5 bd cc f3 3e 3e 46 b3 4c 3e
       0.18802778 -0.08070575 0.18647689 0.19990262
0001c0 e7 bc cb 3d c5 b6 22 be 84 fe e8 bd 2d 44 bd bd
       0.0994814 -0.15890034 -0.1137667 -0.09241519
0001d0 cd 2f a3 3d 6f 94 13 be 0e 96 cd 3d 6c fe 21 be
       0.07968102 -0.14412092 0.10038386 -0.1581971
0001e0 2c 0c 02 3e be ba 48 be 5b 3c 49 be 92 8f 30 bc
       0.12699956 -0.19602486 -0.1965193 -0.010776417
0001f0 41 13 2c be cb 1b 66 3e a2 dc c2 3b 9f b6 17 be
       -0.1680422 0.2247154 0.0059467116 -0.14815758
000200 6d 18 00 3e ec 72 67 be 11 eb 76 be 8c 96 8b bd
       0.12509318 -0.22602433 -0.24113108 -0.06815824
000210 70 0f 4a be 6c de 72 be f1 cb 64 be 97 2d c6 bd
       -0.19732451 -0.2371766 -0.22343422 -0.09676664
000220 23 97 2c 3e c3 87 14 bc 22 4f 4a 3e fa 77 86 3d
       0.16854529 -0.009065571 0.1975675 0.065658525
000230 38 ce 36 bd 9b f7 31 3e 79 07 5f be 7a f0 c5 3d
       -0.04463026 0.1737961 -0.21780194 0.09665008
000240 ef 03 27 be e9 8e 3d be cf 15 2b be d5 6f 26 be
       -0.16310094 -0.18511547 -0.16707538 -0.16253598
000250 43 58 75 be 51 5b 86 bb 89 49 9c be 0d 4b 7e be
       -0.2395945 -0.004100241 -0.30524853 -0.24833317
000260 cb ba 8f be ab 0e c3 bd 1b ce 37 bf ca 6b 26 be
       -0.280722 -0.09524282 -0.71798867 -0.16252056
000270 4c 93 0c be a9 fd de bc 13 93 d7 bd 4d ca c5 bd
       -0.13728064 -0.027220564 -0.10526099 -0.096577264
000280 3b ab d5 bd e4 71 e9 bd 2c 25 a8 bd 82 15 e2 3c
       -0.1043305 -0.11398676 -0.08210215 0.027598146
000290 44 68 9f 3d b8 7e 89 3d 30 1e 13 be 2a 07 cc bd
       0.07783559 0.06713623 -0.14366984 -0.09962304
0002a0 f6 6e 29 3e c2 06 8b be b6 b3 bb bc 68 96 e6 bd
       0.16546234 -0.27153593 -0.022912841 -0.112591565
0002b0 8d 30 86 be b9 1c d5 be 72 cb 5a bb 3f 00 61 be
       -0.26208916 -0.41623476 -0.0033385423 -0.2197275
0002c0 87 f6 e6 3c 2b e8 98 be a8 72 4b 3c 53 68 b7 be
       0.028193725 -0.2986463 0.012417473 -0.3582178
0002d0 eb 1e 41 bd 87 59 01 bc bd 1c 0a 3e 6c b8 a4 bd
       -0.047148626 -0.00789488 0.13487525 -0.08042988
0002e0 95 b5 9d bd e0 2c 8b bd ad 44 a0 bc af be f6 bd
       -0.0770065 -0.067956686 -0.019563997 -0.12048089
0002f0 54 65 0b 3e 01 39 1e be 38 86 8f 3b df 76 44 be
       0.13612872 -0.15451433 0.004380014 -0.1918597
000300 e1 a9 e8 bd 24 29 5c 3e c1 39 d5 3d 43 c6 eb bd
       -0.11360527 0.21500069 0.10411406 -0.11512425
000310 01 6f c4 bd 04 07 d5 bd 73 bc cc bd e0 e8 59 be
       -0.09591485 -0.10401729 -0.09996881 -0.21280241
