NEURAL_MODELS/LSTM/jolly-bush-44_epoch50.pth (torch, 832871 bytes, 42 tensors)

lstm.weight_ih_l0 f4 [200, 69]
0	0x3ffae45b	1.9600939
1	0x3fc96969	1.5735294
2	0xbe7709bb	-0.24124806
3	0xc0f2a46f	-7.5825725
4	0x3ea8f2a4	0.3299762
5	0xc0485ac8	-3.1305408
6	0x404ba7af	3.1821096
7	0xbe2dd8a1	-0.16977169
8	0xbfa8aaea	-1.3177159
9	0x412e3301	10.887452
10	0xc1117800	-9.091797
11	0x411c61fb	9.773921
12	0xbf81ff34	-1.0156007
13	0x3e68b396	0.22724757
14	0x4034874b	2.8207576
15	0x40fa5f59	7.824139
16	0xc096b6aa	-4.709798
17	0x3fc89c3d	1.567268
18	0xc00d2ea2	-2.2059712
19	0x3f90d848	1.1316004
20	0x3ddd6e40	0.10812044
21	0xbe140e30	-0.14458537
22	0xc0e155f2	-7.0417414
23	0x403ba633	2.932019
24	0x4192ecd7	18.365644
25	0x3fa9ee3b	1.3275827
26	0x3fb043fa	1.3770745
27	0x40b7a893	5.739328
28	0x405ca897	3.44779
29	0xbed2ac2f	-0.4114699
30	0x3ebe3686	0.37150973
31	0xc1287655	-10.52889
32	0x404f82a3	3.2423484
33	0xc071f756	-3.7807212
34	0xc0cd1142	-6.4083567
35	0x3feff982	1.8748019
36	0xc0585752	-3.3803296
37	0xc029ae58	-2.651266
38	0xc0111ef6	-2.2675147
39	0xbdf258a1	-0.11833311
40	0xc0aae071	-5.3398976
41	0x40414af3	3.0201995
42	0x3eb0cd26	0.34531516
43	0x40bbe2b7	5.871425
44	0xc12aefdc	-10.683559
45	0x402436fd	2.5658562
46	0xbff3e0ed	-1.9053017
47	0xbf4410d8	-0.765882
48	0x40e3feec	7.1248684
49	0xc0cbf309	-6.3734174
50	0x3db0e688	0.0863772
51	0x4074cd51	3.8250315
52	0xc0c39e35	-6.1130624
53	0x4094bc1e	4.6479635
54	0xbdbf15f8	-0.09330362
55	0x408ddbb0	4.4330673
56	0x3ec27ac9	0.37984303
57	0x409f3bbf	4.976043
58	0x3d8c4e18	0.06850833
59	0x3fdebed8	1.7401991
60	0xc0369902	-2.8530889
61	0x419d11bc	19.63366
62	0x3e07ba7c	0.13254732
63	0xc01eda8f	-2.4820898
64	0x40a4949a	5.14314
65	0x3f45c57a	0.7725445
66	0xc0212a40	-2.5182037
67	0xbe0ff191	-0.14056994
68	0xbfa0fa9e	-1.2576482
69	0x405e4ae6	3.4733214
70	0xc12197ca	-10.099558
71	0x4070b285	3.760896
72	0x4034072e	2.8129382
73	0x3f479798	0.7796569
74	0xc0b6e545	-5.715487
75	0x400acaeb	2.1686351
76	0xbf750ea4	-0.95725465
77	0x3f8b2f30	1.0873775
78	0x3f9bcef6	1.2172534
79	0x41093b7d	8.5770235
80	0x4040d2cf	3.0128667
81	0x408c1849	4.3779645
82	0xbf7bee56	-0.98410547
83	0xbf3f2953	-0.7467243
84	0x3eeb65c0	0.45976067
85	0x3f6e3620	0.9305134
86	0xc052724a	-3.2882257
87	0x3f99cdb2	1.2015898
88	0xc0d1da0e	-6.557868
89	0x3da325f4	0.07966223
90	0x4072444c	3.7854185
91	0x3ff582b1	1.9180509
92	0xc0da4c8e	-6.821845
93	0x41643885	14.263799
94	0x40fc4eac	7.8846035
95	0xc0eded0f	-7.435188
96	0x3e8232bb	0.2542933
97	0xbf8d8646	-1.1056602
98	0x40f9a5d7	7.801494
99	0x3f73c3bc	0.9522054
100	0x41097ce7	8.592994
101	0x413ed0e6	11.926001
102	0x40ee1739	7.440335
103	0x413c030a	11.750742
104	0xbefac454	-0.4897791
105	0xc05b0790	-3.4223366
106	0x3d9acef5	0.07559005
107	0x41a5e28c	20.735619
108	0x3f867478	1.0504293
109	0x41145879	9.2716
110	0x3fb7821b	1.433658
111	0xc005074e	-2.0785708
112	0xbf34c6ae	-0.7061566
113	0xc086a114	-4.207163
114	0xbf9ce3e8	-1.2257051
115	0x413cc142	11.797182
116	0x40ad2513	5.4107757
117	0x4107cd56	8.487631
118	0x41023d64	8.139988
119	0x3e661fda	0.22473088
120	0x410638a8	8.388832
121	0xbe3db6f4	-0.18526822
122	0xbf0996fa	-0.53745997
123	0xbd803d63	-0.062617086
124	0x4063e655	3.5609334
125	0xbff6f154	-1.9292397
126	0x3d8eb5d6	0.06968276
127	0x3e0e8107	0.13916408
128	0xc08a3ded	-4.3200593
129	0x4082f1b5	4.0920053
130	0x418c2120	17.516174
131	0xbf3fa323	-0.748583
132	0x40282bfa	2.627684
133	0x4157ec44	13.495182
134	0x40b45eb9	5.636563
135	0xc04bdade	-3.1852336
136	0xbdf23744	-0.11826947
137	0xc0cfc6d7	-6.4930224
138	0xbf84aea0	-1.0365791
139	0x40facf50	7.8378067
140	0xbfe196ec	-1.7624183
141	0xc007f198	-2.1241207
142	0x4149241c	12.571316
143	0xc0de0a82	-6.9387827
144	0x409aeb36	4.8412123
145	0xbf847c7a	-1.0350487
146	0x3d93376a	0.07188304
147	0xc08ca08d	-4.3945985
148	0xc00ca470	-2.1975365
149	0xbecb7903	-0.39740762
150	0xbe1861b8	-0.14881027
151	0xc08a7aa1	-4.3274693
152	0x3eff466c	0.49858415
153	0xbf8b6070	-1.0888805
154	0xc0c28403	-6.0786147
155	0x3f1f16b0	0.62143993
156	0xc117088f	-9.4395895
157	0x3ee1e138	0.4411714
158	0xbe104e87	-0.14092456
159	0x3f30cb96	0.6906065
160	0x3f553980	0.83290863
161	0x3fbae613	1.4601463
162	0x408c6a90	4.388008
163	0xbf5f5f22	-0.87254536
164	0xc01d10a3	-2.4541404
165	0xc0ea3347	-7.3187594
166	0x40618aab	3.5240886
167	0x3dbb11aa	0.091342285
168	0xbeba27e2	-0.36358553
169	0x418cc614	17.596718
170	0xc1022a9d	-8.135404
171	0xbfa55c4b	-1.291879
172	0xc11080a0	-9.031403
173	0x41a8923d	21.071405
174	0x408e04a0	4.4380646
175	0x411f4183	9.953494
176	0x40a388d9	5.110455
177	0x3f54916a	0.83034384
178	0xbfb337af	-1.4001368
179	0x40178c9b	2.3679569
180	0x417770f7	15.465079
181	0xbf8dba11	-1.1072408
182	0xbff79c9b	-1.9344667
183	0x401ec08d	2.4805024
184	0xc0877cbd	-4.233977
185	0x40b4c156	5.6486006
186	0xc1356f7d	-11.339719
187	0xc08909a8	-4.2824287
188	0xc04f2373	-3.2365386
189	0xc00eac6f	-2.2292745
190	0x411d4430	9.829147
191	0x411c9775	9.786977
192	0x3c4c30b0	0.01246278
193	0x40c058e1	6.0108495
194	0xbfcefb55	-1.617045
195	0x41977cdd	18.935968
196	0x3de66896	0.11250417
197	0xc080a3be	-4.019988
198	0xc0d23ad6	-6.569682
199	0xbfb4c23a	-1.4121773
200	0x410475f3	8.278796
201	0xc01556c9	-2.333422
202	0xc08b082c	-4.3447475
203	0xc122e2cd	-10.180371
204	0x40daad0e	6.833625
205	0xbda5762c	-0.0807918
206	0x40d89bd5	6.7690225
207	0xc0a1c345	-5.0550866
208	0x3d9bcd2a	0.07607491
209	0x408908e6	4.282336
210	0xc03419ad	-2.8140671
211	0xc140acca	-12.042185
212	0x4114434b	9.266429
213	0xc0d69521	-6.705704
214	0xc038f292	-2.8898053
215	0xc0537e69	-3.3045905
216	0x41119f2d	9.101361
217	0xbfbd2f07	-1.4779977
218	0x40e5eaa0	7.1848907
219	0x3dd80eab	0.10549673
220	0x405eb085	3.479524
221	0x402023b7	2.5021799
222	0x4156e999	13.432031
223	0x412b6c64	10.713963
224	0x3f96b2fa	1.1773369
225	0xbf4f9273	-0.8108284
226	0x41185a9b	9.52212
227	0xbd30f5dc	-0.04320322
228	0xbfa3d49c	-1.2799258
229	0xc049d000	-3.1533203
230	0x417be0d1	15.742387
231	0x4180d163	16.10224
232	0x404ffbda	3.2497468
233	0xbee5e22c	-0.44899118
234	0x4140a748	12.04084
235	0x4108afc8	8.542915
236	0x40de4c07	6.9467807
237	0xc0a06292	-5.0120325
238	0xc12244d2	-10.141802
239	0x41ab48d9	21.41057
240	0xc13f42af	-11.95378
241	0xc093ef96	-4.6229963
242	0x41c1ec30	24.240326
243	0x40328a99	2.7897093
244	0x411255f5	9.145986
245	0x415d358d	13.825574
246	0x3e1f3593	0.1554778
247	0xbf192821	-0.59826857
248	0xbf893047	-1.0717858
249	0x416631c1	14.387147
250	0xc0ac55c9	-5.385472
251	0xbf548e33	-0.8302948
252	0x41775aa8	15.459633
253	0x419cc08f	19.594023
254	0x41a3d37b	20.478262
255	0x4123c58f	10.235732

lstm.weight_hh_l0 f4 [200, 50]
0	0xbf369729	-0.713244
1	0x3e91e03b	0.28491387
2	0xbf44a998	-0.7682128
3	0x3f920b2b	1.1409658
4	0xbf1429e6	-0.5787643
5	0x3fadabbe	1.3568037
6	0xbf278c34	-0.6544831
7	0x3f8ff1f2	1.1245711
8	0xbee3ed03	-0.44516763
9	0x3ea4533f	0.32094762
10	0xbf9efb5a	-1.2420456
11	0xbff77963	-1.9333919
12	0xbe33b6b4	-0.17550164
13	0x3fac3e2b	1.3456472
14	0xbfab1792	-1.3366568
15	0xbf05d2c1	-0.5227471
16	0xbda201b5	-0.07910482
17	0xbee6bf96	-0.45068043
18	0x3fe08c85	1.7542883
19	0x3f0cd37f	0.5501022
20	0x3cdd7424	0.02703292
21	0xbfbf640d	-1.4952408
22	0x3d97e1b1	0.07416094
23	0x403b5166	2.9268432
24	0x3fa8cfd4	1.3188424
25	0xbfaf2ef5	-1.3686205
26	0x3f3e38a2	0.74305165
27	0x3f0d83c0	0.5527916
28	0x3ff59ad3	1.9187874
29	0x3f00d6ac	0.50327563
30	0xbe0fad17	-0.14030872
31	0xbfb3dc3d	-1.4051586
32	0x3fa984da	1.3243668
33	0xbf1ae790	-0.60509586
34	0x40006126	2.0059295
35	0xc05d9718	-3.462347
36	0xbf9f760d	-1.2457901
37	0xc0062d9f	-2.0965345
38	0xc0434d0e	-3.051578
39	0xbe11fc8a	-0.14256492
40	0xbfa94aba	-1.322593
41	0xbf55f5d1	-0.8357821
42	0xbe3ffdfc	-0.18749231
43	0xbfab51f4	-1.3384385
44	0xbfacf76f	-1.3513011
45	0xbef95a1c	-0.4870156
46	0xc02cf51a	-2.7024598
47	0xbf1c550e	-0.61067283
48	0xc063d1a6	-3.559671
49	0xbff11b28	-1.8836412
50	0xbf5fe647	-0.8746075
51	0x400c2caf	2.1902273
52	0xbfbf9b8c	-1.4969344
53	0xbfc1cd94	-1.5140862
54	0x3dc6badc	0.09703609
55	0x3e8e31b5	0.27772298
56	0x3f69b137	0.91286033
57	0xc0028fb0	-2.04002
58	0xbfb79d19	-1.4344817
59	0xbfe3bdad	-1.779226
60	0xc0023e42	-2.03505
61	0xc04b3d88	-3.1756306
62	0x3fb7ccc2	1.4359362
63	0xbed55f58	-0.41674304
64	0xbe95f2d9	-0.2928684
65	0x3f8e4237	1.1113957
66	0x4089ce94	4.306467
67	0xbfc84a94	-1.564776
68	0xbfdc97f2	-1.723387
69	0x401dd57c	2.466155
70	0xbe903845	-0.2816793
71	0x3e9b355b	0.30314144
72	0x404386df	3.0551069
73	0xbfb039bc	-1.3767619
74	0x3fa45448	1.2838221
75	0x3fa00e54	1.2504373
76	0xbe5882cf	-0.2114365
77	0x406da765	3.713342
78	0x40295d9b	2.6463382
79	0x3fae4b89	1.3616802
80	0x3d708903	0.058724415
81	0x3fea69a8	1.8313494
82	0x3fa9b41e	1.3258092
83	0xc072157e	-3.7825618
84	0xbebbe5e5	-0.36698833
85	0xc0e1ea2e	-7.0598364
86	0xbfbf4cdb	-1.494533
87	0xbfea1e89	-1.8290569
88	0x3f9dfa0a	1.2341931
89	0x3fcce7bf	1.6008223
90	0xbf785ea3	-0.97019404
91	0xbe3c9f8d	-0.18420239
92	0x3e1b7194	0.15180045
93	0x3e84582a	0.25848514
94	0xc00a505b	-2.1611545
95	0x402a734f	2.6632879
96	0xbf52ee57	-0.8239493
97	0x4012e8ff	2.295471
98	0xbfc54459	-1.5411483
99	0x3f7b5b31	0.9818602
100	0xbf41c5f9	-0.7569271
101	0x405bde90	3.4354591
102	0xc082238d	-4.0668397
103	0x4091067f	4.532043
104	0xbbed8520	-0.0072485358
105	0xc0429d8e	-3.0408664
106	0x3f10a507	0.5650181
107	0xbf16877e	-0.58800495
108	0xbf911a6e	-1.1336191
109	0x4093b2d0	4.6155777
110	0x3fb7042f	1.4298152
111	0x40e78829	7.235371
112	0xc09882fa	-4.7659883
113	0xbfa1395f	-1.2595633
114	0xc0cb9005	-6.3613305
115	0x3e460311	0.19337107
116	0xbfa52eeb	-1.2904943
117	0xbf4a5e0b	-0.7904975
118	0xc0576fd6	-3.366201
119	0xbfb25b46	-1.3934104
120	0xc00a9a00	-2.1656494
121	0xc08737d5	-4.2255654
122	0xbeb030b8	-0.3441217
123	0x400b8298	2.1798458
124	0x4042b63c	3.0423727
125	0x3fc65d74	1.549727
126	0xbf9b80b6	-1.2148654
127	0x3fca4747	1.5803002
128	0x400bc3c3	2.1838233
129	0xc0a30f59	-5.0956235
130	0x401a0ab3	2.406903
131	0x4089fc2f	4.312034
132	0x3edd5a6d	0.43233052
133	0xc03ee090	-2.9824562
134	0xc023d9f0	-2.5601768
135	0xc0967f6e	-4.7030554
136	0x3f00238d	0.50054246
137	0xbddacdfd	-0.106838204
138	0x3f08a47c	0.53375983
139	0xbf9d4b40	-1.228859
140	0xc03721d0	-2.8614388
141	0x3ff1421c	1.88483
142	0x40e32be7	7.099109
143	0xbf9a9d76	-1.2079303
144	0x3f2515da	0.6448647
145	0xc01e030f	-2.4689367
146	0xc0319323	-2.7746055
147	0x40878540	4.235016
148	0x41027d75	8.155629
149	0xbeb08812	-0.34478813
150	0x4150921b	13.03567
151	0xc04dd37c	-3.216033
152	0xc11abd2a	-9.671183
153	0x409dc214	4.929941
154	0x3ebe7798	0.37200618
155	0xc061b526	-3.5266814
156	0xc0405be9	-3.0056098
157	0xc01d112d	-2.4541733
158	0xc0782e0b	-3.8778102
159	0x40038788	2.0551472
160	0xc001806a	-2.0234628
161	0xc0019816	-2.0249076
162	0xc07fab37	-3.9948251
163	0xbf709ace	-0.93986213
164	0x3f9f2a51	1.2434789
165	0x3e947e78	0.29002738
166	0x40b374cd	5.608008
167	0xbfbcea72	-1.4759047
168	0xc007308e	-2.1123385
169	0x40516b07	3.2721574
170	0x4023cd3a	2.559401
171	0x3d09a678	0.033606023
172	0xbfe8239c	-1.8135867
173	0x3fc40dac	1.5316672
174	0x3e7e18c7	0.2481414
175	0x3f4eddc6	0.8080715
176	0xc092c2b2	-4.5862665
177	0xc0f5d1d7	-7.681865
178	0x3fd87dd0	1.6913395
179	0xbdff23a2	-0.12457968
180	0xc024d473	-2.5754669
181	0xbf0737c9	-0.52819496
182	0xbded02e2	-0.115728155
183	0xc04cb104	-3.1983042
184	0x3fb1b358	1.3882856
185	0x3fd6385c	1.673595
186	0xbfe22d44	-1.7670064
187	0xbfa90536	-1.3204715
188	0xc08428bb	-4.129972
189	0xc060d1b1	-3.5127985
190	0xc037735f	-2.8664167
191	0x40b804a0	5.7505646
192	0xc071a66f	-3.7757833
193	0xc0b0d40b	-5.525884
194	0x401e9b2e	2.4782214
195	0xc0614e65	-3.5204098
196	0x40050974	2.078702
197	0x413a62f5	11.649159
198	0xc130e57f	-11.056029
199	0xbf25e771	-0.64806277
200	0xbf022566	-0.50838315
201	0x3f25e95e	0.64809215
202	0x3f482b59	0.78191143
203	0xc0612980	-3.518158
204	0xbf2709c4	-0.65249276
205	0x40111f02	2.2675176
206	0x401384bc	2.3049765
207	0x3e479e74	0.19494039
208	0x3f9a4b65	1.2054259
209	0x401735f9	2.3626692
210	0xc008f961	-2.1402209
211	0x3d0f831b	0.03503714
212	0x3bc9f050	0.0061626807
213	0x3fb52cf7	1.4154347
214	0xbfe9e43a	-1.8272774
215	0xbf0c7f25	-0.5488151
216	0x4030152d	2.7512925
217	0xbeaaa8f4	-0.33332026
218	0x3f2920ad	0.66065484
219	0x3fa90220	1.3203773
220	0xbf3bdfb3	-0.7338821
221	0x3ebf6cba	0.3738764
222	0xbf4de04d	-0.8042038
223	0x3e3dd5c0	0.1853857
224	0xbfba78dc	-1.4568133
225	0x3f92e033	1.147467
226	0x3f97dbd9	1.1863967
227	0xc06da409	-3.713137
228	0x40050e9a	2.0790162
229	0xc09752f8	-4.728878
230	0x3f8e96fd	1.1139828
231	0xbfcb52d3	-1.5884651
232	0x3d828d3b	0.06374594
233	0x40d791af	6.7365336
234	0x3f8616a6	1.0475662
235	0x3fca3b19	1.5799285
236	0xbfe4e6cc	-1.7882934
237	0x3fc6b9af	1.5525416
238	0xbffa1c82	-1.953995
239	0x3fcd5552	1.6041663
240	0x4012b834	2.2924929
241	0xbeeafbfe	-0.4589538
242	0xbffe25c3	-1.9855274
243	0xbf1867db	-0.5953347
244	0xbf09651a	-0.53669894
245	0xbfb7dde6	-1.4364593
246	0xbf1080e8	-0.56446695
247	0xc0767b5b	-3.851279
248	0x3fd8ea48	1.6946497
249	0xbfabefb5	-1.3432528
250	0xbf049638	-0.51791716
251	0x3fefca12	1.8733542
252	0xbf947874	-1.1599259
253	0xbf5b7486	-0.85724676
254	0x3e75caa9	0.2400309
255	0x3fc0b36c	1.5054755

lstm.bias_ih_l0 f4 [200]
0	0xbf822bb5	-1.0169588
1	0xbece35a5	-0.40275303
2	0x3f23d091	0.6399012
3	0xbe3ba6bf	-0.18325327
4	0xbd13c6ea	-0.03607837
5	0xbe8e7f37	-0.27831432
6	0xbeaead43	-0.34116563
7	0x3e61e836	0.22061238
8	0xbf1991f9	-0.5998836
9	0x3ecbe389	0.39822033
10	0xbe628140	-0.22119617
11	0xbe65e67a	-0.22451201
12	0xbf7f1a54	-0.9964955
13	0xbfd63880	-1.6735992
14	0xbefcc31a	-0.493676
15	0x3e63d179	0.22247876
16	0x3e7955e5	0.24349172
17	0x3f09d7ff	0.5384521
18	0x3e15b359	0.14619197
19	0xbfb7e3ab	-1.4366354
20	0xbfe25a7e	-1.7683866
21	0x3fd2c6b3	1.6466888
22	0xbed9b1d4	-0.42518485
23	0xbd1a519c	-0.037675485
24	0xbeeab651	-0.4584222
25	0x40677215	3.616338
26	0xbf17ca89	-0.5929342
27	0xbe96311d	-0.29334345
28	0x3f8565b1	1.0421659
29	0xbefd9320	-0.4952631
30	0x3f36fda4	0.71480775
31	0xbf94038c	-1.1563582
32	0x3effa60e	0.49931377
33	0xbf3989ee	-0.7247609
34	0x3f5e7415	0.8689588
35	0xbfd562b9	-1.6670753
36	0x3fa9dde8	1.3270845
37	0x400d4947	2.2075975
38	0x3f88e0f2	1.0693648
39	0x3f25dd70	0.6479101
40	0xbf12ffc2	-0.57421505
41	0x3fb0f30f	1.3824176
42	0xbda43eb0	-0.08019769
43	0xbd9e1ca1	-0.07720304
44	0x3f46522e	0.77469146
45	0x3e93630e	0.2878651
46	0x3e041f12	0.12902477
47	0xbfa552f5	-1.2915941
48	0xbe44fa77	-0.1923617
49	0xbe2c39b7	-0.16818891
50	0xbfb3bfd8	-1.4042921
51	0xbff37d24	-1.9022565
52	0xc0676ab4	-3.6158876
53	0x404ef185	3.2334912
54	0xc003ac6c	-2.0573988
55	0x3e70d077	0.23517023
56	0xc05765b4	-3.3655825
57	0xc01fc1dc	-2.4962072
58	0xbf03d50b	-0.5149695
59	0xbf7c7c13	-0.9862682
60	0xc0673214	-3.6124315
61	0xbfca02e4	-1.5782132
62	0xc000de75	-2.0135777
63	0xc01bc040	-2.433609
64	0xbe9d03e5	-0.30667034
65	0xbfc958ad	-1.5730187
66	0x3ec06cdf	0.37583062
67	0xbfa245df	-1.2677573
68	0xc0055b2e	-2.0836902
69	0xbf433546	-0.76253164
70	0x3f8c76ac	1.0973716
71	0xc026d164	-2.6065302
72	0xbf918e12	-1.1371481
73	0xc0934adf	-4.6028895
74	0xbda1a059	-0.07891912
75	0xc00f3892	-2.2378278
76	0xbffbb159	-1.9663497
77	0xc020bc3d	-2.5114892
78	0xbfd8f6d0	-1.6950321
79	0xbe3cec53	-0.18449526
80	0xbfe8f434	-1.8199525
81	0xc040007e	-3.00003
82	0xc02d98ab	-2.712443
83	0xbf98e1df	-1.194393
84	0xc00750ba	-2.1143022
85	0xc00c8624	-2.1956873
86	0xbf9769d5	-1.1829172
87	0xc08f1bee	-4.4721594
88	0xbf76de77	-0.96433204
89	0xbebece66	-0.37266845
90	0xbf4c1ef2	-0.7973472
91	0xbf7f2055	-0.9965871
92	0xc0506448	-3.2561207
93	0xc01164c2	-2.2717748
94	0xbfc4e5f9	-1.5382682
95	0xbd1a9900	-0.03774357
96	0xc05e98fd	-3.4780877
97	0xc081b8cb	-4.0538077
98	0xbf778ce5	-0.96699363
99	0xbf31636e	-0.6929234
100	0xbeee3008	-0.4652102
101	0xbfc46e1d	-1.5346104
102	0x40822533	4.067041
103	0xc0ccb862	-6.3975077
104	0x3e79face	0.2441208
105	0xbfe82c79	-1.8138572
106	0xbfa72240	-1.3057327
107	0xbf8499cc	-1.0359435
108	0xbfa3139e	-1.2740362
109	0xc00f0556	-2.2347007
110	0x3fe43fcd	1.783197
111	0x3f35a3a0	0.70952797
112	0xc00c9786	-2.1967483
113	0x400080e6	2.0078673
114	0xbf9ecd23	-1.2406353
115	0x3f831de9	1.0243503
116	0x3f5e3f1e	0.8681506
117	0x3f380f0f	0.7189798
118	0xbf4fb68d	-0.81137925
119	0xbe80b1cf	-0.25135657
120	0xc0073fff	-2.113281
121	0x3f313cf8	0.69233656
122	0xbf354a45	-0.7081645
123	0x3f01de4d	0.5072983
124	0x402b98b1	2.6811945
125	0xbf1caa37	-0.6119723
126	0xbfb9913c	-1.4497447
127	0xbf83b307	-1.028901
128	0xbf9807ce	-1.1877382
129	0xc00e4597	-2.2229974
130	0x3e7dbdd5	0.24779446
131	0xc0034226	-2.0509124
132	0xbd9bc406	-0.07605748
133	0xc071144e	-3.7668643
134	0x3e614f96	0.22003016
135	0xbfbfb982	-1.4978487
136	0x3fb9c819	1.451419
137	0x3f3c719a	0.7361084
138	0x3e912996	0.2835204
139	0xbf836386	-1.0264747
140	0xbfb5335c	-1.4156299
141	0x4015f3b8	2.3430004
142	0xbf2e8038	-0.68164396
143	0x3fac298d	1.345018
144	0x40017e83	2.0233467
145	0x3faea834	1.3645082
146	0xbf87e6b4	-1.061728
147	0x3f5cca36	0.8624605
148	0xc02883f3	-2.6330535
149	0xbd7bc2e5	-0.061465163
150	0xbfc82d98	-1.5638914
151	0xbe55c52d	-0.20875998
152	0xc01dc3dc	-2.4650793
153	0xbfd53cdb	-1.6659197
154	0x3f90a09c	1.1299014
155	0x3f1ca069	0.61182266
156	0xc016f191	-2.358494
157	0x3fc0f31d	1.5074192
158	0xbf8ce8c1	-1.1008531
159	0xbfe671bb	-1.8003458
160	0xbfa5b8d0	-1.2947025
161	0xbfeff31c	-1.8746066
162	0xbfa296d2	-1.2702277
163	0xbf3c22b1	-0.73490435
164	0xbfd2fcc9	-1.6483394
165	0xbfa6dd17	-1.3036221
166	0xbf2e310d	-0.68043596
167	0x3df6b080	0.120453835
168	0x3e6eef5d	0.23333497
169	0xbe340c11	-0.17582728
170	0xbf2a562e	-0.6653775
171	0xbf0f2653	-0.55917853
172	0xc000692f	-2.00642
173	0x401d34d8	2.4563503
174	0xbfca3bd3	-1.5799507
175	0xbf628aa9	-0.8849283
176	0x3fb5eb0e	1.4212358
177	0xbf94da1c	-1.1629062
178	0xbffb9cf3	-1.9657272
179	0xc02043cc	-2.504138
180	0x3f3ee61c	0.7456987
181	0xbfa2b57c	-1.2711635
182	0x3efcab8a	0.49349624
183	0xc0175455	-2.3645222
184	0x3f25efa6	0.648188
185	0xbf2f368b	-0.684426
186	0xbf6d14c4	-0.9260981
187	0xbd3048c9	-0.043038163
188	0xbfa2be31	-1.2714292
189	0xbeba88b2	-0.36432415
190	0xbf730052	-0.94922364
191	0xbfea9455	-1.8326517
192	0xbea7ec8e	-0.32797664
193	0xbe1a3002	-0.15057376
194	0xbe862c1f	-0.26205537
195	0xbf49d249	-0.78836495
196	0xbf761a05	-0.9613345
197	0xbde29154	-0.110628754
198	0xc01aa3f9	-2.416258
199	0xbfc3bdaa	-1.5292256

lstm.bias_hh_l0 f4 [200]
0	0xbf837bb8	-1.0272131
1	0xbe32ba4b	-0.17453878
2	0x3f2befe4	0.6716292
3	0xbe7b53db	-0.24543707
4	0x3de01484	0.10941413
5	0xbeb75526	-0.3580715
6	0xbe855d3e	-0.260477
7	0x3bd7f21a	0.00659014
8	0xbeadd20f	-0.33949324
9	0x3f1b42c9	0.6064878
10	0xbe0b787b	-0.13620178
11	0xbe0b3c5c	-0.13597244
12	0xbf96e7d9	-1.1789504
13	0xbfc2bedd	-1.5214497
14	0xbeee5d84	-0.46555722
15	0x3eb5e884	0.35528958
16	0x3e9a00b1	0.30078653
17	0x3f2fd32b	0.6868159
18	0x3e560389	0.20899786
19	0xbfa0ebdd	-1.257198
20	0xbfd06b43	-1.6282734
21	0x3fd545bf	1.666191
22	0xbf00c499	-0.50299984
23	0xbb9182b8	-0.0044406317
24	0xbed28148	-0.4111426
25	0x40595ed2	3.3964124
26	0xbef615f1	-0.48063615
27	0xbebef99f	-0.3729982
28	0x3f69ed4e	0.91377723
29	0xbf04216a	-0.51613486
30	0x3f1d2412	0.61383164
31	0xbf9caa6e	-1.2239511
32	0x3f0778db	0.52918786
33	0xbf45cbc8	-0.7726407
34	0x3f373595	0.71566135
35	0xbfd10963	-1.633099
36	0x3fb63a50	1.4236546
37	0x401ba436	2.4318976
38	0x3f790ed0	0.9728823
39	0x3ee96e44	0.45591938
40	0xbf007129	-0.5017267
41	0x3f9fdadf	1.2488669
42	0xbe2e0298	-0.16993177
43	0xbddc0377	-0.10742848
44	0x3f18c73e	0.5967902
45	0x3e6ab578	0.22920787
46	0x3e50b863	0.20382838
47	0xbf9a8151	-1.2070714
48	0xbe3e4c3f	-0.18583773
49	0xbe1af5e0	-0.15132856
50	0xbfaa910c	-1.3325515
51	0xc0054cf2	-2.0828214
52	0xc0688bb5	-3.633527
53	0x40489f37	3.1347177
54	0xbff990eb	-1.949735
55	0x3eefb78c	0.46819723
56	0xc05d5fed	-3.4589798
57	0xc0228843	-2.5395668
58	0xbf155d9c	-0.5834596
59	0xbf911954	-1.1335855
60	0xc060eecc	-3.514575
61	0xbfc7b6b5	-1.5602633
62	0xc00bdabd	-2.1852257
63	0xc01b546e	-2.4270282
64	0xbea45ffb	-0.32104477
65	0xbfcdd94e	-1.6081941
66	0x3eb59ab3	0.3546959
67	0xbf911cfa	-1.1336968
68	0xc00466d3	-2.068776
69	0xbf351ac7	-0.70743984
70	0x3f91d33e	1.1392591
71	0xc022ff02	-2.5468144
72	0xbf6f84ce	-0.9356202
73	0xc0953bd6	-4.663554
74	0xbe15a743	-0.14614587
75	0xc01f5cbe	-2.4900355
76	0xc0043114	-2.0654955
77	0xc01b664f	-2.4281194
78	0xbfde7868	-1.7380495
79	0xbce85485	-0.028360615
80	0xbfe55ae5	-1.7918364
81	0xc03dc838	-2.9653454
82	0xc032b66d	-2.7923844
83	0xbfb77278	-1.4331808
84	0xc015eda9	-2.3426306
85	0xc00feb75	-2.2487462
86	0xbf93321e	-1.149967
87	0xc0918876	-4.547908
88	0xbf7b2fcd	-0.98119813
89	0xbec979ff	-0.39350888
90	0xbf5f3a9f	-0.87198824
91	0xbf5758d1	-0.841199
92	0xc05254eb	-3.286433
93	0xc00dfa60	-2.2184067
94	0xbfa9db5a	-1.3270066
95	0xbe792846	-0.2433177
96	0xc05c9e15	-3.4471486
97	0xc07a5adb	-3.9117954
98	0xbf8ec7c7	-1.1154717
99	0xbf5030e2	-0.8132459
100	0xbedc3a73	-0.43013343
101	0xbfce6afd	-1.61264
102	0x40837b10	4.1087723
103	0xc0d0de7f	-6.52716
104	0x3eaa8a49	0.33308628
105	0xbfda6d9d	-1.7064701
106	0xbfb9c92a	-1.4514515
107	0xbf922612	-1.1417868
108	0xbf93d82a	-1.1550343
109	0xc0148551	-2.320637
110	0x3ffe5b41	1.9871598
111	0x3f194fe3	0.5988752
112	0xc00cd7ad	-2.2006638
113	0x400eb0c6	2.2295394
114	0xbfa51fe7	-1.2900361
115	0x3f754519	0.9580856
116	0x3f3c0777	0.7344889
117	0x3f6a3665	0.9148925
118	0xbf1b6d1d	-0.6071337
119	0xbe4c76a9	-0.1996714
120	0xbffc8b74	-1.9730058
121	0x3f2c2903	0.6725008
122	0xbf5157ee	-0.81774795
123	0x3ee0a42c	0.43875253
124	0x4020b97a	2.5113206
125	0xbefd542b	-0.49478278
126	0xbfb0f325	-1.3824202
127	0xbf7df6c5	-0.99204665
128	0xbfa45928	-1.2839708
129	0xc0201116	-2.5010428
130	0x3d90b36c	0.07065472
131	0xc001504a	-2.0205255
132	0xbe4bcf72	-0.19903353
133	0xc06e40e8	-3.7227116
134	0x3e8d049a	0.27542573
135	0xbfc28f99	-1.5200073
136	0x3fb17dec	1.3866553
137	0x3f439136	0.7639345
138	0x3ee3968b	0.44450793
139	0xbf7333a1	-0.95000654
140	0xbfb8c247	-1.4434289
141	0x401891ed	2.3839066
142	0xbf1c695e	-0.6109828
143	0x3fb8d836	1.4440982
144	0x3ffe1c1a	1.9852326
145	0x3f9f668a	1.2453167
146	0xbf8b0a0e	-1.0862443
147	0x3f871e7d	1.0556179
148	0xc01fd4ac	-2.4973555
149	0xbe004287	-0.12525378
150	0xbfcc33f7	-1.5953358
151	0xbdfadec0	-0.122495174
152	0xc026d76a	-2.6068978
153	0xbfc832b8	-1.5640478
154	0x3f9a7b1d	1.2068821
155	0x3f3d7853	0.74011725
156	0xc00fe4f5	-2.2483494
157	0x3fc5a2cb	1.5440305
158	0xbf8bb2ef	-1.0913981
159	0xbfdb84b1	-1.7149869
160	0xbf949788	-1.1608744
161	0xc004199e	-2.0640635
162	0xbf90d917	-1.131625
163	0xbf1a039f	-0.60161775
164	0xbfd7a46f	-1.6847056
165	0xbfa87c29	-1.3162891
166	0xbf3b9987	-0.7328114
167	0xbdca6529	-0.09882576
168	0x3e5aa42b	0.21351688
169	0xbe803a13	-0.25044307
170	0xbf0c5e46	-0.5483135
171	0xbf262b3e	-0.6490973
172	0xc0034f9f	-2.0517347
173	0x401e45c2	2.4730077
174	0xbfe1bb1b	-1.7635225
175	0xbf6de754	-0.92931104
176	0x3fa7de3a	1.3114693
177	0xbf997fb8	-1.1992102
178	0xbffc36ba	-1.9704201
179	0xc01e398b	-2.4722621
180	0x3f75e6a0	0.9605503
181	0xbfb3bf8a	-1.4042828
182	0x3f13377c	0.5750654
183	0xc011d826	-2.2788177
184	0x3f470dfa	0.777557
185	0xbf0aabb9	-0.5416828
186	0xbf8e8080	-1.1132965
187	0xbdfd01f5	-0.12353889
188	0xbf959d5c	-1.1688647
189	0xbec909ec	-0.39265382
190	0xbf9b819d	-1.214893
191	0xbfe1cc2b	-1.7640432
192	0xbed9a7a5	-0.42510715
193	0xbe8187b3	-0.25298843
194	0xbef3f959	-0.47651175
195	0xbf169066	-0.58814085
196	0xbf47067a	-0.7774426
197	0xbe35b88a	-0.17746177
198	0xc01b6908	-2.4282856
199	0xbfb36a10	-1.4016743

lstm.weight_ih_l1 f4 [200, 50]
0	0xbf2da24e	-0.6782578
1	0x3e46512f	0.19366907
2	0xbf73d610	-0.9524851
3	0x3f9b2d96	1.2123287
4	0xbf69862b	-0.9122035
5	0xbd8f19e4	-0.0698736
6	0x3d474868	0.048653036
7	0x3b8ee12e	0.0043603396
8	0xbb5180e2	-0.003196769
9	0xbd33ef1d	-0.043929208
10	0xbef433de	-0.47695822
11	0xbea453b5	-0.32095113
12	0xbea7a5a3	-0.32743558
13	0xbe388f34	-0.18023378
14	0x3e86a8b3	0.26300582
15	0x3eb3845f	0.3506193
16	0x3e1f3d41	0.1555071
17	0xbf0a8c72	-0.5412055
18	0xbe4d7a4c	-0.20066184
19	0x3e4cda84	0.20005232
20	0x3da787bc	0.08180186
21	0xbf4a9f9d	-0.791498
22	0x3e87b07e	0.2650184
23	0xbfd2d5bd	-1.6471478
24	0x3e035463	0.1282516
25	0xbf838adc	-1.0276752
26	0x3ec4d6e8	0.3844521
27	0x3c1da923	0.009622845
28	0x3f2f4a0c	0.6847236
29	0x3f9427d8	1.1574659
30	0x3e82523a	0.2545336
31	0x3eeb086c	0.45904863
32	0x3eced572	0.4039722
33	0x3f67514d	0.9035843
34	0xbd2de059	-0.042450283
35	0x3e6974ae	0.22798416
36	0x3dd46a3e	0.103718266
37	0xbe7a390d	-0.24435826
38	0x3f70f215	0.9411939
39	0xbf2382cf	-0.63871473
40	0x3ebdcb9c	0.37069404
41	0x3d92216e	0.071352825
42	0xbd5f0534	-0.05444832
43	0xba608b6a	-0.0008565696
44	0xbeb5b14e	-0.35486835
45	0x3d9e66ed	0.07734475
46	0xbe0bca63	-0.13651423
47	0x3f8d51b9	1.1040565
48	0x3f81216c	1.0088325
49	0x3e800564	0.25004113
50	0x3f023051	0.50854975
51	0x3df30709	0.11866576
52	0x400de82c	2.2172956
53	0xc0b482a4	-5.6409473
54	0x3e92507c	0.2857703
55	0x3d126d80	0.03574896
56	0xc012ea35	-2.2955449
57	0xbe36c1f5	-0.17847426
58	0x3d38bdbe	0.045102827
59	0x40493a89	3.1441977
60	0x4011b275	2.2765172
61	0xbf47c7e4	-0.78039384
62	0xbd25384a	-0.040336885
63	0xbe76e837	-0.2411202
64	0x3fa971e4	1.3237882
65	0x3e8a7555	0.27042642
66	0x3dace5bb	0.08442255
67	0x3e086df6	0.13323197
68	0x3e52aec9	0.20574488
69	0x3e286d19	0.16447867
70	0xbdc7677b	-0.09736534
71	0xbe728e35	-0.2368706
72	0xbee9333e	-0.45546907
73	0xbe6f639e	-0.23377845
74	0xbe15e425	-0.14637811
75	0x3fb2314d	1.3921295
76	0xbea02039	-0.31274584
77	0xbdb29f6e	-0.08721815
78	0x3e8ea814	0.27862608
79	0xbfe05722	-1.7526591
80	0x3dcc4d66	0.099757
81	0xbfc815f7	-1.5631703
82	0x3e9a9e77	0.30199024
83	0xc0186f2f	-2.381786
84	0x3c9264cc	0.01787033
85	0x3ea62618	0.32450938
86	0xbe818709	-0.25298336
87	0x3d0089c4	0.031381384
88	0x3f1e4657	0.6182608
89	0xbe05263a	-0.13002864
90	0x3e6d1ca2	0.23155454
91	0x3d617ac0	0.055048704
92	0x3d64231d	0.05569755
93	0xbe4cbe72	-0.19994524
94	0x3e5aed45	0.21379574
95	0x3d1d02c0	0.0383327
96	0x3e9e2ff5	0.30895963
97	0xc0020622	-2.0316243
98	0xc03315af	-2.7981985
99	0xbe2f9a81	-0.17148782
100	0xbe39f7f2	-0.1816099
101	0x3f2b6f15	0.6696637
102	0xc077694c	-3.8658018
103	0x41837172	16.430393
104	0xbf106188	-0.5639882
105	0x3e91248d	0.283482
106	0x3fd8f760	1.6950493
107	0xbe2e3211	-0.17011286
108	0x3e4ae128	0.19812453
109	0xbf579795	-0.8421567
110	0xc00a76b4	-2.163495
111	0xbd666e99	-0.056257818
112	0xba8b05d2	-0.0010606593
113	0xbed33d5b	-0.41257748
114	0xbdac3d50	-0.08410132
115	0xbe23e54a	-0.16005436
116	0x3f5a7403	0.8533327
117	0x3c871f4d	0.016494418
118	0x3ef379b8	0.47553802
119	0x3e77f056	0.24212775
120	0xbe2eb991	-0.17062975
121	0xbf08ad8c	-0.5338981
122	0xbd9092ac	-0.070592254
123	0x3dcdb908	0.100450575
124	0x3ecbc6b8	0.39800048
125	0xbf8d9409	-1.1060802
126	0xbf35362c	-0.70785785
127	0x3d44b2f1	0.048022214
128	0x3eb1a884	0.3469888
129	0x3e900c22	0.28134257
130	0xbf10b2b9	-0.5652271
131	0xbeb97f9d	-0.36230174
132	0xbe4cf6d0	-0.20016026
133	0x40ab2d22	5.3492594
134	0x3ece7552	0.40323883
135	0xbe83558b	-0.25651202
136	0xbd4d2651	-0.05008537
137	0x3e90fba3	0.28316984
138	0xbe823a0a	-0.25434905
139	0x3dc2a070	0.09503257
140	0x3ef7affa	0.48376447
141	0xbe855462	-0.2604094
142	0xbeeb1d75	-0.4592091
143	0xbf8c847b	-1.097793
144	0xbfd0e419	-1.631961
145	0xbf45c3e9	-0.7725206
146	0xbe500ce4	-0.20317417
147	0x3f4963f9	0.7866817
148	0x41d7a7ff	26.95703
149	0xbebd2653	-0.36943302
150	0xbd93a362	-0.07208897
151	0xbd2b3ac6	-0.041804098
152	0x3fca18dd	1.5788838
153	0xbf968bde	-1.1761434
154	0xbf43a083	-0.76416796
155	0xbd95c0b8	-0.07312149
156	0xbff7f17a	-1.9370568
157	0x3dee27ae	0.11628662
158	0x3d89e46c	0.06733021
159	0x4012369d	2.2845833
160	0x3fe88b48	1.8167505
161	0x3ea937a7	0.33050272
162	0xbedd948d	-0.43277398
163	0xbda6f952	-0.08153023
164	0x3f07d7ff	0.5306396
165	0xbdf72113	-0.12066855
166	0x3e20c1c3	0.15698914
167	0xbda1735e	-0.07883333
168	0x3ed249c0	0.41071892
169	0x3e8de8a8	0.27716565
170	0xbe5bf09e	-0.21478507
171	0xbd3f18c7	-0.04665449
172	0x3dc46ed6	0.09591453
173	0xbf7890c0	-0.9709587
174	0xc0d879bd	-6.7648606
175	0xbf547b58	-0.8300071
176	0x3dc76d11	0.097376
177	0x3f3d992d	0.7406185
178	0x3c317abd	0.010832486
179	0xbf70fb37	-0.94133323
180	0x3ab8a765	0.0014087973
181	0xbe83f927	-0.25776026
182	0xbd7d9558	-0.061910003
183	0xbf704a61	-0.93863493
184	0x3bb55652	0.005533972
185	0xbf251f21	-0.64500624
186	0x3d398083	0.045288574
187	0x3e543140	0.20721912
188	0x3e3e9660	0.18612051
189	0x3f3fb9ac	0.7489269
190	0x3d07f4db	0.033192497
191	0xbdb62a33	-0.088947676
192	0x40ca8a75	6.3294015
193	0x3db4ba02	0.08824541
194	0x3de0f1ce	0.109836206
195	0xbe11e3ad	-0.14247008
196	0x3ee96022	0.45581156
197	0xbfa6451f	-1.2989844
198	0xbfd1e27f	-1.6397246
199	0xbe970b85	-0.29500976
200	0x3ebf3531	0.3734527
201	0x3e66e1f0	0.22547126
202	0x3e421b5d	0.18955751
203	0xbb28e3a2	-0.0025770445
204	0x3eff10cb	0.498175
205	0x3e47c75a	0.1950964
206	0xbeb567f9	-0.35430887
207	0xbe9867bb	-0.2976664
208	0x3d8801ba	0.06640954
209	0xbe8e1a33	-0.27754363
210	0x3f467d13	0.775346
211	0xbeddd1c6	-0.43324107
212	0xbfc71f56	-1.5556438
213	0xbe93a7cf	-0.28838965
214	0x3eb9acca	0.3626464
215	0x3dac842e	0.08423649
216	0x3f0c7c53	0.54877204
217	0xbf3621cd	-0.71145326
218	0xbed4054a	-0.41410285
219	0xbeb68929	-0.3565152
220	0xbe2be1d4	-0.16785365
221	0x3eccf8c6	0.4003355
222	0x3d6b4b05	0.05744459
223	0x3f75c06e	0.9599675
224	0x3f8e1ed3	1.1103157
225	0x3ecbd2dd	0.39809313
226	0xbfae73b4	-1.362906
227	0xbf856326	-1.0420883
228	0xbf08c2f4	-0.53422475
229	0x3dc09464	0.09403303
230	0x3ef8a057	0.4855983
231	0xbf4b443f	-0.7940101
232	0x3d27638a	0.040866412
233	0xbdee23a7	-0.11627894
234	0x3e1f5026	0.15557918
235	0xbf9c2db7	-1.2201451
236	0xbe8f5c93	-0.28000316
237	0xbe8aacda	-0.27085
238	0x3dfc9d7e	0.12334727
239	0x3e303c35	0.17210467
240	0x3f13a834	0.5767853
241	0x3dc1a8eb	0.09456047
242	0xbef144f3	-0.47122917
243	0x3e20392f	0.15646814
244	0xbe2e0683	-0.16994672
245	0xbdc38bb6	-0.09548132
246	0xbf4cd087	-0.8000569
247	0xbfae7b59	-1.3631393
248	0xbecb7f36	-0.39745492
249	0xbebb45be	-0.36576647
250	0x3ebf9313	0.37416896
251	0x3e44d7b8	0.19222915
252	0xbc31575d	-0.010824052
253	0xbdb84608	-0.089977324
254	0x3f23d7df	0.6400127
255	0x3edef789	0.4354823

lstm.weight_hh_l1 f4 [200, 50]
0	0x3f24c9e2	0.6437055
1	0xc064e2e1	-3.5763476
2	0xc0daa5b7	-6.832729
3	0xbfd3fe1f	-1.6561927
4	0xc03e2aca	-2.9713616
5	0x3f8c4568	1.0958681
6	0x3fc097cd	1.5046326
7	0xbf04a565	-0.5181487
8	0x40e42ff9	7.130856
9	0xbfb6266d	-1.4230477
10	0xbfe6b293	-1.8023247
11	0xbfcad45b	-1.5846056
12	0x3ff5d3b1	1.9205228
13	0xbf6367b1	-0.88830096
14	0xbe5e9250	-0.21735501
15	0x409b9c20	4.862808
16	0xc0528a58	-3.2896938
17	0x40282329	2.627146
18	0x401f143a	2.4856095
19	0xc032584d	-2.7866395
20	0xbf9bd190	-1.2173328
21	0xc12b7818	-10.71682
22	0xbf75a09e	-0.9594821
23	0x3f0a8521	0.5410939
24	0xc070a0f1	-3.759823
25	0xbfb70d5d	-1.4300953
26	0xc0415bba	-3.0212235
27	0xbff45201	-1.9087526
28	0xbe80ccb7	-0.25156185
29	0xbfe51d62	-1.7899592
30	0xbf3fab25	-0.7487052
31	0x402cd3eb	2.7004344
32	0x3f8e1ac7	1.1101922
33	0x3f8f4784	1.11937
34	0x3f92605a	1.1435654
35	0xbff60bfa	-1.9222405
36	0xbe371b6f	-0.17881559
37	0xc078625e	-3.8810039
38	0xbff64fb6	-1.9243076
39	0xbf880a75	-1.0628191
40	0x3ea3af3f	0.3196964
41	0xbf20f726	-0.6287712
42	0xbf3debe3	-0.7418806
43	0xbf505cb6	-0.81391466
44	0x3ea418f9	0.32050303
45	0xbfd031f8	-1.6265249
46	0xbebfc5a7	-0.37455484
47	0xbf3da0ef	-0.7407369
48	0x40168264	2.3517084
49	0x408691e8	4.205311
50	0x40210fb2	2.516583
51	0xc09258ec	-4.5733547
52	0x3f5b116c	0.8557346
53	0xbfa393d6	-1.2779491
54	0xbfafb5e1	-1.372738
55	0xbef0ce76	-0.47032517
56	0x4004de54	2.0760698
57	0xbf9639ab	-1.1736349
58	0x3f88c93d	1.0686413
59	0xbd0516e6	-0.03249254
60	0x3ee842e7	0.45363542
61	0xc0803115	-4.0059915
62	0x3fabc7b3	1.3420318
63	0x40794b9e	3.8952403
64	0xbfa08e5a	-1.2543442
65	0xc005973c	-2.0873556
66	0x3e8e70d1	0.27820447
67	0x4085b447	4.1782565
68	0xbf68b752	-0.90904725
69	0xc001df0c	-2.0292387
70	0x3f0d8bbf	0.5529136
71	0xc0d333bb	-6.6000648
72	0xbf2388a9	-0.638804
73	0x40903abb	4.5071692
74	0xbfbd1b7d	-1.4774014
75	0x3febb197	1.8413571
76	0x3ec986cf	0.39360663
77	0x3f42d9c5	0.7611354
78	0x3d89e6bf	0.067334644
79	0xc05c8854	-3.4458208
80	0x3f1813e2	0.5940534
81	0xc0677f93	-3.6171615
82	0xbf56bafe	-0.8387908
83	0xbf57df73	-0.8432533
84	0x400a26dd	2.158622
85	0xbf187fbe	-0.5956992
86	0xbeb9c33e	-0.3628177
87	0x3f4a8c14	0.7911999
88	0xc0548eca	-3.3212152
89	0xbfa1a9aa	-1.2629902
90	0x3fb0610a	1.3779614
91	0x407c0206	3.9376235
92	0x3f88cc21	1.0687295
93	0x3f572eda	0.84055865
94	0x40099542	2.149735
95	0xc00ede94	-2.232335
96	0xbf801ce4	-1.0008817
97	0xbe1a15f6	-0.1504744
98	0xbfc1256c	-1.5089545
99	0x3e45120d	0.19245167
100	0xbe94a6e0	-0.29033566
101	0x3b5be66d	0.0033554093
102	0xbf0fd589	-0.56185204
103	0xbf85deee	-1.0458658
104	0x3e1aff46	0.15136442
105	0xbfc26203	-1.5186161
106	0x3f6a02cf	0.91410536
107	0x3f318565	0.6934417
108	0x3eb43c68	0.35202336
109	0x3f4959cd	0.7865265
110	0xbfeea28d	-1.8643357
111	0xbfb4862e	-1.4103448
112	0xbf8cfd51	-1.1014806
113	0xc0adf450	-5.4360733
114	0x3fefc0ee	1.8730752
115	0x400aff46	2.1718307
116	0x3fbccc2a	1.4749806
117	0x4016b6ed	2.354915
118	0xbebb7fc0	-0.36620903
119	0x3f1099ac	0.56484485
120	0x4124d75b	10.302577
121	0xc064a174	-3.5723543
122	0x3f53e5bb	0.82772416
123	0x3ee8acdb	0.45444378
124	0x3fd3310c	1.6499343
125	0x3f75e431	0.9605132
126	0x3f372599	0.71541744
127	0x40997816	4.795909
128	0xbfca50bb	-1.5805887
129	0x40686959	3.63143
130	0x3fe1246f	1.7589244
131	0x3ed51293	0.41615734
132	0x4036bad6	2.8551536
133	0xbf700ec2	-0.9377252
134	0x4090ce67	4.5251956
135	0x3e32cb42	0.17460349
136	0xc001b39d	-2.0265877
137	0x40856398	4.1684074
138	0x3f79e22a	0.97610724
139	0xbff622ec	-1.9229407
140	0x3ff1c3c0	1.8887863
141	0xc00a51a8	-2.161234
142	0x3e93339d	0.28750315
143	0xbd8a6923	-0.067583345
144	0xbf6ec635	-0.9327119
145	0x3eb485af	0.35258242
146	0x3d984683	0.07435324
147	0xbddfbfaf	-0.109252326
148	0x3d173f97	0.03692588
149	0xbeac9211	-0.3370519
150	0xbeaf6530	-0.34256887
151	0xbe66c3eb	-0.22535674
152	0xbed14124	-0.4087001
153	0xbf1829c7	-0.5943875
154	0xbe963172	-0.293346
155	0xbed4c33f	-0.4155521
156	0x3d319b14	0.043360785
157	0xbdb2cee7	-0.0873087
158	0xbf8da614	-1.1066308
159	0x3f6f233f	0.93413156
160	0x3f38cc01	0.72186285
161	0x3e76083e	0.24026582
162	0xbe99fffc	-0.30078113
163	0xbf8132f4	-1.0093675
164	0xbe9a4e28	-0.30137753
165	0xbe103489	-0.1408254
166	0x3eb76c61	0.35824874
167	0xc0045360	-2.0675888
168	0xbd4bead0	-0.04978448
169	0xc006c642	-2.1058507
170	0xbf213b19	-0.629808
171	0xc029a25d	-2.6505349
172	0xbe6075a9	-0.21919884
173	0x3f7571b8	0.95876646
174	0x403bc732	2.934033
175	0xbae4f1fc	-0.0017467136
176	0xbf4fa457	-0.8111014
177	0xbf7da3f3	-0.9907829
178	0x404beeab	3.1864421
179	0x3e09bc49	0.13450731
180	0xc0042f07	-2.0653703
181	0x3ec3db5d	0.38253298
182	0x3f375a03	0.7162172
183	0xbed8e83f	-0.4236469
184	0x3f22ae19	0.635469
185	0xbf4416b0	-0.7659712
186	0x3f058fca	0.5217253
187	0x3f1fa4b1	0.62360674
188	0xbee086d1	-0.43852857
189	0xbfbd8d50	-1.480875
190	0x3e3c0f9f	0.18365334
191	0x3f994fb9	1.1977454
192	0x3f02ea0a	0.51138365
193	0xc0016f7e	-2.02243
194	0xbf56c7fe	-0.83898914
195	0xbe3ba9d1	-0.18326499
196	0xbf02b889	-0.5106283
197	0xbd9f25fc	-0.07770917
198	0xbea5d8b0	-0.32391882
199	0xbf933086	-1.1499183
200	0xbe6f1f7f	-0.23351859
201	0x3f86bd9b	1.0526613
202	0xbebeeaac	-0.37288415
203	0xbf8741c7	-1.0566949
204	0xbf709eb8	-0.93992186
205	0x3f98592a	1.1902211
206	0x3fd8d43c	1.6939769
207	0xc013b1b9	-2.3077223
208	0x3eb0be9b	0.3452042
209	0xbf297822	-0.66198933
210	0xbfa2cc6c	-1.2718635
211	0xc01f3ad0	-2.4879646
212	0xbf62df40	-0.886219
213	0x40124f92	2.2861066
214	0xc008665e	-2.131248
215	0x3f940f7d	1.1567227
216	0xbf45bed4	-0.77244306
217	0xc085daa1	-4.182938
218	0xbf369749	-0.7132459
219	0xbf9844b3	-1.1895965
220	0xbfb032c4	-1.3765492
221	0x42025190	32.57965
222	0x3f655d3c	0.8959539
223	0x4027f478	2.6242962
224	0xbf8a413c	-1.0801158
225	0xc00bc8e5	-2.1841366
226	0xbfba92e8	-1.4576082
227	0x3f46004b	0.773442
228	0xbf90dd33	-1.1317505
229	0x3ebeec36	0.3728959
230	0x40853bd1	4.163552
231	0xbf8c1860	-1.0944939
232	0xc0028993	-2.0396469
233	0x3fad6875	1.3547503
234	0xbfe776a3	-1.808308
235	0x3efbbf36	0.4916932
236	0x3e0ec00c	0.13940448
237	0x3e9c9f51	0.305903
238	0xbf2e7813	-0.6815197
239	0x4049216a	3.1426644
240	0xbfe6f7a3	-1.8044323
241	0xbfdc1c20	-1.7196083
242	0x3f830468	1.023572
243	0x3db3a84b	0.08772334
244	0xbedf8691	-0.43657354
245	0x3f5139e9	0.8172899
246	0xc0084b69	-2.1296027
247	0xbff51d25	-1.9149519
248	0xc01aa87d	-2.4165337
249	0xbf4fc408	-0.81158495
250	0x3e4b22a2	0.1983743
251	0xbf576a20	-0.8414631
252	0xbf9fe857	-1.249278
253	0xbf0fadea	-0.56124747
254	0x3ee253ee	0.44204658
255	0xbf168c90	-0.5880823

lstm.bias_ih_l1 f4 [200]
0	0xbfb74533	-1.4317993
1	0xbe0365bb	-0.12831776
2	0xbfc84ede	-1.5649068
3	0xbfc9a7a6	-1.5754287
4	0x3e4826a8	0.19545996
5	0xbf2c7c5d	-0.67377263
6	0xbf909007	-1.1293954
7	0xbfcd8791	-1.6056997
8	0x3fa1f220	1.2652016
9	0xbfa63f60	-1.298809
10	0xbf9d817d	-1.2305142
11	0xbfb62812	-1.4230978
12	0xc0374f37	-2.86421
13	0xbf7f5756	-0.9974264
14	0xbfbdfdb1	-1.4843045
15	0xbfad6bc0	-1.3548508
16	0xbfdc140f	-1.7193621
17	0xbfe49e17	-1.7860745
18	0xbfa2fb98	-1.273303
19	0xbfc07c4e	-1.5037935
20	0x3f2891e3	0.65847605
21	0xbd48b4d9	-0.049000595
22	0xbf57b4fc	-0.84260535
23	0xbf92c69f	-1.1466864
24	0xbfd1f89f	-1.6403998
25	0xbfdbc927	-1.7170762
26	0xbfc2f22f	-1.5230159
27	0xbfdfe50c	-1.7491775
28	0xbf9c9dc4	-1.2235646
29	0xbfb58458	-1.4181013
30	0xbfd3e451	-1.6554052
31	0xc01ccd7d	-2.450042
32	0xbfb4589b	-1.408954
33	0x3d975a87	0.073903136
34	0xbfc78ad5	-1.5589243
35	0x3f096f5e	0.5368556
36	0xbfa2f316	-1.2730434
37	0xc00e9e6e	-2.2284198
38	0xbfe85f88	-1.8154154
39	0xbfa55dd0	-1.2919254
40	0xbfa93a32	-1.3220885
41	0xbfc90d06	-1.57071
42	0xbf6b6b47	-0.9196057
43	0xbe9f6f4a	-0.31139594
44	0xbf6de4ea	-0.9292742
45	0xbfb2f05e	-1.3979604
46	0xbf86154a	-1.0475247
47	0xbfcc0744	-1.5939717
48	0xbf8727cc	-1.055902
49	0xbf7be36d	-0.983939
50	0xbf19af3f	-0.6003303
51	0xbfa4688a	-1.2844403
52	0xc04a0cd3	-3.1570327
53	0xbf3c30dc	-0.73512053
54	0xc10df36d	-8.87193
55	0xc087cd09	-4.2437787
56	0xc0e7b8e0	-7.2413177
57	0xbfbc2d20	-1.4701271
58	0xbee76278	-0.45192313
59	0xc0b22b8e	-5.5678167
60	0xc14a80d7	-12.656455
61	0xc0dfbb68	-6.9916267
62	0xc0d03552	-6.506509
63	0xc0b55402	-5.666505
64	0xc117fd5e	-9.499357
65	0xbffea15e	-1.9892995
66	0xc10967ae	-8.587812
67	0xc064e9c9	-3.576769
68	0xc0c0e7f1	-6.028313
69	0xc11ec081	-9.921998
70	0xc11cfd43	-9.811831
71	0xc01279e8	-2.2886906
72	0xc0dc9c56	-6.894084
73	0xc0bd0d92	-5.9079065
74	0xc0d6d7da	-6.713849
75	0xc0a62830	-5.1924057
76	0xc0849eb6	-4.144374
77	0xbfdbf9b7	-1.7185582
78	0xc08af21d	-4.342055
79	0xc02a7f0a	-2.6640038
80	0xc0cdd712	-6.4325037
81	0xc0385592	-2.8802228
82	0xc0ab5c8d	-5.3550477
83	0xbf50a592	-0.8150264
84	0xc1010ccc	-8.065624
85	0xc0c9ff62	-6.3124247
86	0xc0a3f795	-5.1239724
87	0xc0bab9e9	-5.835194
88	0xc04b37c0	-3.1752777
89	0xc041ebac	-3.0300093
90	0xbfc1256a	-1.5089543
91	0xbf896938	-1.0735235
92	0xbf3c52f6	-0.7356409
93	0xc10b9a8c	-8.725231
94	0xc01137fd	-2.2690423
95	0xbf5aa445	-0.85406905
96	0xbfb14114	-1.3847985
97	0xbffa5706	-1.9557807
98	0xc12966db	-10.587611
99	0xc13e369c	-11.888332
100	0x4044e403	3.0764167
101	0xc02b496d	-2.6763566
102	0x3e93fc2f	0.28903338
103	0xc0be1e79	-5.94122
104	0xbeb15d84	-0.3464166
105	0xbef005a7	-0.46879312
106	0xc030f0ff	-2.7647092
107	0x40707d25	3.7576382
108	0x40286b85	2.6315625
109	0xbe296c72	-0.16545275
110	0xbe12a0cb	-0.1431915
111	0xbd1fee05	-0.039045352
112	0xbcb68028	-0.022277907
113	0xbdb76875	-0.089554705
114	0xbf1bbdc6	-0.60836446
115	0x3ecc603a	0.39917165
116	0xbf5b88d7	-0.85755676
117	0xbcd3749c	-0.02581244
118	0xbd8da4a2	-0.06916167
119	0x3e26b320	0.16279268
120	0xbc913f57	-0.017730398
121	0x3eb8e757	0.36113998
122	0xbcbab7f5	-0.022792796
123	0xbd6141e9	-0.054994497
124	0x3d7a1b3d	0.061061133
125	0x4054556c	3.3177137
126	0xbfe47501	-1.7848207
127	0x3ed81a7e	0.42207712
128	0xc00cbbee	-2.1989703
129	0x405dedc5	3.4676373
130	0x3e884cc8	0.2662108
131	0x3e3fd6d5	0.18734296
132	0x3dc89d55	0.09795634
133	0x404fa490	3.244419
134	0xbc3192a6	-0.010838186
135	0xbe583913	-0.21115522
136	0xbe0f96e1	-0.140224
137	0xbdf4e1fd	-0.11957166
138	0x407a8fd5	3.9150288
139	0x3f3759da	0.7162148
140	0xbea2ddb0	-0.3180976
141	0x3d9436d1	0.07237018
142	0xbf2a396b	-0.6649386
143	0x3f26c8ae	0.6514996
144	0xc10b613e	-8.711241
145	0xc034eaf9	-2.8268416
146	0xc08d2959	-4.4112973
147	0x3e119587	0.14217196
148	0x3ef6ba70	0.48189116
149	0xbeb32e03	-0.34996042
150	0xbfa30fff	-1.2739257
151	0xbfe67c80	-1.8006744
152	0xbea0b004	-0.3138429
153	0xbf4bf71b	-0.7967393
154	0xbf9f6d10	-1.2455158
155	0xbf1532c7	-0.58280605
156	0xbfd748cd	-1.6819092
157	0xbf70d214	-0.94070554
158	0xc001bb3b	-2.0270526
159	0xbf93c074	-1.1543107
160	0xbf3672be	-0.7126883
161	0xbf97544f	-1.1822604
162	0x3e92ef2e	0.28698105
163	0xbf2def09	-0.67942864
164	0x3ebbb480	0.36661148
165	0xbf846e6b	-1.0346197
166	0xbf123554	-0.5711262
167	0xbf27ef26	-0.65599287
168	0x3e6891e8	0.22711909
169	0x3f22e186	0.6362537
170	0xbfd8ba0b	-1.6931776
171	0xbfffa765	-1.997296
172	0xc005b644	-2.0892496
173	0x3ed7e11d	0.42163935
174	0xc0026734	-2.037549
175	0x3d337e1b	0.043821435
176	0xba56c0e0	-0.0008192193
177	0xbf8ce7a7	-1.1008195
178	0xc0081d36	-2.126783
179	0xc008854d	-2.133136
180	0x3f2cbdf3	0.6747734
181	0xbf9ae5d2	-1.2101386
182	0xbf8f9c83	-1.1219639
183	0xc009d83b	-2.1538227
184	0xbf269cd4	-0.6508305
185	0xbf82f2bf	-1.023033
186	0xbfdb9b1b	-1.715671
187	0x3d880e8b	0.06643399
188	0xbf1fcaaa	-0.62418616
189	0xbedeb565	-0.43497768
190	0xbf8f34eb	-1.1188024
191	0x3f9c90b0	1.2231655
192	0xbf0140f5	-0.5048974
193	0xbff5d581	-1.9205781
194	0xbfaee25e	-1.3662832
195	0xbf69ab5c	-0.912771
196	0xbe639575	-0.22224982
197	0xbf39e25d	-0.7261103
198	0xbfb8c263	-1.4434322
199	0xbff973c9	-1.948846

lstm.bias_hh_l1 f4 [200]
0	0xbfb3b7dd	-1.4040486
1	0xbe40f4a5	-0.18843324
2	0xbfb635b0	-1.4235134
3	0xbfc02cbb	-1.5013651
4	0x3e5187cb	0.20461957
5	0xbf43bfc0	-0.7646446
6	0xbf6d0d97	-0.9259886
7	0xbfccac0e	-1.5990007
8	0x3f8fbf47	1.1230248
9	0xbfbdbffa	-1.4824212
10	0xbf886e1a	-1.06586
11	0xbf9bad80	-1.2162323
12	0xc030873d	-2.7582543
13	0xbf947b99	-1.1600219
14	0xbfab5572	-1.3385451
15	0xbf9f3b59	-1.2439986
16	0xbff3a29b	-1.9033998
17	0xbfe36ab5	-1.7766939
18	0xbf9ef5e6	-1.2418792
19	0xbfb3a9e0	-1.4036217
20	0x3f0db3da	0.55352557
21	0xbe193d64	-0.14964825
22	0xbf6ca1eb	-0.9243457
23	0xbf864fa3	-1.0493053
24	0xbfeb84ec	-1.839994
25	0xbfd75524	-1.6822858
26	0xbfbb88ca	-1.465112
27	0xbff3c80f	-1.9045428
28	0xbf9114c6	-1.1334465
29	0xbfc645ae	-1.5490015
30	0xbfe871a6	-1.8159683
31	0xc0148159	-2.3203948
32	0xbfb07430	-1.3785458
33	0x3e55ab5e	0.20866153
34	0xbfc8b250	-1.5679417
35	0x3ef3036c	0.47463548
36	0xbfb596cf	-1.4186648
37	0xc0075f57	-2.115194
38	0xbfe4a7e6	-1.7863739
39	0xbfacbf2e	-1.3495843
40	0xbfbedddf	-1.491146
41	0xbfd24f13	-1.6430382
42	0xbf60e2e6	-0.8784622
43	0xbeb7a58a	-0.35868484
44	0xbf639c8b	-0.8891074
45	0xbfb7e657	-1.4367169
46	0xbf90ed8d	-1.1322495
47	0xbfe5ae15	-1.7943751
48	0xbf919da4	-1.1376233
49	0xbfa0d8bf	-1.2566146
50	0xbef2453e	-0.47318453
51	0xbf98e339	-1.1944343
52	0xc0510721	-3.26606
53	0xbf595759	-0.84898907
54	0xc10c4f0c	-8.769299
55	0xc08d550d	-4.416632
56	0xc0ea1a72	-7.315728
57	0xbfc122ff	-1.5088805
58	0xbe8709ab	-0.26374564
59	0xc0b95818	-5.7920036
60	0xc149f64c	-12.622631
61	0xc0e46d54	-7.1383457
62	0xc0d2e1a9	-6.5900464
63	0xc0b8452e	-5.758445
64	0xc118c659	-9.548425
65	0xc0080ae5	-2.125665
66	0xc107d340	-8.489075
67	0xc0579d6f	-3.368984
68	0xc0bda17a	-5.9259615
69	0xc11d3379	-9.825067
70	0xc11b4463	-9.704196
71	0xc00d4c22	-2.2077718
72	0xc0d4c93c	-6.6495647
73	0xc0b9a45a	-5.8013124
74	0xc0d5f976	-6.686702
75	0xc0a5f520	-5.1861725
76	0xc0886074	-4.261774
77	0xbff85cac	-1.9403281
78	0xc090366b	-4.506643
79	0xc03145d7	-2.7698877
80	0xc0cfc024	-6.4922047
81	0xc030dd01	-2.763489
82	0xc0ac89f5	-5.3918405
83	0xbf52f5b3	-0.8240616
84	0xc10402be	-8.2506695
85	0xc0cf26d9	-6.473492
86	0xc0a4ce60	-5.1501923
87	0xc0b9700d	-5.794928
88	0xc04d7327	-3.2101533
89	0xc0477bbe	-3.1169276
90	0xbfb4620a	-1.4092419
91	0xbf623954	-0.88368726
92	0xbf412db9	-0.7546039
93	0xc10bc562	-8.735689
94	0xc00d8ca2	-2.2117085
95	0xbf8b9989	-1.090623
96	0xbfb65c95	-1.4247004
97	0xbfe6bd58	-1.8026533
98	0xc129ad73	-10.604846
99	0xc13be8b9	-11.744317
100	0x404b44d5	3.1760762
101	0xc032c0df	-2.793022
102	0x3e5a2ca2	0.21306089
103	0xc0c132a1	-6.0374303
104	0xbe50127d	-0.20319553
105	0xbf093ce0	-0.5360851
106	0xc030fcbe	-2.7654262
107	0x407621aa	3.8458047
108	0x40226171	2.5371974
109	0xbe6f73de	-0.23384044
110	0xbeb80b36	-0.35946053
111	0xbd139648	-0.03603199
112	0x3e140064	0.14453274
113	0xbd4a4200	-0.04937935
114	0xbf041715	-0.5159772
115	0x3ef80d79	0.4844778
116	0xbf5c62cd	-0.8608826
117	0xbe009f40	-0.12560749
118	0x3df3a855	0.11897341
119	0xbc5411f1	-0.012943731
120	0x3d8e2c4b	0.06942042
121	0x3e91c1dd	0.28468218
122	0xbe045724	-0.12923867
123	0x3e3af5e6	0.18257865
124	0x3de790ca	0.11306913
125	0x405bf6dd	3.4369423
126	0xbfe7ca53	-1.810862
127	0x3ea5c7ba	0.32378942
128	0xc00e7ed7	-2.2264917
129	0x404e56fc	3.224059
130	0x3dd03d97	0.10167997
131	0x3e2f77dc	0.17135566
132	0xbc4f15e3	-0.012639496
133	0x4056dd99	3.3572752
134	0xbcae504a	-0.02127852
135	0xbdbf456f	-0.09339415
136	0xbd118587	-0.035527732
137	0xbbf7ff74	-0.007568294
138	0x4076341d	3.8469307
139	0x3f376a6c	0.7164676
140	0xbece33ff	-0.40274045
141	0x3d50f4ec	0.051014826
142	0xbf412547	-0.75447506
143	0x3f19449b	0.5987031
144	0xc10ef75e	-8.935392
145	0xc03b600b	-2.927737
146	0xc08de991	-4.4347615
147	0x3dcca1de	0.09991811
148	0x3ec7c77b	0.3901938
149	0xbf150153	-0.58205146
150	0xbfa38413	-1.2774681
151	0xbfeae618	-1.8351469
152	0xbed9b424	-0.4252025
153	0xbf866145	-1.0498434
154	0xbfa1ca5d	-1.2639881
155	0xbf0960f3	-0.5366356
156	0xbfdfea41	-1.7493364
157	0xbf89c154	-1.0762124
158	0xbff666d6	-1.9250133
159	0xbf8df861	-1.1091424
160	0xbf1d7838	-0.61511564
161	0xbf894e79	-1.0727073
162	0x3e8c3593	0.27384624
163	0xbf3175bb	-0.6932027
164	0x3e9f5d15	0.31125703
165	0xbf7dd46b	-0.9915225
166	0xbec9dacd	-0.39424744
167	0xbf2b4874	-0.6690743
168	0x3e8ee453	0.27908573
169	0x3f151568	0.5823579
170	0xbfd7dce1	-1.6864282
171	0xc00323ee	-2.049068
172	0xc0029447	-2.0403001
173	0x3ed83b15	0.42232576
174	0xbff311f8	-1.8989859
175	0x3cd1db7c	0.025617354
176	0xbdfcab84	-0.123374015
177	0xbf991234	-1.195868
178	0xbffe4c11	-1.9866964
179	0xbff14d4b	-1.8851713
180	0x3efe0721	0.49614814
181	0xbf9aecb7	-1.210349
182	0xbf88464f	-1.0646456
183	0xc012ae62	-2.2918935
184	0xbf051fd1	-0.52001673
185	0xbf83bdbe	-1.029228
186	0xbfcd834f	-1.6055697
187	0x3e5b6bca	0.21427837
188	0xbed1c5e7	-0.409713
189	0xbeec550c	-0.46158636
190	0xbf8ab044	-1.0835042
191	0x3f832ee5	1.0248686
192	0xbefac4d4	-0.48978293
193	0xc004aa09	-2.0728781
194	0xbf9a1656	-1.2038066
195	0xbf465732	-0.774768
196	0xbe3ca4b0	-0.18422198
197	0xbf005749	-0.50133187
198	0xbfb5d9f8	-1.4207144
199	0xbfec1de4	-1.8446622
