NEURAL_MODELS/LSTM/jolly-bush-44_epoch30.pth (torch, 833135 bytes, 42 tensors)

lstm.weight_ih_l0 f4 [200, 69]
000000 dc 7b 8d 3c 92 57 e5 3e 95 67 31 c0 db 0b 82 c0
       0.017270975 0.44793373 -2.7719471 -4.063947
000010 a5 9c e6 3e 16 93 81 c0 93 63 42 3f f5 25 f7 3e
       0.45041385 -4.049205 0.7593319 0.48271146
000020 00 c7 db bf 0f 85 12 41 f0 cc 9c c0 73 39 5c 41
       -1.7170105 9.157485 -4.900017 13.764026
000030 60 44 8e bf a4 d7 31 3e f4 10 96 3f 41 9d 2b 41
       -1.1114616 0.17367417 1.1723924 10.725892
000040 b4 39 17 c0 22 aa 8e 3f ea 58 07 c0 9f 63 68 3f
       -2.362897 1.114567 -2.114802 0.9077701
000050 40 6e dd 3d 48 38 bf bf 12 bf 92 c0 c8 24 51 40
       0.10812044 -1.4939051 -4.585824 3.26787
000060 3b c6 70 41 76 8e 26 c0 46 41 dd 3d 34 4f c8 40
       15.048396 -2.6024451 0.108034655 6.2596684
000070 9a c9 20 40 7f 27 ec bf 6b 76 6a 3e 89 13 d1 c0
       2.5123048 -1.8449553 0.22896735 -6.5336347
000080 10 60 62 40 ab 10 7a c0 1d c7 9c c0 9b 5d 08 40
       3.5371132 -3.9072673 -4.899306 2.1307132
000090 30 b0 80 c0 aa 0a 85 c0 f0 84 f0 bf 4f 34 b0 bd
       -4.0215073 -4.157552 -1.8790569 -0.08603727
0000a0 41 75 c8 c0 6a 4a e7 bf d7 7f 72 3e 49 0f 48 40
       -6.264313 -1.8069584 0.2368158 3.125933
0000b0 4e 24 c2 bf d7 cb 58 40 7c c8 84 c0 a6 24 02 bf
       -1.5167329 3.3874414 -4.149473 -0.5083717
0000c0 cf fe ad 40 d0 1e e9 c0 a0 1f 31 40 82 a9 d8 3d
       5.4373546 -7.2850113 2.7675552 0.10579206
0000d0 ea 32 ee c0 2b 81 56 40 f8 15 bf bd 0c a7 9c 40
       -7.443715 3.3516338 -0.09330362 4.8953915
0000e0 b3 77 17 3f d1 96 35 40 18 4e 8c 3d 00 2f 34 3f
       0.5916702 2.83733 0.06850833 0.70384216
0000f0 d5 cc b5 c0 dc 23 90 41 07 ad 0d bb 89 28 a0 c0
       -5.681254 18.01751 -0.0021618025 -5.004948
000100 07 8a 99 40 3c 6a 8d bf 3c ec 48 40 91 f1 0f be
       4.798099 -1.1048045 3.1394186 -0.14056994
000110 1c 73 4d 3e 6b 8b 5b 40 cf 2a c4 c0 9c e9 2d 40
       0.20063442 3.4303844 -6.1302257 2.7173834
000120 14 4b 13 3f 0c 92 6b bf 80 50 a5 c0 33 de 7c c0
       0.57536435 -0.92019725 -5.1660767 -3.951062
000130 98 c2 a5 3f cc 93 71 3f 49 57 0f be bf 21 f4 40
       1.295001 0.94366145 -0.1399814 7.6291194
000140 0d ee 25 40 64 d2 49 40 e8 2b 0a bf c1 87 10 3f
       2.5926545 3.1534662 -0.53973246 0.56457144
000150 2b 40 37 be 88 96 9f be 49 67 5e c0 99 ec 0b 40
       -0.17895572 -0.31169534 -3.475054 2.1863158
000160 c5 dd 0d c1 f4 25 a3 3d 26 71 0a 40 67 35 a1 3e
       -8.866643 0.07966223 2.163156 0.31486055
000170 1b 11 ef c0 c2 ad 72 41 a3 18 80 40 e1 12 02 c1
       -7.470838 15.167421 4.0030074 -8.129609
000180 06 e7 f7 3d c5 40 b4 bf 89 88 a9 40 1b 04 0d 3f
       0.12104611 -1.4082266 5.297917 0.5508439
000190 3d 91 4e 40 12 a0 fd 40 05 d1 7b 40 17 a8 c0 40
       3.2276146 7.92579 3.9346325 6.020519
0001a0 7d a6 68 bf 9b 03 2e c0 f1 10 3e bf ab 72 a3 41
       -0.9087904 -2.71897 -0.742446 20.43099
0001b0 8e e4 ce be 30 1f 8b 40 8f 62 8a 3f 38 ab 14 c0
       -0.40408748 4.347557 1.0811328 -2.3229504
0001c0 0c 0c 40 bf 50 16 a6 c0 9f df 11 40 e0 56 1e 41
       -0.7501838 -5.1902237 2.2792737 9.89621
0001d0 46 d5 df 40 55 c0 48 40 c2 61 96 40 bc ce 52 c0
       6.9947844 3.136739 4.6994333 -3.293868
0001e0 6c 09 02 41 af 47 2c bf 7c 63 d4 bd 63 3d 80 bd
       8.1273 -0.6729688 -0.10370538 -0.062617086
0001f0 78 d2 51 40 5c da d7 bf 24 86 9c bf 07 81 0e 3e
       3.278471 -1.6863513 -1.2228436 0.13916408
000200 c0 6f 80 c0 ac a8 bf 3f 57 da 2e 41 88 76 94 bf
       -4.0136414 1.497335 10.928306 -1.1598673
000210 34 65 cb 40 0e de 53 40 4d fb ce 3f f3 9f b9 c0
       6.356104 3.3104281 1.6170441 -5.800775
000220 44 37 f2 bd 2c 00 8a c0 3f 54 cb bf 76 d9 36 41
       -0.11826947 -4.312521 -1.5885085 11.428091
000230 95 8b df bf f7 cb 5f c0 9e c5 f6 40 46 1e e2 c0
       -1.7464472 -3.496824 7.711623 -7.0661955
000240 50 89 88 40 c5 ac 98 bf 50 e3 04 bf 5d 85 85 c0
       4.266762 -1.1927725 -0.5190935 -4.1725297
000250 40 3d 61 bf 4b d1 84 bf f4 f7 cf be a5 06 8d c0
       -0.87984085 -1.0376371 -0.4061886 -4.407061
000260 1c b7 44 3f d7 07 c1 bf 5a af 12 c0 e8 e7 de 3e
       0.768419 -1.5080518 -2.2919526 0.43536305
000270 b3 66 4c c0 6d b5 32 bf 87 4e 10 be 13 16 4f 3e
       -3.1937683 -0.69808084 -0.14092456 0.20223264
000280 96 81 db 3f ae c7 0d 3f e8 08 43 40 1b 32 55 c0
       1.7148921 0.5538281 3.0474186 -3.3311832
000290 28 04 3c c0 18 55 99 c0 a1 b8 14 40 d7 d9 ec bd
       -2.9377537 -4.7916374 2.3237689 -0.11564987
0002a0 14 79 87 bf b0 73 39 41 dc 80 a5 c0 79 df 61 bf
       -1.0583825 11.590744 -5.17198 -0.8823162
0002b0 7d fa 58 c0 ff 68 2e 41 0d 3d f2 bc 37 00 13 41
       -3.3902886 10.900634 -0.029570127 9.187552
0002c0 25 2c b1 40 4f 4d 15 3f 69 72 96 be 2a 94 0a 40
       5.5366387 0.5832109 -0.29384163 2.1652932
0002d0 84 dd 4c 41 d7 18 42 c0 f7 69 68 c0 32 ac e0 bf
       12.804081 -3.032766 -3.6314676 -1.755255
0002e0 14 5a 5f c0 b0 42 95 40 dc 69 42 c1 fc 84 6a c0
       -3.489873 4.6643906 -12.150845 -3.6643667
0002f0 6b 96 bd bf e2 0c a8 be 06 b1 c0 40 d4 cf 08 41
       -1.4811529 -0.3282233 6.0216093 8.550739
000300 b0 30 4c 3c 2f ec de 40 80 e0 74 bf 18 75 88 41
       0.01246278 6.966331 -0.9565506 17.057175
000310 96 68 e6 3d 75 1a a8 c0 d4 5d 1c c0 41 59 32 c0
       0.11250417 -5.2532296 -2.4432268 -2.7866976
000320 f0 2e dd 40 77 7b f7 c0 aa 10 c7 bf 21 15 39 c1
       6.9119797 -7.7338214 -1.555196 -11.567658
000330 b5 19 6c 41 2c 76 a5 bd 84 24 7d 3f 61 30 94 c0
       14.756276 -0.0807918 0.98883843 -4.6309056
000340 33 6b fc 3f 11 77 b5 40 06 0d ab c0 01 90 17 c1
       1.9720215 5.6707845 -5.34534 -9.472657
000350 a9 5a 01 41 b2 20 3c bf 1f e9 9f 3e 67 9b 59 c0
       8.084634 -0.7348739 0.31232545 -3.40011
000360 36 d4 71 41 37 2a c5 3c a0 eb 4f 40 0e 64 b6 bd
       15.114309 0.024067981 3.2487564 -0.08905803
000370 2a 4e e7 bf e8 da 88 3d d9 9f 41 41 19 c5 5c 40
       -1.8070729 0.06682378 12.101525 3.44953
000380 53 eb 8a be f4 88 aa be c4 d3 2c 41 dc f5 30 bd
       -0.27132663 -0.33307612 10.801701 -0.04320322
000390 50 57 44 3e 96 e6 a2 c0 a4 b8 54 41 94 f7 31 41
       0.19173932 -5.0906477 13.295078 11.122944
0003a0 84 c7 9a bd 7b e6 95 3f 9c 5a 01 41 4a 16 86 41
       -0.07557586 1.1710962 8.084621 16.760883
0003b0 b0 25 b2 40 80 a3 9c c0 23 51 e5 c0 a1 a4 95 41
       5.5671005 -4.8949585 -7.1661544 18.705385
0003c0 a0 61 82 c0 70 7b 8e bf e2 df b3 41 23 d7 d6 3f
       -4.074417 -1.113142 22.484318 1.6784405
0003d0 ed c1 e1 40 20 67 47 40 04 60 1d 3e db 2c aa bf
       7.0549226 3.1156693 0.15368658 -1.3294939
0003e0 d5 0d c4 c0 d8 e0 47 41 b1 ed 81 c0 70 e3 5d c0
       -6.1266885 12.4923935 -4.060265 -3.4670067
0003f0 2e 1e 29 41 ec b6 9d 40 aa 8b 8a 41 f1 ad e4 40
       10.569868 4.9285793 17.318195 7.146233

lstm.weight_hh_l0 f4 [200, 50]
000000 18 8d 75 bf df 0e b3 be 02 58 ca bf 42 55 31 be
       -0.95918417 -0.34972283 -1.5808108 -0.1731768
000010 5a 3a 6a 3f 27 7b 02 40 63 e1 ac be 93 b0 b7 3f
       0.9149529 2.0387666 -0.33765706 1.4350761
000020 d4 6f 6f bf e7 95 03 be 2a 1b 20 bf 6d d6 4c bf
       -0.9353001 -0.12850152 -0.6254145 -0.8001469
000030 9d 86 5c be cb 2f cc 3d 42 0e a7 bf 64 c5 38 bf
       -0.21535726 0.09970053 -1.3051226 -0.72176194
000040 cc 37 ab 3e 8b ca 93 bf b2 ce b3 3f f4 ed b1 3d
       0.33441007 -1.1546186 1.4047453 0.08687964
000050 60 2c 85 bd 41 0b 08 c0 79 37 c4 bd 45 11 1c 40
       -0.065026045 -2.125687 -0.09580893 2.438554
000060 47 05 ab 40 7b 88 41 bf c8 17 ba 3f 7b 46 e6 3e
       5.344394 -0.7559888 1.4538507 0.44975647
000070 3b 0a db 3f bf 75 29 3e 5a 3e a2 be b2 16 cf bf
       1.7112497 0.16548823 -0.31688195 -1.6178801
000080 74 a6 89 3f 43 b1 1e c0 9d dd fe 3f 92 e8 3a c0
       1.0753922 -2.4795692 1.9911381 -2.920445
000090 a0 3e 8f bf 38 97 0b c0 cb fa 65 c0 24 48 ef be
       -1.1190987 -2.1811047 -3.5934322 -0.46734726
0000a0 56 15 0c c0 3f c4 56 bf 83 5e ab bd 29 df b2 bf
       -2.1888022 -0.838932 -0.08367636 -1.3974353
0000b0 5a 66 b9 bf 7a b5 5b bf 0e 70 7c c0 68 f7 56 be
       -1.448436 -0.85823786 -3.9443393 -0.20992815
0000c0 05 3f 24 c0 28 c9 64 bf 2b 93 9d bf 41 d9 d3 3f
       -2.5663464 -0.8936944 -1.2310537 1.6550676
0000d0 5d d0 55 bf cf 5f d3 bf ad 40 ec 3e 19 68 8d be
       -0.8352106 -1.6513613 0.46143094 -0.27618483
0000e0 14 ca 91 3f 4a 89 1f c0 b9 5d 2e bf 23 fc c1 bf
       1.1389794 -2.4927545 -0.6811176 -1.5155071
0000f0 98 48 06 c0 69 93 49 c0 85 20 1d 3f ef 8c 0c be
       -2.0981808 -3.1496222 0.61377746 -0.13725637
000100 27 ce 85 3e db 64 26 3f f9 0c 5a 40 9f 0e c6 bf
       0.26133844 0.64997643 3.4070418 -1.5473212
000110 df b3 9a bf f6 60 0e 40 ba 4c c8 be e8 05 6f bf
       -1.2086142 2.224668 -0.39121038 -0.9336839
000120 99 00 5e 40 32 04 66 bf e5 9a d1 3f 47 8a 30 3f
       3.4687865 -0.8985015 1.6375395 0.68960994
000130 c1 6d 5c bf 08 c9 90 40 e5 6d 03 40 52 d8 00 40
       -0.8610497 4.52454 2.0535824 2.0132031
000140 55 79 ed be fb 9f 8d 3f 8a fc b1 3e 04 23 13 c0
       -0.46381631 1.1064447 0.34762985 -2.2990122
000150 b9 bf 31 bf f4 6c d2 c0 64 cb 58 bf be d6 ba bf
       -0.6943317 -6.5758 -0.8468535 -1.4596784
000160 39 e9 cf 3f d5 be 1c 40 00 89 f2 be 15 42 95 be
       1.6243049 2.4491475 -0.47370148 -0.2915198
000170 75 12 5e 3d bb a4 af 3e c0 ba df bf 1b 74 fb 3f
       0.05421682 0.34305367 -1.7478867 1.9644808
000180 23 02 06 c0 d9 00 3e 40 ba 65 bd bf 38 61 98 3f
       -2.0938804 2.9688017 -1.479667 1.1904669
000190 01 38 65 bf 8b f1 36 40 b7 75 eb bf 4b be b1 40
       -0.8953858 2.8584926 -1.8395299 5.554479
0001a0 49 14 d8 3f e8 c2 03 c0 1d 52 b3 bd b4 b0 e6 bd
       1.688119 -2.0587711 -0.08755896 -0.11264172
0001b0 0a 64 98 bf 06 74 69 40 ae 64 c3 3f bd 79 fe 40
       -1.190553 3.6477065 1.52651 7.9523606
0001c0 44 f5 64 c0 0a dd 4a bf f8 aa 9f c0 90 ad c4 be
       -3.5774698 -0.7924353 -4.98962 -0.38413668
0001d0 e7 f0 0d bf 20 eb e8 3d 14 4a 24 c0 c7 b8 bc bf
       -0.5544571 0.113729715 -2.5670214 -1.474389
0001e0 a2 23 aa bf 38 2b 53 c0 79 5d f6 be c6 ba ee 3f
       -1.3292124 -3.2995129 -0.4811819 1.8650749
0001f0 04 17 e9 3f 65 3c 0f 3f ca 6c 53 bf da f4 13 3f
       1.8210149 0.5595153 -0.82587874 0.5779549
000200 eb 15 f7 3f 57 32 1e c0 d5 d9 90 3f ea 8f 26 40
       1.9303564 -2.4718225 1.1316477 2.6025338
000210 3b 0c 64 3e 09 9a b2 bf 3d f0 08 c0 80 91 97 c0
       0.2227029 -1.3953258 -2.139663 -4.736511
000220 ca 93 a2 3e 6a ad 54 3f 4e 66 8c 3f 5a ee 87 bf
       0.3175338 0.8307711 1.0968721 -1.0619614
000230 98 05 07 c0 c0 e4 3c 3f 91 57 f1 40 b0 fd 71 bf
       -2.1097164 0.73786545 7.5419393 -0.9452772
000240 b5 71 b8 3e 09 52 1d c0 93 2b e2 bf a4 9b 26 40
       0.36024252 -2.458132 -1.7669548 2.6032495
000250 8d ca 97 40 dd 16 da be ad 00 3f 41 a1 90 89 c0
       4.7434754 -0.42595568 11.937665 -4.298905
000260 f9 01 bb c0 f3 76 90 40 d1 5e 90 3e 17 a8 8b c0
       -5.843991 4.51452 0.2819734 -4.364269
000270 e1 f5 f5 bf c7 01 4c c0 c8 68 37 c0 f9 69 89 c0
       -1.9215661 -3.1876085 -2.8657703 -4.294186
000280 b5 83 0c c0 ac 48 d0 bf 5e 76 6e bf fb 69 27 bf
       -2.1955388 -1.6272178 -0.93149364 -0.6539609
000290 75 21 3f 3f 53 e5 b5 be e9 96 7b 40 8c 8d 6a 3f
       0.74660426 -0.35526523 3.9310858 0.91622233
0002a0 ff b5 20 c0 b4 e8 47 40 41 2d 8e 3d 57 aa 51 40
       -2.5111082 3.123578 0.06942225 3.2760217
0002b0 9f 9c 76 c0 e8 28 cb 3f dd 63 1b c0 94 6f e9 bf
       -3.8533094 1.5871859 -2.4279702 -1.8237176
0002c0 f6 ca 14 c0 1b 18 08 c1 b3 25 81 3f f1 09 94 bf
       -2.3248878 -8.505885 1.008963 -1.1565534
0002d0 f0 43 d3 bf 00 5c 1f bf 23 2d ab 3d 52 03 8e c0
       -1.6505108 -0.62249756 0.083582185 -4.4379053
0002e0 01 98 e8 3e c2 60 94 bd d3 7e a1 3d 5b 25 35 3f
       0.4542847 -0.072450176 0.07885518 0.70760125
0002f0 bc 02 2a c0 52 83 ef bf 10 73 16 be 0d 0f 65 40
       -2.656417 -1.8711951 -0.1469233 3.5790436
000300 c1 ea 38 c0 eb e9 82 c0 d9 25 95 bd d8 25 e4 bf
       -2.8893282 -4.0910544 -0.072826095 -1.7824049
000310 d2 c2 53 be 3f ca 09 41 19 ac fa c0 e4 3f 13 c0
       -0.20679787 8.6118765 -7.833508 -2.3007746
000320 d9 7d 12 bf f4 e2 f0 3e 14 fd 4f 3e de 15 5a c0
       -0.5722328 0.47048151 0.20311385 -3.4075847
000330 46 51 ed 3e f5 45 e0 3f 0f 49 02 40 97 1d ec 3e
       0.4635107 1.7521349 2.0357091 0.46116325
000340 63 15 85 3f ad 63 d0 3f 29 7a f2 bf e5 38 5e 3e
       1.0397152 1.6280419 -1.894353 0.21701391
000350 eb be 88 bd e0 2f 9b 3f eb 69 cd bf a2 4f 28 bf
       -0.0667704 1.2123985 -1.6047949 -0.6574651
000360 50 6e 20 40 ce fc 8f bf 77 49 5f 3f 86 eb da 3f
       2.506733 -1.1249025 0.87221473 1.7103126
000370 b5 95 39 bf 4c cb 6a 3e e3 3c 89 bf 91 01 95 be
       -0.7249406 0.22929114 -1.0721706 -0.29102758
000380 4a 66 b4 bf c5 5a 70 3f 1a d5 bf 3f 27 86 48 c0
       -1.4093716 0.93888503 1.4986908 -3.133188
000390 e1 a2 ec 3f d7 34 86 c0 cb 6d 87 3f 2a ab 8a bf
       1.8487207 -4.19395 1.0580381 -1.0833485
0003a0 5e 5b a7 3d 16 6c be 40 df 7c ab 3f 9d 0b af 3f
       0.08171724 5.950694 1.3397483 1.3675419
0003b0 9c be de bf a4 09 04 40 2c 0e f1 bf c7 0a 93 3f
       -1.7401919 2.0630884 -1.883245 1.1487664
0003c0 ed 09 02 40 da 6e b4 bd 12 16 02 c0 10 8e af 3c
       2.0318558 -0.08810206 -2.032597 0.021430045
0003d0 10 37 d2 bd 8b 39 80 bf 3a dc 05 bf 83 48 48 c0
       -0.102644086 -1.0017561 -0.52289164 -3.1294258
0003e0 bb a4 da 3f ba a8 d2 be b9 7c f8 be 78 72 d6 3f
       1.7081522 -0.41144353 -0.48532656 1.6753683
0003f0 d9 09 04 c0 05 2b 0c bf 93 c3 df 3d ee fb 98 3f
       -2.063101 -0.5475314 0.10925975 1.1951883

lstm.bias_ih_l0 f4 [200]
000000 97 d8 6c bf 14 df d4 bd 5a c4 19 3f 26 20 ae be
       -0.9251799 -0.10394111 0.60065234 -0.34008902
000010 41 58 51 be 8c 10 1e be a7 47 ac be 82 e1 31 3e
       -0.20443822 -0.15436 -0.33648416 0.1737118
000020 21 2e 0a bf 0b 95 38 3d 77 46 b3 be e3 89 2e be
       -0.5397664 0.045064013 -0.35014698 -0.17044787
000030 ce ba d0 be bb 76 b1 bf 2b b8 b3 be c0 15 8e 3e
       -0.4076752 -1.3864359 -0.35101447 0.2775097
000040 3e a3 0f 3e 6c 05 33 3f 47 2e 49 3e 8d 5e a2 bf
       0.14027116 0.6993015 0.1964656 -1.2685105
000050 87 5c da bf c3 88 d1 3f 9d 49 e3 bd 71 19 91 bc
       -1.7059487 1.6369861 -0.11098025 -0.017712327
000060 44 1d c0 3c cc cc 3f 40 18 15 1c bf 7c 1b 3b bd
       0.023451455 2.9968748 -0.60969687 -0.045680508
000070 c5 7a 85 3f f9 39 d7 bc 56 07 cf 3e f1 e9 53 bf
       1.0428091 -0.02627276 0.40435284 -0.8277884
000080 27 80 b6 3e 61 d7 1b bf 4f d6 4e 3f 93 f8 a3 bf
       0.35644647 -0.6087552 0.8079576 -1.2810234
000090 50 88 af 3f 49 0e fe 3f 2c 28 52 3f cd cb 01 3f
       1.3713474 1.984811 0.8209255 0.507016
0000a0 85 57 f4 be bb 0a 88 3f 47 25 fa bd 26 e0 ff 3d
       -0.47723022 1.0628275 -0.12214141 0.12493925
0000b0 8c 36 64 3f 69 11 02 3f e6 71 6a 3e 5b fa 8f bf
       0.8914573 0.50807816 0.22895011 -1.1248277
0000c0 ee a8 10 bf 4e 76 57 bd ac 03 a2 bf d2 e3 d8 bf
       -0.56507766 -0.05260306 -1.265737 -1.6944525
0000d0 23 89 3b c0 f8 86 0c 40 b2 f0 09 c0 eb fa 6c be
       -2.9302452 2.1957378 -2.1553159 -0.23142593
0000e0 b4 ea 1d c0 78 c7 24 c0 4e b5 92 be 41 14 a0 bf
       -2.4674501 -2.5746746 -0.2865395 -1.2506181
0000f0 89 f2 40 c0 09 59 c0 bf 3c 20 e6 bf 54 b4 11 c0
       -3.0148032 -1.5027171 -1.7978587 -2.2766314
000100 58 0a 9a be 78 08 b5 bf 35 c9 30 3e b6 9c 9a bf
       -0.30086017 -1.414321 0.17264254 -1.2079074
000110 42 a0 c1 bf b5 ee 41 bf e0 b1 69 3f f9 c8 18 c0
       -1.5127032 -0.75754863 0.9128704 -2.3872664
000120 88 64 9c bf ef fe 82 c0 c0 10 42 be 8e 23 0a c0
       -1.221818 -4.09362 -0.18951702 -2.15842
000130 7a af f5 bf 04 3c 10 c0 ca 2f 8b bf d0 b9 2c 3e
       -1.9194176 -2.253663 -1.0873959 0.16867757
000140 50 36 a3 bf 1e 7f 17 c0 47 48 1b c0 fc 25 95 bf
       -1.275095 -2.3671336 -2.4262865 -1.1652217
000150 b6 a4 f6 bf 74 6a e8 bf f7 e6 a3 bf ec 26 4d c0
       -1.9269016 -1.8157487 -1.280486 -3.2055006
000160 b3 10 53 bf 7b a3 30 bf 1c b7 15 be 02 35 64 bf
       -0.82447356 -0.6899945 -0.14620632 -0.89143384
000170 12 3b 53 c0 a1 10 0a c0 ab 9c b5 bf 1c ed 10 be
       -3.3004804 -2.157265 -1.4188436 -0.1415295
000180 19 91 26 c0 04 f9 57 c0 f6 5e bf be 09 91 72 bf
       -2.602606 -3.3745737 -0.37377137 -0.94752556
000190 7a ad e6 be a1 fe 82 bf 9d 0f 34 40 10 e4 9c c0
       -0.45054227 -1.0233957 2.813453 -4.9028397
0001a0 30 f3 e4 3d b1 03 b4 bf 4b f6 84 bf ec 41 44 bf
       0.11179197 -1.4063627 -1.0387663 -0.7666309
0001b0 e4 ab 60 bf e7 28 d8 bf 7b fc a4 3f f3 df 37 3f
       -0.87762284 -1.6887482 1.2889551 0.71826094
0001c0 a8 44 f1 bf 16 fb c2 3f 6c 0a 88 bf 8d 7a 54 3f
       -1.8849077 1.5232875 -1.062818 0.829995
0001d0 6b ae 3b 3f 00 a2 0a 3f 1f ea ea be ae ba 0b be
       0.73313016 0.5415344 -0.45881745 -0.13645431
0001e0 e2 ef c8 bf e8 3e 02 3f f2 c7 91 be 0b 0d 18 3f
       -1.5698206 0.5087724 -0.2847286 0.593949
0001f0 f9 2c cd 3f 62 4a bb be 03 86 a2 bf 6f 16 4d bf
       1.602935 -0.36580187 -1.2697147 -0.80112356
000200 0c 3d 86 bf ad a8 c7 bf df d5 9f 3e f8 ed d3 bf
       -1.048738 -1.5598351 0.31217858 -1.6556997
000210 d8 46 04 bd 4f b3 22 c0 8c 9f c1 3e 24 cf 69 bf
       -0.032294124 -2.5421941 0.37817037 -0.91331697
000220 7e a2 74 3f b6 29 10 3f b0 c8 a1 bc 31 cf 4b bf
       0.95560443 0.56313646 -0.019749016 -0.79613024
000230 70 f8 46 bf fa 2e f3 3f 38 bd f5 be f7 45 79 3f
       -0.77722836 1.8998711 -0.47995925 0.9737238
000240 b7 75 f8 3f 58 cd 71 3f b3 d6 4b bf f1 d9 32 3f
       1.9410924 0.94453955 -0.7962448 0.698638
000250 ce 5f cb bf b4 63 34 3e b6 00 98 bf ed 61 a7 be
       -1.5888612 0.17616159 -1.1875217 -0.326919
000260 a6 49 01 c0 eb d9 bc bf 47 9b 85 3f 52 b9 b9 3e
       -2.0201201 -1.4754003 1.0438012 0.362742
000270 bf 1a 0a c0 42 e1 8e 3f fd 0c 82 bf 96 34 d5 bf
       -2.1578825 1.1162493 -1.0160214 -1.6656673
000280 77 bf 81 bf d4 87 da bf 6b 35 9a bf bd 80 f1 be
       -1.0136555 -1.7072701 -1.2047552 -0.47168532
000290 54 ff ca bf a2 4c 76 bf d8 29 0f bf 5a f0 0f 3e
       -1.585917 -0.9621068 -0.55923223 0.1405653
0002a0 49 5e 64 3e 9b a4 28 bd 9f 52 15 bf f6 88 8b be
       0.22301592 -0.041172605 -0.58329195 -0.2725293
0002b0 73 1f c8 bf 28 66 05 40 76 14 b9 bf 0f b7 36 bf
       -1.5634598 2.0843601 -1.4459369 -0.71373075
0002c0 1f 5d 7a 3f f6 a7 67 bf 3a a3 cd bf 6c ca 02 c0
       0.9779834 -0.90490663 -1.6065438 -2.0436049
0002d0 56 da 66 3f 9f d6 a3 bf ab fb dc 3e 57 d0 f2 bf
       0.90176904 -1.2799872 0.43160757 -1.896983
0002e0 ad 97 0a 3f 96 c3 1b bf b9 63 4f bf db 7a 9a bd
       0.5413769 -0.60845315 -0.8101154 -0.07542964
0002f0 a5 dc 89 bf d9 ea b3 3d 3f 32 36 bf 62 a5 ca bf
       -1.077046 0.08785028 -0.7117042 -1.5831721
000300 b2 a6 3b be 2f 16 e8 bc 21 c6 af be 66 e4 2f bf
       -0.18325308 -0.02833089 -0.34330848 -0.68707883
000310 cb 2e 62 bf 97 9d 0d 3d a5 53 06 c0 96 8e b0 bf
       -0.8835265 0.034574118 -2.0988553 -1.3793514

lstm.bias_hh_l0 f4 [200]
000000 d1 78 6f bf a7 82 fe 3d aa e3 21 3f a2 f6 cd be
       -0.93543726 0.12427264 0.6323801 -0.40227228
000010 15 73 71 bd a1 bd 6f be 64 f7 82 be f3 1a 25 bd
       -0.05894764 -0.23412181 -0.2557937 -0.040308904
000020 fa 09 8f be 86 b3 81 3e ff c1 87 be 8a c1 a7 bd
       -0.279373 0.25332278 -0.26515195 -0.081912115
000030 a5 12 17 bf 18 fd 9d bf 79 52 a5 be 18 16 d2 3e
       -0.59012824 -1.2342863 -0.32289484 0.4103248
000040 5e 4f 4a 3e c2 00 59 3f 8f bf 84 3e a2 66 8b bf
       0.19756839 0.8476678 0.25927398 -1.0890696
000050 4e 6d c8 bf cf 07 d4 3f b8 53 41 be d5 54 7e 3c
       -1.5658357 1.6564883 -0.18879592 0.015523155
000060 10 db 90 3d 89 b9 31 40 65 ac fe be 22 58 00 be
       0.07073033 2.7769492 -0.49740902 -0.1253362
000070 b8 17 6a 3f ac 1c 41 bd 89 53 9b 3e fd 37 65 bf
       0.9144244 -0.047146484 0.3033717 -0.89538556
000080 33 cc c5 3e 5f 19 28 bf db 97 27 3f 3d 9f 9f bf
       0.38632354 -0.65663713 0.6546609 -1.2470471
000090 b8 e4 bb 3f fe 61 0d 40 b8 75 39 3f ea 4a a1 3e
       1.4679174 2.209106 0.7244525 0.31502467
0000a0 13 3a cf be 60 e5 6d 3f f1 f5 58 be 7c f9 c1 3d
       -0.40473995 0.92928123 -0.21187569 0.094714135
0000b0 5c ab 36 3f d4 1a e6 3e 91 85 9b 3e b5 28 85 bf
       0.71355224 0.44942343 0.3037534 -1.0403048
0000c0 66 fd 0e bf 6d 67 12 bd e0 d4 98 bf 28 00 f0 bf
       -0.55855405 -0.035743166 -1.1939964 -1.8750048
0000d0 24 aa 3c c0 aa 34 06 40 68 0c 03 c0 4a 57 d1 3a
       -2.9478846 2.0969644 -2.0476322 0.0015971449
0000e0 ed e4 23 c0 df 8d 27 c0 bd c6 b5 be 8f ef b2 bf
       -2.5608475 -2.6180341 -0.35503188 -1.3979357
0000f0 41 af 3a c0 da 0c be bf d6 17 fc bf 82 48 11 c0
       -2.9169466 -1.4847672 -1.9694774 -2.2700505
000100 63 66 a1 be 19 89 b9 bf f4 24 1b 3e 56 73 89 bf
       -0.31523427 -1.4494964 0.15150815 -1.0738323
000110 90 b7 bf bf 35 d4 33 bf 71 6a 74 3f 97 f6 14 c0
       -1.4977894 -0.7024568 0.95474917 -2.3275506
000120 9c 98 82 bf e6 ef 84 c0 06 74 83 be ba 47 1a c0
       -1.0202823 -4.1542845 -0.25674456 -2.4106278
000130 c3 2f 01 c0 16 e6 0a c0 65 b1 90 bf 9b 4d a6 3e
       -2.0185401 -2.1702933 -1.1304137 0.32481083
000140 01 9d 9f bf d8 46 15 c0 09 66 20 c0 95 b6 b3 bf
       -1.2469789 -2.332449 -2.5062277 -1.4040095
000150 b3 ef 09 c0 ea 34 ef bf 3d af 9f bf d5 ff 51 c0
       -2.155255 -1.8688023 -1.2475353 -3.2812397
000160 00 62 57 bf 53 f9 35 bf ca 25 62 be 11 6d 3c bf
       -0.8413391 -0.71083564 -0.22084728 -0.7360392
000170 b5 2b 55 c0 30 a6 06 c0 0c 92 9a bf a7 b7 b1 be
       -3.3307927 -2.1038933 -1.207582 -0.34710428
000180 31 96 24 c0 0f e2 4e c0 ad b1 05 bf 30 af 88 bf
       -2.571667 -3.2325475 -0.52224237 -1.0678463
000190 e3 b7 d4 be 8b fb 8c bf 50 bb 36 40 2d 0a a1 c0
       -0.41546544 -1.1014265 2.8551826 -5.032492
0001a0 46 94 4d 3e d5 44 a6 bf 44 9d 97 bf d7 5a 5f bf
       0.20076093 -1.2989756 -1.1844869 -0.87247986
0001b0 d7 34 42 bf c2 28 e3 bf 08 18 bf 3f 33 8c 1b 3f
       -0.7586188 -1.7746813 1.4929209 0.607608
0001c0 01 c5 f1 bf 2a 5b df 3f 30 5d 8e bf 1d 84 43 3f
       -1.8888246 1.7449696 -1.1122189 0.76373464
0001d0 bf 76 19 3f 35 c9 3c 3f 2a 57 82 be 63 9a ad bd
       0.5994682 0.7374452 -0.25457126 -0.084767126
0001e0 b2 fa b6 bf fe 55 fa 3e 9b e2 c9 be 8c 80 06 3f
       -1.4295256 0.48893732 -0.394307 0.52539897
0001f0 87 6e b7 3f 04 94 7e be ec e7 99 bf 56 a7 43 bf
       1.4330605 -0.24861151 -1.2023902 -0.7642721
000200 64 8e 92 bf a3 3f eb bf 77 49 0a 3e 33 0a d0 bf
       -1.1449704 -1.8378795 0.13504587 -1.6253113
000210 c4 fe 1e be ec df 1f c0 01 fc dd 3e 27 7b 6f bf
       -0.15526873 -2.498042 0.43356326 -0.9354729
000220 11 0e 64 3f 4a 49 17 3f a7 a0 10 3e 43 3b 38 bf
       0.89083964 0.59096205 0.14123784 -0.71965426
000230 0e 16 4e bf 27 6b f8 3f 29 8f d1 be d1 51 89 3f
       -0.805024 1.94077 -0.40929535 1.0728093
000240 ae 94 f3 3f 10 4a 53 3f fe 1c 52 bf 75 4c 64 3f
       1.9029748 0.82534885 -0.8207549 0.89179164
000250 4c 01 ba bf 11 23 e6 3d 15 07 9c bf 45 6e 76 be
       -1.4531646 0.11237157 -1.2189661 -0.24065502
000260 27 5d 0a c0 c8 cf af bf d6 75 8f 3f 0f 69 fb 3e
       -2.1619356 -1.3735285 1.1207836 0.4910359
000270 22 0e 03 c0 ee 90 93 3f 15 d7 80 bf 8c 47 ca bf
       -2.0477376 1.1528604 -1.0065638 -1.5803084
000280 4e 3c 61 bf 62 c8 f2 bf bf 77 88 bf 2d 42 ad be
       -0.8798264 -1.8967402 -1.0661544 -0.3383955
000290 fa a6 cf bf ed 8a 79 bf 54 92 1c bf 52 33 a1 bd
       -1.6222832 -0.9747761 -0.6116078 -0.07871117
0002a0 5d 13 50 3e 80 22 ed bd 93 b5 ee be 44 93 b9 be
       0.20319887 -0.11578846 -0.46622905 -0.36245167
0002b0 62 ec cd bf 15 77 06 40 be 93 d0 bf c1 13 42 bf
       -1.6087763 2.1010182 -1.6295087 -0.7581139
0002c0 75 43 5e 3f 32 f3 70 bf f5 3c ce bf 29 c0 00 c0
       0.8682168 -0.94121087 -1.6112353 -2.0117285
0002d0 29 ed 8e 3f ad e0 b4 bf 7c 5f 03 3f da d7 e7 bf
       1.1166126 -1.4131066 0.5131757 -1.8112748
0002e0 1c b6 2b 3f 17 72 ee be 9a 4f 7f bf 38 ac 1f be
       0.6707475 -0.4657142 -0.9973084 -0.1559304
0002f0 be 77 79 bf d0 cb 73 3d 50 35 7a bf 38 dd c1 bf
       -0.9744834 0.059520543 -0.977376 -1.5145636
000300 82 8e 8f be c1 e2 05 be 78 c9 0e bf 57 45 f9 be
       -0.28038412 -0.13074781 -0.55776167 -0.48685715
000310 85 1b 33 bf 74 21 04 bd bf 18 07 c0 fc 3a a0 bf
       -0.69963866 -0.032258466 -2.1108854 -1.2518001

lstm.weight_ih_l1 f4 [200, 50]
000000 68 15 39 bf 32 a8 68 3e 87 13 a8 bf 21 ff bf 3f
       -0.7229829 0.22720411 -1.3130959 1.4999734
000010 a0 a7 ae bf 6f 24 59 3c dc 7d b8 3e 1a 44 4c 3e
       -1.3644905 0.013253315 0.36033523 0.19947854
000020 d5 15 0b bd 0d 52 a4 bd 29 ea 9c be 2f 19 ca be
       -0.033956368 -0.080234624 -0.306474 -0.3947234
000030 c3 68 e3 be 52 94 9e bd d8 e4 94 3d ff c1 03 3f
       -0.44415864 -0.077431336 0.07270211 0.5146789
000040 03 08 63 3e 78 e1 5e be 3a 55 23 be ff 50 8a 3e
       0.22171025 -0.21765697 -0.1595048 0.2701492
000050 0c 4a 59 3e 81 f8 00 bf 09 5c 22 3e 53 4a f9 bf
       0.21219653 -0.50379187 0.15855421 -1.9475807
000060 39 f4 13 3d 82 2c af bf 4f c6 08 3f 4a 25 2e 3e
       0.03612158 -1.3685458 0.53427595 0.17006412
000070 18 9a a5 3e 56 5d 96 3f 2d 1a 8e 3e 5b ea 95 3e
       0.32344127 1.1747234 0.27754346 0.29280362
000080 2c 9c e8 3e c3 75 77 3f a3 38 99 be 60 03 94 bd
       0.4543165 0.96664065 -0.29926023 -0.07227206
000090 4f 28 6b 3d cc 5b 08 bf 58 87 62 3f 1a 3a 5e be
       0.05741149 -0.5326507 0.8848777 -0.21701851
0000a0 ae 5a f6 bc 93 9b 04 be aa cd 4d be 3d fd 63 be
       -0.030072536 -0.12949972 -0.20097986 -0.22264571
0000b0 91 2d 1b be 90 51 55 3d 12 94 bd bd e9 51 4e 3f
       -0.15154101 0.052079737 -0.09256758 0.80593735
0000c0 aa cc 96 3f 0e 0c d5 3d 3c 59 96 3e bb 22 e6 3d
       1.1781209 0.1040269 0.29364955 0.11237093
0000d0 76 28 25 40 9e 00 c6 c0 3b af a1 3e 13 68 1c be
       2.5805945 -6.1875753 0.31579003 -0.15274076
0000e0 a7 5e 0f c0 e5 a6 b4 be bd f1 03 3e 56 2d 37 40
       -2.2401521 -0.3528358 0.12885185 2.862142
0000f0 22 df e4 3f 4d 68 99 bf b2 16 e1 3d 22 24 94 3c
       1.7880595 -1.1984955 0.10990657 0.018083636
000100 ce 57 a4 3f fd ae db 3e b7 c4 25 3e 68 1b 59 3e
       1.2839296 0.42906943 0.16188322 0.21201861
000110 11 24 53 3e c1 9c 05 3e e5 55 3c bd 18 d3 37 be
       0.20619227 0.13048078 -0.045980353 -0.1795162
000120 3c 2b d3 be 62 5c ab 3e 12 06 a7 be 7e d7 ac 3f
       -0.41243923 0.3346892 -0.3262182 1.3503263
000130 4b 31 d8 be 21 86 73 be 65 20 30 3e b3 13 17 c0
       -0.42225108 -0.23781635 0.17199858 -2.3605773
000140 92 31 bf 3c 39 48 87 bf b9 82 99 3e b7 4d 46 c0
       0.023339067 -1.0568916 0.29982546 -3.0984933
000150 46 a4 1a bc 62 04 fa 3e 91 83 42 3e 09 b0 fa bd
       -0.00943858 0.4883147 0.18995501 -0.12240607
000160 e8 6c d5 3e 47 6e 4d 3d 1f 69 da 3c f3 73 62 3e
       0.4168465 0.050153997 0.026661454 0.22114544
000170 6e 24 c3 3e 08 3e e3 bd d5 36 ec 3d d2 1a 9b 3d
       0.3811373 -0.11095816 0.11533896 0.07573475
000180 3f 70 1b 3d 0a 97 df bf b5 eb 2b c0 74 cb 3f bd
       0.037948843 -1.7467968 -2.6862614 -0.046824887
000190 9f d2 75 be 22 19 4a 3f 27 d3 46 c0 15 3b 25 41
       -0.24006127 0.789446 -3.1066377 10.326924
0001a0 44 84 fe be 65 10 10 bd 91 8f db 3f 20 49 c2 3c
       -0.49710286 -0.035171885 1.7153188 0.02371651
0001b0 01 39 1a 3d 1a c5 21 bf 84 92 ca bf 50 c6 50 3d
       0.03765202 -0.6319138 -1.5825963 0.050970376
0001c0 6b e5 a4 be de 9e 43 be ef be 2a 3d 2d f5 e9 3c
       -0.32206282 -0.19103572 0.041685995 0.028559292
0001d0 c0 29 03 3f 85 3f 57 bd 59 37 bd 3e 43 09 a5 3d
       0.5123558 -0.05255081 0.3695629 0.08058407
0001e0 a1 6d 6d bd d7 fb a3 be e9 39 0f be 29 43 47 be
       -0.05796588 -0.32028076 -0.13986935 -0.19459213
0001f0 cc f0 d4 3e b0 80 8f bf a9 39 36 bd c5 26 a6 bc
       0.41589963 -1.1211147 -0.044488583 -0.020282159
000200 15 43 c0 3e 6c 9d 14 3f 0c fa 1c bf 8a d3 0d bd
       0.3755118 0.58052707 -0.6131904 -0.034625567
000210 b0 37 c4 bd 46 3f 1c 40 41 f6 6f 3e 39 b9 8f bd
       -0.09580934 2.441362 0.23433782 -0.0701775
000220 1c da e1 bc 2d 1c 70 3d bb 5f a0 be c1 98 57 3e
       -0.027569823 0.05862062 -0.31323037 0.21054365
000230 f5 65 bd 3e f1 21 4d be 9a f0 bf be b7 2b 64 bf
       0.3699185 -0.20032479 -0.37488252 -0.89129204
000240 b8 9f bb bf b5 8a 24 bf f6 23 16 be de fd 1d 3f
       -1.4658117 -0.6427415 -0.14662156 0.61715496
000250 5e 5f b9 41 d9 34 44 3e 13 d1 3b be d1 c4 15 be
       23.171566 0.19160785 -0.18341474 -0.14625861
000260 52 33 aa 3f ab ea 97 bf 67 fd 59 bf 9c 50 dc bb
       1.3296912 -1.186849 -0.85152286 -0.0067234766
000270 4a 9b c3 bf 6d 7b ba 3d 4a d2 12 3e 4c 97 04 40
       -1.5281765 0.09105573 0.14338031 2.0717344
000280 b0 f6 e2 3f 2e 5c e1 3e 84 82 85 be 83 42 a1 3c
       1.7731533 0.4401564 -0.26076138 0.019685036
000290 9f c8 c2 3e f6 09 51 be ec 24 a0 3e 63 d7 e0 bd
       0.38043687 -0.20413956 0.3127817 -0.10978582
0002a0 50 a3 90 3e c6 a5 2a 3e 2d 85 9a bd 37 f3 76 be
       0.28249598 0.166648 -0.075449325 -0.24116217
0002b0 8f f9 c3 3d e9 f9 6b bf 43 a2 b5 c0 e0 29 15 bf
       0.09569084 -0.9217821 -5.6760573 -0.5826702
0002c0 eb 10 45 3d 47 aa 34 3f 96 06 85 3d 60 92 00 bf
       0.048111837 0.7057232 0.06495397 -0.5022335
0002d0 cf c7 79 3d b9 28 4a be a0 b3 5a be 4d eb 54 bf
       0.060981568 -0.19742097 -0.21357584 -0.8317154
0002e0 44 26 8b be 69 1d bc be ed 58 2a 3b 6a 6c 3a bd
       -0.27177632 -0.36741188 0.0025992945 -0.045513548
0002f0 c8 c3 d5 3e e3 bc f1 3e 8d 8e 0d 3e 5e 4c a4 bc
       0.41750932 0.47214422 0.1382391 -0.020055946
000300 1f 1b d5 40 2d 14 9a 3d a7 09 ff 3d 7c 09 b7 bd
       6.6595607 0.075233795 0.12453013 -0.08937356
000310 c7 1e 2a 3f a1 32 a0 bf 12 02 9e bf dc be 3c be
       0.6645321 -1.2515451 -1.2344382 -0.18432182
000320 1a 01 84 3d b5 a7 4d 3e 3d 8e ef 3e 23 57 c5 be
       0.064455226 0.20083506 0.46788207 -0.38543043
000330 82 02 49 3e 47 8f f1 3d f6 fa 2a be e1 0d 13 be
       0.19629863 0.11794906 -0.16697297 -0.14360763
000340 86 d5 23 3c 0f 24 d2 bd 6a 84 a1 3e c3 6d d5 be
       0.009999638 -0.10260784 0.31546336 -0.41685304
000350 79 02 80 bf ce 1a e9 bd 2a b7 3b 3e 96 ec 70 3e
       -1.0000755 -0.11382066 0.1833159 0.2352775
000360 e6 84 9b 3e b2 c2 95 be 9d 07 20 be 95 8f 88 3c
       0.3037483 -0.29250103 -0.15627904 0.016670028
000370 7f 05 b7 3b c4 0f a0 3e 29 8d ae bd 66 bd 3a bc
       0.005585372 0.31262028 -0.08523018 -0.011397695
000380 95 04 f6 3e ae 12 b8 3e 1e e0 14 bf 44 0f 05 bf
       0.4805037 0.3595175 -0.58154476 -0.5197642
000390 ba 7a 23 be f6 8f 00 bc d3 a4 41 3e 43 ec 50 bf
       -0.15964785 -0.007846823 0.18910532 -0.81610507
0003a0 07 38 93 3c 64 d9 5e be 41 02 0c be 84 c0 00 bf
       0.017971052 -0.21762615 -0.13672735 -0.50293756
0003b0 f4 27 a6 be 20 4c 37 be 53 93 8b 3e 0b 85 7a 3d
       -0.32452357 -0.17900133 0.27260837 0.061162036
0003c0 88 df 54 3f 19 69 32 3d a0 78 ad be a3 1d 9c 3c
       0.8315358 0.04355726 -0.33881092 0.0190571
0003d0 46 29 12 bd df 08 06 be e9 8e e3 be a4 bb 06 bf
       -0.035683893 -0.13089322 -0.4444497 -0.52630067
0003e0 00 a6 95 be 7d bf 88 be bb 87 ce 3e e1 f2 c0 3e
       -0.2922821 -0.26708594 0.4033793 0.37685302
0003f0 28 e7 05 3b a2 4e f2 bd 06 f3 96 3f eb f4 f1 3e
       0.002043197 -0.11831404 1.1792915 0.4725717

lstm.weight_hh_l1 f4 [200, 50]
000000 53 0a 1c 3e 74 a1 48 c0 49 5a de c0 7e a7 0c be
       0.15238313 -3.1348543 -6.948521 -0.13735768
000010 13 0e 23 c0 12 40 f9 bb 98 1c d5 3f 10 06 0f bf
       -2.547734 -0.0076065147 1.6649351 -0.55868626
000020 36 4a e4 40 87 0c 5b bf 96 37 33 c0 b1 ed f1 bf
       7.134059 -0.8556599 -2.8002677 -1.8900663
000030 45 c9 1d 40 3b c0 05 bf 96 54 3b bf 5d 64 8c 40
       2.4654095 -0.52246445 -0.7317594 4.3872514
000040 df 2a 1f c0 d7 1d 07 40 a9 2d 33 40 b4 f1 f4 bf
       -2.4869916 2.1111963 2.7996619 -1.9136262
000050 24 56 86 bf d2 43 32 c1 de 76 d3 bf 6f 3d 46 3f
       -1.0495038 -11.141558 -1.652065 0.7743749
000060 6d 44 1a c0 0f 28 5b bf d0 17 10 c0 57 25 b2 bf
       -2.4104264 -0.85608 -2.2514534 -1.3917645
000070 6b 77 1a 3e a1 7d fd bf 62 6e 28 bf c7 a1 92 3f
       0.15084617 -1.9803964 -0.6579343 1.145562
000080 90 d9 14 bf 7e c9 b8 3f 98 64 72 3f e6 5b f7 bf
       -0.58144474 1.443649 0.94684744 -1.932492
000090 df bf b7 bf 8e 12 2d c0 86 a7 31 c0 01 39 45 c0
       -1.435543 -2.7042575 -2.7758498 -3.0816042
0000a0 79 70 cb be 58 0d 4c be 8f d2 71 bf 15 ef 61 bf
       -0.39734247 -0.19926965 -0.9446191 -0.88255435
0000b0 a8 95 16 3e c7 bd 0f c0 be 36 f2 bd 2a 63 9a 3e
       0.14705527 -2.245958 -0.118268475 0.3015378
0000c0 09 ff 2c 40 8c 72 66 3f 65 41 29 40 3c de 9c c0
       2.703066 0.90018535 2.6446164 -4.902128
0000d0 72 5a 34 40 6a 2f 07 3f 04 83 ab bb 57 62 c7 3e
       2.8180203 0.52806723 -0.005234124 0.38942215
0000e0 45 6d b3 3f 8d 57 ae bf c7 ca c9 3e e1 7e 55 bf
       1.4017721 -1.3620468 0.3941252 -0.83396727
0000f0 ab c9 58 3f 6e 20 79 c0 c0 fc dc 3f 59 84 1d 40
       0.8468272 -3.8926044 1.7264633 2.4612029
000100 04 d4 ca bf cb 57 00 c0 cc 41 68 be f3 73 16 40
       -1.5845952 -2.0053585 -0.2268135 2.350827
000110 2b 0c 5c bf c9 af 0b c0 40 f5 25 3f af 1e 21 c0
       -0.85956067 -2.182604 0.64827347 -2.5174978
000120 07 52 d0 3f 29 c0 8c 40 63 6a 23 c0 fb fb c8 3f
       1.6275033 4.398457 -2.5533683 1.5701898
000130 42 35 cf 3e ed 29 8e 3e 4c f7 0f be c4 34 7b c0
       0.4047032 0.27766362 -0.1405918 -3.9250956
000140 cf 2f e9 3f 48 3e c7 bf 97 87 03 bf ec 09 49 bf
       1.8217715 -1.5565882 -0.5137877 -0.78530765
000150 4a 29 c3 3c b6 0b 9e be 54 80 ad 3e 9c 76 24 bf
       0.0238234 -0.3086831 0.3388697 -0.64243484
000160 0d 58 5b c0 9c 53 9c be c0 6e e9 3f c8 c0 7d 40
       -3.4272492 -0.3053254 1.8236923 3.9648914
000170 54 88 9f 3f 1d 94 62 3e 4b 59 58 3f cb 92 b5 bf
       1.2463479 0.22126813 0.8451125 -1.4185423
000180 a4 aa c4 bf 78 4d 58 be 87 54 87 bf 44 ab 76 3e
       -1.5364575 -0.21123302 -1.0572671 0.2408877
000190 65 9b 36 be aa 15 47 3e 2b 00 61 bf 76 24 8a be
       -0.17832716 0.19441858 -0.8789088 -0.26980942
0001a0 fc 25 2c 3e f1 74 63 bf 5a 33 1b bf c1 78 20 3f
       0.16811365 -0.88850313 -0.6062523 0.62684256
0001b0 85 eb 0a 3f 0c 61 d1 3f 07 72 db bf d7 20 9d bf
       0.54265624 1.6357741 -1.7144173 -1.2275647
0001c0 f3 54 a4 bf 75 37 53 c0 eb 3b c3 3f fc d3 00 40
       -1.2838424 -3.3002598 1.525266 2.0129385
0001d0 aa 2b 34 3f 92 48 14 40 c1 2a 6e be 90 9e a7 be
       0.70379126 2.3169293 -0.23258497 -0.3273816
0001e0 8e 41 2d 41 34 1f 34 c0 e1 f6 32 40 03 ee c3 3e
       10.828505 -2.8144045 2.7963183 0.38267526
0001f0 77 6d a2 3f d0 09 54 3f e4 e4 cb 3e 1c 83 ab 40
       1.2689656 0.8282747 0.39823067 5.3597546
000200 ef b5 89 bf 74 b2 2c 40 58 a9 d9 3f 92 39 64 40
       -1.0758647 2.698392 1.7004805 3.5660138
000210 64 b9 9e 40 9e 51 65 be ec 3a 4c 40 02 ee 30 bd
       4.9601307 -0.22394416 3.1910963 -0.043195732
000220 47 de dd bf 22 01 5c 40 ea 1b 53 3f 0a 12 5e bf
       -1.7333459 3.4375691 0.8246447 -0.86746275
000230 60 5d 9f 3f aa 23 02 c0 29 23 fd 3d 0c c5 0a 3d
       1.2450371 -2.0334268 0.12360222 0.033879325
000240 fd 20 88 bf 65 26 69 be 39 8c ae 3e 6f 5a 23 bf
       -1.0635067 -0.22768553 0.34091356 -0.63809866
000250 3f 80 be be 18 f2 1f 3f 36 1c c0 be 28 ae d4 be
       -0.3720722 0.6247878 -0.37521523 -0.4153912
000260 fb d4 a6 be c3 64 0e bf 56 89 95 bd fb 89 a2 3d
       -0.32584366 -0.556225 -0.073015854 0.07936474
000270 15 3f 13 bf 7f 4d c9 3e f5 82 99 bf 81 d2 8b 3e
       -0.5751813 0.39316937 -1.199309 0.2730904
000280 89 47 d8 3f 35 75 8c 3e ef 8c c9 bd 67 76 57 3d
       1.6896831 0.27433172 -0.09841334 0.05260315
000290 bb e7 72 be ba f4 67 bf 4e 8d 52 3e d8 47 eb bf
       -0.2372121 -0.906078 0.20561716 -1.83813
0002a0 79 38 fe bd d9 ad db bf 54 5c 46 bf 78 f3 46 c0
       -0.12413115 -1.7162429 -0.7748463 -3.1086102
0002b0 bb ff 92 be 93 8c 0a 3f 55 bc e1 3f 35 20 62 3e
       -0.28710732 0.5412075 1.7635599 0.22082599
0002c0 b0 4d 1b bf d0 b4 35 bf 29 97 1f 40 7f a4 d6 3e
       -0.60665417 -0.7097902 2.493601 0.41922376
0002d0 5a 08 04 c0 28 dd c7 3e fa 66 80 3f aa 91 2b bf
       -2.0630097 0.39035916 1.0031426 -0.6701914
0002e0 cc 8d bc 3d 38 ae 1e bf 4a e9 02 3f 6e 8c ff 3e
       0.09206733 -0.61984587 0.5113722 0.49911827
0002f0 66 68 f4 be 93 d1 2d bf f9 8a 0d bf 6d 4e ad 3f
       -0.477359 -0.6789791 -0.5529018 1.3539559
000300 59 93 32 3f 0b 5b a4 bf d2 36 1e be 18 02 8b be
       0.69756085 -1.2840284 -0.154506 -0.27150035
000310 bc 03 33 bf 24 26 d1 3e 10 93 23 bf f0 48 d2 be
       -0.69927573 0.4084941 -0.63896275 -0.41071272
000320 57 49 9a be cf 89 c6 3e f8 67 a0 3f e5 16 36 bf
       -0.3013408 0.38777015 1.2531729 -0.71128684
000330 d3 6f 90 be 5a c0 51 3e de 6a 68 3f d1 2e ba bf
       -0.28210315 0.20483533 0.90788066 -1.4545537
000340 c4 62 36 be 4b c1 1c 3f 04 e3 60 be 6d 44 72 bf
       -0.17811114 0.6123244 -0.219616 -0.9463566
000350 a6 44 94 bf aa dc 39 3f c9 35 a1 be 17 69 56 3f
       -1.158345 0.7260233 -0.31486347 0.83754104
000360 fa d7 e9 be 2a 74 fa bf 3f 1c 17 bf a0 5f 27 3f
       -0.4567259 -1.95667 -0.59027475 0.6538029
000370 a1 fc 2f bf 65 e5 77 41 80 9a 0f bf 53 7f b4 3e
       -0.68744856 15.493505 -0.56095123 0.3525339
000380 05 78 38 bf 00 bd ab bf f4 0c 55 be 70 b6 37 3f
       -0.72058135 -1.3417053 -0.20805722 0.7176275
000390 f9 5b b2 be cd 0a 31 3e 46 b2 54 40 9e a9 e7 be
       -0.34835795 0.17289276 3.323381 -0.45246595
0003a0 4a 4c 55 bf 13 c7 2a 3e 3e 7c 1f bf 17 f7 95 3f
       -0.8331953 0.16677503 -0.62298954 1.1716031
0003b0 b7 2e fb 3e fd 84 93 be 49 22 83 bf 71 95 62 3f
       0.49059078 -0.288124 -1.0244838 0.8850928
0003c0 11 f2 3b c0 1f 75 b0 be 24 47 ed 3e 83 0c b0 be
       -2.9366496 -0.34464356 0.46343338 -0.34384546
0003d0 e7 73 1c bf 8f 59 a2 3f c6 cb 4c bf 39 33 23 3e
       -0.6111435 1.2683581 -0.79998434 0.15937509
0003e0 20 8b 23 be 24 20 77 3f c2 dc cd be df b4 56 bf
       -0.1597104 0.9653342 -0.40207487 -0.8386974
0003f0 e7 75 ed bf 7b 4a 64 bf d7 35 9b 3d ae 72 91 bf
       -1.8551606 -0.8917615 0.075786285 -1.1363122

lstm.bias_ih_l1 f4 [200]
000000 a8 a2 a3 bf ae 55 36 bd 8a 2f ca bf 1e 4c b7 bf
       -1.2784014 -0.044515304 -1.5795758 -1.4320104
000010 ba 46 41 bf f3 28 13 bf 43 a4 a3 bf e2 08 b5 bf
       -0.75498545 -0.5748436 -1.2784504 -1.4143336
000020 1a 15 91 3f 95 ed 9c bf 1f 38 a8 bf 1b d7 9a bf
       1.1334565 -1.2260004 -1.3142127 -1.2096895
000030 b9 15 28 c0 e9 05 72 bf eb ff ba bf 84 04 9c bf
       -2.6263258 -0.9454027 -1.460935 -1.2188878
000040 ac 00 c7 bf e9 6f d1 bf 4a ed 90 bf f0 75 aa bf
       -1.554708 -1.6362277 -1.1322415 -1.3317242
000050 9c 00 7d 3f e3 c8 7f 3e d8 be 82 bf d0 d0 69 bf
       0.98829055 0.24978976 -1.0214491 -0.9133425
000060 89 19 b9 bf 6e 11 bd bf 9e 9d af bf 75 15 d4 bf
       -1.4460918 -1.4770944 -1.3719976 -1.6569048
000070 81 66 a9 bf 17 92 91 bf f3 b4 bd bf d2 56 11 c0
       -1.3234407 -1.1372708 -1.4820846 -2.270924
000080 e8 b5 ac bf f1 e2 a9 3d a8 de c1 bf 72 ee 81 3f
       -1.3493013 0.08295239 -1.5146074 1.0150893
000090 6e 89 80 bf 1f c6 07 c0 c7 0f e9 bf 51 15 96 bf
       -1.004194 -2.1214674 -1.820794 -1.1725255
0000a0 e6 63 a7 bf 6c 9d b2 bf 8e 1c 4a bf 82 5e 00 be
       -1.3077362 -1.3954291 -0.7894982 -0.12536052
0000b0 3f e7 8d bf 9d 3f 98 bf e3 63 85 bf f0 f6 ae bf
       -1.1086196 -1.1894413 -1.0421108 -1.3669109
0000c0 14 dd 55 bf 78 d8 65 bf ba 41 03 bf 6a 95 68 bf
       -0.83540463 -0.8978343 -0.51272166 -0.9085299
0000d0 b2 cc 41 c0 bf c3 80 bf 8c 2d ef c0 17 84 7f c0
       -3.0281186 -1.0059737 -7.47431 -3.9924371
0000e0 7b 5e ca c0 6b 54 a1 bf db fd 2d be 97 59 89 c0
       -6.3240333 -1.2603887 -0.1699137 -4.2921863
0000f0 63 98 2e c1 0c 35 ac c0 f9 16 b1 c0 84 49 7e c0
       -10.912204 -5.3814754 -5.5340543 -3.973237
000100 a2 f2 d5 c0 75 c4 f9 bf be d3 d1 c0 0a d3 2b c0
       -6.6858683 -1.9513079 -6.5570974 -2.6847558
000110 7a 1a a3 c0 1e 11 02 c1 db 41 00 c1 b8 d4 14 c0
       -5.096982 -8.129179 -8.016078 -2.3254833
000120 23 7c b3 c0 ff c7 a9 c0 e5 b4 ac c0 5f ab 98 c0
       -5.6089034 -5.3056636 -5.397082 -4.7709193
000130 72 62 50 c0 1e ea aa bf e7 b4 81 c0 d6 cc 16 c0
       -3.2560086 -1.3352697 -4.053333 -2.3562522
000140 28 7d a8 c0 5b e1 32 c0 f3 64 8b c0 12 f9 3a bf
       -5.265278 -2.7950046 -4.356073 -0.730363
000150 fe 0e 8a c0 d8 f0 a5 c0 59 b3 8e c0 76 a6 7a c0
       -4.31433 -5.18565 -4.459393 -3.91641
000160 a7 10 1d c0 72 2d 42 c0 79 b1 9e bf db 78 56 bf
       -2.4541414 -3.0340238 -1.239791 -0.8377816
000170 ec 88 57 bf 24 30 e8 c0 f1 f8 b1 bf 84 d4 d8 be
       -0.841933 -7.2558765 -1.3904096 -0.42349637
000180 66 70 b5 bf 28 e9 db bf 1f ac 0b c1 5c 62 15 c1
       -1.4174926 -1.7180529 -8.729522 -9.3365135
000190 b5 5b 17 40 d0 bd db bf b6 a0 f2 3e 78 97 90 c0
       2.3649724 -1.7167301 0.47388238 -4.51849
0001a0 28 b8 9f be e3 88 e6 be c1 2f 10 c0 fc 7c 23 40
       -0.31195188 -0.4502631 -2.2529147 2.5545034
0001b0 05 7a bd 3f 4e 2e a7 bd e6 94 4b 3d 83 05 9b bd
       1.4802862 -0.08163129 0.049702547 -0.07569411
0001c0 e7 25 98 bd 9d 11 bd bc 92 e8 0c bf e8 34 33 3f
       -0.07429104 -0.023079688 -0.55042374 0.70002604
0001d0 be 4b 47 bf fb 87 7c 3d 2c 3f a0 bd e7 c4 04 3e
       -0.7784995 0.06165312 -0.07824549 0.12965737
0001e0 36 45 18 bc 92 b1 a3 3e 5b 94 03 be dc e5 da bd
       -0.009293845 0.31971413 -0.12849562 -0.106883734
0001f0 19 5d d3 3b 10 83 02 40 a8 78 78 bf 14 9c d4 3e
       0.006450307 2.0392494 -0.97059107 0.41525328
000200 3a e6 eb bf d9 1e 1e 40 25 c1 a4 3e 33 84 32 3e
       -1.8429635 2.4706328 0.32178608 0.17433242
000210 f3 f1 fb 3d b8 f7 0c 40 80 cb c3 3d 58 b7 66 be
       0.123020075 2.2026196 0.09560299 -0.22530878
000220 11 af 35 be ba 18 96 bd 61 5a d7 3f b4 c4 34 3f
       -0.17742564 -0.07328935 1.6824456 0.70612645
000230 2b a0 7a be 8b 30 f0 3d 56 c5 cf be 47 0b 1c 3f
       -0.24475162 0.11728009 -0.40580243 0.6095471
000240 fa 4a c7 c0 c5 ee 13 c0 23 e8 47 c0 2d 6f a1 bc
       -6.2279024 -2.3114483 -3.1235435 -0.019706333
000250 fd 79 12 3f da 5c 25 bf ab fb b0 bf 23 a5 e7 bf
       0.5721739 -0.64594805 -1.3826803 -1.8097271
000260 4c db 32 bd 76 ad 3f bf 01 4c 40 be 96 18 15 bf
       -0.04366617 -0.74874055 -0.18778993 -0.5824064
000270 8b 96 df bf 05 e4 5a bf 9e b8 f5 bf 74 e0 8f bf
       -1.7467817 -0.8550418 -1.9196966 -1.1240373
000280 e0 b0 1f bf ad 18 9c bf b3 68 d4 3e 17 98 a9 3c
       -0.62379265 -1.219503 0.4148613 0.020702405
000290 1f 92 d1 3e ed 6d 98 bf 62 47 d6 be 4f d7 bf be
       0.40931794 -1.1908547 -0.41851336 -0.37468955
0002a0 9c ec 30 3f f6 f6 07 3f 40 b7 e0 bf 7d 89 f0 bf
       0.6911104 0.5311121 -1.7555923 -1.8791958
0002b0 ca ab f8 bf 30 14 35 3e 0c 07 09 c0 ef a9 4a bd
       -1.9427426 0.17683482 -2.141055 -0.049478468
0002c0 dc 4e 8f be 4e 27 8c bf c6 c3 ff bf cf da 16 c0
       -0.27989852 -1.0949495 -1.998162 -2.357105
0002d0 e6 1c 1d 3f 05 59 9c bf d8 66 88 bf 34 58 02 c0
       0.6137222 -1.2214667 -1.0656385 -2.0366335
0002e0 72 aa 14 bf fb b7 83 bf f5 b5 f2 bf 98 3b a4 3e
       -0.5807258 -1.0290521 -1.8961779 0.32076716
0002f0 8b bf 2c bf 4c 18 a7 be 91 20 82 bf 54 65 98 3f
       -0.6747977 -0.32635725 -1.0166188 1.1905923
000300 5c 10 fa be a9 54 e5 bf 97 ca 97 bf 78 c0 24 bf
       -0.48840606 -1.7916461 -1.18587 -0.64356184
000310 a6 09 32 be 2a 7b ea be 95 bb c8 bf ae 3b 01 c0
       -0.17386493 -0.45797092 -1.5682245 -2.0192676

lstm.bias_hh_l1 f4 [200]
000000 52 15 a0 bf a2 48 d6 bd 5c 16 b8 bf 33 d1 ad bf
       -1.2506506 -0.10463072 -1.4381824 -1.3579468
000010 62 ee 3e bf 55 6c 2a bf 10 9b 89 bf 5f 2d b4 bf
       -0.74582493 -0.6657155 -1.0750446 -1.4076346
000020 5e c4 7d 3f 2f 6e b4 bf bb 24 93 bf 84 5c 80 bf
       0.9912776 -1.4096125 -1.1495584 -1.0028234
000030 bf 4d 21 c0 6d d2 8d bf ac 57 a8 bf 1b d4 8d bf
       -2.5203702 -1.1079842 -1.3151755 -1.1080354
000040 3f 8f de bf 88 3c d0 bf 98 e7 8c bf 82 a3 9d bf
       -1.7387465 -1.6268473 -1.1008177 -1.2315524
000050 49 22 62 3f 4f b8 18 3e 6a 35 8d bf 9f e2 50 bf
       0.88333565 0.14914058 -1.1031926 -0.81595796
000060 d6 a5 d2 bf 6b 9d b8 bf 39 34 a8 bf 7b f8 e7 bf
       -1.6456859 -1.442304 -1.3140937 -1.8122705
000070 7f dd 9d bf 72 53 a2 bf 48 42 d2 bf ae 0a 09 c0
       -1.233322 -1.2681715 -1.6426477 -2.1412768
000080 7d d1 a8 bf 1f ef 5e 3e 23 06 c3 bf 36 ef 73 3f
       -1.3188931 0.21770905 -1.5236248 0.9528688
000090 25 2d 93 bf 1f 87 00 c0 1e 58 e5 bf b1 76 9d bf
       -1.1498152 -2.0082471 -1.7917516 -1.2301847
0000a0 93 07 bd bf 79 df bb bf 2d 94 3f bf 5f cb 30 be
       -1.4767936 -1.4677573 -0.74835473 -0.1726508
0000b0 2c c3 88 bf 96 35 9d bf a0 3c 90 bf c1 9d c8 bf
       -1.0684562 -1.2281978 -1.1268501 -1.5673143
0000c0 03 c9 6a bf 6a d3 95 bf a2 6a c5 be 6a 8a 51 bf
       -0.9171297 -1.1705143 -0.38557917 -0.8185183
0000d0 00 c7 48 c0 39 57 8f bf a8 e4 eb c0 14 4a 85 c0
       -3.137146 -1.1198493 -7.371662 -4.1652927
0000e0 0d c0 cc c0 4a 4a a6 bf 20 9d 95 3c 21 86 90 c0
       -6.3984437 -1.2991421 0.0182634 -4.516373
0000f0 d8 0d 2e c1 f8 e6 b0 c0 50 c3 b3 c0 e3 15 82 c0
       -10.87838 -5.5281944 -5.617592 -4.0651717
000100 8e 84 d7 c0 83 9c 05 c0 c7 aa ce c0 b6 86 1e c0
       -6.734931 -2.0876777 -6.458347 -2.476972
000110 03 d4 9f c0 1a 84 00 c1 20 12 fd c0 f6 a6 0f c0
       -4.9946303 -8.032251 -7.9084625 -2.2445655
000120 09 a9 ab c0 c7 5e a6 c0 81 d6 ab c0 4f 78 98 c0
       -5.364384 -5.1990695 -5.3699346 -4.764686
000130 dc e5 57 c0 13 4d c7 bf 43 f9 86 c0 a3 93 1d c0
       -3.3734045 -1.5570396 -4.2179275 -2.462136
000140 3a 66 aa c0 ca 68 2b c0 5b 92 8c c0 25 49 3d bf
       -5.324979 -2.6782708 -4.3928657 -0.73939735
000150 08 fb 8f c0 4f 18 ab c0 24 8a 8f c0 ca 12 78 c0
       -4.4993935 -5.3467174 -4.485613 -3.8761468
000160 0e 4c 1f c0 84 bd 47 c0 16 ee 91 bf 92 df 25 bf
       -2.489017 -3.120942 -1.1400783 -0.64794266
000170 ae 63 5c bf ee 85 e8 c0 06 a2 aa bf ea f8 28 bf
       -0.860896 -7.266349 -1.3330696 -0.6600481
000180 e7 8b ba bf 79 4f c8 bf b7 f2 0b c1 79 14 13 c1
       -1.4573945 -1.5649253 -8.746757 -9.192498
000190 87 bc 1d 40 f0 ac ea bf 0b bb cb 3e a0 ab 93 c0
       2.4646318 -1.8334026 0.3979114 -4.6147003
0001a0 57 c7 2c be db 7e 04 bf 80 3b 10 c0 62 21 29 40
       -0.16872917 -0.51756066 -2.2536316 2.6426625
0001b0 e4 65 b1 3f 6c 9e 19 be 71 90 2a be ad d9 94 bd
       1.385922 -0.1500184 -0.16656663 -0.07268081
0001c0 a9 7b bd 3d a2 0c 8c 3c 68 83 ea be 75 0b 49 3f
       0.09252102 0.017095868 -0.4580338 0.7853311
0001d0 b1 25 48 bf d4 3a 1c bd e8 0c e1 3d e5 bf 3c bd
       -0.7818251 -0.03814204 0.1098879 -0.046081442
0001e0 a1 73 9f 3d a3 17 79 3e 2f 94 70 be 98 d3 05 3e
       0.07785726 0.24325423 -0.23494028 0.13068998
0001f0 20 72 6f 3d 89 24 0a 40 87 23 7f bf 60 49 a2 3e
       0.058458447 2.15848 -0.99663585 0.31696606
000200 bd 6b ef bf 10 88 0e 40 79 08 21 3e 1e 25 22 3e
       -1.8704754 2.2270546 0.15725888 0.15834472
000210 25 8c 4b 3c b8 30 14 40 88 69 ae 3d fb 42 dc bd
       0.01242355 2.3154736 0.08516222 -0.10754963
000220 3f f2 94 bd 4b 92 1e 3d a8 a2 ce 3f 4d d5 34 3f
       -0.07272767 0.038713735 1.6143389 0.7063797
000230 15 a6 a8 be 65 74 c4 3d f0 9c fd be 27 87 0e 3f
       -0.3293921 0.09592513 -0.49533796 0.55674976
000240 5b 77 ce c0 d7 63 1a c0 ac 68 49 c0 95 ca 7d bd
       -6.4520698 -2.4123437 -3.1470137 -0.061960775
000250 15 01 f6 3e fb c6 60 bf bf 6f b1 bf be 0e ec bf
       0.480477 -0.8780362 -1.3862227 -1.8441999
000260 6b bf 1e be 06 3c 80 bf e8 35 53 be d0 46 09 bf
       -0.15502708 -1.0018318 -0.20626032 -0.53623676
000270 ff 37 e8 bf ca 93 7d bf 46 a9 e8 bf 6d 18 8a bf
       -1.8142089 -0.99053633 -1.8176658 -1.0788704
000280 bd b6 06 bf cc 12 8e bf 24 af cd 3e 4d 12 e3 3b
       -0.52622586 -1.1099486 0.40172684 0.006929672
000290 6d 3a b5 3e b6 e9 92 bf f3 6e 77 be ec 89 c6 be
       0.35396138 -1.1477573 -0.24163418 -0.387771
0002a0 89 3a 3e 3f ba 55 f4 3e 16 da df bf 8c 2a f7 bf
       0.7430807 0.47721654 -1.748843 -1.9309859
0002b0 1c 68 f2 bf f2 c7 35 3e 2f 29 00 c0 f4 9c 8a bd
       -1.8938022 0.17752054 -2.0025136 -0.06768218
0002c0 4d 0e ce be f2 51 98 bf 2d d5 ed bf 83 fc 06 c0
       -0.40245286 -1.1900008 -1.8580681 -2.109162
0002d0 45 c5 de 3e ea 5f 9c bf 9e 10 81 bf 5b 2e 0b c0
       0.4350988 -1.2216771 -1.0083196 -2.1747043
0002e0 ba 59 e6 be f4 82 84 bf 1a 9e e4 bf e2 ed ef 3e
       -0.4499033 -1.0352464 -1.7860749 0.46861178
0002f0 d1 af eb be 29 b8 b4 be b2 37 7b bf 6e 07 7e 3f
       -0.46032575 -0.35296753 -0.9813186 0.99230087
000300 82 53 f2 be f6 d3 f8 bf a5 fe 82 bf 8b 6c 01 bf
       -0.47329336 -1.9439685 -1.0233961 -0.5055625
000310 2b 18 0b be b8 c9 6e be 2a d3 c5 bf 04 21 f5 bf
       -0.13583438 -0.23319137 -1.5455067 -1.91507
