NEURAL_MODELS/LSTM/jolly-bush-44_epoch10.pth (torch, 833135 bytes, 42 tensors)

lstm.weight_ih_l0 f4 [200, 69]
-8.968294 -1.1318618 0.8923906 0.37613928 0.9726998 -5.202395 3.0148919 0.40407068
-2.940491 0.46910238 0.3841724 14.185072 -0.903754 -2.1670575 2.0656698 13.3487425
-1.755576 -2.253724 -2.6522932 0.48237225 0.10812044 0.1452502 -1.5336044 3.457854
15.460758 -3.8186312 2.569583 5.060172 2.4917135 3.0547004 -0.533309 0.22067542
4.541107 1.5721239 -0.75246775 2.2920947 -2.7162287 -2.4694 -2.530483 -0.086277045
-2.3380527 3.1223266 0.6777002 -0.0111732 2.8469841 0.62935466 -1.7846764 -1.6194534
4.9076867 -1.6884562 2.110688 1.424752 -3.49274 5.600909 -0.09330362 4.833417
0.23872308 1.2237679 0.06850833 1.1846248 -2.5535886 8.757265 0.69597435 -4.6688223
2.3368511 1.9119422 3.7024848 -0.14056994 -1.8971621 2.806606 -1.3050908 2.1121366
0.2413068 -9.319168 -2.498474 -2.968298 -0.023670463 1.3483189 -0.9476965 1.9157922
2.3782709 2.2758956 -0.45430785 3.0672686 -0.024610337 -1.3443323 -3.1380107 2.9583125
-9.037876 0.07966223 2.5513709 0.15733843 -8.984988 12.444669 1.1913989 -5.3886847
3.4731927 -1.6030833 0.8160518 1.2613356 -1.5717909 3.490349 0.0022530842 0.88238174
-0.9485224 -0.20429184 -1.3912618 17.274254 -0.63449216 1.0325983 1.463576 -2.6826038
-3.0571353 -3.1450696 3.1717057 2.829048 2.4357452 1.7792573 2.1461585 -3.6626515
1.717531 -0.26575467 -0.3183611 -0.062617086 3.1640928 -2.0398507 -1.0628839 0.13916408
-4.269225 1.510859 4.3854218 -0.93651384 4.4065747 1.9370396 1.4269865 0.53901994
-0.11826947 -1.1409942 -1.4530138 1.353834 -2.4936028 -1.0874742 -1.3120576 5.8728557
-0.85537535 -1.7534513 -0.6498425 -2.4819236 -0.8374016 -1.1096509 -0.4083892 -4.060968
1.3658106 -0.8383983 -4.1489224 0.29168442 0.6390088 -0.09220935 -0.14092456 0.568832
-0.038483407 -1.6275792 -0.5073063 -1.5538447 1.5674007 -3.5517056 0.35555393 0.89462775
-1.42893 2.2310193 -3.1409984 -2.869069 -2.0541375 17.984955 1.6314867 2.1519709
3.1842084 0.54440403 -0.042166173 0.29471645 6.9379063 -3.1932564 -2.2270012 -0.6762849
-1.4238281 3.8938026 -10.075017 -1.8303615 3.3845632 -2.2294378 2.1011891 10.656338
0.01246278 4.2326307 -1.2935631 8.649929 0.11250417 -2.7408621 -2.973394 -1.671048
3.4405355 -5.921895 -0.5481176 -3.2401178 5.3684177 -0.0807918 1.4473149 -4.0247426
-2.3842976 0.89398265 -0.6871873 -3.607894 2.4290795 0.12533478 -0.8468164 -1.5909826
5.7768574 -0.9630596 10.167061 -0.08781434 -4.0043173 -1.3829937 11.865222 3.624122
-2.3388855 -2.697647 3.8105197 -0.04320322 0.51434726 -2.3259714 10.646897 5.69604
-0.46759558 1.3843513 0.07133173 6.608864 3.9165313 0.058226004 -4.2807646 7.8440285
-0.5081238 -4.141152 6.7585874 1.9475651 1.6336234 1.4687066 0.12359243 -0.1731031
-1.8117756 5.214788 -1.7323724 -0.73780036 -1.2914087 -0.2874935 12.876518 5.917523
00000000: 227e 0fc1 d9e0 90bf b673 643f 5495 c03e
00000010: db02 793f 057a a6c0 fdf3 4040 5ae2 ce3e
00000020: 0131 3cc0 302e f03e 3fb2 c43e 0ef6 6241
00000030: 6c5c 67bf 12b1 0ac0 ef33 0440 7394 5541
00000040: b7b6 e0bf 043d 10c0 2cbf 29c0 7ff9 f63e
00000050: 406e dd3d 78bc 143e 264d c4bf 7b4d 5d40
00000060: 445f 7741 7464 74c0 0c74 2440 eeec a140
00000070: 3c78 1f40 3680 4340 f086 08bf bdf8 613e
00000080: c050 9140 5b3b c93f baa1 40bf aeb1 1240
00000090: b1d6 2dc0 a60a 1ec0 6ff3 21c0 05b2 b0bd
000000a0: a8a2 15c0 33d4 4740 c37d 2d3f cc0f 37bc
000000b0: fd34 3640 631d 213f 4770 e4bf 404a cfbf
000000c0: c50b 9d40 551f d8bf 8315 0740 465e b63f
000000d0: 0d89 5fc0 a63a b340 f815 bfbd 5aab 9a40
000000e0: d373 743e 6da4 9c3f 184e 8c3d c9a1 973f
000000f0: ff6d 23c0 c21d 0c41 602b 323f fe66 95c0
00000100: f88e 1540 86ba f43f 83f5 6c40 91f1 0fbe
00000110: 35d6 f2bf 6f9f 3340 370d a7bf 3f2d 0740
00000120: 2119 773e 501b 15c1 ffe6 1fc0 98f8 3dc0
00000130: 8fe8 c1bc b795 ac3f 3d9c 72bf ae38 f53f
00000140: 9735 1840 46a8 1140 0a9b e8be 214e 4440
00000150: 9e9b c9bc 1513 acbf 2bd5 48c0 fe54 3d40
00000160: 249b 10c1 f425 a33d a949 2340 531d 213e
00000170: 83c2 0fc1 5d1d 4741 c27f 983f 1b70 acc0
00000180: ca48 5e40 d531 cdbf c5e8 503f 7273 a13f
00000190: 7230 c9bf e161 5f40 7ba8 133b c5e3 613f
000001a0: 5dd2 72bf e131 51be de14 b2bf ac31 8a41
000001b0: 146e 22bf 2e2c 843f 7556 bb3f c8af 2bc0
000001c0: 1ba8 43c0 d248 49c0 3afd 4a40 1f0f 3540
000001d0: 40e3 1b40 b4be e33f a95a 0940 e268 6ac0
000001e0: 0ed8 db3f ff10 88be 3a00 a3be 633d 80bd
000001f0: 7f80 4a40 ea8c 02c0 940c 88bf 0781 0e3e
00000200: 7e9d 88c0 d463 c13f 6055 8c40 5fbf 6fbf
00000210: a902 8d40 eaf0 f73f 7ea7 b63f 36fd 093f
00000220: 4437 f2bd 190c 92bf 5bfc b9bf 6f4a ad3f
00000230: 3097 1fc0 5b32 8bbf 81f1 a7bf 6fee bb40
00000240: e1f9 5abf 1871 e0bf 145c 26bf d6d7 1ec0
00000250: f45f 56bf 0a09 8ebf 6418 d1be 73f3 81c0
00000260: e2d2 ae3f 45a1 56bf f9c3 84c0 a957 953e
00000270: 1596 233f 41d8 bcbd 874e 10be f99e 113f
00000280: c7a0 1dbd 8454 d0bf d3de 01bf 62e4 c6bf
00000290: 96a0 c83f 254f 63c0 2a0b b63e 5306 653f
000002a0: 2ee7 b6bf 05c9 0e40 1e06 49c0 d49e 37c0
000002b0: fd76 03c0 30e1 8f41 8ed4 d03f e4b9 0940
000002c0: 12ca 4b40 105e 0b3f 70b6 2cbd 13e5 963e
000002d0: 5403 de40 505e 4cc0 3087 0ec0 0221 2dbf
000002e0: 0040 b6bf 1034 7940 4533 21c1 4949 eabf
000002f0: af9c 5840 1caf 0ec0 e279 0640 5c80 2a41
00000300: b030 4c3c b671 8740 7a93 a5bf 1c66 0a41
00000310: 9668 e63d 496a 2fc0 164c 3ec0 e7e4 d5bf
00000320: bc31 5c40 2a80 bdc0 6f51 0cbf 175e 4fc0
00000330: 14ca ab40 2c76 a5bd 9d41 b93f b1ca 80c0
00000340: 5598 18c0 0cdc 643f 82eb 2fbf bce7 66c0
00000350: 0a76 1b40 c357 003e f6c8 58bf 51a5 cbbf
00000360: 04dc b840 138b 76bf 48ac 2241 01d8 b3bd
00000370: 5e23 80c0 f005 b1bf f3d7 3d41 9df1 6740
00000380: 4db0 15c0 40a6 2cc0 8edf 7340 dcf5 30bd
00000390: 43ac 033f b7dc 14c0 b159 2a41 f645 b640
000003a0: b068 efbe 6c32 b13f 5f16 923d d07b d340
000003b0: 73a8 7a40 647e 6e3d 06fc 88c0 4802 fb40
000003c0: 6714 02bf 5184 84c0 5946 d840 d049 f93f
000003d0: 921a d13f 94fe bb3f 071e fd3d f041 31be
000003e0: 43e8 e7bf 8bdf a640 61be ddbf 7ce0 3cbf
000003f0: e14c a5bf 5932 93be 3806 4e41 595c bd40

lstm.weight_hh_l0 f4 [200, 50]
-2.4553564 -1.3349525 -0.4249168 -2.7621696 3.3362842 1.8295081 1.0753443 2.4192755
-0.7686976 1.4036762 -2.4336157 -0.048698977 -0.52247906 -0.931343 -2.0779235 -1.190455
0.4031792 0.32197824 2.103688 0.033075094 -0.15794002 -1.4917227 -0.129824 0.85572654
9.485751 -1.2829345 2.3751414 -2.1853564 2.1800103 0.61505663 -0.29325172 -2.555247
2.044718 -2.2071025 2.3497303 -3.9666731 -0.65039927 -3.0502946 -4.532003 -1.8195604
-1.1157491 0.43928176 1.3661132 -1.729102 -1.5408732 -1.4711411 -2.555714 0.58549595
-2.2335224 -0.29854792 -1.4509231 1.9336919 -0.033399157 -1.038333 -0.421119 -0.3255024
0.76748323 -1.7604578 0.028599821 -1.0282829 -1.8250836 -2.6286325 0.52142453 0.82203114
-0.60550433 0.56878835 2.1636353 -1.2127444 -0.5746585 1.9344592 -1.2196116 -1.4225668
3.377802 0.39975244 1.2026145 0.35691312 -1.8292409 2.5245295 2.4722278 2.1545858
0.22196145 0.024748413 0.5630907 -1.1216323 -0.3735907 -3.3201623 -1.5440747 -1.1075387
1.6935905 1.7690071 -1.370918 -0.4847543 1.2054704 1.3128755 -2.4201806 1.8783063
-1.5251511 3.03151 -0.82733786 0.26828048 -0.8035558 2.4129338 -1.606953 2.5922923
3.6907752 -1.489538 -1.1919299 -0.31963277 -0.6488807 2.7609274 -0.14385241 7.6677914
-1.7500933 -0.44815552 -3.9649446 0.38065064 -0.99461025 -0.3989089 -4.195073 -1.540808
-1.0311084 -2.1973095 -0.34178224 1.0814798 -0.46382585 -0.52054614 -0.30011484 0.77554494
1.3180559 -0.30274427 0.81936395 2.6667404 0.3167483 0.13281466 -1.8628942 -4.683095
0.30107677 0.854471 0.05053757 0.27488238 -0.79291844 0.6213808 5.92237 -1.2741163
1.0835432 -0.4909017 -0.6703953 2.541215 1.9246882 -1.3442503 5.9528227 -2.5719056
-1.9440396 1.2959034 3.3472664 -2.3999982 -0.41533083 -1.7759798 -1.8000911 -0.9553417
-4.2743845 -0.5751436 -2.6204805 -0.5537029 0.5450053 0.5551755 1.7727524 0.06402216
-1.3123842 2.5659888 0.028322114 1.7486287 -2.0231495 6.262367 -1.0294113 -2.5049827
0.9723268 -7.1329627 1.9087869 -5.0075436 -0.6013911 0.622461 0.8462119 1.8837224
-1.0585424 -3.3078148 -0.3083668 -1.5202373 -0.36127245 -1.8858232 -0.8605092 1.8443868
-2.3364491 1.4988593 -0.05593773 0.3006642 -0.58653474 4.311043 -4.6337376 -3.3669062
0.22178774 0.7512219 0.4002544 -2.7504663 0.3870797 0.92089933 1.6384131 1.4791716
0.97134066 0.49934065 -2.2196724 0.3316475 0.06547953 1.2627546 -1.5532256 -0.4008166
0.6498208 -1.1237521 0.78693384 1.995918 -0.41033185 0.75283056 -1.2415907 -1.0305436
-1.3860447 0.47204217 0.48486942 -2.130147 2.4365969 -4.5469255 1.6014308 -0.66743076
-0.17549898 4.848743 1.4167856 -0.0017965236 -2.1101992 2.2382035 -2.5757306 1.0414244
2.1715288 0.2663045 -2.1604958 0.015483271 -0.71723974 -1.2616203 -1.1414455 -2.560354
2.3556604 -0.6133028 0.8132913 0.9089265 -2.2670836 -1.2037158 1.1752831 2.1162937
00000000: 8f24 1dc0 b9df aabf b28e d9be 63c7 30c0
00000010: ae85 5540 522d ea3f e2a4 893f 69d5 1a40
00000020: 5ec9 44bf a9ab b33f 5cc0 1bc0 9478 47bd
00000030: 30c1 05bf 7f6c 6ebf b3fc 04c0 d460 98bf
00000040: 816d ce3e 55da a43e d3a2 0640 c079 073d
00000050: 07bb 21be c5f0 bebf 95f0 04be e510 5b3f
00000060: a3c5 1741 3337 a4bf 5102 1840 e1dc 0bc0
00000070: 4a85 0b40 5a74 1d3f 1725 96be 2b89 23c0
00000080: a9dc 0240 2b41 0dc0 fb61 1640 f9dd 7dc0
00000090: 9180 26bf 0738 43c0 2b06 91c0 5be7 e8bf
000000a0: ded0 8ebf 8ae9 e03e ccdc ae3f 3753 ddbf
000000b0: 553b c5bf 5a4e bcbf d190 23c0 10e3 153f
000000c0: 08f2 0ec0 46db 98be d9b7 b9bf 3783 f73f
000000d0: 8ecd 08bd 19e8 84bf e99c d7be 40a8 a6be
000000e0: c879 443f ae56 e1bf 2c4a ea3c c69e 83bf
000000f0: 579c e9bf 843b 28c0 147c 053f a270 523f
00000100: 5502 1bbf 1d9c 113f 0079 0a40 353b 9bbf
00000110: d21c 13bf 5c9c f73f 3c1c 9cbf ab16 b6bf
00000120: e82d 5840 5aac cc3e 46ef 993f 51bd b63e
00000130: 9124 eabf e491 2140 fb38 1e40 bce4 0940
00000140: dd49 633e 2fbd ca3c b626 103f a691 8fbf
00000150: 4847 bfbe 8a7d 54c0 3da4 c5bf d4c3 8dbf
00000160: 93c7 d83f d36e e23f 3e7a afbf b731 f8be
00000170: db4c 9a3f 4e0c a83f 3de4 1ac0 576c f03f
00000180: 2738 c3bf 4304 4240 6acc 53bf 0f5c 893e
00000190: d5b5 4dbf 826d 1a40 a3b0 cdbf 1ee8 2540
000001a0: a935 6c40 2ea9 bebf 2991 98bf e8a6 a3be
000001b0: 0c1d 26bf 09b3 3040 0c4e 13be 8c5e f540
000001c0: 0f03 e0bf a474 e5be a7c1 7dc0 a4e4 c23e
000001d0: c79e 7ebf ca3d ccbe 0a3e 86c0 3239 c5bf
000001e0: 5cfb 83bf b8a0 0cc0 15fe aebe ee6d 8a3f
000001f0: 957a edbe 8342 05bf a7a8 99be 1d8a 463f
00000200: 0eb6 a83f 4c01 9bbe d6c1 513f e0ab 2a40
00000210: d52c a23e 9100 083e 5173 eebf eadb 95c0
00000220: bc26 9a3e 9dbe 5a3f 7c00 4f3d 62bd 8c3e
00000230: b4fc 4abf d012 1f3f 0e84 bd40 3e16 a3bf
00000240: 8bb1 8a3f 7857 fbbe 079f 2bbf 44a3 2240
00000250: 2f5c f63f 6510 acbf 867d be40 1a9a 24c0
00000260: 4ad6 f8bf 2ae0 a53f 9d39 5640 9299 19c0
00000270: 3ea6 d4be 4e53 e3bf 6369 e6bf 4691 74bf
00000280: c2c7 88c0 9c3c 13bf f4b5 27c0 79bf 0dbf
00000290: 7885 0b3f fb1f 0e3f 8de9 e23f 0d1e 833d
000002a0: 35fc a7bf 2939 2440 c703 e83c 11d3 df3f
000002b0: 487b 01c0 4f65 c840 c0c3 83bf a351 20c0
000002c0: 69ea 783f 3b41 e4c0 2153 f43f cc3d a0c0
000002d0: c4f4 19bf 9b59 1f3f 58a1 583f d11d f13f
000002e0: 517e 87bf 3db3 53c0 41e2 9dbe 2397 c2bf
000002f0: b4f8 b8be a862 f1bf 554a 5cbf de14 ec3f
00000300: 6288 15c0 9fda bf3f f61e 65bd a8f0 993e
00000310: 2427 16bf 10f4 8940 9447 94c0 647b 57c0
00000320: 531c 633e 1450 403f 25ee cc3e a407 30c0
00000330: 4f2f c63e 0fc0 6b3f 85b7 d13f 7f55 bd3f
00000340: c8a9 783f 94a9 ff3e 1d0f 0ec0 b3cd a93e
00000350: 221a 863d f1a1 a13f 19d0 c6bf d537 cdbe
00000360: a85a 263f 1cd7 8fbf 7f74 493f 3e7a ff3f
00000370: 0417 d2be 81b9 403f 72ec 9ebf dae8 83bf
00000380: ea69 b1bf 83af f13e ce40 f83e 5454 08c0
00000390: 34f1 1b40 6a80 91c0 affb cc3f bedc 2abf
000003a0: 01b6 33be e728 9b40 3b59 b53f 5479 ebba
000003b0: 810d 07c0 ba3e 0f40 c5d8 24c0 654d 853f
000003c0: 54fa 0a40 1059 883e 9045 0ac0 8cad 7d3c
000003d0: 069d 37bf c67c a1bf e31a 92bf d7dc 23c0
000003e0: 24c3 1640 6a01 1dbf dc33 503f 68af 683f
000003f0: e617 11c0 5c13 9abf ad6f 963f 5b71 0740

lstm.bias_ih_l0 f4 [200]
-0.23492607 -0.2000273 0.7266306 -0.16361254 0.043705266 0.20361139 -0.30304024 0.38316202
-0.6425445 0.12927587 -0.44425178 -0.2626313 -0.23440751 -0.86951315 -0.13084057 -0.1176947
0.1261048 0.45520562 0.50402886 -0.67416847 -0.817704 1.641574 -0.01978651 0.04266678
0.3952821 1.7236913 -0.40798497 0.23767525 0.7924424 -0.0901186 0.5069154 -0.13782813
0.36318508 -0.76212233 0.69202155 -0.9452974 1.3616675 1.1472092 0.95060164 0.52526534
-0.12701598 0.81015426 0.14113685 0.19560233 0.6924965 0.46600944 0.11525678 -0.7762628
-0.2449051 0.47610277 -0.47879145 -1.1362051 -2.08737 0.9075774 -1.3818959 -0.44156525
-1.2075849 -2.0584126 -0.31700602 -1.0136428 -2.2803476 -1.2550185 -1.0462687 -1.3560454
-0.22770585 -0.9543 -0.09848942 -1.0044216 -1.1514323 -0.52512753 0.47626007 -1.2850606
-1.5131701 -3.1254902 -0.013358779 -1.9885379 -1.8951064 -1.5676814 -0.6756218 -0.17755093
-0.79096234 -1.4223405 -1.3180239 -1.0836933 -1.2222257 -1.1630943 -0.8779864 -1.643038
-0.7512489 -0.63690066 0.033891376 -0.7226958 -2.5585108 -1.8184787 -1.0787233 -0.28408217
-1.6835746 -2.7470398 -0.13676302 -0.74156576 -0.49924642 -0.72276324 1.4258182 -3.102472
0.2049132 -1.0845093 -0.7109949 -0.64587677 -0.60152483 -0.79769033 0.61834675 0.4590489
-1.2126716 0.5305983 -0.7147617 0.52511173 0.48328057 -0.05411622 -0.25804728 0.1787607
-1.1418357 0.3154948 -0.007154172 0.51770574 0.7212314 -0.09023555 -0.98855615 -0.59337634
-1.0672562 -1.193832 0.4365728 -1.1048313 0.031428404 -1.2009854 0.43166408 -0.27466786
0.36511725 0.4919805 -0.41374972 -0.50285256 -0.541777 1.0790454 -0.2492268 0.7335004
1.1395996 0.624788 -0.3849792 0.20625487 -0.9406645 -0.043337278 -0.85840875 -0.23474638
-1.360364 -1.2879643 0.37931108 0.14136656 -1.4139943 0.8381404 -0.9256981 -1.3311663
-0.5254936 -1.511814 -0.94844335 -0.57410735 -1.1633207 -1.0049577 -0.3302128 0.33226275
0.046786834 0.06419905 -0.3907726 -0.09352309 -1.3209428 1.4866595 -1.0986772 -0.695636
0.6214603 -0.41395003 -1.260385 -1.3364096 0.49757344 -1.0217665 0.39602894 -0.9429453
0.3806101 -0.48099524 -0.50731176 -0.015745329 -0.83808 0.41587415 -0.61815476 -1.2745799
-0.33250606 0.10860617 -0.19594651 -0.515183 -0.5974963 0.12575832 -1.2831883 -0.8849594
00000000: 7690 70be f5d3 4cbe 7704 3a3f 0c8a 27be
00000010: 4b04 333d 817f 503e 1728 9bbe d02d c43e
00000020: cc7d 24bf e560 043e f874 e3be 9c77 86be
00000030: 8608 70be 6a98 5ebf 12fb 05be eb09 f1bd
00000040: 9e21 013e b610 e93e 0908 013f 4e96 2cbf
00000050: 0d55 51bf 191f d23f 5217 a2bc 5dc3 2e3d
00000060: 6a62 ca3e eba1 dc3f 68e3 d0be 2461 733e
00000070: 81dd 4a3f 1a90 b8bd 35c5 013f d122 0dbe
00000080: 65f3 b93e 731a 43bf 5328 313f 03ff 71bf
00000090: 1f4b ae3f c0d7 923f a15a 733f ca77 063f
000000a0: 7a10 02be 4566 4f3f 2e86 103e fa4b 483e
000000b0: 7347 313f ca98 ee3e bf0b ec3d 29b9 46bf
000000c0: 67c8 7abe bec3 f33e 2724 f5be 2b6f 91bf
000000d0: 7897 05c0 fe56 683f f7e1 b0bf d714 e2be
000000e0: 2492 9abf 08bd 03c0 9d4e a2be 0cbf 81bf
000000f0: 37f1 11c0 72a4 a0bf 22ec 85bf e592 adbf
00000100: b92b 69be 014d 74bf d2b4 c9bd e390 80bf
00000110: 2262 93bf c26e 06bf 5cd8 f33e de7c a4bf
00000120: 8faf c1bf 0808 48c0 c8de 5abc 6988 febf
00000130: d992 f2bf c9a9 c8bf 8df5 2cbf e9cf 35be
00000140: 827c 4abf 410f b6bf 02b5 a8bf 76b6 8abf
00000150: e471 9cbf 46e0 94bf b7c3 60bf 124f d2bf
00000160: d951 40bf ec0b 23bf afd1 0a3d 9802 39bf
00000170: a4be 23c0 e9c3 e8bf 9b13 8abf 3873 91be
00000180: 5f7f d7bf 80cf 2fc0 9b0b 0cbe 41d7 3dbf
00000190: 3a9d ffbe 0307 39bf 3681 b63f e78e 46c0
000001a0: c4d4 513e 33d1 8abf c303 36bf 2e58 25bf
000001b0: 88fd 19bf 6f35 4cbf f94b 1e3f 7508 eb3e
000001c0: d338 9bbf 4ad5 073f 9ffa 36bf b96d 063f
000001d0: 8d70 f73e f8a8 5dbd c61e 84be 0c0d 373e
000001e0: ac27 92bf 8988 a13e 8b6d eabb 5d88 043f
000001f0: 9fa2 383f 6bcd b8bd 0412 7dbf 83e7 17bf
00000200: da9b 88bf 7dcf 98bf 7886 df3e 1d6b 8dbf
00000210: 12bb 003d e4b9 99bf 1303 dd3e 44a1 8cbe
00000220: a6f0 ba3e dee4 fb3e 01d7 d3be f2ba 00bf
00000230: e6b1 0abf 291e 8a3f 4f35 7fbe afc6 3b3f
00000240: 66de 913f 1bf2 1f3f fe1b c5be 7a34 533e
00000250: 64cf 70bf 6e82 31bd adc0 5bbf 5b61 70be
00000260: 6820 aebf 04dc a4bf 1035 c23e 65c2 103e
00000270: c4fd b4bf 5f90 563f 8dfa 6cbf a863 aabf
00000280: c086 06bf 1f83 c1bf 2fcd 72bf b3f8 12bf
00000290: b1e7 94bf 74a2 80bf a711 a9be 581e aa3e
000002a0: 8da3 3f3d cb7a 833d 5913 c8be 0989 bfbd
000002b0: a714 a9bf dc4a be3f 74a1 8cbf 3315 32bf
000002c0: 0618 1f3f 42f1 d3be 4c54 a1bf 780f abbf
000002d0: f2c1 fe3e 3fc9 82bf 4ec4 ca3e dd64 71bf
000002e0: 54df c23e 0245 f6be 2fdf 01bf 59fc 80bc
000002f0: 698c 56bf 75ed d43e 643f 1ebf 6f25 a3bf
00000300: 3c3e aabe e96c de3d 34a6 48be 08e3 03bf
00000310: 84f5 18bf cac6 003e 843f a4bf b38c 62bf

lstm.bias_hh_l0 f4 [200]
-0.24518317 0.028188469 0.75835854 -0.22579862 0.18919553 0.12384847 -0.22234932 0.16914062
-0.38215747 0.33753717 -0.35925776 -0.17409869 -0.41686046 -0.7173588 -0.10271937 0.015118167
0.18340245 0.6035702 0.56683856 -0.49471915 -0.67759675 1.6610762 -0.09760113 0.075901926
0.44255993 1.5037646 -0.29569343 0.15802164 0.6640539 -0.11099209 0.4059369 -0.2054217
0.39305398 -0.81000274 0.53872395 -0.91131616 1.4582375 1.3715084 0.854128 0.33327705
-0.054525856 0.6766098 0.051403105 0.16537675 0.5145908 0.4073594 0.19006193 -0.69174016
-0.23838198 0.49296144 -0.40705913 -1.3167573 -2.1050093 0.8088056 -1.274201 -0.20854236
-1.3009808 -2.1017718 -0.3854951 -1.1609576 -2.182491 -1.2370685 -1.2178837 -1.3494657
-0.24208102 -0.9894719 -0.11962314 -0.8703309 -1.1365163 -0.4700339 0.51813614 -1.225339
-1.311635 -3.1861494 -0.08058758 -2.2407439 -1.9942114 -1.4843056 -0.7186355 -0.021418687
-0.76284504 -1.3876562 -1.3979679 -1.3224808 -1.45058 -1.2161496 -0.84503627 -1.7187849
-0.7681144 -0.6577418 -0.040749423 -0.5672965 -2.588823 -1.7651026 -0.86746573 -0.4896584
-1.6526327 -2.6050136 -0.28523436 -0.86189306 -0.46416658 -0.8007911 1.4675449 -3.232125
0.29388413 -0.97712857 -0.8567245 -0.7517247 -0.4825164 -0.8836226 0.82230234 0.3484005
-1.2165885 0.75228465 -0.7641651 0.45884785 0.3496057 0.14180069 -0.053797964 0.23044711
-1.001541 0.29566103 -0.11673053 0.44916093 0.5513602 0.026955867 -0.92124075 -0.5565255
-1.1634784 -1.4718877 0.25944015 -1.0744429 -0.09154804 -1.156832 0.48705631 -0.29682478
0.30035198 0.5198086 -0.2527618 -0.42637682 -0.5695759 1.1199443 -0.17856207 0.83258796
1.1014857 0.505596 -0.40948996 0.39940518 -0.8049768 -0.10712877 -0.88985884 -0.14848067
-1.5021784 -1.1860925 0.4562951 0.2696602 -1.3038803 0.8747504 -0.9162375 -1.2458074
-0.39166906 -1.701284 -0.80983275 -0.44081357 -1.1996869 -1.0176326 -0.38258788 0.11298453
0.026970081 -0.010418598 -0.273708 -0.18344487 -1.3662593 1.5033108 -1.282249 -0.74001896
0.5116921 -0.45025492 -1.2650765 -1.3045323 0.7124191 -1.1548854 0.47759852 -0.8572366
0.50997114 -0.3382597 -0.6945088 -0.09624668 -0.73551524 0.38754523 -0.8838411 -1.2059714
-0.42963684 0.0061895973 -0.4104028 -0.31495607 -0.41360793 0.058924593 -1.2952172 -0.75740933
00000000: 4c11 7bbe 81eb e63c c923 423f c137 67be
00000010: 79bc 413e 44a4 fd3d 8aaf 63be 3333 2d3e
00000020: 25aa c3be acd1 ac3e a2f0 b7be ed46 32be
00000030: bc6e d5be d4a4 37bf 885e d2bd 30b2 773c
00000040: dacd 3b3e 9483 1a3f 551c 113f d44b fdbe
00000050: fb76 2dbf 259e d43f 1ae3 c7bd 7872 9b3d
00000060: 3797 e23e 5c7b c03f 2165 97be 6dd0 213e
00000070: 70ff 293f d24f e3bd f6d6 cf3e 115a 52be
00000080: 5f3e c93e 575c 4fbf d0e9 093f 044c 69bf
00000090: 87a7 ba3f 968d af3f 22a8 5a3f 4aa3 aa3e
000000a0: 8156 5fbd 4d36 2d3f 108c 523d 8658 293e
000000b0: 39bc 033f 6991 d03e 989f 423e e215 31bf
000000c0: 681a 74be 7165 fc3e 0e6a d0be 818b a8bf
000000d0: 79b8 06c0 e20d 4f3f 0519 a3bf 218c 55be
000000e0: 8a86 a6bf 6e83 06c0 9d5f c5be 429a 94bf
000000f0: efad 0bc0 4358 9ebf 9de3 9bbf 4bbb acbf
00000100: 16e4 77be 084e 7dbf fafc f4bd 02ce 5ebf
00000110: 5e79 91bf 49a8 f0be 92a4 043f e9d7 9cbf
00000120: a8e3 a7bf dfe9 4bc0 1a0b a5bd 5968 0fc0
00000130: 5242 ffbf bafd bdbf 7ff8 37bf 3e76 afbc
00000140: d049 43bf b89e b1bf 9df0 b2bf 0d47 a9bf
00000150: 9bac b9bf caaa 9bbf 4c54 58bf 2501 dcbf
00000160: 25a3 44bf c461 28bf dee8 26bd 583a 11bf
00000170: 47af 25c0 e2ee e1bf 3c12 5ebf 81b4 fabe
00000180: 7889 d3bf 8bb8 26c0 3d0a 92be 06a5 5cbf
00000190: 3ea7 edbe a500 4dbf 83d8 bb3f 23db 4ec0
000001a0: fb77 963e 1925 7abf 4c52 5bbf 0871 40bf
000001b0: 640c f7be 1735 62bf 6882 523f 8d61 b23e
000001c0: 2cb9 9bbf ba95 403f 53a0 43bf 1bee ea3e
000001d0: 85ff b23e 3334 113e 415b 5cbd 54fa 6b3e
000001e0: 7f32 80bf e260 973e 6b10 efbd 6cf8 e53e
000001f0: f125 0d3f 8dd2 dc3c 6fd6 6bbf 7578 0ebf
00000200: dcec 94bf d166 bcbf 57d5 843e 5887 89bf
00000210: 8a7d bbbd 1213 94bf 725f f93e 6bf9 97be
00000220: bcc7 993e 2d12 053f ff69 81be 104e dabe
00000230: bacf 11bf 565a 8f3f fad8 36be 7c24 553f
00000240: 7cfd 8c3f bd6e 013f aba8 d1be d67e cc3e
00000250: f612 4ebf 5466 dbbd cacd 63bf 510b 18be
00000260: 6247 c0bf e1d1 97bf 839f e93e e710 8a3e
00000270: 8de5 a6bf a4ef 5f3f 8a8e 6abf 9e76 9fbf
00000280: d988 c8be adc3 d9bf 3351 4fbf 51b2 e1be
00000290: 578f 99bf c941 82bf 8fe2 c3be 6f64 e73d
000002a0: 5cf0 dc3c c4b2 2abc 7423 8cbe f9d8 3bbe
000002b0: 96e1 aebf 7d6c c03f bc20 a4bf e271 3dbf
000002c0: 41fe 023f d087 e6be 07ee a1bf eafa a6bf
000002d0: 1961 363f 49d3 93bf cb87 f43e dc73 5bbf
000002e0: 788d 023f 6030 adbe 54cb 31bf fb1c c5bd
000002f0: ba4a 3cbf 546c c63e 6943 62bf 455d 9abf
00000300: 5cf9 dbbe 1bd2 ca3b 5120 d2be ec41 a1be
00000310: 6bc4 d3be ea5a 713d adc9 a5bf 94e5 41bf

lstm.weight_ih_l1 f4 [200, 50]
0.1410563 0.427356 -1.440874 1.6848952 -2.3682132 0.22399834 0.11023219 0.07373541
0.17664218 0.03035842 -0.25222576 -0.13653545 -0.14968395 -0.18564497 0.101002894 0.16511938
-0.13353637 -0.24473101 -0.24971889 0.36276144 0.10344824 -0.49768442 0.4351445 -1.5980792
0.16309375 -1.832659 0.8648205 -0.044126038 0.5495349 0.7696782 0.1697302 0.13960631
0.37499607 0.9997577 -0.11363814 -0.21034166 -0.06119572 -0.35172826 1.3529515 -0.45258853
0.37778768 -0.22197649 -0.07504287 -0.32981908 0.035073593 -0.06724716 0.0076934206 0.98438936
1.5148164 -0.07353934 0.6884682 -0.14145371 1.8863552 -3.3083048 0.3956399 -0.0887823
-2.5409122 0.1992619 0.0428802 3.9823372 1.9920307 -0.7174825 0.4851781 -0.10174666
1.9531349 0.7080648 0.27706316 -0.23129635 0.10675507 0.26402625 -0.1243287 -0.32618046
-0.2447546 0.31157145 -0.354866 0.9484265 -0.57487684 0.28938308 0.15984611 -1.7151499
0.21722771 -1.4804546 0.5034441 -2.2711906 -0.12260066 0.8253943 -0.18583374 -0.30044398
0.69929904 0.6461994 0.11125829 0.45798892 0.4842325 -0.15211183 0.11748959 0.30196944
-0.0791202 -2.0304527 -2.1502485 -0.32418266 -0.114580445 0.3169757 -2.0458777 2.487046
-0.0732291 -0.04115008 2.0981612 0.031305272 -0.045238864 -0.50498724 -1.9706471 0.011772961
-0.6137651 -0.1285507 0.0033493089 -0.28536576 0.4055557 -0.08694267 0.26695374 0.289682
-0.120701894 0.14540483 0.25443697 0.4620857 0.50380707 -0.48310652 -0.08929779 -0.08249381
0.36170918 0.13536358 -0.4833662 0.9470418 -0.07460526 1.7435347 0.61574066 0.09717334
-0.33599392 0.058669943 -0.2850809 0.2347419 0.074821234 -0.18293925 -0.37111804 -0.7487171
-1.0683252 -0.6378887 -0.26091316 0.28922305 12.279655 0.4028918 0.24415344 -0.20350002
0.8842447 -1.0165442 -0.40609303 0.15845312 -1.3302064 0.167734 0.018371765 1.6095775
1.9905638 0.2008248 0.10671327 -0.05373159 0.3550248 -0.058219485 0.020182312 0.022751337
0.24713597 0.1939659 -0.18290903 0.33191818 0.14791553 -0.3826477 -6.1282353 -0.51417845
-0.007391695 0.8547375 0.10730838 -0.6514167 -0.06538527 -0.2079801 -0.34066147 -0.5332279
-0.03986249 -0.4595281 0.052210182 -0.5976354 0.2501441 0.4811353 0.041644387 0.088773
4.772188 0.17420413 0.14283545 -0.16652076 0.6056953 -1.2760531 -0.80294776 -0.4161069
0.17190857 0.116559915 0.26402956 -0.18585797 -0.15664935 0.03747363 -0.27277336 0.060161658
0.19094819 0.030180503 0.19959657 -0.5668902 -0.38999414 -0.20722638 0.47360095 0.40985084
0.30214995 -0.24467972 -0.3451741 0.15040478 0.03754389 0.049608525 0.19200477 -0.16174948
0.371479 -0.59645295 -0.022734858 -0.17050444 0.25741228 -0.15107235 0.065088555 -0.5671762
0.09967954 -0.05962846 -0.3856943 -0.34028634 -0.033778686 -0.30920118 0.25031698 0.05664858
0.6426393 -0.3226301 -0.14344935 -0.09518183 0.035422623 0.16314806 -0.24790803 -0.09998963
-0.072855376 -0.13656361 1.0354971 0.3662168 0.06172935 -0.3656802 1.2827327 0.56972766
00000000: 1071 103e 68ce da3e 8f6e b8bf a5aa d73f
00000010: ce90 17c0 d25f 653e 6ac1 e13d 9702 973d
00000020: b0e1 343e 39b2 f83c bc23 81be f3cf 0bbe
00000030: c046 19be b719 3ebe 9bda ce3d 0e15 293e
00000040: c2bd 08be c49a 7abe 4fb6 7fbe debb b93e
00000050: acdc d33d 7ed0 febe 43cb de3e dc8d ccbf
00000060: 0c02 273e 9294 eabf e064 5d3f 81bd 34bd
00000070: 52ae 0c3f a109 453f c1cd 2d3e f5f4 0e3e
00000080: 7cff bf3e 1ff0 7f3f 1dbb e8bd ce63 57be
00000090: 5da8 7abd ba15 b4be 842d ad3f afb9 e7be
000000a0: 636d c13e ce4d 63be 14b0 99bd 0cde a8be
000000b0: 54a9 0f3d e1b8 89bd 1719 fc3b f100 7c3f
000000c0: 81e5 c13f cb9b 96bd 743f 303f 3ed9 10be
000000d0: 1674 f13f 44bb 53c0 5091 ca3e 7fd3 b5bd
000000e0: 4e9e 22c0 500b 4c3e 26a3 2f3d 9dde 7e40
000000f0: ddfa fe3f efac 37bf 4469 f83e 8e60 d0bd
00000100: 5300 fa3f bc43 353f 39db 8d3e f3d8 6cbe
00000110: 67a2 da3d 732e 873e 0ca0 febd 2001 a7be
00000120: f3a0 7abe 4b86 9f3e ffb0 b5be 14cc 723f
00000130: 212b 13bf 052a 943e b3ae 233e 088a dbbf
00000140: f170 5e3e 897f bdbf b6e1 003f 305b 11c0
00000150: 0e16 fbbd 0a4d 533f 334b 3ebe cbd3 99be
00000160: 4305 333f 536d 253f 63db e33d 867d ea3e
00000170: 52ed f73e 34c3 1bbe 629e f03d bd9b 9a3e
00000180: c509 a2bd f0f2 01c0 ac9d 09c0 45fb a5be
00000190: 27a9 eabd a44a a23e a9ef 02c0 c32b 1f40
000001a0: 23f9 95bd fc8c 28bd 4648 0640 f539 003d
000001b0: 634c 39bd d846 01bf 2a3e fcbf 61e3 403c
000001c0: b61f 1dbf cba2 03be 1480 5b3b 761b 92be
000001d0: ffa4 cf3e 000f b2bd 29ae 883e 3351 943e
000001e0: 8e32 f7bd 01e5 143e 9045 823e 7f96 ec3e
000001f0: 80f9 003f bd59 f7be c2e1 b6bd 84f2 a8bd
00000200: f231 b93e c09c 0a3e c67b f7be 5571 723f
00000210: a4ca 98bd 252c df3f 2ea1 1d3f d102 c73d
00000220: 6507 acbe e54f 703d 20f6 91be 2e60 703e
00000230: e03b 993d 6d54 3bbe 2f03 bebe edab 3fbf
00000240: e1be 88bf ad4c 23bf 6996 85be 0b15 943e
00000250: 7879 4441 d647 ce3e 5c03 7a3e 4f62 50be
00000260: dc5d 623f 1f1e 82bf 6deb cfbe 8941 223e
00000270: 3444 aabf 76c2 2b3e 6280 963c a306 ce3f
00000280: cbca fe3f 04a5 4d3e 7d8c da3d a815 5cbd
00000290: d0c5 b53e 8e77 6ebd 6055 a53c 0361 ba3c
000002a0: 3611 7d3e ff9e 463e 814c 3bbe 2ef1 a93e
000002b0: 2b77 173e 66ea c3be 811a c4c0 33a1 03bf
000002c0: 0836 f2bb 14d0 5a3f 7fc4 db3d 3fc3 26bf
000002d0: b6e8 85bd bcf8 54be 2e6b aebe a081 08bf
000002e0: da46 23bd 4447 ebbe 58da 553d a2fe 18bf
000002f0: e312 803e 5e57 f63e 4e93 2a3d 9ece b53d
00000300: c4b5 9840 9162 323e 7543 123e 6b84 2abe
00000310: d90e 1b3f b555 a3bf fc8d 4dbf f70b d5be
00000320: cd08 303e f7b6 ee3d e22e 873e 8d51 3ebe
00000330: b068 20be f37d 193d f3a8 8bbe 126c 763d
00000340: ec87 433e 1a3d f73c 0b63 4c3e b71f 11bf
00000350: 50ad c7be 2733 54be d37b f23e f8d7 d13e
00000360: 66b3 9a3e 528d 7abe a9ba b0be b603 1a3e
00000370: 9fc7 193d 4f32 4b3d e69c 443e a8a1 25be
00000380: 7f32 be3e 24b1 18bf 743e babc b798 2ebe
00000390: 8bcb 833e b6b2 1abe 264d 853d 7632 11bf
000003a0: c924 cc3d f93c 74bd b979 c5be 033a aebe
000003b0: 855b 0abd 9e4f 9ebe 8c29 803e 5708 683d
000003c0: 0284 243f c62f a5be 63e4 12be b1ee c2bd
000003d0: 5017 113d 4910 273e 9adb 7dbe 5dc7 ccbd
000003e0: 3335 95bd 55d7 0bbe 2b8b 843f c580 bb3e
000003f0: ead7 7c3d 6f3a bbbe 9630 a43f acd9 113f

lstm.weight_hh_l1 f4 [200, 50]
0.44117156 -2.282269 -4.1991224 -0.96645224 -1.2156751 -0.57462233 1.4566215 -0.2095319
4.659063 0.49555865 -5.481383 -0.4549004 -0.041510623 -0.53358716 2.1171248 3.8970935
-3.239609 2.36483 1.0524837 -2.2135277 -0.2957912 -7.101852 -0.7731175 1.1866652
-0.5122973 0.77674544 -1.2754242 -2.3293169 0.9185986 -0.5711185 1.5631527 1.8377852
-1.2361765 1.9741383 1.9434905 -2.3055778 -3.7791526 -3.5155692 -3.3692663 -0.6564944
0.3304941 -0.31515464 -1.9098226 -0.76983166 2.3867836 -1.2788818 0.3545486 1.6681938
2.9022996 0.47584006 1.7709152 -2.3160763 1.6004323 0.5740663 -0.6551644 -0.47511894
0.15550719 -0.6809957 0.37739435 -0.47289854 2.0362792 -2.7031536 1.4732934 0.43298534
-5.054162 -2.3718677 -0.6552656 1.9426618 -1.3177359 -2.0505657 0.47924945 1.2728845
-0.22408552 2.7786713 -1.8191694 1.4253403 0.99525714 1.0333589 -1.8083274 -1.6335797
4.761236 -0.5561188 0.09327816 -0.06315246 -0.6407655 -0.3081125 -0.5220877 0.9272252
-2.11701 -1.5329628 0.5609386 3.7274792 1.3385291 -0.7825564 -0.95313376 -0.7038691
-0.58096933 -0.21388774 -1.8987277 0.9213619 -0.9952018 0.20073822 -1.5052353 -1.3940338
-0.898209 -0.27480018 -1.46892 0.36912417 -0.7216556 1.5484151 -1.7799563 -0.5848618
0.23096712 -2.61164 1.0794573 2.1503263 0.88651294 3.576083 0.28190473 -1.9770491
4.61527 -2.336079 1.0237328 0.5143021 2.010726 0.121157214 0.05790887 0.9854552
-2.1865554 1.8369008 1.7328798 0.72035396 1.8762482 0.4467575 3.2348127 0.1780254
0.86415154 2.6466637 0.4837469 0.09950333 0.22817612 -0.4712229 -0.0889413 0.19459847
-1.4362497 0.066602275 0.33046386 -0.35046187 -0.0962773 -0.5065009 0.46832937 -0.97993225
-0.01559147 -1.1335677 0.4522399 0.29962412 -1.8279792 0.23873475 -0.28352588 0.26832497
0.77192867 -1.074843 -0.5309043 -0.12725028 -0.057073243 -2.2181737 -1.0111113 -0.9267601
-0.28963166 -0.7872494 -1.275309 -2.9708667 -1.3048612 0.22651088 2.5532005 0.2813114
-0.18982767 1.4762459 1.1587352 0.13772051 -1.4479898 0.43566167 0.16390616 -1.1461
0.12938169 0.103633866 0.59630144 1.0734146 -1.3213247 0.031782907 0.43987307 -0.39891136
0.034177657 -0.7969647 -0.40314183 -0.64038414 0.26080644 0.44070044 -0.5905237 -0.7933361
0.17322236 0.24474733 0.7135214 -0.69605136 0.20629288 -0.04669929 0.17557847 -0.59991515
0.1738742 -0.13031147 0.66098017 0.053256847 -0.27927858 0.30818692 -0.58778006 0.19518398
-0.60903263 -0.2426812 -0.9403059 -0.40989342 0.30791378 4.0849276 -1.7196902 0.41055146
-0.10425133 -0.3704603 -0.37030458 -0.19688998 0.33934107 -0.30086014 0.59370774 -1.3173176
-1.4266196 0.10150624 0.064526275 0.48288944 0.7266397 -0.87694204 -0.26241645 -0.5612948
-0.24237825 -0.48411736 0.14485274 0.09919867 -0.6010101 0.58914006 0.20748731 0.12567106
-0.9035661 0.5312581 0.5121324 -0.3647395 -3.761086 -1.9907185 0.039210625 -0.5388125
00000000: 3de1 e13e b210 12c0 365f 86c0 6a69 77bf
00000010: 3e9b 9bbf 731a 13bf 9372 ba3f 888f 56be
00000020: 0b17 9540 ddb9 fd3e 7d67 afc0 b5e8 e8be
00000030: 0b07 2abd 2b99 08bf f97e 0740 fb69 7940
00000040: c155 4fc0 6059 1740 c9b7 863f 70aa 0dc0
00000050: f271 97be 5f42 e3c0 07eb 45bf a5e4 973f
00000060: ea25 03bf cad8 463f 1a41 a3bf 8713 15c0
00000070: 4729 6b3f d234 12bf 6315 c83f 8c3c eb3f
00000080: 083b 9ebf 90b0 fc3f 4cc4 f83f 968e 13c0
00000090: a3dd 71c0 16ff 60c0 0fa2 57c0 0410 28bf
000000a0: 8636 a93e f35b a1be 1175 f4bf b013 45bf
000000b0: 10c1 1840 66b2 a3bf 6587 b53e 6087 d53f
000000c0: 47bf 3940 4fa1 f33e 59ad e23f 983a 14c0
000000d0: f7da cc3f 02f6 123f dbb8 27bf ca42 f3be
000000e0: 473d 1f3e bc55 2ebf d539 c13e c21f f2be
000000f0: 6652 0240 7800 2dc0 e194 bc3f 41b0 dd3e
00000100: b2bb a1c0 aecc 17c0 7dbf 27bf 24a9 f83f
00000110: 92ab a8bf 783c 03c0 2f60 f53e e1ed a23f
00000120: ad76 65be c0d5 3140 8bda e8bf 8d71 b63f
00000130: 2cc9 7e3f 1b45 843f 4677 e7bf 2419 d1bf
00000140: 0c5c 9840 cd5d 0ebf 9f08 bf3d 1456 81bd
00000150: 3509 24bf ecc0 9dbe 8aa7 05bf a15e 6d3f
00000160: 187d 07c0 2038 c4bf ac99 0f3f 058f 6e40
00000170: ec54 ab3f 9e55 48bf 9300 74bf c430 34bf
00000180: 68ba 14bf 6305 5bbe 8209 f3bf 60de 6b3f
00000190: 8cc5 7ebf 528e 4d3e 8dab c0bf b36f b2bf
000001a0: 06f1 65bf 9cb2 8cbe 9205 bcbf d8fd bc3e
000001b0: 6cbe 38bf 7732 c63f 9cd5 e3bf 81b9 15bf
000001c0: a582 6c3e 1c25 27c0 a82b 8a3f f29e 0940
000001d0: 83f2 623f 8bde 6440 d155 903e f20f fdbf
000001e0: 4bb0 9340 5182 15c0 ad09 833f 4da9 033f
000001f0: bcaf 0040 4621 f83d da31 6d3d cb46 7c3f
00000200: 86f0 0bc0 911f eb3f 01cf dd3f 1e69 383f
00000210: e728 f03f 66bd e43e 2c07 4f40 4a4c 363e
00000220: 0939 5d3f f062 2940 acad f73e 67c8 cb3d
00000230: 00a7 693e 2144 f1be db26 b6bd d244 473e
00000240: 08d7 b7bf c666 883d 8f32 a93e bd6f b3be
00000250: 082d c5bd 0baa 01bf dec8 ef3e d7dc 7abf
00000260: 5d73 7fbc bf18 91bf fd8b e73e 5568 993e
00000270: 39fb e9bf e276 743e 4e2a 91be e461 893e
00000280: 1e9d 453f 7594 89bf 58e9 07bf e64d 02be
00000290: a2c5 69bd 8ff6 0dc0 186c 81bf 2640 6dbf
000002a0: 9a4a 94be 2d89 49bf 533d a3bf ae22 3ec0
000002b0: b105 a7bf 78f2 673e a367 2340 0c08 903e
000002c0: 2f62 42be a0f5 bc3f 6f51 943f 9b06 0d3e
000002d0: bb57 b9bf 0c0f df3e 04d7 273e 68b3 92bf
000002e0: a27c 043e fe3d d43d 36a7 183f a665 893f
000002f0: 2b21 a9bf cb2e 023d 0b37 e13e 1c3e ccbe
00000300: dffd 0b3d e105 4cbf 9b68 cebe 37f0 23bf
00000310: 6c88 853e 7da3 e13e 902c 17bf 1318 4bbf
00000320: 3461 313e 0b9f 7a3e 57a9 363f 6c30 32bf
00000330: 713e 533e c147 3fbd d8ca 333e 0a94 19bf
00000340: 140c 323e 5f70 05be ff35 293f da23 5a3d
00000350: 9afd 8ebe adca 9d3e c178 16bf 4fde 473e
00000360: 90e9 1bbf 6c81 78be e3b7 70bf 8ddd d1be
00000370: e0a6 9d3e bab7 8240 cf1e dcbf cd33 d23e
00000380: b981 d5bd f9ac bdbe 9098 bdbe 879d 49be
00000390: 1dbe ad3e 570a 9abe 3bfd 173f dd9d a8bf
000003a0: 799b b6bf 81e2 cf3d 5a26 843d 493d f73e
000003b0: 0f05 3a3f 467f 60bf 735b 86be 04b1 0fbf
000003c0: 0132 78be 3bde f7be 4754 143e ac28 cb3d
000003d0: ccdb 19bf e2d1 163f 8e77 543e eaaf 003e
000003e0: 1c50 67bf 8800 083f 1c1b 033f 23bf babe
000003f0: a2b5 70c0 ddcf febf 529b 203d 9eef 09bf

lstm.bias_ih_l1 f4 [200]
-0.80028665 -0.31813973 -1.3246405 -1.2557048 -0.83434254 -0.506396 -1.0563576 -1.3388675
0.8166848 -0.64762044 -1.2149782 -1.0726397 -2.2343547 -1.2099026 -1.0748193 -0.9253827
-1.014741 -1.2031769 -1.0531514 -0.9796076 -0.045232337 0.35444868 -0.98702884 -0.89110905
-1.0765612 -1.2526802 -0.746795 -1.1576858 -1.1398659 -0.8571558 -1.2650052 -1.9975828
-1.0946563 -0.091811 -0.95011646 0.9184139 -0.6450596 -1.691948 -1.5272944 -1.1205944
-0.42126152 -1.0760823 -0.73107177 0.42338184 -1.0173806 -0.7618515 -1.1600162 -1.0512677
-0.66943336 -0.5123079 -0.8031086 -1.0168222 -2.6466055 -0.26295263 -4.281387 -4.081123
-2.869528 -0.8798323 0.08145935 -2.3659024 -7.859919 -4.74426 -4.5858116 -3.5639584
-3.6170044 -1.7726904 -3.4939349 -2.760694 -2.8795788 -5.8885264 -5.3812866 -2.290503
-3.2854068 -4.0327344 -1.6516385 -3.344553 -2.2020385 -0.8649479 -2.4090383 -2.1074102
-3.3636458 -1.9742765 -2.9111285 -0.39160618 -3.1588097 -3.5485988 -2.6263754 -3.5950837
-2.0195754 -2.5062897 -1.1493896 -0.72066504 -0.5484326 -5.0657177 -0.9999287 -0.9322354
-1.0685133 -1.810895 -4.316081 -5.674033 0.893947 -1.17512 0.76462954 -3.258183
-0.15294224 -0.3849615 -0.99623334 1.0269549 0.9902 -0.065846555 0.29630882 -0.08334514
-0.068842016 -0.22494888 -0.529979 0.16650137 -0.728873 0.07108595 -0.11002494 0.11121125
-0.069707945 0.3156903 -0.29020593 -0.087520726 -0.10800171 1.0549175 -0.58150285 0.28004366
-1.9195318 0.94276124 0.25503626 0.32195288 0.2787685 1.0240198 0.35969734 -0.23752837
-0.09950251 -0.01867395 0.40452835 0.49479687 -0.15063788 0.06364071 -0.521364 0.84675026
-3.6574974 -1.0282226 -1.4006925 -0.04800787 0.32292527 -0.22311921 -1.233424 -1.6008991
-0.3213489 -0.44336465 1.0919962 -0.68602306 -1.5445431 -0.18889791 -1.6342123 -1.0254755
-0.5838671 -1.4385924 0.34931433 0.31304392 0.8209439 -1.3155379 -0.42774928 -0.6934516
0.68358207 -0.10733493 -1.716637 -1.3395072 -1.6425115 0.09597214 -1.8489531 -0.025067536
-0.54299337 -0.87598485 -1.419599 -1.9939121 -0.12411068 -0.9307984 -1.0974869 -1.7793986
-0.9885032 -1.1038344 -1.7687017 1.0525938 -0.6560991 -0.2693759 -1.3156055 1.5725975
0.024172883 -1.8925769 -0.84264624 -0.90872604 -0.18931769 -0.50830036 -1.7479163 -2.1381638
00000000: 96df 4cbf 36e3 a2be d28d a9bf efba a0bf
00000010: 7997 55bf 2ba3 01bf ba36 87bf 0360 abbf
00000020: 4112 513f 74ca 25bf 6884 9bbf 424c 89bf
00000030: abff 0ec0 17de 9abf ae93 89bf e1e5 6cbf
00000040: 08e3 81bf b301 9abf aacd 86bf 90c7 7abf
00000050: 8b45 39bd 4c7a b53e ecad 7cbf b91f 64bf
00000060: c2cc 89bf d357 a0bf f52d 3fbf 0c2f 94bf
00000070: 20e7 91bf 906e 5bbf b1eb a1bf cbb0 ffbf
00000080: b31d 8cbf 6807 bcbd d53a 73bf 2c1d 6b3f
00000090: a022 25bf c191 d8bf 627e c3bf a36f 8fbf
000000a0: 97af d7be 11bd 89bf 8527 3bbf 81c5 d83e
000000b0: 8739 82bf b308 43bf 697b 94bf f18f 86bf
000000c0: fc5f 2bbf 9c26 03bf 8698 4dbf 3b27 82bf
000000d0: fc61 29c0 baa1 86be 1f01 89c0 8f98 82c0
000000e0: 59a6 37c0 b13c 61bf 29d4 a63d f26a 17c0
000000f0: 7584 fbc0 fad0 97c0 f8be 92c0 e517 64c0
00000100: 007d 67c0 85e7 e2bf a19c 5fc0 36af 30c0
00000110: 054b 38c0 cf6e bcc0 8033 acc0 9a97 12c0
00000120: 1b44 52c0 290c 81c0 e468 d3bf 280d 56c0
00000130: 33ee 0cc0 3a6d 5dbf af2d 1ac0 cfdf 06c0
00000140: f945 57c0 18b5 fcbf ee4f 3ac0 9b80 c8be
00000150: f029 4ac0 3e1c 63c0 8916 28c0 da15 66c0
00000160: b940 01c0 0d67 20c0 331f 93bf 817d 38bf
00000170: 1466 0cbf 5c1a a2c0 54fb 7fbf fba6 6ebf
00000180: 0bc5 88bf 68cb e7bf 561d 8ac0 ae91 b5c0
00000190: b6d9 643f 556a 96bf c3be 433f 1286 50c0
000001a0: e49c 1cbe ac19 c5be 2609 7fbf 4273 833f
000001b0: bf7d 7d3f 8fda 86bd cab5 973e dbb0 aabd
000001c0: 0bfd 8cbd 0059 66be b4ac 07bf 567f 2a3e
000001d0: 6c97 3abf 8395 913d c154 e1bd b9c2 e33d
000001e0: 0ac3 8ebd 29a2 a13e df95 94be 113e b3bd
000001f0: 0030 ddbd 8907 873f 5fdd 14bf e261 8f3e
00000200: 38b3 f5bf cd58 713f 1d94 823e 02d7 a43e
00000210: bfba 8e3e 1513 833f 402a b83e a33a 73be
00000220: f9c7 cbbd 1dfa 98bc 571e cf3e 0456 fd3e
00000230: d140 1abe 1056 823d 1c78 05bf a0c4 583f
00000240: 7014 6ac0 cc9c 83bf e449 b3bf e6a3 44bd
00000250: 7656 a53e 5d79 64be d6e0 9dbf 43ea ccbf
00000260: d887 a4be b100 e3be 88c6 8b3f 359f 2fbf
00000270: 97b3 c5bf 746e 41be de2d d1bf c842 83bf
00000280: 5078 15bf cc23 b8bf 54d9 b23e 4b47 a03e
00000290: 6129 523f 8c63 a8bf f401 dbbe 0b86 31bf
000002a0: 3cff 2e3f 6ad2 dbbd c3ba dbbf f974 abbf
000002b0: d13d d2bf 0b8d c43d 7faa ecbf 6f5a cdbc
000002c0: 9d01 0bbf 8b40 60bf 6cb5 b5bf 8338 ffbf
000002d0: bd2d febd ce48 6ebf 737a 8cbf 55c3 e3bf
000002e0: 8c0e 7dbf 724a 8dbf d164 e2bf 65bb 863f
000002f0: 1cf6 27bf a3eb 89be c365 a8bf e04a c93f
00000300: 3606 c63c f63f f2bf aab7 57bf 45a2 68bf
00000310: 7fdc 41be f91f 02bf b9bb dfbf add7 08c0

lstm.bias_hh_l1 f4 [200]
-0.7725365 -0.3782535 -1.1832471 -1.1816411 -0.8251815 -0.59726596 -0.8529624 -1.3321686
0.6745105 -0.8312301 -1.0503241 -0.8657843 -2.1283991 -1.372481 -0.9290598 -0.8145426
-1.1987817 -1.1937964 -1.0217348 -0.8794334 -0.15019333 0.2537955 -1.0687596 -0.7937254
-1.2761554 -1.2178898 -0.6888948 -1.3130515 -1.0497532 -0.98804545 -1.4255683 -1.867922
-1.0642481 0.042942822 -0.95913386 0.8561944 -0.7906812 -1.5786958 -1.4982526 -1.1782535
-0.5903177 -1.1484104 -0.689925 0.37608975 -0.9772289 -0.80060995 -1.2447532 -1.2516712
-0.7511581 -0.7849746 -0.6759642 -0.9268144 -2.7556329 -0.37682357 -4.178739 -4.2539577
-2.943935 -0.9185826 0.26963994 -2.590046 -7.8260913 -4.890979 -4.669349 -3.655889
-3.66606 -1.9090507 -3.395189 -2.5529103 -2.777245 -5.791621 -5.273663 -2.2095852
-3.0408833 -3.9261475 -1.6244817 -3.338319 -2.3194356 -1.0867181 -2.5736349 -2.2132936
-3.4233506 -1.8575423 -2.9479382 -0.40063682 -3.343896 -3.709656 -2.6526036 -3.5548153
-2.0544508 -2.593208 -1.0496804 -0.5308283 -0.5673957 -5.07619 -0.9425913 -1.1687856
-1.1084151 -1.6577674 -4.3333144 -5.530001 0.99361247 -1.2917916 0.68866056 -3.3543906
-0.0097173285 -0.4522592 -0.99695045 1.115106 0.89583457 -0.13423413 0.08003966 -0.080332324
0.09796911 -0.18477283 -0.43758625 0.25180447 -0.7321985 -0.028708762 0.078109905 -0.06452712
0.017443888 0.23923174 -0.39664885 0.15005177 -0.055991575 1.1741471 -0.6075484 0.18175279
-1.9470421 0.6991964 0.0905095 0.30596617 0.1681737 1.136866 0.34925583 -0.11976735
0.0051952633 0.09332949 0.33642086 0.49505025 -0.23527586 0.042284768 -0.61089873 0.79394954
-3.8816662 -1.1291183 -1.4241658 -0.09026208 0.23122987 -0.45520136 -1.2369664 -1.6353719
-0.43271154 -0.6964551 1.0735272 -0.6398534 -1.6119703 -0.32439938 -1.5321821 -0.98031104
-0.48629877 -1.3290297 0.33618 0.29927018 0.7655812 -1.2724406 -0.25087252 -0.7065343
0.7355523 -0.16123042 -1.7098876 -1.3912975 -1.5935712 0.09665794 -1.7104249 -0.04327031
-0.66554856 -0.9710397 -1.2795058 -1.7459605 -0.30274504 -0.9310087 -1.0401642 -1.9174142
-0.8576869 -1.1100289 -1.6585984 1.2004354 -0.44162646 -0.2959845 -1.2803062 1.3743043
0.039285086 -2.044923 -0.68017906 -0.7707291 -0.15128718 -0.28351837 -1.7251985 -2.0339622
00000000: f4c4 45bf 71aa c1be a474 97bf 0440 97bf
00000010: 183f 53bf 6ce6 18bf be5b 5abf 8084 aabf
00000020: b8ac 2c3f 7fcb 54bf 0571 86bf 0aa4 5dbf
00000030: b137 08c0 75ad afbf ddd6 6dbf dd85 50bf
00000040: ae71 99bf 52ce 98bf 35c8 82bf 8c22 61bf
00000050: 48cc 19be 7cf1 813e 1dcd 88bf 9631 4bbf
00000060: 0f59 a3bf d0e3 9bbf 695b 30bf 1212 a8bf
00000070: 505e 86bf 8cf0 7cbf 0679 b6bf 1118 efbf
00000080: 4839 88bf d0e4 2f3d cc89 75bf 8e2f 5b3f
00000090: 156a 4abf b412 cabf bec6 bfbf 03d1 96bf
000000a0: 101f 17bf 1dff 92bf ed9e 30bf d68e c03e
000000b0: ac2b 7abf c6f4 4cbf 1354 9fbf c336 a0bf
000000c0: e64b 40bf 18f4 48bf fd0b 2dbf b543 6dbf
000000d0: 4a5c 30c0 05ef c0be 3bb8 85c0 6c20 88c0
000000e0: 6e69 3cc0 3b28 6bbf 3f0e 8a3e 50c3 25c0
000000f0: 576f fac0 e682 9cc0 4f6b 95c0 16fa 69c0
00000100: baa0 6ac0 c65b f4bf c74a 59c0 e262 23c0
00000110: 62be 31c0 f654 b9c0 d9c1 a8c0 d869 0dc0
00000120: d59d 42c0 0046 7bc0 04ef cfbf 05a7 55c0
00000130: a271 14c0 9419 8bbf 6fb6 24c0 9aa6 0dc0
00000140: 2d18 5bc0 f2c3 edbf 05ab 3cc0 4520 cdbe
00000150: 6402 56c0 016b 6dc0 42c4 29c0 1882 63c0
00000160: 1f7c 03c0 1ff7 25c0 ed5b 86bf 5de4 07bf
00000170: d840 11bf 2670 a2c0 aa4d 71bf c49a 95bf
00000180: 8ce0 8dbf b931 d4bf 83aa 8ac0 c5f5 b0c0
00000190: 635d 7e3f 6d59 a5bf 0f4c 303f 56ae 56c0
000001a0: 6e35 1fbc 858e e7be 2538 7fbf cbbb 8e3f
000001b0: 6a55 653f ac74 09be d5eb a33d 4685 a4bd
000001c0: 07a4 c83d 1735 3dbe 4e0b e0be 84ec 803e
000001d0: 5c71 3bbf a32e ebbc 16f8 9f3d cb26 84bd
000001e0: 7ce6 8e3c 2af9 743e 8f15 cbbe 2ca7 193e
000001f0: 6c57 65bd 744a 963f 4b88 1bbf 671d 3a3e
00000200: ad38 f9bf 89fe 323f 0b5d b93d 99a7 9c3e
00000210: ba35 2c3e d384 913f a9d1 b23e 9648 f5bd
00000220: 073d aa3b 8823 bf3d 5b3f ac3e 3a77 fd3e
00000230: 28ec 70be cb32 2d3d dc63 1cbf 4740 4b3f
00000240: 386d 78c0 f386 90bf 114b b6bf 53db b8bd
00000250: 86c7 6c3e 2710 e9be ea54 9ebf de53 d1bf
00000260: 5e8c ddbe e24a 32bf 5769 893f 6fcd 23bf
00000270: 0b55 cebf ad17 a6be 8b1e c4bf aaf5 7abf
00000280: 27fc f8be a51d aabf c91f ac3e f139 993e
00000290: 21fd 433f 55df a2bf 5d72 80be 6fdf 34bf
000002a0: 284d 3c3f 9619 25be 99dd dabf 0916 b2bf
000002b0: 24fa cbbf 99f4 c53d 34ef dabf 353c 31bd
000002c0: 6461 2abf 0f96 78bf d9c6 a3bf a27b dfbf
000002d0: 6601 9bbe 9656 6ebf 1a24 85bf d46d f5bf
000002e0: 5e91 5bbf 6d15 8ebf f44c d4bf dea7 993f
000002f0: dd1c e2be 488b 97be 13e1 a3bf 34e9 af3f
00000300: 66e9 203d 05e0 02c0 3720 2ebf 814e 45bf
00000310: 07eb 1abe 5229 91be 4ed3 dcbf 702c 02c0

lstm.weight_ih_l2 f4 [200, 50]
0.4205362 -0.057505902 0.048481945 -0.095264554 -0.1863443 0.0061050174 -0.069349624 0.0516227
-0.05349744 0.13303973 0.15956095 0.025600841 1.7208692 0.07777317 0.086121514 -0.075715214
-0.106485695 -0.061436422 -0.049558055 -0.11534742 0.9464507 3.5974329 1.5476905 -0.07698721
-0.029181484 0.0836649 0.033516966 -1.1095488 -0.140251 -0.042076368 -1.570661 2.8981502
-0.053682297 0.07030146 0.028465018 0.053373553 0.048959598 -0.29612365 0.027393708 0.21402574
-0.022624783 -0.2361497 -0.10689789 -0.8894093 0.012660984 -0.106193095 -0.13094549 0.11019993
-0.3955762 -0.10063425 1.4281696 -0.944702 -5.4825587 -1.984355 1.377403 -2.4593558
9.117777 -0.49515885 -0.14745022 -0.8667017 -0.85901684 -3.2791936 -1.6032996 -1.4236077
0.8100609 -9.806183 0.7333037 0.763566 3.3469172 -4.562397 -2.8192878 -24.924152
-2.661573 -3.8235714 -1.0557331 1.0108547 -0.7754308 -5.830449 2.3758743 1.7449363
1.153839 -3.5822055 2.3357844 3.0935984 -1.5966725 -0.4693907 -6.5521803 0.6994794
0.12711304 -1.8984691 2.7733414 2.2304244 -0.45399633 0.72350144 -1.1476744 1.2428215
-0.72906053 4.530373 1.9494563 0.467791 0.25316933 0.4391072 -0.3381334 0.580837
-1.4616202 0.3012044 -0.4622523 0.012090811 -0.47576392 0.11496808 0.24061868 -0.7406261
0.35379893 -0.07811915 0.53405744 -0.9790912 -0.062002443 -0.47065362 -0.5501945 0.5730203
0.0718105 4.0817513 -0.6497157 0.30189323 0.32243347 0.41218188 0.7776378 -0.7155143
-0.048975278 -0.22191533 -0.50691545 0.3519236 -0.5919947 -0.2902962 0.19352704 -1.0077305
0.48061985 -0.7987591 -0.28064492 -0.98266757 -0.39439195 -0.76403564 0.29580274 -0.3264478
0.51890045 0.022144279 0.3560632 -0.45386672 -0.3765587 1.7670056 0.47256294 2.0398324
1.8481468 -7.1940794 0.31960437 -2.2806976 -0.36560166 0.2593406 0.48378333 -4.3037276
-0.2696411 -0.5532654 -0.18147065 0.022804067 -17.956453 0.60514224 -1.9277259 -0.09953481
0.42246234 0.26228148 -2.8230817 1.977682 -2.2730742 0.40134296 0.09321744 -5.7765956
-5.3497453 1.8255694 2.455432 -0.014678915 0.60859466 -4.0098934 0.30233303 0.47522536
0.041028813 0.034935348 -0.8057027 -0.1597265 -0.8903648 3.7089033 0.04757471 -0.21873935
-3.590995 2.6820393 -3.3459685 1.1252434 3.5340745 -1.9380829 0.5697307 -0.26743892
-0.10374855 -0.054350063 0.041174084 -0.057176154 0.06742905 -0.064546145 0.051228203 -0.026427884
0.36831602 0.041529022 -0.007968808 0.06635214 -0.11399829 -0.0043312497 -0.004156523 0.015120294
-0.06672288 -0.058409736 0.008833622 0.034880172 -0.012526693 -0.038000427 -0.16183157 0.029344367
-0.043998133 0.1669102 0.040635083 -0.08650728 -0.05102955 0.033990443 0.02707228 0.024004988
-0.008335916 0.032700345 0.05848093 0.14943835 0.0035463017 -0.100767866 0.029844217 0.10995347
-0.13610098 0.12476054 -0.039838724 -0.010851226 -0.0031635205 -0.040486123 -0.022137584 0.04226953
-0.085756324 -0.120401256 -0.3761918 0.15877602 1.4397701 0.19454086 0.27095625 -0.1663069
00000000: 8550 d73e 4f8b 6bbd 0195 463d 101a c3bd
00000010: 0ad1 3ebe 990c c83b 2d07 8ebd 5372 533d
00000020: 2220 5bbd 913b 083e f263 233e dbb8 d13c
00000030: 7145 dc3f 8a47 9f3d 7a60 b03d 9410 9bbd
00000040: 2c15 dabd c2a4 7bbd 63fd 4abd 453b ecbd
00000050: 984a 723f 573c 6640 b91a c63f 78ab 9dbd
00000060: 020e efbc 8158 ab3d 1649 093d b205 8ebf
00000070: f59d 0fbe 4558 2cbd 6b0b c9bf 4b7b 3940
00000080: f8e1 5bbd 36fa 8f3d 782f e93c 3a9e 5a3d
00000090: dc89 483d 859d 97be c568 e03c 9029 5b3e
000000a0: 9c57 b9bc 3ad1 71be 48ed dabd 54b0 63bf
000000b0: 0470 4f3c c47b d9bd 9316 06be 80b0 e13d
000000c0: f788 cabe 5419 cebd 43ce b63f fed7 71bf
000000d0: 1f71 afc0 58ff fdbf be4e b03f 1666 1dc0
000000e0: 6ae2 1141 7685 fdbe 31fd 16be 2ae0 5dbf
000000f0: 87e8 5bbf 4fde 51c0 ec38 cdbf c738 b6bf
00000100: 2760 4f3f 20e6 1cc1 cbb9 3b3f 1079 433f
00000110: e433 5640 28ff 91c0 366f 34c0 aa64 c7c1
00000120: 3657 2ac0 65b5 74c0 4322 87bf b063 813f
00000130: a282 46bf 0a93 bac0 530e 1840 135a df3f
00000140: ffb0 933f db42 65c0 7e7d 1540 84fd 4540
00000150: c45f ccbf fa53 f0be 76ab d1c0 1511 333f
00000160: ec29 023e 0901 f3bf 6d7e 3140 46bf 0e40
00000170: 3572 e8be 6437 393f ffe6 92bf c614 9f3f
00000180: b6a3 3abf d1f8 9040 c987 f93f 4d82 ef3e
00000190: 699f 813e a9d2 e03e d21f adbe bcb1 143f
000001a0: 5f16 bbbf 7737 9a3e 55ac ecbe 8918 463c
000001b0: 5497 f3be 6274 eb3d be64 763e ac99 3dbf
000001c0: 2225 b53e effc 9fbd fdb7 083f b9a5 7abf
000001d0: 46f6 7dbd 83f9 f0be 8cd9 0cbf 75b1 123f
000001e0: 6211 933d b59d 8240 c553 26bf c091 9a3e
000001f0: 0016 a53e 8109 d33e 4513 473f f22b 37bf
00000200: 4d9a 48bd c63d 63be 36c5 01bf 552f b43e
00000210: f78c 17bf b4a1 94be f42b 463e 50fd 80bf
00000220: ce13 f63e 7a7b 4cbf b1b0 8fbe 1a90 7bbf
00000230: beed c9be d797 43bf 7573 973e 2b24 a7be
00000240: a9d6 043f eb67 b53c ea4d b63e 3861 e8be
00000250: 4dcc c0be 3d2d e23f c5f3 f13e 9d8c 0240
00000260: 1390 ec3f e635 e6c0 2fa3 a33e f3f6 11c0
00000270: 2430 bbbe 4bc8 843e 73b2 f73e 23b8 89c0
00000280: 660e 8abe cda2 0dbf 71d3 39be 98cf ba3c
00000290: d1a6 8fc1 9aea 1a3f b9bf f6bf e8d8 cbbd
000002a0: fc4c d83e c249 863e 5fad 34c0 af24 fd3f
000002b0: 0c7a 11c0 d37c cd3e c9e8 be3d dfd9 b8c0
000002c0: 1d31 abc0 42ac e93f cc25 1d40 d57f 70bc
000002d0: dccc 1b3f 0c51 80c0 65cb 9a3e bd50 f33e
000002e0: d40d 283d 5e18 0f3d 8842 4ebf 588f 23be
000002f0: f3ee 63bf ac5e 6d40 b3dd 423d 35fd 5fbe
00000300: ddd2 65c0 88a6 2b40 5924 56c0 fa07 903f
00000310: 472e 6240 1a13 f8bf dfd9 113f c1ed 88be
00000320: 1f7a d4bd 2c9e 5ebd 28a6 283d 8b31 6abd
00000330: 3e18 8a3d c530 84bd aad4 513d 4a7f d8bc
00000340: eb93 bc3e 561a 2a3d 9a8f 02bc a1e3 873d
00000350: ef77 e9bd 28ed 8dbb 7133 88bb 1cbb 773c
00000360: 01a6 88bd 0c3f 6fbd e5ba 103c 83de 0e3d
00000370: c23c 4dbc 56a6 1bbd 2db7 25be 9963 f03c
00000380: 6337 34bd 82ea 2a3e f970 263d bb2a b1bd
00000390: 5d04 51bd 9039 0b3d b0c6 dd3c 1ca6 c43c
000003a0: 5e93 08bc ccf0 053d b389 6f3d 5e06 193e
000003b0: 1269 683b 625f cebd dc7b f43c 492f e13d
000003c0: 0e5e 0bbe 7482 ff3d ee2d 23bd 57c9 31bc
000003d0: 1153 4fbb c7d4 25bd e159 b5bc d122 2d3d
000003e0: 03a1 afbd ef94 f6bd 369c c0be 2e96 223e
000003f0: 634a b83f b835 473e c7ba 8a3e 5b4c 2abe
