NEURAL_MODELS/LSTM/jolly-bush-44_epoch20.pth (torch, 833135 bytes, 42 tensors)

lstm.weight_ih_l0 f4 [200, 69]
00000000: 6553 adc0 9ed5 99bf 2db6 203e f183 09bf
00000010: eae1 343d 7764 9ac0 1b55 4c40 9fa0 b7bf
00000020: 9602 46c0 ca08 0540 b8cd 14c0 4de9 7941
00000030: e44c 59bf 626e 18bf 6fb8 1a40 8746 3c41
00000040: 971e a9bf 2493 96be 88ff 19c0 e637 f03e
00000050: 406e dd3d 5513 7bbf 037c 67c0 f951 4d40
00000060: 84cb 6b41 6c67 6ec0 6dcb 993e 2aa5 db40
00000070: ff6b d53f dbc6 e13f 5665 4ebf 9e0f 9bc0
00000080: b12c 5f40 7cae d5bf 0801 8ac0 134b 0e40
00000090: 492e e6bf e5c7 7ac0 5db3 0dc0 d742 b3bd
000000a0: 62da adc0 a8f2 c83e a976 343e 2304 0140
000000b0: e040 bf3e d18b f73f 8ac3 13c0 38fc 40bf
000000c0: fb7f 8e40 9535 5cc0 1698 0340 1eff 9dbd
000000d0: 8761 bfc0 6ca2 4140 f815 bfbd bd7d 9840
000000e0: 86a4 3d3f baf8 0d40 184e 8c3d 53b3 153f
000000f0: 647d 83c0 2974 3941 61e8 9c3d 856e c2c0
00000100: ce03 9140 108f 93be f519 8140 91f1 0fbe
00000110: b1f1 92bd 6d05 6040 7e02 9fc0 034c 0940
00000120: ab85 4cbb ea41 37c0 d62a bac0 0783 61c0
00000130: 56be 0440 6ccd a33f 4b1f b0bf 3f9f aa40
00000140: 1728 1a40 0d8b 2f40 7d1e 64bf f17c 803f
00000150: 94c5 91be 51d1 2ebf a05c 4ec0 6d5d b73f
00000160: 2530 13c1 f425 a33d 8dea a140 2b01 833f
00000170: 55ad 0dc1 1be5 f540 e8fd 7d40 bc51 03c1
00000180: 9371 dc3f ef56 59bf eae9 2f40 9df6 a53e
00000190: ec21 aa3f 470b 8140 2167 893f 6066 5640
000001a0: f213 62bf 3953 25c0 8d36 bbbf eb47 9841
000001b0: cd41 53bf e057 2740 123a a63f ad73 18c0
000001c0: 331e 2b3e 96ff d8c0 9512 5640 8012 0141
000001d0: 85e7 1141 c5be 0c40 43fb 2e40 fa8b 93c0
000001e0: 92a4 8e40 4fb9 00bf 8f87 b53e 633d 80bd
000001f0: e0cd 3b40 e45c bfbf e22a acbf 0781 0e3e
00000200: 0908 85c0 6fc1 0bbd 3732 a640 fc53 86bf
00000210: e3d3 ab40 2e37 f83f c167 6240 45cb 7dc0
00000220: 4437 f2bd 711f f5bf 487e cabf 1e1d 2f41
00000230: d861 3ac0 25e9 4ec0 77b8 0240 0548 4fbf
00000240: fc81 2240 d029 73c0 163d 6ebf dda9 d7c0
00000250: 299d 163f ee96 b5bf 6704 26bf f067 85c0
00000260: a2d2 c33f 362b 9bbf a436 e3bf d793 98be
00000270: 9ba4 40c0 a79b 653d 874e 10be 7dd8 683f
00000280: 08de 983f 90cf 593e ffc7 1940 579c 7fc0
00000290: 6e98 00c0 d3f9 a0c0 0570 923f 18eb a93f
000002a0: eb57 cfbe 837a de40 e6ec c3c0 150e 0bc0
000002b0: 3596 6ec0 4a2d 1441 715e 8a3e a5a7 c540
000002c0: cdbf 8b40 2b07 4c3f 1b0a 36bf d5ae 1c3e
000002d0: a764 0041 1b96 30c0 a92f 2dc0 1c09 e13e
000002e0: cfd0 33c0 8fa1 8f40 2530 14c1 f8da 20c0
000002f0: 3c31 fe3d b6c6 aebe ed78 e040 4104 4a41
00000300: b030 4c3c e8cf d840 0bd8 f7bf 240d 7941
00000310: 9668 e63d 2125 67c0 35dd 39c0 1203 0ec0
00000320: 6f85 b540 8584 b1c0 5cab 1dbf 60b8 0cc1
00000330: eec1 3641 2c76 a5bd bce6 3040 4976 93c0
00000340: aac2 babf 21a3 8f40 7ede fcbf 0de5 c3c0
00000350: abb1 1141 a1c6 4ac0 4520 7cbf 45ad 3cc0
00000360: 550f 0141 2c28 b0bd 507e e93f 95f2 b6bd
00000370: 4839 a0c0 6a16 b93f a359 ce40 b28b b83d
00000380: f042 2a3f 8904 72bf b53e d140 dcf5 30bd
00000390: ae05 94bf cd78 9bc0 4b95 6141 bba9 4e40
000003a0: 030a b83e a88d 0240 5e1b bf40 aeb9 3141
000003b0: dc8c 1640 2a09 c5c0 e50c 6ac0 889b 6a41
000003c0: c1fc 47c0 0eb9 7bbf 4eb4 9741 46db 8540
000003d0: de0a d040 19e0 7940 f257 053e 04d4 df3e
000003e0: 3e5b 82c0 fc5d e340 afd6 82c0 810c 2ac0
000003f0: 66b0 803f 5574 f63f 1b66 8341 b631 2941
-5.41643 -1.2018316 0.15694495 -0.5371695 0.04416076 -4.824764 3.1926944 -1.4345893
-3.0939078 2.0786614 -2.325056 15.619458 -0.8488295 -0.5954343 2.417507 11.767219
-1.321246 -0.29409134 -2.4062214 0.46917647 0.10812044 -0.98076373 -3.616944 3.2081282
14.737186 -3.7250624 0.30038014 6.8639116 1.6673583 1.7638811 -0.80623376 -4.8456564
3.4871027 -1.6693873 -4.312626 2.2233322 -1.7982875 -3.9184506 -2.2140725 -0.08752983
-5.432908 0.39247632 0.1762339 2.0158775 0.37354183 1.9339544 -2.3088098 -0.75384855
4.4531226 -3.4407704 2.0561576 -0.07714675 -5.980655 3.0255384 -0.09330362 4.765349
0.7407917 2.218306 0.06850833 0.5847675 -4.1090565 11.590859 0.0766151 -6.075991
4.5317144 -0.28820086 4.0344186 -0.14056994 -0.07175005 3.5003312 -4.969054 2.1452644
-0.0031207602 -2.863398 -5.817729 -3.5236223 2.0741172 1.2797065 -1.375955 5.331939
2.408697 2.742862 -0.8910902 1.0038129 -0.28471053 -0.6828814 -3.2244034 1.4325386
-9.199254 0.07966223 5.0598817 1.0234731 -8.854817 7.684217 3.9686222 -8.207455
1.722216 -0.84898275 2.748652 0.32414714 1.3291602 4.0326266 1.0734597 3.3499985
-0.88311684 -2.5832045 -1.4626023 19.035116 -0.8252228 2.6147385 1.2986472 -2.3820603
0.16710739 -6.7811995 3.3448842 8.067017 9.119023 2.1991436 2.7340858 -4.610837
4.457589 -0.5028276 0.35454985 -0.062617086 2.9344406 -1.4950223 -1.3450587 0.13916408
-4.157231 -0.03412002 5.1936297 -1.049438 5.369615 1.939184 3.5375826 -3.9655316
-0.11826947 -1.915022 -1.5819788 10.944609 -2.912222 -3.23298 2.0425088 -0.8096927
2.5391836 -3.799427 -0.9306196 -6.7394853 0.5883356 -1.4186685 -0.6485047 -4.1689377
1.5298655 -1.2122562 -1.775105 -0.29800293 -3.0100467 0.056056645 -0.14092456 0.90955335
1.1942759 0.21270585 2.4028318 -3.9939172 -2.0093036 -5.030496 1.1440436 1.327487
-0.40496764 6.952455 -6.1226683 -2.1727345 -3.727918 9.261057 0.27025178 6.1767144
4.367163 0.7969844 -0.7110917 0.15301068 8.024573 -2.7591617 -2.706034 0.43952262
-2.8096197 4.4884715 -9.261754 -2.5133648 0.124117345 -0.3413598 7.0147614 12.626039
0.01246278 6.775379 -1.9362806 15.565708 0.11250417 -3.6116412 -2.9041264 -2.2189374
5.6725383 -5.5474267 -0.615896 -8.795013 11.422346 -0.0807918 2.764083 -4.608189
-1.4590657 4.488663 -1.9755399 -6.1217103 9.105876 -3.1683733 -0.9848674 -2.9480755
8.066243 -0.08601412 1.8241673 -0.089329876 -5.0069923 1.4459965 6.448442 0.0901102
0.6650839 -0.9453817 6.5389047 -0.04320322 -1.1564233 -4.858496 14.0989485 3.2291095
0.35945138 2.039896 5.9720907 11.107832 2.3523474 -6.1573687 -3.657037 14.6629715
-3.1248019 -0.98329246 18.96304 4.183017 6.5013266 3.9043028 0.1302183 0.43716443
-4.073638 7.1052227 -4.0887065 -2.6570132 1.0053833 1.9254252 16.424856 10.574636

lstm.weight_hh_l0 f4 [200, 50]
00000000: 8d27 c8bf e1d7 0ebf b10c e2bf c82a b3bf
00000010: c985 0b40 ab3e 1140 dfca 653f 3e1b 0f40
00000020: 0ed7 75bf 00ea 853e 1d5e 3ebf 5395 f5be
00000030: 2679 a63e be6a e6be 3103 bebf c83a cebf
00000040: 6ed9 d83e bea6 7bbf 42a8 de3f a105 ffbd
00000050: 46f8 bdbe db0e 2cc0 48d3 c5bd 235b 0140
00000060: 3519 0941 fdeb b2bf b9b3 1040 16a6 7dbf
00000070: ec4a fd3f 9e84 a73e 0056 d7be 67b1 1ec0
00000080: b3a1 d03f e72c 44c0 224f 2f40 50e8 61c0
00000090: 717a adbf 7550 38c0 4bb9 7ec0 cdcc 67bf
000000a0: 6b0a e7bf cd03 89be 0d79 973d 495d b9bf
000000b0: bc81 dbbf 458c adbf e461 61c0 a07c c4bd
000000c0: 2c4e eabf 7f69 78bf 2648 9dbf e02f 0e40
000000d0: 96c5 5fbf a3ac c3bf b151 0abf f509 f2be
000000e0: fb81 053f 1530 12c0 ccc9 7fbe 4edc cfbf
000000f0: 35e0 11c0 466b 40c0 1f1e 343f 479e 60bb
00000100: d76c 3abd 3833 2f3f 527f 2040 d7aa e6bf
00000110: f238 55bf fa99 0340 c26c 2ebf bbe2 99bf
00000120: f0f1 4e40 40da eb3d 58fc bc3f 796e 223f
00000130: 4f39 efbf d9d8 8140 57b6 1940 7bd9 0040
00000140: fea8 d23d 99f8 8e3f e31a 1c3f e553 00c0
00000150: fb06 34be 67c6 bbc0 5157 a0bf ed11 a4bf
00000160: 7dd5 fb3f 8c0d 0e40 8d98 4cbf 3231 ddbe
00000170: 248f 523f a0f7 313f 0484 08c0 5d2a e03f
00000180: 6dbb 0cc0 2ced 5340 159b 85bf 9a07 173f
00000190: b492 85bf 5546 3a40 36e5 cebf 90a6 9640
000001a0: 4186 1e40 0fcc f3bf cfb2 99bf a2b5 6dbf
000001b0: 7453 53bf 9223 8040 ff7f 1bbe ea63 e740
000001c0: 4c51 2ec0 7c8b afbe 3d7a 91c0 b8a3 c0be
000001d0: 776e 30bf 0aaa 0c3e 66ea 52c0 3af2 f5bf
000001e0: 1bd7 aebf 0111 26c0 aa07 7fbe d6cf 973f
000001f0: 7ad1 c13e d658 203f 217f 51bf 6d16 0a3e
00000200: ea74 c83f 899e 20c0 5417 4f3f f6eb 2e40
00000210: 17f9 6d3f 9f6c a73d 6e42 07c0 0489 aac0
00000220: 6ec9 963e 13c5 503f 6d82 433f 6255 e0be
00000230: efe2 49bf c988 963e cf6a ea40 15d9 9abf
00000240: 35e9 a53e 2f60 d7bf f5c1 cabf 67cd f73f
00000250: 880a 5640 0bde d1be 12a1 3a41 f069 97c0
00000260: 9e00 f1bf 5454 5c40 1e74 e03e 3974 21c0
00000270: 16df 9d3f d5ff 83c0 f840 0ec0 8948 89c0
00000280: 07e0 82c0 d206 02c0 71de f6be 17ce 25c0
00000290: dc13 f63f 3862 72bf f0b5 9240 8e2f 0440
000002a0: 0b21 16c0 94fd 4d40 b42c 033e c6f1 6640
000002b0: 592f 6ec0 eb99 3140 0d28 bcbf 7a40 0fc0
000002c0: bc24 debf 1e8f 0bc1 992e aabe a9d3 16c0
000002d0: 7a32 0ac0 d4e4 fabe fc19 a83f 5e9a 04c0
000002e0: c6ed 46bf 1ac7 22c0 cae7 95be c02a bf3e
000002f0: 86e0 12c0 f5d4 b8bf 6da9 723a 034d d23f
00000300: 31ee a7bf 73a6 67be b1e5 eabe be40 fdbf
00000310: 4f75 20be c024 b440 7517 d4c0 670a 26c0
00000320: a8b4 debe 754d 333f 8f6b 3d3f 69d4 47c0
00000330: 28a4 223f 9457 a53f 69f6 0840 5696 6a3f
00000340: 9cc2 af3f 0db9 9d3f 7723 0fc0 413b 663e
00000350: 8894 12be 26b1 a13f ee4d c8bf 0030 26bf
00000360: 90fd d23f 3a0f 9dbf 14be 7c3f 5da8 c73f
00000370: 5e5e 1ebf feeb 433e 0630 85bf 5b5c 24bf
00000380: 1dc8 d4bf 4dbb 0e3f b989 9b3f 680a 42c0
00000390: 0549 f63f 3989 8dc0 3c61 ad3f d94b 92bf
000003a0: fade a43c 9c4d b840 c852 b93f 6c3b 403f
000003b0: f43c 08c0 ec16 0140 2ea9 efbf 4f03 8b3f
000003c0: ee4a 0a40 d301 a13c 3643 08c0 530f 803e
000003d0: 1a1a 0e3d 613d a6bf da5c 53bf ebe2 45c0
000003e0: b848 f03f b3b7 87bd b687 fa3e 51f4 c33f
000003f0: f328 dbbf d74f f5be 8347 603f 46f4 a63f
-1.563707 -0.55798155 -1.7660123 -1.3997431 2.1800406 2.26945 0.8976268 2.2360377
-0.9603127 0.2615509 -0.74362355 -0.47965488 0.32514304 -0.45003313 -1.4844724 -1.6111689
0.42353386 -0.98301303 1.7395098 -0.124522455 -0.3710348 -2.6884067 -0.09659439 2.0211875
8.568654 -1.3978268 2.2609694 -0.9908155 1.9788489 0.32718366 -0.420578 -2.4795778
1.6299347 -3.0652406 2.739205 -3.5298042 -1.3552991 -2.8799107 -3.9800594 -0.90546876
-1.8050054 -0.26760712 0.073961355 -1.4481593 -1.7148967 -1.3558432 -3.5215998 -0.09594083
-1.8305106 -0.97035974 -1.2287643 2.221672 -0.8741087 -1.528706 -0.540309 -0.47273222
0.5215146 -2.2841847 -0.24979323 -1.6239107 -2.2793095 -3.0065475 0.7035846 -0.0034274028
-0.045513954 0.6843753 2.507771 -1.8020886 -0.83290017 2.056273 -0.681347 -1.2022318
3.2335167 0.11516237 1.4764509 0.6344982 -1.8689364 4.0577207 2.4017541 2.013274
0.10286139 1.1169616 0.60978526 -2.0051205 -0.17580788 -5.867969 -1.2526647 -1.281797
1.9674526 2.2195768 -0.79920274 -0.43201596 0.82249665 0.6951847 -2.1330576 1.7512928
-2.1989396 3.3113508 -1.0437952 0.58995974 -1.0435395 2.9105427 -1.61637 4.7078323
2.4769442 -1.9046649 -1.2007693 -0.92855275 -0.82549214 4.004342 -0.15185545 7.2309465
-2.723712 -0.34286106 -4.5461717 -0.37624907 -0.68918556 0.1373674 -3.2955565 -1.9214547
-1.3659395 -2.5947878 -0.24905267 1.1860301 0.3785513 0.6263555 -0.8183461 0.13485117
1.5660679 -2.5096762 0.8089497 2.733152 0.92958206 0.08175015 -2.1134295 -5.3292255
0.29450554 0.8155071 0.7637089 -0.43815142 -0.788619 0.29401234 7.325538 -1.2097498
0.32404485 -1.6826228 -1.5840441 1.9359559 3.3443928 -0.40989718 11.664324 -4.731682
-1.8828313 3.442647 0.4383859 -2.5227187 1.2333705 -4.1249795 -2.2227154 -4.2901044
-4.089847 -2.0316663 -0.48216584 -2.5907037 1.9224811 -0.9468112 4.584709 2.0654025
-2.3457668 3.2186022 0.12810022 3.6085067 -3.7216399 2.7750194 -1.4699723 -2.2383103
-1.735496 -8.722441 -0.33238676 -2.3566687 -2.1593308 -0.49002707 1.313293 -2.0719218
-0.77706563 -2.5434022 -0.29278404 0.37337303 -2.2949538 -1.4439989 0.0009256814 1.6429752
-1.3119565 -0.22622089 -0.45878366 -1.9785383 -0.1566975 5.629486 -6.6278634 -2.594385
-0.43497205 0.70040065 0.73992246 -3.1223395 0.6353173 1.2917352 2.1400397 0.91635644
1.3731265 1.2322098 -2.2365396 0.22483541 -0.14314473 1.2632186 -1.5648782 -0.6491699
1.6483631 -1.2270272 0.98727536 1.5598255 -0.6186274 0.19132993 -1.040528 -0.64203423
-1.662357 0.5575455 1.2151405 -3.0318851 1.9241034 -4.423001 1.3545299 -1.1429397
0.020125855 5.759474 1.4478388 0.7509067 -2.1287203 2.017024 -1.8723505 1.0860385
2.1608233 0.01965419 -2.1291022 0.2501169 0.03469286 -1.2987481 -0.82563555 -3.091975
1.8772192 -0.06626835 0.48931664 1.5308934 -1.7121872 -0.47912475 0.8760912 1.3043296

lstm.bias_ih_l0 f4 [200]
00000000: 8a33 28bf 7b3a c3bd 80cf 4e3f 2a8b b4be
00000010: f31a cebd 19ea b6bd 9541 b3be af9c 7d3e
00000020: 4f4e f4be 39b4 3a3e a2c4 b3be e60a 4fbe
00000030: 62e3 b0be 5fcc 8fbf f734 22be 885b bd3d
00000040: e2e4 fb3d ac9b 0d3f b3f4 c43e e389 77bf
00000050: 9959 93bf a5d9 d13f 652e 703d 8f6b 77bd
00000060: dd45 7d3e 48e1 1340 67fe e6be 48f6 fd3d
00000070: a1e3 6c3f a5ea 1cbe 7e2a 103f f7d2 cdbe
00000080: 14e9 163f 4709 50bf 8a65 613f e73b 8bbf
00000090: a521 9e3f 7169 c43f 6202 323f acbd f43e
000000a0: 658c a9be c6e2 453f e749 3bbc c660 2c3c
000000b0: c105 573f 2106 0c3f fde0 3c3e fa3e 74bf
000000c0: 638b b2be 25cd 623e c87e 3fbf 9a8c acbf
000000d0: b8a4 2bc0 41b6 a13f 7187 f1bf ceaa d8be
000000e0: eb38 f6bf 16ee 1ec0 ef66 babe 2fe5 a2bf
000000f0: 8384 2fc0 7b2f a2bf 4062 c5bf e594 02c0
00000100: fbf7 9ebe 86ff 87bf 383b 403e aa30 80bf
00000110: f978 8ebf 254a 33bf bc22 4b3f 74e7 05c0
00000120: c82f a8bf 7ee7 70c0 b77b c8bd 3361 0cc0
00000130: 98aa 09c0 ff20 05c0 38cb 5ebf d7c3 8f3d
00000140: c7e9 86bf c151 f5bf 796f f4bf 5116 babf
00000150: 47d3 c6bf 6018 afbf 2bd0 9dbf 600b 21c0
00000160: fd2d 3dbf 3f08 31bf cd0a d7bb 943f 6cbf
00000170: d95b 37c0 3bfd f6bf 7c21 b7bf 356d 80be
00000180: 5eb1 10c0 e9d6 48c0 4801 d5be 4bbb 5ebf
00000190: c618 f1be 39a4 39bf 1bf8 0b40 c502 7ec0
000001a0: c8f8 353e 726c 9dbf 5b4a 60bf 35ca 31bf
000001b0: d058 1ebf 414d aabf 4f54 9b3f c4dd 223f
000001c0: a705 d6bf 5bb0 8f3f 51b7 51bf 78b8 1b3f
000001d0: 9f1a 123f 2d93 883e 1f6f e2be c6c5 a1bd
000001e0: 6ff6 a5bf ef42 c63e 074c f5bd 9437 0c3f
000001f0: 8e5e 903f caa4 a3be 39ea 83bf 883d 37bf
00000200: 91db 8bbf edca b7bf 977f fc3e 1d09 b1bf
00000210: f3ca 9b3c f1ba eabf 3788 de3e e5a8 30bf
00000220: bc56 283f 1ba0 253f 3415 92be df5b 32bf
00000230: e407 1bbf 992a c43f 135c a9be e793 5a3f
00000240: 7046 d33f 1952 483f 783e 24bf c4ef 043f
00000250: c927 91bf 99aa 6f3e 2d38 83bf 2990 ccbe
00000260: 57ae cbbf bae5 cabf 4f96 583f a40c c33e
00000270: e1b7 f9bf d895 743f 50f6 86bf 61c2 cbbf
00000280: a22d 62bf 72dc d3bf 68ca 92bf 4cc7 fbbe
00000290: 5254 bebf ff6d 8bbf 3cb4 d8be e57c 153e
000002a0: 7758 443e 285d fe3d d5dd dbbe 7a97 2cbe
000002b0: 1390 bcbf 0d0e ef3f ba5d a6bf 6071 3dbf
000002c0: e459 673f 9c94 25bf 8139 bbbf f3af ccbf
000002d0: 3824 533f c69c c0bf 2b73 853e 3c7a b1bf
000002e0: 0a4e f03e 9350 11bf 11e6 1ebf 3fe0 cabd
000002f0: 4673 63bf e0f5 a33e 96cd 3fbf c45f b8bf
00000300: b192 73be 71ac 1e3d 0b02 01bf 75fa 3cbf
00000310: d442 09bf 9f66 2f3e ba36 cebf 3558 90bf
-0.6570364 -0.09532639 0.8078537 -0.35262424 -0.10063734 -0.08931369 -0.35010973 0.24766801
-0.47715995 0.18232812 -0.35110956 -0.20219001 -0.3454848 -1.1234244 -0.15840517 0.09245974
0.12299515 0.5531566 0.3846794 -0.96694773 -1.1511718 1.6394545 0.058637995 -0.06040531
0.24733682 2.310625 -0.4511597 0.1240049 0.92534834 -0.15323885 0.5631484 -0.40200016
0.589494 -0.81264156 0.8804556 -1.0877656 1.2354017 1.5344678 0.69534886 0.47800958
-0.33114925 0.77299154 -0.011431194 0.010521119 0.83993155 0.5469685 0.18445201 -0.95408595
-0.3487197 0.22148569 -0.7480283 -1.3480408 -2.6819286 1.2633744 -1.8869458 -0.42317814
-1.923612 -2.4832816 -0.36406657 -1.2726191 -2.7424629 -1.267074 -1.5420609 -2.0403378
-0.3104857 -1.0624855 0.1877259 -1.0014851 -1.1130668 -0.7003501 0.79349875 -2.0922518
-1.3139582 -3.7641292 -0.09789222 -2.1934326 -2.1510372 -2.080139 -0.8702884 0.07019775
-1.0540093 -1.9165574 -1.9096519 -1.453806 -1.5533227 -1.3679314 -1.2329153 -2.5163193
-0.738983 -0.6915321 -0.006562567 -0.9228451 -2.864981 -1.929603 -1.4307094 -0.25083318
-2.2608256 -3.138117 -0.4160254 -0.87004536 -0.47089213 -0.7251621 2.1870182 -3.968919
0.17770684 -1.229872 -0.8761346 -0.6944917 -0.6185427 -1.3304826 1.2135104 0.6361964
-1.6720475 1.1225694 -0.81920344 0.6082835 0.5707187 0.26674786 -0.44225404 -0.078990504
-1.296583 0.3872294 -0.11977392 0.54772305 1.1278856 -0.31961662 -1.0305854 -0.71578264
-1.0926381 -1.4358803 0.49316093 -1.3830906 0.019017672 -1.83383 0.434633 -0.6900771
0.65757346 0.64697427 -0.28531802 -0.69671434 -0.60558915 1.53255 -0.3307806 0.8538193
1.6505871 0.7825027 -0.6415782 0.51928353 -1.1340266 0.23404922 -1.0251518 -0.39953735
-1.5912579 -1.5851357 0.8460435 0.38095582 -1.950924 0.95541143 -1.0543919 -1.5918695
-0.8835088 -1.655165 -1.146802 -0.4917549 -1.4869483 -1.0892943 -0.42325008 0.14598425
0.19174372 0.12420112 -0.42942682 -0.16854659 -1.4731468 1.8676163 -1.2997353 -0.7400112
0.9037154 -0.64679885 -1.4626924 -1.5991195 0.8247714 -1.5047843 0.2606443 -1.3865428
0.4693454 -0.5676357 -0.62069803 -0.09906053 -0.8884777 0.32023525 -0.74923074 -1.4404225
-0.23786427 0.03873867 -0.5039374 -0.7381967 -0.53617597 0.1712899 -1.6110451 -1.1276919

lstm.bias_hh_l0 f4 [200]
00000000: bed3 2abf b413 083e d3ee 563f ec61 d4be
00000010: 9fb6 373d 6722 2dbe 2cf1 89be 2bd0 093d
00000020: bff7 5dbe 64fb c73e 2940 88be e5c3 e8bd
00000030: 2227 07bf 73a5 78bf 4969 05be b5ad 663e
00000040: 5e9e 383e fb96 333f 511d e53e 8799 49bf
00000050: 736a 81bf b158 d43f bf18 9dbc 0c93 debc
00000060: cfd7 963e 05ce 0540 f37f adbe 07a9 353d
00000070: a105 4c3f 9b4a 32be 79a1 ec3e cd6e f0be
00000080: ab8e 1e3f 454b 5cbf 0d27 3a3f 9ce2 86bf
00000090: 0d7e aa3f 471f e13f 0450 193f c270 923e
000000a0: de6e 84be cfb2 233f 7f2f cfbd f56a a1bc
000000b0: a17a 293f 7a04 fa3e 42bd 843e b39b 5ebf
000000c0: 5534 afbe c010 743e a221 2dbf f0a8 c3bf
000000d0: b9c5 2cc0 c011 953f 77be e3bf cbb8 42be
000000e0: a916 01c0 7db4 21c0 3378 ddbe 7dc0 b5bf
000000f0: 3b41 29c0 4ce3 9fbf ba59 dbbf 1929 02c0
00000100: 0f54 a6be 2880 8cbf 1497 2a3e bf0d 5ebf
00000110: 4690 8cbf a12f 25bf 10db 553f 1015 02c0
00000120: d563 8ebf 55c9 74c0 0315 29be 6085 1cc0
00000130: 8602 10c0 2196 ffbf 0ace 69bf 13c3 673e
00000140: 7250 83bf 38e1 f0bf e6aa febf eaa6 d8bf
00000150: fe0d e4bf e4e2 b5bf 7298 99bf 49e4 25c0
00000160: 497f 41bf 175e 36bf 3a4e a6bd 8577 44bf
00000170: 7c4c 39c0 3528 f0bf e116 9cbf 5fae e9be
00000180: 76b6 0ec0 f4bf 3fc0 cc82 10bf 0089 7dbf
00000190: 1823 dfbe db9d 4dbf cea3 0e40 9f27 83c0
000001a0: 0b8a 883e 96ad 8fbf a2cc 82bf 0fe3 4cbf
000001b0: 89c3 ffbe 1c4d b5bf dc6f b53f 288a 063f
000001c0: 0086 d6bf 8710 ac3f 035d 5ebf ffc1 0a3f
000001d0: 88c5 df3e 70e2 ec3e 8bb8 73be 1caa dfbc
000001e0: 3f01 94bf 4d1b bc3e 0adb 6abe 5956 f53e
000001f0: 3940 753f b848 4fbe 4998 76bf 6fce 2dbf
00000200: e72c 98bf 4162 dbbf 5ace a13e 5825 adbf
00000210: 38e8 d4bd 1f14 e5bf c0e4 fa3e e854 36bf
00000220: 56c2 173f a8bf 2c3f 87a1 febd f1c7 1ebf
00000230: 9125 22bf c666 c93f d12d 85be b8f1 733f
00000240: 8665 ce3f dbce 293f c384 2abf 5262 363f
00000250: 8192 7fbf f957 2e3e 943e 87bf 1465 a0be
00000260: 51d5 ddbf 97db bdbf 804b 6c3f 245e 023f
00000270: 9f9f ebbf 28f5 7d3f 69c0 85bf 57d5 c0bf
00000280: 2beb 3fbf 001d ecbf a30c 81bf 0888 b7be
00000290: f8fb c2bf 320d 8dbf 2785 f3be 7b1a 96bd
000002a0: ac0d 303e ab18 4b3d 12ee 9fbe 0f56 84be
000002b0: 025d c2bf ae2f f13f 02dd bdbf 0fce 48bf
000002c0: 2440 4b3f d8df 2ebf 3cd3 bbbf 659b c8bf
000002d0: 3a12 853f d4a6 d1bf d936 af3e c081 a6bf
000002e0: 3645 193f 748b d9be 4dd2 4ebf 2fdf 37be
000002f0: 8331 49bf cc74 953e a6e8 81bf 9a97 afbf
00000300: 9084 abbe 1e6a 82bd 92e8 37bf 78b8 09bf
00000310: 515f b4be 42ed d53d e3c0 cfbf 9004 80bf
-0.6672934 0.13288766 0.83958167 -0.41480958 0.044851895 -0.16907655 -0.26941812 0.03364579
-0.21676539 0.39058983 -0.2661145 -0.11365489 -0.52794087 -0.97127455 -0.13028444 0.22527201
0.18029162 0.7015225 0.4474893 -0.7874989 -1.0110611 1.6589566 -0.019176839 -0.027169727
0.29461524 2.0906994 -0.3388668 0.04435065 0.7969609 -0.17411272 0.46216944 -0.46959534
0.61936444 -0.8605235 0.72715837 -1.0537906 1.3319718 1.758767 0.5988772 0.28601652
-0.25865835 0.63944715 -0.10116481 -0.019704321 0.6620274 0.4883154 0.25925642 -0.8695633
-0.34219614 0.23834515 -0.67629445 -1.5285931 -2.699568 1.1646042 -1.77925 -0.19015805
-2.017008 -2.5266411 -0.43255767 -1.4199368 -2.6446064 -1.249124 -1.7136757 -2.0337584
-0.32486007 -1.097661 0.16659194 -0.86739725 -1.0981529 -0.645258 0.8353739 -2.0325356
-1.1124216 -3.8247883 -0.16511922 -2.4456406 -2.250154 -1.9967691 -0.91330016 0.22633009
-1.0258925 -1.8818731 -1.9895904 -1.6925938 -1.781677 -1.4209867 -1.1999648 -2.5920584
-0.75584847 -0.7123732 -0.08120389 -0.7674487 -2.8952932 -1.876227 -1.2194482 -0.45640847
-2.2298865 -2.996091 -0.5644958 -0.9903717 -0.43581462 -0.80318993 2.2287478 -4.0985866
0.26667818 -1.1224849 -1.0218699 -0.80033964 -0.4995387 -1.4164157 1.4174762 0.5255456
-1.6759644 1.3442544 -0.86860675 0.54202265 0.43705392 0.46266508 -0.23800866 -0.027302794
-1.156288 0.3673958 -0.2293512 0.4791744 0.9580112 -0.20242584 -0.9632612 -0.6789312
-1.1888703 -1.713936 0.31602746 -1.3527021 -0.10395855 -1.7896765 0.49002647 -0.71223307
0.5928091 0.67479944 -0.12433153 -0.62023836 -0.6333857 1.5734489 -0.26011518 0.9529071
1.6124732 0.6633126 -0.6660883 0.71243775 -0.9983292 0.17025746 -1.0565972 -0.31327116
-1.7330724 -1.4832639 0.92302704 0.509249 -1.8408087 0.99202204 -1.0449344 -1.5065106
-0.7496821 -1.844635 -1.0081981 -0.3584597 -1.5233145 -1.1019652 -0.47562525 -0.073292695
0.17192715 0.049584072 -0.3123632 -0.25846907 -1.5184634 1.8842676 -1.4833071 -0.7843942
0.79394746 -0.6831031 -1.4673839 -1.5672423 1.0396187 -1.6379037 0.34221533 -1.3008347
0.5987123 -0.42489207 -0.80789644 -0.17956232 -0.78591174 0.2919067 -1.0149124 -1.371814
-0.33499575 -0.063678965 -0.7183925 -0.537971 -0.3522897 0.10445644 -1.6230739 -1.0001392

lstm.weight_ih_l1 f4 [200, 50]
00000000: 8108 18bf 92e4 a63e c8fe 98bf 711b a23f
00000010: d13f d5bf c6e5 373e cf61 ae3e 56bd 873e
00000020: af58 873d de90 a5bd 568a 25bf ee9f aebe
00000030: 75c3 61be 92f8 b7bd ee5d 38bd 5aad 063f
00000040: c835 76bd 6cd1 a9be a01e 29be 3014 963e
00000050: e1bf 843e 35c6 cabe 57b7 e63c 0180 07c0
00000060: d407 a2bd 573a 95bf 26a3 7a3f 5255 32be
00000070: e40a 0f3f 5c9d 8c3f 530e 863e aa9b ac3e
00000080: 0a88 5c3e 3699 8d3f 8a2e b4bd b2ca 233e
00000090: 275e 05be 99b7 fabe 76a2 883f 3ad8 57be
000000a0: 2456 7d3d ae09 e9bd 1e76 eebc 1af5 4cbe
000000b0: b569 85be cb82 afbd c970 083d e71d 263f
000000c0: c830 d63f fd21 6fbe 7ae2 c83e feda ea3d
000000d0: 0f86 0040 9ef1 88c0 a0e6 373f 2c50 553d
000000e0: eb8c 14c0 747a cebd 526d 003e a0d4 5740
000000f0: 7b2f d93f 67f2 10bf e07d cd3e 3f8e 433c
00000100: e88a bc3f be53 103f 849d 0c3e d7c6 d23c
00000110: 3c1c 16bd 11ca d9ba 7658 03be f73b acbd
00000120: e1e1 a1be f839 033e 9d01 03be 2dab a43f
00000130: a9df 1fbf 5808 d63e ca57 8e3d dd9b 00c0
00000140: 27b4 543d 501f cbbf a26d ae3e 3fc4 d1bf
00000150: 1161 4c3d b95c 2f3f 3621 16be 9d09 37be
00000160: 5609 0c3f ef7a af3d f339 273c fd5d 963e
00000170: e5f1 ed3d c144 3bbe 398a ad3d cd67 083e
00000180: 65c3 ce3c ce8e 96bf dfd2 0ec0 dda5 51be
00000190: 0718 11be 194c f23e bdef 16c0 7b19 9a40
000001a0: 9c3f aebe f179 ad3d 2705 0740 b8a6 babd
000001b0: 3a9f 1c3e 83a7 98be 67f1 02c0 cf30 1e3e
000001c0: ded8 bebe 1dc0 03be 5f14 113e fa75 4abe
000001d0: 5c9f e43e f187 c93d b010 f43e b453 c53d
000001e0: 1a6c 40be eaff 00bf a22f 9e3e 16b2 863e
000001f0: 78b4 d03e 3a1e 5dbf f24b 90bd a197 27bd
00000200: 8900 713e 1155 443e 4b82 07bf aa5f 0a3f
00000210: 3f61 6abc 426a fa3f 9e48 b83e 7f5a bb3c
00000220: 27eb 98be 9003 063e e2ba d6be 27fe 343e
00000230: 57ab 3a3e 4bae 9abe 9b56 95be f6e4 a4bf
00000240: a569 bbbf a0dd e2be 179d b3bd 2474 0a3f
00000250: 569c 5741 c6f8 cb3e 4bef 1fbd 2d93 c9bc
00000260: 6d51 9e3f a7b6 b4bf 5128 27bf 47aa 74bd
00000270: 441b eabf 8efa 553e da16 093e 4e74 0e40
00000280: 63af b33f eadf c13e 7ab4 25be 108a 3bbd
00000290: a72b 2a3f e0fc 59be 9ef6 a03e df33 45bb
000002a0: b392 2b3e 76e0 a83e 2836 d3bd 317e a53d
000002b0: ac42 2ebd c8dc a7bf 7aaf 9fc0 df79 82bf
000002c0: dbfa a0bc 9075 4a3f 763a a8bc fbfa 02bf
000002d0: d83a 9cbc 950c b5be 29b5 27be 7823 83bf
000002e0: 07a9 cfbe 0ad1 06bf 2f05 0c3e a4bc 84be
000002f0: f71c 13bc 1b64 0a3f cd2a 193e a307 78bd
00000300: 0438 db40 959e 323e 060a 323e 8e92 15be
00000310: cf85 243f 788b 84bf 5c12 69bf 3ff1 9abe
00000320: 8d15 15be d9a4 ba3d bc71 ca3e 7378 bbbd
00000330: a32a 35be 7b8f 073e 473b 3dbe 5265 24bd
00000340: a588 f93d 1c6e 74bd f15e f13d 53f6 f4be
00000350: e6d8 1bbf ee50 26be 250d ab3e 26d5 0d3e
00000360: 658a 913e aaa5 7fbe 770f 62be 3dc4 073e
00000370: e6fc e03d e0d5 b13b 471a 4d3c 9a2b b5be
00000380: bda7 003f ca0a 19be ba0b 613b 2b17 d1be
00000390: 20d6 e03e fdb6 f6bd e374 e43d 0d95 89bf
000003a0: 3575 5c3e df50 d8bd 7f97 e5be 8396 a8be
000003b0: db22 95be ab4d 60be 6326 4d3e e561 a53d
000003c0: 5be3 ff3e b828 2fbe 8e23 6cbe dbca bcbd
000003d0: 15b5 4dbd a431 163d 36e8 9cbe 726c 3ebe
000003e0: 8e28 dabd 01e4 84be 8fbf 493f 69ed af3e
000003f0: 0e27 cebc f7d8 88be ec3a 8e3f 17c6 f03e
-0.59387976 0.3259626 -1.1952753 1.2664624 -1.66601 0.17958745 0.34058997 0.2651164
0.06608712 -0.08084272 -0.6466421 -0.34106392 -0.22047217 -0.08982958 -0.045011453 0.52608263
-0.060109884 -0.3316759 -0.16515589 0.29312277 0.25927642 -0.39604345 0.028163595 -2.1171877
-0.07911649 -1.1658429 0.97905195 -0.1741536 0.5587599 1.0985522 0.26182804 0.33712512
0.2153627 1.1062381 -0.08797939 0.15995291 -0.13024198 -0.489682 1.0674579 -0.21078578
0.06184973 -0.113787994 -0.029109057 -0.20015374 -0.2605721 -0.08569869 0.033310685 0.6488938
1.6733637 -0.23352809 0.39235288 0.11467551 2.0081823 -4.2794943 0.7183628 0.05207841
-2.321101 -0.1008195 0.12541702 3.3723526 1.6967615 -0.56619877 0.40135098 0.01193577
1.4729891 0.5637778 0.13731962 0.02572958 -0.03664802 -0.0016616007 -0.12826714 -0.08409875
-0.31617644 0.12815082 -0.12793584 1.2864739 -0.62450653 0.4180324 0.06950338 -2.0095131
0.05192962 -1.5868931 0.34068018 -1.6388015 0.049897257 0.6850086 -0.14661106 -0.17874761
0.54701746 0.085683696 0.010206687 0.29368582 0.11618403 -0.18287946 0.084736295 0.13320847
0.025239656 -1.176233 -2.2316206 -0.20473428 -0.14169322 0.47323683 -2.3583825 4.8156104
-0.34032905 0.08470524 2.1096895 -0.0911383 0.15295115 -0.298153 -2.045984 0.15448307
-0.37274832 -0.12866254 0.14167927 -0.19771567 0.44652832 0.09840382 0.47668982 0.09635106
-0.18791237 -0.50390494 0.30895716 0.26307744 0.40762687 -0.8637425 -0.070457354 -0.04091609
0.2353536 0.19173075 -0.52933186 0.5405222 -0.014305412 1.9563677 0.35992903 0.0228703
-0.29866907 0.13087296 -0.41939455 0.17675076 0.18229423 -0.302111 -0.29167637 -1.2882373
-1.4641615 -0.4430971 -0.08770197 0.54083467 13.475668 0.39838237 -0.039046567 -0.024606312
1.2368599 -1.4118241 -0.6529589 -0.0597327 -1.8289571 0.2089636 0.13387623 2.2258487
1.4037899 0.37866145 -0.16182128 -0.045785964 0.6647286 -0.2128787 0.31438154 -0.0030090732
0.1675518 0.3298375 -0.10313064 0.0808071 -0.042544052 -1.3114252 -4.9901705 -1.0193442
-0.019650867 0.79085636 -0.020535689 -0.51164216 -0.019071028 -0.35361162 -0.16377701 -1.0245199
-0.40558645 -0.5266272 0.13673852 -0.2592517 -0.008979074 0.54059 0.14957733 -0.060554158
6.850588 0.17443307 0.17386636 -0.14606687 0.64266676 -1.0355062 -0.9104364 -0.3026218
-0.14559002 0.091134734 0.39539897 -0.09153833 -0.17692046 0.13238327 -0.18479644 -0.04013569
0.12184266 -0.05967532 0.11785687 -0.4784418 -0.60877836 -0.1624181 0.33408466 0.13850841
0.284259 -0.2496554 -0.22076212 0.13258453 0.109857365 0.005427107 0.012518472 -0.35384828
0.5025595 -0.14945522 0.0034339265 -0.40837988 0.43913364 -0.12046621 0.11155107 -1.0748612
0.21529086 -0.105623 -0.44842145 -0.3292733 -0.29128155 -0.21904628 0.20034175 0.080753125
0.49978146 -0.17105377 -0.23060438 -0.09218379 -0.05022152 0.036668435 -0.30645913 -0.18596056
-0.106522664 -0.25955203 0.7880792 0.34360817 -0.025165107 -0.2672803 1.1111732 0.4702613

lstm.weight_hh_l1 f4 [200, 50]
00000000: fcdc 173f 5505 43c0 8e8f c4c0 bc75 823f
00000010: 6016 23c0 4c51 f6be 34c0 b83f dd1a 71bf
00000020: 780b cf40 0ff6 a4bc 7d06 90c0 db67 babf
00000030: a13a 7c3e 5d63 0bbf cd22 4abf 4fb8 6c40
00000040: dc1b 30c0 8d9f 2140 8b1d f53f 2ab3 08c0
00000050: 51a7 24bf 7fb8 34c1 b5c2 8ebf 08db 9b3f
00000060: 1219 ffbe 5ebe de3d aa04 9bbf d45e ccbe
00000070: 2df2 a6bf 557a 433e e049 89bf e969 a13f
00000080: 051e df3d ddc5 e83f 46aa 663f ba8a fdbf
00000090: b081 24c0 1b52 44c0 100c 83c0 ca0b 88bf
000000a0: 7ad8 02bd a617 b5be f5f9 6dbf f6c5 87bf
000000b0: 4fef 543f 5120 0ac0 1e61 ffbe c5d2 7a3f
000000c0: a7a8 0840 2ac9 9a3e 5763 6f40 771c aac0
000000d0: 0b08 a140 3218 513f 2422 263f b9df e73e
000000e0: 8cb2 ad3f fc26 76be 7856 183f f426 eebe
000000f0: 6220 e13f 88fb 6fc0 295a d63f 5db9 1940
00000100: 2c36 58c0 193d 16c0 a1b2 0bbf bf76 063f
00000110: 0745 dabf 1ae1 0dc0 35d3 c13e 3c4a 423e
00000120: bb89 cb3f 8f95 8540 b5a4 34c0 43e4 1540
00000130: d172 7f3f e62c 52bc c029 203e dbc1 1ec0
00000140: 080d 8b40 8520 7dbf 3a01 d8bc be76 d9be
00000150: c707 c0bf 578c f6bd dc3e a23e 6a3c a4bf
00000160: 3811 6ac0 adaf 1a3e cf45 b33f b113 7f40
00000170: 6608 673f 8f45 afbb fe96 cb3d da23 a73e
00000180: 0bb4 1dbf 5042 253e 6df4 99bf 3263 0e3f
00000190: 8e5f 33bf df09 dd3e 97e9 cdbf 22bc 5dbf
000001a0: 03ef 873d 43a3 cebf 981e adbf 92f4 9a3e
000001b0: ec27 7bbe 3205 b43f a722 04c0 9c6d 87bf
000001c0: a310 75bf 1590 4fc0 9140 0940 17ae 1140
000001d0: b68f 903f 098c 6b40 3b6f 75be 3502 88bf
000001e0: 131d 1641 f974 ebbf abbf 2a40 c3bc 1c3e
000001f0: f8c7 ac3f f329 a53e 17da 863e e2de 1d40
00000200: 400a cabf 38cb 2840 7f4b ba3f 5284 2040
00000210: 9719 9040 d55f 4e3e 3a4a 5540 307e 853e
00000220: c679 eebe 27b4 3340 c2bb 533f f5bf 173e
00000230: 6ebd 7f3f edc4 9ebf b82a fb3d 5380 3f3e
00000240: 9ba2 62bf d42d c3be f52c 133e 15c9 cebe
00000250: 592e 21bf aa7d 6b3e 69ee 50be 0a2b aabe
00000260: 1451 76bd 1376 f3be 2d6e c83e 85a8 4f3e
00000270: 01c5 80bf fa56 043f 006f b5bf ce1c 983e
00000280: d37a d43f dec5 36be 8e3b 1f3e 1001 263f
00000290: b338 48be 0fee d2bf b6cd 17bf cfc4 64bf
000002a0: 0227 adbe f4e5 98bf 61ab 8bbf 5eac 66c0
000002b0: b22f babe d88b c73e 3be9 f73f d886 653f
000002c0: 9622 8dbf 0a55 bd3f d7eb 1c40 a31c 9b3f
000002d0: 3af4 eabf 80ff 663f 171f 203f 093a 5abf
000002e0: 7351 443f ef53 15bf 4801 4b3f deff b2be
000002f0: 0219 3dbf ebac 313d 8786 10be 5b49 213f
00000300: fd65 083f d11f 38bf 1e3c 36bf 9474 de3d
00000310: 86e8 9bbe 19b6 813f b180 19bf 4a4e 23bf
00000320: 8e93 d7be 76bc e33e 1b51 253f 3d9a 5fbf
00000330: 08dc 1d3d 4e29 ddbd e2c8 0d3f c8ee dbbe
00000340: 8020 c3be 6aa5 693e fe8e c4bc 00cc 64be
00000350: c6eb 4cbf 8417 973e b8f3 a1be 7ba4 c43d
00000360: 8e6e 12bf 8bd1 57bf 3d4f 28bf ac1c 083f
00000370: c523 41be 2816 e240 c14a 0bbf 49a0 b63d
00000380: dcc6 9ebd c2f8 e9be acde b6bd f5b6 163f
00000390: 9cc9 7b3d 79d1 c03e bda8 d63f b83a 4dbe
000003a0: c006 53bf 8345 d83e 2144 253d 4e10 1b3f
000003b0: cab7 823f a2c0 72bf 8451 0abf 80f7 173e
000003c0: 43ff 64bf bd1d 44be 85d7 3f3e 7d33 ebbc
000003d0: 17b4 31bf 3b2c 633f bdc9 1fbe b56b aabd
000003e0: 041b 4abf 196e 033f 613a 1ebf 2b50 cdbe
000003f0: 3a8b 16c0 a211 1abf 5f4b 793d 7d9c a7bf
0.5932157 -3.0472004 -6.142524 1.019218 -2.5482407 -0.481089 1.4433656 -0.94181615
6.47015 -0.020136861 -4.500792 -1.4562944 0.2463174 -0.5444849 -0.7895935 3.6987493
-2.7517004 2.5253632 1.9149641 -2.1359353 -0.64317805 -11.295043 -1.115317 1.2176218
-0.49823815 0.108761534 -1.2110798 -0.39916098 -1.3042656 0.19089635 -1.072567 1.2610446
0.10894398 1.8185383 0.90103567 -1.9807961 -2.5704155 -3.0675113 -4.0952225 -1.0628598
-0.03194473 -0.35369605 -0.9295953 -1.0607288 0.83177656 -2.1582224 -0.49878782 0.9797786
2.1352937 0.302316 3.7404382 -5.3159747 5.032232 0.81677544 0.64895844 0.45287874
1.3570113 -0.24038309 0.5950694 -0.46514094 1.7588007 -3.7497272 1.6746265 2.4019387
-3.3783064 -2.347479 -0.5456944 0.5252494 -1.7052315 -2.216864 0.3785645 0.1897363
1.5901407 4.1745067 -2.822553 2.342057 0.9978457 -0.012828087 0.15640926 -2.480582
4.3453407 -0.98877746 -0.026367772 -0.42473406 -1.5002373 -0.120384865 0.31688583 -1.2830937
-3.657301 0.15106077 1.4005679 3.9855769 0.9024719 -0.005348868 0.09940909 0.3264454
-0.6160285 0.16138577 -1.2027718 0.5562011 -0.7006768 0.43171594 -1.6086911 -0.8661519
0.06637385 -1.6143574 -1.3524961 0.30264717 -0.24526948 1.4064085 -2.064615 -1.0580325
-0.9572851 -3.243169 2.1445658 2.2762506 1.1293857 3.680422 -0.23968212 -1.0625674
9.382098 -1.8395072 2.6679485 0.15306382 1.3498526 0.32258567 0.26338264 2.4667287
-1.5784378 2.6374035 1.455429 2.5080762 4.5031238 0.20153745 3.3326554 0.26072836
-0.4657728 2.8078706 0.8270837 0.1481932 0.9989842 -1.2403847 0.12264007 0.18701296
-0.88529366 -0.38120902 0.14372618 -0.40387788 -0.62961346 0.22997156 -0.20403446 -0.3323596
-0.060135916 -0.4755102 0.39146557 0.20279129 -1.0060121 0.51695216 -1.41745 0.29709476
1.6599983 -0.17848918 0.15550062 0.6484537 -0.19552879 -1.64789 -0.59298265 -0.89362806
-0.33818823 -1.1945176 -1.0911676 -3.6042705 -0.36364514 0.3897388 1.9368051 0.8965888
-1.102618 1.4791577 2.4518945 1.2118114 -1.8355782 0.9023361 0.6254744 -0.85244805
0.7668678 -0.583312 0.7929883 -0.34960836 -0.73866284 0.043377798 -0.14113818 0.63002557
0.5328062 -0.7192355 -0.7118548 0.10862079 -0.3045084 1.0133697 -0.5996199 -0.63791335
-0.42104763 0.44479722 0.6457688 -0.87344724 0.038539916 -0.10798894 0.5538465 -0.42955613
-0.38110733 0.22817007 -0.023993965 -0.22343445 -0.8004726 0.29510128 -0.31631255 0.09601685
-0.57199943 -0.8430411 -0.6574591 0.5316875 -0.18861301 7.0652046 -0.5441094 0.08917291
-0.07752773 -0.456976 -0.0892919 0.5887292 0.061471567 0.37659815 1.6770245 -0.2004193
-0.82432175 0.42240533 0.040348176 0.60571754 1.0212338 -0.94825184 -0.5403063 0.14840508
-0.89452 -0.19151969 0.18734558 -0.028711075 -0.6941542 0.88739365 -0.15604301 -0.08321325
-0.7894747 0.5133987 -0.6180783 -0.40100226 -2.3522477 -0.60183156 0.060862895 -1.3094631

lstm.bias_ih_l1 f4 [200]
00000000: 41cd 85bf a7ea 0dbd 3187 c8bf 21c3 b7bf
00000010: 0d9a 65bf b334 05bf dd3f 8abf 04e0 abbf
00000020: 57cf 8f3f 95cd 70bf 3f35 a9bf 037b 93bf
00000030: a449 1ac0 f0ed 79bf 4a37 a8bf 4aff 9fbf
00000040: 7ccc afbf 36f8 bdbf 8f07 81bf 673b 93bf
00000050: ee5b 013f 8400 303e 7373 54bf 7e85 68bf
00000060: daf5 a1bf 2430 a9bf daf9 83bf 9023 ccbf
00000070: 17ec 8cbf e24b 4abf e969 c2bf d2a7 0dc0
00000080: 4e7a a7bf c238 8c3d 203d 9abf 63cc 7c3f
00000090: c689 66bf 4abb 00c0 f030 d5bf 0644 91bf
000000a0: 0827 86bf 21fa a7bf 353d 12bf c1fb 673c
000000b0: 111e 80bf b37f 76bf a813 90bf 63d1 a7bf
000000c0: 2573 55bf c1d2 46bf b93c 2cbf 10ff 4abf
000000d0: 15e7 37c0 151f cebe 48db cfc0 e656 83c0
000000e0: a5f6 97c0 1b36 6ebf 9df6 22bd 8ddf 66c0
000000f0: f230 20c1 35d9 a1c0 924d 9dc0 d324 5dc0
00000100: b4b5 a5c0 da4b 04c0 86b7 b5c0 8a32 33c0
00000110: 55c6 82c0 e719 ecc0 a60e dec0 e4f7 26c0
00000120: 4197 8fc0 d59e 99c0 1457 88c0 6184 85c0
00000130: 84c4 33c0 71cb b2bf 4d2b 5bc0 3aa7 08c0
00000140: d9e9 96c0 d8f7 14c0 6c08 6cc0 94f9 39bf
00000150: 1e03 4dc0 6cdb 93c0 7899 5bc0 3d0e 28c0
00000160: 1fcf 2bc0 146c 36c0 bb13 8abf 360f 5cbf
00000170: f8c1 28bf 09b7 cac0 cf8a 98bf b544 66bf
00000180: 83e5 a6bf da7c e8bf fc2c d6c0 7239 fac0
00000190: f954 bb3f 9bd5 bbbf 2bc9 0f3f 5563 8fc0
000001a0: 9413 4cbe 554c d4be 7a9c d4bf fa0d f03f
000001b0: 604e a13f 3e26 cabd eff0 113d 2b3b d9bd
000001c0: b0aa c6bd 3e57 f3bd 8251 f7be 7658 b23e
000001d0: 9801 4ebf b095 bb3d 6514 d8bd 117e 273e
000001e0: 91d4 5fbc 632e a63e f6ce 23be 311b eabd
000001f0: 9892 27be 9fef a83f 13aa 1cbf c3c7 d03e
00000200: 8158 11c0 7c19 e83f 14fe 9f3e 3116 a23e
00000210: 1f07 483e 5cfc 1140 220f 6e3e 6d51 37be
00000220: 00cd fcbd 989d 32bc a3ac 133f eb4a eb3e
00000230: 8d4b 46be d0e8 243d b558 dcbe 1f89 593f
00000240: c3e2 9ec0 fca2 04c0 d4c0 1bc0 b3b0 823c
00000250: e47b 903e e011 dbbe 84a3 9dbf 8949 ddbf
00000260: f85c 4cbd c77b 18bf dfcf 643f 75b9 3dbf
00000270: 5972 e5bf 4119 5bbf 65a5 e1bf 861e 9dbf
00000280: 3ff6 05bf 6ec5 97bf c7a4 ab3e 082c 393e
00000290: d08b f63e 6f62 98bf f33d abbe a457 e6be
000002a0: 74b2 db3e ce7f 573e fa38 e3bf e62c d6bf
000002b0: 43b8 e3bf 13b2 9c3d 3c5f 07c0 0d9c 18bd
000002c0: 2f7e c7be 6a49 7ebf 2e97 e9bf 2db3 0dc0
000002d0: bdbf af3e b064 6bbf 397f 74bf 4a93 f8bf
000002e0: c7f0 51bf 58ef 95bf b768 e7bf 88fc 263f
000002f0: b311 0dbf 473c 8ebe 2af4 a0bf 187a d33f
00000300: cbad 9cbe 3b9b ebbf ae89 81bf 5a08 1bbf
00000310: f93c 79bd 3431 72be 351a d7bf a7a0 07c0
-1.0453264 -0.03464761 -1.5666257 -1.4356424 -0.8968819 -0.5203354 -1.080074 -1.3427739
1.123515 -0.94063693 -1.3219374 -1.1521915 -2.4107447 -0.9762869 -1.3141873 -1.2499783
-1.3734279 -1.4841373 -1.0080432 -1.1502503 0.505309 0.17187697 -0.8298866 -0.9082869
-1.2653153 -1.3217816 -1.0310624 -1.5948353 -1.1009549 -0.7902204 -1.5188571 -2.213368
-1.30842 0.06846763 -1.2049904 0.9874937 -0.90053976 -2.0114312 -1.665556 -1.1348884
-1.0480661 -1.3123208 -0.57124645 0.014159144 -1.0009176 -0.96288604 -1.1255999 -1.3110775
-0.8337882 -0.77665335 -0.67280155 -0.79295444 -2.8734791 -0.4025809 -6.4955177 -4.1043577
-4.748858 -0.9305131 -0.03978597 -3.6073945 -10.01195 -5.0577645 -4.915719 -3.4553726
-5.1784306 -2.0671296 -5.678653 -2.7999597 -4.0867105 -7.378162 -6.939288 -2.60888
-4.4872136 -4.8006387 -4.2606297 -4.1724095 -2.8088694 -1.3968335 -3.4245179 -2.1352067
-4.716046 -2.3276272 -3.688014 -0.7264645 -3.2033153 -4.620535 -3.431242 -2.625869
-2.6845167 -2.8503466 -1.0787271 -0.8596071 -0.6592097 -6.334843 -1.1917361 -0.8994859
-1.3038791 -1.8163102 -6.6929913 -7.8195124 1.4635307 -1.4674562 0.5616633 -4.4808755
-0.19929343 -0.41464487 -1.6610253 1.8754265 1.2602043 -0.09870575 0.035630163 -0.106069885
-0.09700525 -0.118818745 -0.48304373 0.34833115 -0.8047118 0.0915941 -0.10550765 0.16356684
-0.01366152 0.32457265 -0.15996918 -0.114309676 -0.16364515 1.3198127 -0.6119701 0.40777406
-2.2710268 1.8132777 0.31248534 0.31657556 0.19533966 2.2810278 0.2324796 -0.17902155
-0.12343788 -0.010901831 0.576853 0.45955595 -0.19364758 0.04026109 -0.43036428 0.84974855
-4.965181 -2.0724478 -2.4336443 0.015953397 0.2821952 -0.42787075 -1.2315526 -1.7288066
-0.04989335 -0.5956387 0.89379686 -0.7411111 -1.7925521 -0.8558541 -1.76286 -1.227494
-0.52328867 -1.1857126 0.33524153 0.18083203 0.48153543 -1.190504 -0.334457 -0.4498874
0.42909586 0.21044847 -1.7751763 -1.6732452 -1.7790607 0.076511525 -2.1151876 -0.037258197
-0.38963458 -0.9933077 -1.8249261 -2.214061 0.34325972 -0.9195051 -0.95506626 -1.9419949
-0.8200802 -1.1713667 -1.8078831 0.6522908 -0.5510513 -0.27780363 -1.2574513 1.6521635
-0.30601344 -1.8406748 -1.0120142 -0.6055962 -0.060849164 -0.23651582 -1.6804873 -2.1191804

lstm.bias_hh_l1 f4 [200]
00000000: fe3f 82bf 0b12 c2bd 036e b6bf 3648 aebf
00000010: ac41 63bf 0c78 1cbf d76d 60bf 8104 abbf
00000020: 2739 7b3f 69e7 8fbf db21 94bf 5b01 72bf
00000030: aa81 13c0 43c6 91bf 0b8f 95bf ddce 91bf
00000040: 0f5b c7bf d5c4 bcbf d403 7abf f868 86bf
00000050: a1fa cc3e 85df 913d e05f 69bf 5f97 4fbf
00000060: 2782 bbbf 21bc a4bf 2221 79bf 9606 e0bf
00000070: 2963 81bf cdcd 6bbf 3ef7 d6bf ae5b 05c0
00000080: e395 a3bf ad19 503e 9b64 9bbf c2de 6c3f
00000090: 9ce8 85bf 16f8 f2bf 4c79 d1bf 66a5 98bf
000000a0: b1ca 9bbf 2e3c b1bf d7b4 07bf 3ab5 07bd
000000b0: caf3 75bf c835 80bf 52ec 9abf 3478 c1bf
000000c0: 0f5f 6abf 6350 86bf 47b0 0bbf 2cf4 33bf
000000d0: 63e1 3ec0 3d36 04bf 6492 ccc0 e0de 88c0
000000e0: 3758 9ac0 ab21 78bf 0ff4 173e ff37 75c0
000000f0: 67a6 1fc1 218b a6c0 e9f9 9fc0 0407 63c0
00000100: a047 a7c0 0b06 0dc0 8f8e b2c0 36e6 25c0
00000110: d6ff 7ec0 0e00 e9c0 ff9c dac0 22ca 21c0
00000120: 27c4 87c0 9d35 96c0 a178 87c0 5151 85c0
00000130: f347 3bc0 662e cfbf 0db4 65c0 096e 0fc0
00000140: ebd2 98c0 377f 0dc0 8363 6ec0 7349 3cbf
00000150: 92db 58c0 e302 99c0 3147 5dc0 7b7a 25c0
00000160: 860a 2ec0 26fc 3bc0 9ea0 7abf 0476 2bbf
00000170: ba9c 2dbf d30c cbc0 e433 91bf e369 91bf
00000180: 0401 acbf 2be3 d4bf 29ba d6c0 899d f5c0
00000190: b516 c83f b3c4 cabf cfac f83e 7d77 92c0
000001a0: 21a8 65bd 17c1 f6be fbb3 d4bf 8d56 fb3f
000001b0: 3f3a 953f 5b1a 2bbe 98f9 38be 4d0f d3bd
000001c0: 08f7 8e3d 930f a1bd 4f03 c8be f404 de3e
000001d0: 8adb 4ebf 3c5c 06bc 1f38 a93d 6d6f 47bc
000001e0: 2982 963d f511 7e3e 1b67 88be 4571 fc3d
000001f0: e4a1 e4bd 9a32 b83f fd54 23bf 1475 9e3e
00000200: 2b1b 13c0 3eec c83f 7682 173e b4e6 993e
00000210: 898e ad3d 5535 1940 185e 633e 3fec 7abd
00000220: d885 99bc b40e cf3d 203d 023f 1b6c eb3e
00000230: 697b 8ebe fbde 9a3c fd17 05bf d704 4c3f
00000240: 240f a6c0 0518 0bc0 5d41 1dc0 e375 d7bc
00000250: 0a12 433e 53f3 28bf 9817 9ebf 24b3 e1bf
00000260: f11f 25be 8246 59bf 8715 603f afe7 31bf
00000270: cd13 eebf 80c9 7dbf 1296 d4bf 8056 97bf
00000280: 17f8 d9be 65bf 89bf 52eb a43e 9a11 2b3e
00000290: 5a33 da3e 38de 92bf 785c 21be 380a edbe
000002a0: 124e f63e bc4f 203e d05b e2bf f6cd dcbf
000002b0: 9674 ddbf a319 9e3d 6702 fdbf 722b 63bd
000002c0: b51e 03bf 664f 8bbf 9ba8 d7bf cea9 fbbf
000002d0: ed93 283e 7a72 6bbf d1d2 65bf 2d1f 05c0
000002e0: 4f73 30bf 52ba 96bf da50 d9bf 9dd5 4c3f
000002f0: 8654 acbe fcdb 9bbe 7a6f 9cbf 6c18 ba3f
00000300: 1ef1 94be ab1a ffbf fc7b 59bf e168 efbe
00000310: 15ed babc f346 40bc ca31 d4bf 55f5 00c0
-1.0175779 -0.09476098 -1.4252323 -1.3615787 -0.8877208 -0.61120677 -0.876676 -1.336075
0.9813408 -1.1242496 -1.1572832 -0.9453332 -2.304789 -1.138863 -1.1684278 -1.1391255
-1.5574664 -1.4747568 -0.9766209 -1.0500784 0.40034965 0.07122711 -0.9116192 -0.8109035
-1.4649094 -1.2869912 -0.9731618 -1.750201 -1.0108386 -0.921109 -1.6794202 -2.0837207
-1.2780117 0.20322295 -1.2140077 0.925274 -1.0461612 -1.898196 -1.6365142 -1.1925476
-1.2171232 -1.384649 -0.53010315 -0.033131815 -0.9607512 -1.0016413 -1.2103369 -1.5114808
-0.915513 -1.0493282 -0.5456585 -0.7029445 -2.9825065 -0.5164526 -6.39287 -4.2772064
-4.8232684 -0.96926373 0.14839195 -3.8315427 -9.978126 -5.2044835 -4.9992566 -3.5473032
-5.2274933 -2.2034938 -5.579902 -2.592176 -3.984365 -7.2812567 -6.8316646 -2.5279622
-4.2426944 -4.6940446 -4.233475 -4.1661763 -2.9262664 -1.6186035 -3.5891144 -2.241091
-4.775747 -2.2108896 -3.7248237 -0.73549575 -3.3884015 -4.7816024 -3.4574702 -2.5856006
-2.7193923 -2.937265 -0.9790133 -0.6697695 -0.6781727 -6.3453155 -1.1343961 -1.1360439
-1.343781 -1.6631826 -6.7102246 -7.6754804 1.563193 -1.5841278 0.48569342 -4.577086
-0.056068543 -0.4819419 -1.6617426 1.9635788 1.16584 -0.16709273 -0.18063962 -0.10305653
0.06980711 -0.07864299 -0.39065024 0.43363154 -0.8080374 -0.008200701 0.082626574 -0.012172562
0.07349045 0.24811538 -0.26641163 0.12326292 -0.11163691 1.4390442 -0.63801557 0.309487
-2.2985332 1.5697095 0.1479586 0.30058825 0.08474452 2.3938801 0.22203863 -0.061260458
-0.01874058 0.10110226 0.5087452 0.45980915 -0.2782853 0.018905153 -0.5198973 0.79694885
-5.189348 -2.173341 -2.4571145 -0.02630133 0.1904985 -0.65996283 -1.235095 -1.7632794
-0.16125466 -0.8487321 0.8753285 -0.69494146 -1.8599793 -0.9913559 -1.6608298 -1.1823273
-0.4257209 -1.0761534 0.32210785 0.16705933 0.42617303 -1.1474066 -0.1575793 -0.4629686
0.48106438 0.15655416 -1.7684269 -1.7250354 -1.7301204 0.077197336 -1.9766358 -0.055461355
-0.5121873 -1.0883605 -1.6848329 -1.9661195 0.16462679 -0.9197155 -0.89774805 -2.0800278
-0.68925947 -1.177561 -1.6977799 0.8001345 -0.33658236 -0.30441272 -1.222152 1.4538703
-0.29090208 -1.9930013 -0.8495481 -0.46759704 -0.022818128 -0.011735666 -1.6577694 -2.0149739

lstm.weight_ih_l2 f4 [200, 50]
00000000: 5374 943e 8a56 323b 7cfc 333e 1fe6 99bc
00000010: b55c 94be a372 c73a 630e 55bd ce3f 9c3d
00000020: ec4a 4dbc 0d87 c13d 201b ec3d fc09 00bd
00000030: 4374 e03e 36fb 71bd ef23 873a 30b3 5a3c
00000040: 5559 59be f1ba 99bd b078 10bd 915a 91bd
00000050: 6e69 ea3e 8cfe 2940 bec0 fd3e e984 33bd
00000060: dd4e 04be e8fa 5d3c e624 363d 4c3f 3cbf
00000070: e2cf 9fbd cd53 983d c23d 83bf 8dcc 0440
00000080: 0478 f93c 8d17 133d 9641 48bd 9b81 13bd
00000090: b659 043d f38f d1bd 4a83 c2bc d4cb 00be
000000a0: c53f da3c 054f 61be 3094 72bd f0de a7be
000000b0: cc33 19bd 3160 3ebe 4a5d 5bbd b8da d23d
000000c0: 4cd4 abbe 5dc1 14be 0e45 8c3f ae3b 3dbf
000000d0: 3e16 84c0 efc9 3bc0 ed19 713e dff1 20c0
000000e0: 0738 2941 f519 91be 421d 65bf 1348 cbbe
000000f0: 282d d0bf 3533 90c0 c668 1fc0 1b41 a7bf
00000100: d1bb a03f 8baa fcc0 2a08 513e 4dac d63e
00000110: 9cf9 6340 79d9 9dc0 8b89 03c0 e143 4ac2
00000120: ec00 95c0 a551 f1bf fe22 ecbe 349f 613e
00000130: d8a8 03bf a75a ffc0 2fbd c03f 1147 423f
00000140: ac35 31bf 3de2 aebf aee9 0840 4809 0f40
00000150: 3d8b c9bf 7dc7 e2be 6400 cac0 fa93 b93d
00000160: 0b00 983e bc1c 87bf 1bbc 9c40 7e31 5f40
00000170: f7ff debe dfb6 00be e2a6 25c0 9668 493e
00000180: a73e 33bf c6a5 8540 782b 9c3f 10e5 983e
00000190: 3e55 9abe 12b2 313f ed78 c5bc d29e 423f
000001a0: 7345 5ebf ae4e ff3e 692b 39bf 389e d3be
000001b0: e98a 8b3d e0fd 9b3d fa74 da3d 9d64 70bf
000001c0: 94fc 263f 2d01 56bd b3cc 373f 71bc 20be
000001d0: 1ec5 aa3e c02d 9c3a 873a babe fda3 553f
000001e0: cbca 393f aa76 6540 5751 273f efdc cf3e
000001f0: 7eee 753f aaff 80bf e462 473f 8eb1 8ec0
00000200: da33 febc 899a 4dbf a3ed 3cbf b5c3 843f
00000210: 67c9 34bf a452 acbe 4035 593d 94e0 32bf
00000220: 909f bc3f 12f1 c3be d86a 1fbe 6e2b 33bf
00000230: f168 32bf 01c4 46bf bcb2 8b3d cf9c e4be
00000240: c4f1 1c3f 642e 153d 2770 da3e e071 1bbf
00000250: 5ecc 54bf 9357 9e3f 1a12 3c3b 4b36 9a40
00000260: 94b5 1440 175a 21c1 6f59 90bd c549 15c1
00000270: 5251 68be 6d46 b6be 1061 b4bd c40b bcc0
00000280: d325 92bf bd24 e6be fe73 a1bf 8270 8bbd
00000290: b4a1 90c1 a249 b43f 7df4 cdc0 2e07 9bbe
000002a0: 91df 203f 80f0 1c3e 0c3d cfbf ebfb 3e40
000002b0: 38cb 1fc0 b630 793e 319b 76bf 9d3a 66bf
000002c0: 3582 fdc0 48a1 3240 d721 8f3e 251f ffbe
000002d0: 7642 b63c 1c59 89c0 1a69 3f3f fafc 3e3e
000002e0: 3788 df3d a0d3 843e 88a8 6cbf 9ae8 fbbd
000002f0: 863e d0bf 90be e340 0a19 313d 3651 8fbe
00000300: 0cbe 88c0 de20 b13f 02e8 b9c0 e40c de3f
00000310: 1cb1 b040 b562 55c0 c011 8a3f d388 87bf
00000320: 86fa 0abe 7bd6 efbc 8e21 913d bad3 03bd
00000330: 3a34 043d 26e5 e7bc 380d 583a 2c47 a9bd
00000340: 97c6 b03e 8940 123e 6358 8bbc 9509 aa3d
00000350: 0b98 523d 50e5 8dbd 1415 083c 8039 1339
00000360: aada e7bb 4c02 f8bc 5503 e33c f445 7a3d
00000370: 9fe1 d4ba 1770 b2bd ab28 3cbe 18b6 663c
00000380: abf2 e5bd 79d8 323e de2e d93d e678 b5bd
00000390: b525 ab3d 1cbc 163c 118a 713d c7ff 983d
000003a0: ab14 4f3d 8065 3d3d 67c7 a63d 2dec e53d
000003b0: 46d7 2ebd ca95 d2bd 6938 223d bcff 023d
000003c0: 38a2 14be 8c5b 043e 0142 a3bd 2e4d 013c
000003d0: 0f9f 2dbd c87e 82bb 11be 91bd 0f15 433d
000003e0: 8537 ebbc 0b55 a9bd 18be cebe 5357 823e
000003f0: 7d0d 1440 4cd2 8c3e 7c26 803e 78ef f53b
0.28994998 0.0027212226 0.17576784 -0.018786488 -0.2897698 0.001521666 -0.052015673 0.07629357
-0.01253007 0.09449587 0.11528611 -0.03125952 0.438387 -0.059077464 0.0010310392 0.013348386
-0.21225484 -0.07506359 -0.035271347 -0.07097352 0.4578356 2.6561613 0.49561113 -0.043827925
-0.12920709 0.01354859 0.044468783 -0.73534083 -0.078033224 0.07437859 -1.0253222 2.0749848
0.030452736 0.03591113 -0.048890673 -0.036012273 0.032312118 -0.10232534 -0.023744244 -0.12577754
0.026641736 -0.220028 -0.059223354 -0.32787275 -0.037402913 -0.18591382 -0.053555764 0.102956235
-0.33560407 -0.14526887 1.0958574 -0.7391919 -4.127715 -2.9342 0.23545046 -2.5147626
10.576179 -0.28340116 -0.8949777 -0.39703426 -1.626378 -4.506251 -2.4907699 -1.3066744
1.2557317 -7.895818 0.2041327 0.4192833 3.56211 -4.932797 -2.05527 -50.566288
-4.6563625 -1.8853041 -0.46120447 0.22033387 -0.5142951 -7.979816 1.5057734 0.7588969
-0.6922252 -1.3662792 2.1392627 2.2349415 -1.5745617 -0.44292822 -6.3125477 0.090614274
0.29687533 -1.0555644 4.897962 3.4873958 -0.4355466 -0.1256976 -2.5883107 0.19668803
-0.70017475 4.176486 1.2200766 0.2986226 -0.3014316 0.6941234 -0.024105513 0.7602359
-0.8682472 0.49864715 -0.72331864 -0.4133165 0.068136044 0.07616782 0.10666843 -0.93903524
0.65229154 -0.052247215 0.7179672 -0.15696885 0.33353513 0.001191549 -0.36372778 0.8345335
0.7257506 3.5853677 0.6535849 0.40598246 0.96067035 -1.0078022 0.7788527 -4.459174
-0.031030584 -0.80313927 -0.73800105 1.0372225 -0.70619816 -0.336568 0.0530293 -0.6987393
1.4736195 -0.3826986 -0.15568101 -0.69988143 -0.6969138 -0.7764283 0.068212 -0.44650885
0.61306405 0.036421195 0.4266369 -0.60720634 -0.8312434 1.2370476 0.0028697313 4.8191276
2.3235826 -10.084495 -0.07048308 -9.33051 -0.22687271 -0.35600606 -0.08807576 -5.876436
-1.1417793 -0.44949904 -1.2613523 -0.068085685 -18.078957 1.4084971 -6.4360948 -0.30278915
0.62841135 0.15326118 -1.6190505 2.9841259 -2.4967785 0.24334988 -0.96330553 -0.89933187
-7.9221444 2.7910938 0.27955505 -0.4982845 0.022248488 -4.2921276 0.7476975 0.1865119
0.10914653 0.25942707 -0.9244466 -0.123002246 -1.6269081 7.117012 0.04323677 -0.27991647
-4.273199 1.3838155 -5.8095713 1.7347684 5.52162 -3.3341496 1.0786667 -1.058863
-0.1357213 -0.029277077 0.07086478 -0.03218434 0.03227637 -0.028307509 0.0008241716 -0.08265528
0.34526512 0.1428243 -0.01700992 0.08302609 0.05141453 -0.069285035 0.008305807 0.00014040433
-0.0070756273 -0.030274533 0.02771155 0.06110187 -0.0016241557 -0.08712786 -0.18374889 0.0140815005
-0.11227926 0.1746539 0.10604642 -0.0886095 0.083568014 0.009200122 0.05896956 0.07470661
0.05055682 0.046239376 0.08143502 0.112266876 -0.04268577 -0.10282476 0.03960458 0.03198217
-0.14515007 0.12925547 -0.079715736 0.007891936 -0.04238802 -0.0039823987 -0.071163304 0.047627505
-0.028712997 -0.08268174 -0.40379405 0.25457248 2.3133233 0.27504194 0.2502936 0.0075053535
