NEURAL_MODELS/LSTM/jolly-bush-44_epoch40.pth (torch, 833135 bytes, 42 tensors)

lstm.weight_ih_l0 f4 [200, 69]
000000 04 12 a9 3f a9 95 d4 3f 5d 3c 16 c0 54 01 ad c0
       1.3208623 1.6608173 -2.3474343 -5.406412
000010 0a 0a 5c 3f 8b 0a 6a c0 aa be 3b 40 bc 70 f7 bf
       0.8595282 -3.6568935 2.9335122 -1.9331279
000020 ea 87 50 bf 5a 24 33 41 70 d2 fd c0 02 6a 1c 41
       -0.8145739 11.196375 -7.931938 9.775881
000030 c6 3b a1 bf 50 f8 83 bd 35 da 10 40 45 0c 0a 41
       -1.2596366 -0.06443846 2.2633183 8.6279955
000040 ea a2 a1 bf 7f 30 db 3f ae be 7e c0 fc ac 6d 3f
       -1.2627842 1.7124175 -3.9803882 0.9284208
000050 40 6e dd 3d 00 ee 87 bf 8d 31 cd c0 23 b2 38 40
       0.10812044 -1.0619507 -6.4122987 2.8858726
000060 06 f0 8a 41 e2 65 69 3f de b6 ae 3f 10 6b bc 40
       17.367199 0.91171086 1.3649557 5.888069
000070 93 c3 04 40 da 5b 23 3f 31 62 f6 3e 9b 60 ee c0
       2.074437 0.6381203 0.4812179 -7.4492927
000080 e2 4f 61 40 8e 1e 81 c0 9d b9 cd c0 6d 2e f4 3f
       3.5205007 -4.03498 -6.428908 1.9076668
000090 26 b2 8f c0 45 3a 3d c0 19 a0 06 c0 f6 db ee bd
       -4.4904966 -2.9566815 -2.1035216 -0.11663048
0000a0 9c e7 d9 c0 6f c2 18 40 5e 12 17 3e 2f 95 83 40
       -6.8095226 2.3868673 0.147531 4.111961
0000b0 9e 89 fa c0 a4 54 12 40 fa 89 2b c0 e2 78 f3 be
       -7.829299 2.286416 -2.6802964 -0.47553164
0000c0 62 56 c3 40 7e 15 ce c0 10 98 56 3e a3 23 73 40
       6.104295 -6.4401236 0.20956445 3.79905
0000d0 42 98 b2 c0 9c 1c 2b 40 f8 15 bf bd 17 2c 78 40
       -5.581086 2.6736212 -0.09330362 3.877691
0000e0 06 ae cf 3e dd 2d 42 40 18 4e 8c 3d 2f f3 a6 3f
       0.40562457 3.0340493 0.06850833 1.3042964
0000f0 0d a3 9a c0 d6 44 96 41 ec 33 47 3e 25 f3 4a c0
       -4.8324037 18.783611 0.194534 -3.1710904
000100 23 31 97 40 eb e7 a2 bf ed 50 01 bf 91 f1 0f be
       4.724748 -1.2727026 -0.5051411 -0.14056994
000110 39 75 07 bf d3 48 84 40 be e4 04 c1 88 28 6c 40
       -0.5291324 4.1338897 -8.305845 3.6899738
000120 13 40 22 40 31 65 2b be 2b 8d d2 c0 2e 68 b9 be
       2.5351608 -0.1673782 -6.5797324 -0.36212295
000130 e8 b5 13 40 81 91 67 3f 99 9f 6c 3e 5d 0f 95 40
       2.3079777 0.90456396 0.23107757 4.6581254
000140 1c e5 43 40 ee 0e 7c 40 92 04 29 bf 88 ef 8e 3f
       3.0608587 3.9384112 -0.660226 1.1166849
000150 06 f5 28 3f 4c 46 f5 bd e5 6a 54 c0 00 3b 1b 3f
       0.65998876 -0.11976299 -3.3190243 0.606369
000160 28 75 f9 c0 f4 25 a3 3d 93 47 1c 40 9b 6f 1d 40
       -7.7955513 0.07966223 2.4418685 2.4599369
000170 98 fe cf c0 3f 08 72 41 20 df 00 41 59 bc 0b c1
       -6.4998283 15.127013 8.054474 -8.733483
000180 4e 39 8a be 31 d5 e4 bf 1b a7 03 41 e2 34 88 3f
       -0.26996845 -1.7877561 8.228297 1.0641139
000190 38 58 d4 40 e1 68 3c 41 c0 d2 a4 40 c2 26 1b 41
       6.635769 11.775605 5.1507263 9.696962
0001a0 8d ad 33 bf f1 0e 25 c0 d5 1f 47 bf a2 e5 a6 41
       -0.7018669 -2.579037 -0.77782947 20.862125
0001b0 04 f1 af be bf 7d e0 40 cd 60 60 3f 90 08 0d c0
       -0.34363568 7.01535 0.87647706 -2.2036476
0001c0 35 09 33 bf 7f fe 86 c0 87 f2 b0 be 85 92 33 41
       -0.69935924 -4.2185664 -0.34560034 11.223271
0001d0 3b 7c fd 40 f5 97 bd 40 49 f4 10 41 0c 78 42 c0
       7.921415 5.9247994 9.05964 -3.038577
0001e0 03 ce 11 41 d2 ed 07 be 3f c7 5a 3e 63 3d 80 bd
       9.112796 -0.13274315 0.21365069 -0.062617086
0001f0 72 f8 54 40 87 d6 e0 bf a5 1f 12 bf 07 81 0e 3e
       3.327664 -1.7565469 -0.57079536 0.13916408
000200 5a 5b 82 c0 e1 e6 04 3f 44 54 83 41 18 31 9a bf
       -4.0736513 0.51914793 16.416145 -1.2046232
000210 bb 55 2c 40 8f d1 f9 40 22 01 f0 3f a3 e8 6c c0
       2.6927326 7.806831 1.8750346 -3.701699
000220 44 37 f2 bd 12 3f ad c0 96 1e 5b bf fa 3a d4 40
       -0.11826947 -5.413949 -0.85593545 6.6321993
000230 d5 ae 5f bf bc 0c 34 c0 d6 25 09 41 f6 a5 f0 c0
       -0.8737615 -2.8132772 8.571737 -7.520259
000240 eb 16 a6 40 96 dc 3d c0 3c 89 2d be f1 fb a2 c0
       5.1902976 -2.9665885 -0.16946882 -5.0932546
000250 8a a2 23 c0 bf 97 56 bf f5 9b 19 be 6f d2 9c c0
       -2.5567956 -0.83825296 -0.15000899 -4.9006877
000260 23 f4 17 40 2d e8 93 bf 19 34 bf c0 e8 6f 21 3e
       2.374276 -1.155523 -5.9751096 0.15765345
000270 34 d3 00 c1 00 03 1f 3d 87 4e 10 be 35 62 54 3e
       -8.051563 0.03882122 -0.14092456 0.20740588
000280 09 66 76 3f 54 52 ac 3f 31 f5 69 40 9a 70 cb bf
       0.96249443 1.3462625 3.6555903 -1.5893738
000290 03 9d 28 c0 92 98 bf c0 c1 38 0d 40 25 bd bb 3e
       -2.6345832 -5.9873743 2.206589 0.36667743
0002a0 21 52 87 bf ec 24 7e 41 cd 2d 93 c0 fe 66 f0 bf
       -1.0571939 15.884014 -4.599341 -1.8781431
0002b0 50 94 ea c0 b2 5d 87 41 5e 23 49 40 d1 46 1c 41
       -7.3306046 16.92075 3.1427836 9.767289
0002c0 e2 3d b4 40 dc 79 25 3f 48 a5 34 bf d2 ea 08 40
       5.632554 0.6463907 -0.705647 2.1393323
0002d0 f3 bc 61 41 8c 83 92 bf e8 63 67 c0 0b c9 6f bf
       14.10863 -1.1446395 -3.6154728 -0.9366614
0002e0 f6 22 a2 c0 b1 38 a7 40 1d 37 4d c1 c3 69 66 c0
       -5.0667677 5.2256703 -12.825955 -3.6002052
0002f0 5f 7d 0b bf ea a3 47 c0 59 20 0d 41 98 a9 05 41
       -0.54488176 -3.1193795 8.820397 8.353905
000300 b0 30 4c 3c 1f 82 97 40 29 f7 d9 bf 08 bb 91 41
       0.01246278 4.734634 -1.7028552 18.216324
000310 96 68 e6 3d 80 00 a9 c0 29 a9 a7 c0 87 04 05 c0
       0.11250417 -5.281311 -5.2393994 -2.0784013
000320 dd a3 14 41 d8 ad 4c c0 ec 44 58 c0 f7 cb 21 c1
       9.290006 -3.1981106 -3.3792067 -10.112296
000330 82 f4 23 41 2c 76 a5 bd b4 11 a0 40 53 cf a9 c0
       10.247194 -0.0807918 5.002161 -5.306558
000340 6e 17 7d 3f 20 02 dc 40 d3 4d 4a c0 78 df 60 c1
       0.98863876 6.8752594 -3.161 -14.054558
000350 73 ef 21 41 44 69 e2 c0 b4 59 46 3f b4 c1 59 c0
       10.120959 -7.07535 0.77480626 -3.4024477
000360 e6 fd 83 41 52 2d 27 c0 97 45 ab 40 23 cd d7 3d
       16.498974 -2.6121411 5.352245 0.105371736
000370 25 58 3f 40 96 dc 57 3d 7b 4f 58 41 28 98 09 41
       2.989755 0.0527006 13.519404 8.5996475
000380 7c 1d b8 3d 45 39 54 3f 07 ed 03 41 dc f5 30 bd
       0.08989999 0.82899886 8.245368 -0.04320322
000390 39 e5 80 be 9b c0 7d c0 df 2a 47 41 19 5c 6c 41
       -0.25174883 -3.9648807 12.447967 14.772485
0003a0 e1 42 70 3f 2f a9 53 3f a2 9a 10 41 b7 be 93 41
       0.9385205 0.8268003 9.037752 18.468122
0003b0 30 f6 08 41 c4 35 83 c0 ec 35 0e c1 c7 66 a3 41
       8.560104 -4.100313 -8.8881645 20.425184
0003c0 6b 55 fd c0 c6 a6 fa bf df ec b1 41 67 76 12 3f
       -7.916677 -1.9582145 22.24066 0.5721192
0003d0 cb 40 10 41 a3 6f e6 40 33 ec 1e 3e f4 85 20 c0
       9.015819 7.2011275 0.1551979 -2.5081758
0003e0 54 fb 64 c0 e3 12 68 41 70 0d d6 c0 82 22 1c c0
       -3.5778399 14.504611 -6.6891403 -2.4396062
0003f0 d5 bf 52 41 c5 3b 8a 41 f1 0c 9a 41 e4 27 1d 41
       13.171834 17.279184 19.256319 9.822239

lstm.weight_hh_l0 f4 [200, 50]
000000 d8 4b 0b bf 58 1c 24 3e 53 8a fe be 4f 8a 0c 3f
       -0.54412603 0.16026437 -0.49714908 0.5489854
000010 37 1c 5b be 7e 75 cc 3f 2a 18 45 bf cb 90 70 3f
       -0.21397482 1.5973356 -0.76989996 0.93970937
000020 6c be 1c bf d8 41 0a 3f 6e 4a 74 bf 69 b6 9a bf
       -0.6122806 0.5400672 -0.9542607 -1.2086917
000030 bd 3c 99 bd 89 a8 5e 3f e8 44 9f bf 32 e8 b7 be
       -0.07482288 0.86975914 -1.2442904 -0.35919338
000040 fe b5 21 be 23 0e 0b bf ad d4 bd 3f aa 87 b5 3d
       -0.15792081 -0.54318446 1.4830528 0.088637665
000050 8b a8 93 3d 56 e6 d5 bf 3a 68 c8 be c9 69 44 40
       0.072098814 -1.6710918 -0.3914202 3.0689566
000060 21 30 a2 3f 59 54 bb bf 93 f0 96 3f f3 73 68 3d
       1.2670938 -1.4635116 1.1792167 0.056751203
000070 99 83 ee 3f a4 ca 75 3e 6e 49 b5 be 2d b4 b0 bf
       1.863391 0.24003083 -0.35407585 -1.3804985
000080 23 83 6f 3f 9a d3 8f bf 79 a7 fd 3f b1 59 54 c0
       0.93559474 -1.1236451 1.9816734 -3.3179743
000090 6c 76 aa bf b9 09 fd bf c0 bc 4f c0 36 1f 93 be
       -1.331739 -1.9768592 -3.2458954 -0.2873475
0000a0 6a 5c e4 bf 01 40 55 bf fa 2e 2d 3d f8 79 9d bf
       -1.7840703 -0.8330079 0.04228113 -1.2302847
0000b0 86 4f e1 bf f4 22 62 bf d3 0e 2e c0 6f 0a 4f 3d
       -1.7602394 -0.88334584 -2.7196548 0.05054706
0000c0 cf d3 51 c0 ef 43 b2 bf 5b a0 b1 bf 29 be e9 3f
       -3.2785528 -1.3926982 -1.3877062 1.8261157
0000d0 e6 0d bd bf e5 d8 c3 bf 06 af bc 3e af 7d 97 3e
       -1.4769866 -1.5300566 0.36852282 0.29588076
0000e0 51 3e 6e 3f c4 ed 25 c0 fc 4c c3 bf b4 30 b1 bf
       0.9306384 -2.592637 -1.5257869 -1.3842988
0000f0 40 c6 02 c0 41 f9 56 c0 f3 6f 3a 3f ac 85 17 bf
       -2.0433502 -3.3589633 0.7282707 -0.5918834
000100 ec b1 9f bd ff 4c 5b 3f d2 1b 86 40 75 39 b8 bf
       -0.07797608 0.8566436 4.190896 -1.4392534
000110 e3 1a c9 bf c7 f7 17 40 34 f2 13 bf 86 bc a4 be
       -1.571133 2.3744981 -0.5779145 -0.32175082
000120 3c 80 54 40 8b dd d0 be 4f f3 d9 3f 93 7f a9 3f
       3.3203268 -0.40794024 1.7027377 1.3242058
000130 8d bf d8 be d0 fb 87 40 d1 ab 2e 40 2b 60 fa 3f
       -0.42333642 4.249489 2.7292368 1.9560598
000140 5a c3 d6 be a7 af b6 3f f3 bd b1 3f 75 21 22 c0
       -0.41945916 1.4272355 1.3886093 -2.533292
000150 48 9a 88 be 0f eb f0 c0 a3 49 95 bf 29 a8 cb bf
       -0.26680207 -7.5286937 -1.1663097 -1.5910693
000160 b0 46 b4 3f 86 21 0d 40 68 01 4b bf 12 e9 d6 3c
       1.4084072 2.205171 -0.7929902 0.026234183
000170 88 88 57 3e a9 04 f8 3c 89 50 07 c0 25 53 1d 40
       0.21048176 0.03027566 -2.1142905 2.4581997
000180 c0 cf 8e bf 5d f8 20 40 1a f9 c4 bf 15 8d 9f 3f
       -1.115715 2.515159 -1.538852 1.246493
000190 a4 3f 5f bf 19 22 66 40 dd eb 7f c0 0c c8 92 40
       -0.8720648 3.5958312 -3.998771 4.58692
0001a0 3a 79 5e 3f f7 c4 34 c0 50 26 f3 3e c9 e7 40 bf
       0.8690373 -2.8245218 0.47490168 -0.75353676
0001b0 b9 02 bb bf 97 69 92 40 aa b8 cc 3f f5 33 e4 40
       -1.4610206 4.5753894 1.5993855 7.1313424
0001c0 77 36 8c c0 f1 88 89 bf 61 22 ae c0 cd bb 99 be
       -4.3816485 -1.0744916 -5.4416966 -0.30026093
0001d0 7d 5f b0 bf 6e 8c 5a be a9 fa 4e c0 d5 0e d4 bf
       -1.3779141 -0.21342632 -3.234049 -1.6567026
0001e0 ff fc 08 c0 4e 39 60 c0 c4 5b c6 be 52 ea 00 40
       -2.1404417 -3.5034976 -0.38741887 2.0143018
0001f0 e9 60 14 40 4e 77 27 3f 40 cd 46 bf 4a 2d 6e 3f
       2.318415 0.6541642 -0.77656937 0.93037856
000200 e5 7c 18 40 bb b1 68 c0 f6 30 e6 3f b9 70 55 40
       2.382623 -3.6358478 1.7983692 3.335005
000210 58 df b0 3e dd 6f f7 bf 35 c4 21 c0 18 34 95 c0
       0.34545398 -1.9331013 -2.5276005 -4.662609
000220 8c c8 d6 3e 71 44 64 3d 25 d5 39 3f 88 cf 91 bf
       0.4194988 0.055729333 0.7259086 -1.1391459
000230 35 cf 34 c0 9c 4d b3 3f 37 4d e7 40 fd 2f 53 bf
       -2.825147 1.400806 7.2281756 -0.824951
000240 2a 23 1b 3f c7 34 3b c0 53 ec 4b c0 a3 20 5d 40
       0.6060053 -2.9250963 -3.186299 3.455117
000250 34 9d a6 40 9a 1b b1 be 60 a1 51 41 9d c5 4e c0
       5.20669 -0.3459137 13.101898 -3.2308114
000260 a6 e9 04 c1 bd da bc 40 d6 0d 95 3f ff 78 8f c0
       -8.307043 5.9017015 1.1644847 -4.48352
000270 9d de 6c c0 84 ba 23 c0 d7 31 68 c0 f0 f0 21 bf
       -3.7010872 -2.558259 -3.628042 -0.63258266
000280 08 89 4f c0 02 e8 1d c0 b6 24 30 c0 6d 89 08 c0
       -3.2427387 -2.4672856 -2.7522407 -2.1333878
000290 89 07 35 3f 4a 07 0b be 8e 5c 81 40 d8 f4 a3 be
       0.7071462 -0.13577 4.042548 -0.32022738
0002a0 f1 20 25 c0 85 37 21 40 ad d9 e7 3f ae 81 e4 3e
       -2.5801356 2.5190136 1.8113304 0.44630188
0002b0 22 7b 2b c0 28 08 eb 3f 4c 89 94 be 77 c0 fa be
       -2.6793904 1.8361864 -0.29011 -0.48974964
0002c0 c1 08 41 c0 3c 6e f3 c0 f5 7f e3 3d 8a 42 c9 bf
       -3.0161593 -7.6072063 0.1110839 -1.5723431
0002d0 65 5f 23 c0 56 15 06 3f 5d 00 78 bd a8 fe 75 c0
       -2.5526974 0.52376306 -0.06054722 -3.843668
0002e0 24 25 e2 3f 02 2e 59 3e 79 bb 47 bf 4f c2 da bd
       1.7667584 0.21208957 -0.78020436 -0.10681593
0002f0 64 27 66 c0 26 01 13 c0 a2 40 c7 bf c1 8c ab 40
       -3.5961542 -2.296945 -1.5566599 5.360932
000300 a5 91 31 c0 6c a8 97 c0 45 49 b8 3f 85 46 3f c0
       -2.7745144 -4.7393093 1.439736 -2.9886792
000310 c2 3a 1b 3f 4d 5e 48 41 55 82 1b c1 fa 0c d4 bf
       0.6063653 12.523023 -9.719319 -1.656646
000320 20 15 ee be c9 e1 0f 3f 3b f0 e7 3e cd 4d 57 c0
       -0.46500492 0.56203896 0.4530047 -3.3641236
000330 0f 61 9c be b6 85 e0 3f 2d fa 13 40 fb d8 42 3d
       -0.305428 1.7540805 2.3121445 0.04757021
000340 9f 04 93 3f 2a ff e6 3f c8 c7 13 c0 0e 93 ae 3e
       1.1485785 1.804662 -2.3090687 0.3409657
000350 d1 b1 c3 3c 46 97 c9 3f 62 91 ea bf de bb d5 be
       0.0238885 1.574929 -1.8325617 -0.41744894
000360 af 26 2b 40 66 ff 49 bf 24 b3 8e 3f 0c c0 e5 3f
       2.674236 -0.7890533 1.1148419 1.7949233
000370 f4 ff 4f bf 0e 33 42 3f a1 6c 70 bf be eb c2 be
       -0.8124993 0.75859153 -0.93915755 -0.38070482
000380 db 33 e0 bf bc 41 4c 3f c9 7e 83 3f 62 2c 6d c0
       -1.7515825 0.797878 1.0273067 -3.705834
000390 f6 4d 03 40 67 7c 8d c0 ec 77 81 3f da f0 c2 bf
       2.0516334 -4.421436 1.0114722 -1.5229752
0003a0 4f 3c 21 3e 73 03 d6 40 fd 09 9e 3f d7 61 bf 3f
       0.15745662 6.687921 1.2346798 1.4951733
0003b0 f5 e2 e5 bf c0 92 eb 3f bb c7 0e c0 68 92 b8 3f
       -1.7959887 1.840416 -2.2309406 1.441968
0003c0 f8 0a 09 40 2d ff a7 be f1 da e1 bf 4d 14 06 be
       2.1412945 -0.3281187 -1.7644941 -0.13093682
0003d0 7d 7e 73 be 72 1a 86 bf 90 a6 4c be b0 44 5d c0
       -0.2377872 -1.047682 -0.19985414 -3.4573174
0003e0 41 83 bd 3f cd d7 80 bf ce 3c 12 bf 12 1c e2 3f
       1.480568 -1.0065857 -0.5712403 1.7664816
0003f0 b1 98 ea bf 80 88 2d bf ef 2e 91 3e a1 38 ad 3f
       -1.8327848 -0.6778641 0.2835612 1.3532907

lstm.bias_ih_l0 f4 [200]
000000 b6 87 7c bf 32 46 a1 be 30 00 1c 3f 64 4d 2e be
       -0.9864458 -0.31498867 0.60937786 -0.1702171
000010 2e fd 4a be 96 6b bf be 3a a6 86 be ed cb 6c 3e
       -0.19823143 -0.3738677 -0.26298696 0.23124667
000020 08 bc 07 bf d8 7d a7 3e d1 c0 d0 be 97 bb bb be
       -0.5302129 0.327132 -0.40772107 -0.36666557
000030 32 bc 68 bf c6 b0 c0 bf a2 95 92 be 7b d0 8f 3e
       -0.90912163 -1.5053947 -0.28629786 0.28088745
000040 59 17 51 3e 0f 37 05 3f 0d 97 65 3e 50 4d a1 bf
       0.20419063 0.5203714 0.22420903 -1.2601719
000050 89 eb d0 bf ef 9e cd 3f 85 c8 2d be a9 d3 b3 3d
       -1.632188 1.6064128 -0.16971023 0.08780605
000060 98 42 5a be 37 29 54 40 57 1f 1f bf b6 79 1c be
       -0.21314466 3.3150156 -0.62157196 -0.15280804
000070 9c 70 68 3f b0 19 1c be 84 c5 0a 3f 0f 38 7c bf
       0.9079683 -0.15244174 0.54207635 -0.9852304
000080 46 8e c9 3e 10 86 0d bf fb 4d 62 3f e8 b3 b9 bf
       0.3936636 -0.5528269 0.8840024 -1.4508028
000090 4a 1f af 3f 34 5c 05 40 15 90 79 3f 4c 34 13 3f
       1.3681424 2.0837526 0.97485477 0.57501674
0000a0 49 91 11 bf 22 80 9b 3f a6 d8 1b be 03 f1 97 bd
       -0.5686231 1.2148478 -0.15219364 -0.07419016
0000b0 7a 37 62 3f 7d f9 8a 3e 58 1f 7a 3d f5 56 9c bf
       0.883659 0.2714347 0.061065048 -1.2214037
0000c0 9d d9 90 be ac a2 73 be a3 cb b1 bf c0 79 e3 bf
       -0.28291026 -0.23792523 -1.389027 -1.777153
0000d0 14 b3 41 c0 55 56 2c 40 36 6e e8 bf 9c 25 d3 3d
       -3.026555 2.6927693 -1.8158634 0.10309908
0000e0 24 95 44 c0 3c 7e 1b c0 4d 89 f4 be 35 36 b1 bf
       -3.0716028 -2.4295797 -0.47761002 -1.3844668
0000f0 1b df 53 c0 6c 6b c2 bf 26 c4 ed bf b5 f7 0e c0
       -3.3104923 -1.5189033 -1.8575485 -2.2338688
000100 13 62 11 be 02 df c9 bf 2c 7a 67 3e 3e 6d 9c bf
       -0.14197569 -1.5771182 0.22605199 -1.2220838
000110 1b 68 0d c0 58 c8 6f bf 84 67 78 3f cd 7d 28 c0
       -2.209479 -0.93665075 0.9703295 -2.6326783
000120 65 6c 9a bf 26 8e 8f c0 3e 97 da bd 1e b4 0e c0
       -1.2064329 -4.486102 -0.106733784 -2.2297435
000130 ef 86 02 c0 47 ea 1a c0 4d cc d2 bf 10 f7 da 3d
       -2.0394857 -2.4205492 -1.6468598 0.10691655
000140 dd 4c ca bf 17 b4 2b c0 d7 a4 1b c0 81 30 a6 bf
       -1.5804707 -2.6828668 -2.431936 -1.2983552
000150 8a cf f8 bf b3 2d 00 c0 a0 ea 97 bf de 35 78 c0
       -1.9438336 -2.0027893 -1.1868477 -3.8782878
000160 78 b7 82 bf bb 31 9b be 4f 1f 22 bf c7 00 82 bf
       -1.021224 -0.3031138 -0.63329023 -1.0156487
000170 23 a8 52 c0 f1 4f 0b c0 71 f8 ce bf 12 e3 b3 bd
       -3.2915123 -2.1767542 -1.6169568 -0.087835446
000180 84 05 50 c0 be e8 71 c0 dd 0e 18 bf 60 2f 45 bf
       -3.2503366 -3.7798305 -0.5939768 -0.77025414
000190 96 d3 a3 be c6 e4 95 bf 2e 25 52 40 6f 54 b8 c0
       -0.31997365 -1.1710441 3.2835193 -5.760307
0001a0 a8 79 15 3e f5 86 ca bf dd 55 77 bf 39 ac 66 bf
       0.1459719 -1.5822436 -0.9661539 -0.9010654
0001b0 5a 84 93 bf d7 f3 f2 bf 27 be ab 3f 40 df 58 3f
       -1.1524765 -1.8980664 1.3417405 0.8471565
0001c0 11 7b 05 c0 e0 b5 ed 3f be 3e 9a bf 1c 82 7f 3f
       -2.0856364 1.8571129 -1.2050397 0.99807906
0001d0 8a e0 47 3f 78 2b 0b 3f 58 61 30 bf c0 18 b1 bd
       0.78076994 0.54363203 -0.68898535 -0.08647299
0001e0 4a 52 f3 bf 0c 71 1c 3f 1e 4d 02 bf 72 e1 0c 3f
       -1.9009488 0.61109996 -0.5089892 0.550315
0001f0 a6 25 fa 3f dc 00 05 bf ca 46 af bf d0 39 73 bf
       1.9542739 -0.51954436 -1.3693478 -0.9501009
000200 6f fb 8a bf 46 d3 d8 bf 54 fe 71 3e 96 f8 f6 bf
       -1.0857981 -1.6939476 0.23632175 -1.9294612
000210 1b f6 17 be 53 00 55 c0 c4 80 c5 3e 6f ff 98 bf
       -0.14839976 -3.3281448 0.38574803 -1.1952952
000220 07 4b a8 3f 75 c8 1a 3f 4a c7 e7 3d 38 06 82 bf
       1.3147897 0.60462123 0.11317308 -1.0158148
000230 40 93 98 bf b1 f5 04 40 e9 54 43 bf 69 47 96 3f
       -1.1919937 2.0774958 -0.7630144 1.1740543
000240 2e db 02 40 cb 19 99 3f df 09 8c bf f4 ab 40 3f
       2.0446277 1.1960996 -1.0940512 0.7526238
000250 56 63 0b c0 0c 82 2a 3e 17 c3 b7 bf de 9f 90 be
       -2.177938 0.16651171 -1.4356412 -0.2824697
000260 79 40 10 c0 38 51 d2 bf e6 a1 86 3f 2b e4 ef 3e
       -2.253935 -1.6431036 1.0518157 0.46853766
000270 ea e0 15 c0 19 ed 9e 3f 91 f1 7f bf 9a 39 e0 bf
       -2.3418527 1.2416106 -0.99977976 -1.7517579
000280 28 d3 91 bf cc 20 e9 bf e2 7b 9b bf 69 2f 3c bf
       -1.1392565 -1.8213134 -1.2147181 -0.7350984
000290 63 ad c8 bf 6b fa 91 bf b3 20 31 bf cc 71 b6 3d
       -1.5677913 -1.1404546 -0.6919052 0.08908424
0002a0 68 5a 67 3e 89 42 3d be 2d 1b 3e bf 3d 37 ba be
       0.22593081 -0.18482412 -0.74260217 -0.36370268
0002b0 9c 42 dc bf 91 b8 1a 40 cf c0 c3 bf 97 25 55 bf
       -1.7207828 2.417515 -1.5293216 -0.8326048
0002c0 47 a5 ae 3f 20 a5 8d bf 42 0a dd bf 9f 56 14 c0
       1.3644189 -1.1066017 -1.7268755 -2.317787
0002d0 10 ae 75 3f 79 be 96 bf b5 2d e5 3e dc 77 0a c0
       0.95968723 -1.1776878 0.44761434 -2.1635656
0002e0 a5 74 18 3f 26 fa 25 bf b1 08 70 bf ca e6 74 bc
       0.59552985 -0.6483482 -0.9376326 -0.0149476025
0002f0 42 aa 90 bf 18 5a ae bd 89 bf 52 bf e0 a7 dc bf
       -1.1301959 -0.08513278 -0.8232351 -1.7238731
000300 36 ad 3d be d3 e1 58 bd 90 8a b0 be c9 22 30 bf
       -0.18523106 -0.052949738 -0.34480715 -0.6880308
000310 69 b4 70 bf 24 46 69 bd d5 4f 11 c0 dc cd b0 bf
       -0.94025284 -0.056951657 -2.2704976 -1.3812823

lstm.bias_hh_l0 f4 [200]
000000 ac 27 7f bf 90 b7 b1 bd 80 1f 24 3f 8f fa 6d be
       -0.9966991 -0.0867759 0.64110565 -0.23240112
000010 e0 04 58 bd d3 41 e8 be b9 ac 3a be c2 1b 8d 3c
       -0.052739024 -0.4536272 -0.18229951 0.01722515
000020 3b 26 8a be 59 0f 09 3f 63 3c a5 be cf 66 8e be
       -0.26982293 0.53539044 -0.32272634 -0.27812812
000030 6d b8 8b bf 23 37 ad bf 13 30 84 be ac d0 d3 3e
       -1.0915657 -1.3532451 -0.25817928 0.41370142
000040 9b e1 85 3e 6e 32 2b 3f e4 f3 92 3e 82 55 8a bf
       0.26148686 0.66873825 0.287017 -1.0807345
000050 4e fc be bf fb 1d d0 3f 7e 77 7d be 4f e4 f7 3d
       -1.4920747 1.6259149 -0.24752614 0.12104093
000060 cf d8 29 be f4 15 46 40 f5 5f 02 bf f9 0a 6e be
       -0.16586612 3.09509 -0.5092767 -0.23246373
000070 92 92 47 3f 52 79 31 be 84 d7 e1 3e f7 c2 86 bf
       0.77958024 -0.17331436 0.44109738 -1.0528249
000080 19 da d8 3e f6 c7 19 bf 80 0f 3b 3f 92 5a b5 bf
       0.42353895 -0.6007074 0.73070526 -1.4168265
000090 b2 7b bb 3f 17 b7 13 40 94 dd 60 3f c1 1b c4 3e
       1.4647124 2.30805 0.878381 0.38302425
0000a0 1c 05 fe be ff 67 8a 3f 84 bb 77 be 0f d8 d5 bd
       -0.49613273 1.0812987 -0.24192625 -0.104416005
0000b0 56 ac 34 3f 2d e2 59 3e 2d 21 0b 3e 51 85 91 bf
       0.70575464 0.21277685 0.13586874 -1.136881
0000c0 90 82 8d be d1 5e 62 be d7 9c a8 bf 02 96 fa bf
       -0.27638674 -0.22106482 -1.3172864 -1.9577029
0000d0 15 d4 42 c0 07 04 26 40 0d a6 da bf 1e 18 ac 3e
       -3.0441945 2.5939958 -1.7081925 0.3361215
0000e0 5d 8f 4a c0 a3 44 1e c0 5e cd 0b bf 83 11 c4 bf
       -3.1650002 -2.4729393 -0.5461024 -1.5317844
0000f0 d3 9b 4d c0 3d 1f c0 bf 63 de 01 c0 e3 8b 0e c0
       -3.2126358 -1.5009533 -2.0291984 -2.227288
000100 3d 1a 20 be a3 5f ce bf f8 d5 51 3e f0 43 8b bf
       -0.15635009 -1.6122936 0.20491779 -1.0880108
000110 ba 73 0c c0 dc ad 61 bf 1d 90 81 3f 6b ab 24 c0
       -2.1945634 -0.88155913 1.0122105 -2.5729625
000120 cd a0 80 bf 1d 7f 91 c0 a7 22 32 be 4a d8 1e c0
       -1.0049073 -4.5467668 -0.17396031 -2.4819512
000130 40 df 08 c0 59 94 15 c0 e2 4d d8 bf 87 ae 86 3e
       -2.138626 -2.3371794 -1.6898768 0.2630503
000140 8e b3 c6 bf d1 7b 29 c0 99 c2 20 c0 1a c1 c4 bf
       -1.5523546 -2.6481822 -2.5118773 -1.537143
000150 c6 04 0b c0 f9 92 03 c0 e6 b2 93 bf dd 0e 7d c0
       -2.1721663 -2.0558455 -1.153897 -3.9540322
000160 13 e0 84 bf 7f dd a5 be f7 3a 35 bf b2 39 5c bf
       -1.0380882 -0.3239555 -0.707931 -0.86025536
000170 c6 98 54 c0 88 e5 07 c0 d2 ed b3 bf 17 3a 96 be
       -3.3218246 -2.1233845 -1.4056952 -0.29341194
000180 9c 0a 4e c0 c9 d1 68 c0 24 11 3e bf d2 fc 63 bf
       -3.2193975 -3.6378043 -0.74244905 -0.8905765
000190 f6 dd 91 be a6 e1 9f bf e1 d0 54 40 8c 7a bc c0
       -0.28489655 -1.2490737 3.325249 -5.8899593
0001a0 bd 93 70 3e 19 c8 bc bf d7 51 8e bf c5 e2 80 bf
       0.23493858 -1.4748565 -1.1118726 -1.0069205
0001b0 c8 48 84 bf e1 f3 fd bf b4 d9 c5 3f 7a 8b 3c 3f
       -1.0334711 -1.9840051 1.5457063 0.73650324
0001c0 40 bb 05 c0 09 0b 05 40 82 91 a0 bf 8a 8b 6e 3f
       -2.0895538 2.0787985 -1.2544405 0.9318167
0001d0 df a8 25 3f dd 52 3d 3f d2 2f f8 be 01 7d 0e bd
       0.647108 0.73954564 -0.48473984 -0.03478718
0001e0 0b 5d e1 bf 16 5d 17 3f 94 5a 1e bf f8 a9 f6 3e
       -1.760652 0.5912641 -0.6185696 0.4817655
0001f0 39 67 e4 3f 75 01 ce be b3 a8 a6 bf cd ca 69 bf
       1.7844001 -0.40235487 -1.3020233 -0.91325074
000200 c9 4c 97 bf 61 6a fc bf 22 6d 72 3d d1 14 f3 bf
       -1.1820308 -1.9719964 0.05918611 -1.8990728
000210 61 f1 8a be f0 2c 52 c0 58 dd e1 3e 86 d5 9b bf
       -0.27137282 -3.2839928 0.44114184 -1.2174537
000220 da 00 a0 3f 11 e8 21 3f b3 5e 8c 3e 70 78 70 bf
       1.250026 0.6324473 0.27416 -0.93933773
000230 2b 22 9c bf df 93 07 40 29 3e 31 bf 12 f6 a2 3f
       -1.2197927 2.1184003 -0.69235474 1.2731345
000240 dc 6a 00 40 22 d8 89 3f 24 2d 8f bf 7e 1e 72 3f
       2.0065222 1.0769083 -1.1185651 0.9457778
000250 0b b4 02 c0 43 60 d2 3d 76 c9 bb bf 5b ea 48 be
       -2.042239 0.10272267 -1.4670856 -0.1962065
000260 07 54 19 c0 15 47 c5 bf 5e 7c 90 3f fb c9 18 3f
       -2.3957536 -1.5412318 1.1287954 0.596832
000270 4e d4 0e c0 c7 9c a3 3f e3 85 7d bf 90 4c d5 bf
       -2.231708 1.278222 -0.9903242 -1.666399
000280 c8 b1 80 bf 98 b0 00 c0 2e be 89 bf 54 10 1a bf
       -1.0054255 -2.0107784 -1.0761163 -0.60181165
000290 09 55 cd bf 81 99 93 bf 2d 89 3e bf dc 51 05 be
       -1.6041576 -1.1531221 -0.74428064 -0.13019508
0002a0 69 0f 53 3e 88 d5 84 be 45 23 20 bf 63 41 e8 be
       0.20611347 -0.2594416 -0.6255382 -0.45362386
0002b0 8b 0f e2 bf 7b c9 1b 40 17 40 db bf 49 82 60 bf
       -1.7660993 2.4341724 -1.7128934 -0.876988
0002c0 73 98 a0 3f ba 4a 92 bf fd a3 dd bf 5e 4c 12 c0
       1.2546524 -1.1429055 -1.731567 -2.285911
0002d0 eb 56 96 3f 87 c8 a7 bf 7e 78 07 3f bc fb 04 c0
       1.1745275 -1.3108071 0.5291823 -2.0778646
0002e0 fd 92 39 3f 68 6f 01 bf 3a fa 8f bf 1d 7a c3 bd
       0.7248991 -0.5056062 -1.1248238 -0.09544776
0002f0 5f 89 83 bf 34 5f e8 bd be 60 8b bf b6 df d3 bf
       -1.0276297 -0.113462836 -1.0888898 -1.6552646
000300 d8 91 90 be 0f 18 1f be a7 2b 0f bf e6 c1 f9 be
       -0.2823627 -0.15536521 -0.55925983 -0.48780745
000310 18 a1 41 bf 29 83 fd bd e4 14 12 c0 42 7a a0 bf
       -0.75636435 -0.123785324 -2.282525 -1.253731

lstm.weight_ih_l1 f4 [200, 50]
000000 6a e1 59 bf 0c 47 53 3e cc 69 96 bf 1f e1 b7 3f
       -0.8510958 0.20632571 -1.1751037 1.4365577
000010 23 eb e4 bf 90 e9 65 bd c5 d8 0b 3f bd ce 3d 3e
       -1.7884258 -0.056130946 0.5462764 0.18535896
000020 e5 3d 1b 3e b6 56 83 be c2 da b6 be 6f ce 08 bf
       0.1516033 -0.25652093 -0.35713774 -0.5343999
000030 cb a6 fd be ea bf a4 3c 78 fa 5e bc 85 d5 13 3e
       -0.49541315 0.020111043 -0.013609521 0.1443692
000040 0e 0e a4 bd 4c df 1d be 09 38 ac bd db f1 ac 3e
       -0.08010493 -0.15417212 -0.08409125 0.3377827
000050 25 2f 46 3e 1b c9 2a bf eb 48 83 3e e7 6f df bf
       0.19353922 -0.6671311 0.2564157 -1.7456025
000060 70 88 9c 3e 39 8d a6 bf 42 a3 e0 3e 1a 15 bd 3d
       0.30572844 -1.3011848 0.43874556 0.092325404
000070 5b 68 42 3f fd 07 92 3f 72 48 86 3e ae 5c b4 3e
       0.75940484 1.1408688 0.26227146 0.3522696
000080 fb ba e7 3e 25 77 76 3f 10 46 1f be 1f 9d 5d be
       0.45259842 0.9627555 -0.1555407 -0.21641968
000090 75 dd 58 3e b5 79 ab be 9b 0c 3e 3f c6 8c e1 be
       0.21178229 -0.33491293 0.74237984 -0.44052714
0000a0 8b 58 1a 3d 9d ea 91 bd 71 42 0b 3e ef f5 54 3c
       0.037682097 -0.07124827 0.13599564 0.012998088
0000b0 a4 8a dc bd 6f 78 be 3d 32 04 84 bd b1 10 64 3f
       -0.10768631 0.09300315 -0.06446113 0.8908797
0000c0 44 32 dd 3f d7 06 66 3e 15 17 52 3e c8 1f 07 3e
       1.7280965 0.22463547 0.20516618 0.13195717
0000d0 95 ec 28 40 98 83 c2 c0 28 e0 98 bd 75 1c ca 3c
       2.6394398 -6.0785637 -0.074646294 0.024671772
0000e0 0c 62 38 c0 10 e2 92 be 55 6d 57 bd 66 74 42 40
       -2.8809843 -0.28688097 -0.0525945 3.0383544
0000f0 2b 65 a9 3f d8 6e 77 bf 81 fe 55 bd 75 65 44 be
       1.3233999 -0.9665351 -0.052244667 -0.19179328
000100 ad 6b 7c 3f 26 3f 80 3e f3 85 35 3e 29 32 2c 3e
       0.986018 0.25048178 0.17726879 0.1681601
000110 6e 8c 54 3e 4a 97 64 3e 0b ce d3 bd f5 af 00 bf
       0.20756695 0.22323337 -0.10342034 -0.5026849
000120 e1 64 dc be 0b f7 b5 bd 22 d6 cd 3d 27 f7 88 3f
       -0.43045714 -0.0888501 0.10050608 1.0700425
000130 e3 74 f4 be ae c5 04 bf f7 63 6f 3e 99 ba 0b c0
       -0.47745427 -0.51864135 0.23377977 -2.183264
000140 e0 42 54 3d 0a 76 a4 bf 1a e7 8c 3e 34 e2 24 c0
       0.05182159 -1.2848523 0.27520066 -2.5763063
000150 2b 10 ae 3c b7 9e 88 3e 14 6d 80 bd a1 1e 96 be
       0.021247944 0.2668359 -0.06270805 -0.29320243
000160 f4 ca 13 3f 9e bf 06 3e 49 30 27 3e 5d 0b 07 3e
       0.57731557 0.13159034 0.16327013 0.13187928
000170 24 84 83 3c 1a cf 49 be d0 b2 e0 3d 74 fc 00 3f
       0.01605422 -0.19707909 0.10971606 0.5038521
000180 28 95 e9 3d 08 87 dc bf 24 93 2f c0 8a bd 87 bd
       0.114054024 -1.7228708 -2.7433558 -0.066279486
000190 0f 59 5c be 3a e7 52 3f 9a e5 87 c0 ab 61 59 41
       -0.21518348 0.82384074 -4.2467775 13.586345
0001a0 9e 80 fa be 21 56 04 3d 8f 5d f5 3f b5 e1 6d bd
       -0.48926252 0.0323087 1.9169177 -0.05807658
0001b0 e1 d5 87 3e b7 bd 2f bf bd 1e f0 bf a2 0e e1 bd
       0.26530364 -0.68648857 -1.875938 -0.10989119
0001c0 a1 76 d7 bd 9d 2a 8e be 5f d2 b3 bd 75 62 70 be
       -0.105206735 -0.27766886 -0.087803595 -0.23475058
0001d0 73 4d 29 3f c7 98 5e 3d 6f 7c be 3e 08 49 95 3e
       0.66133803 0.05434492 0.3720431 0.2915728
0001e0 66 b9 cb bd d4 2b 66 be 88 2d 48 bc 76 03 75 3d
       -0.09947471 -0.22477657 -0.012217887 0.059817754
0001f0 73 3d 22 3e 54 49 35 bf 4e f8 9d be 1b 7d 89 3d
       0.15843754 -0.70815015 -0.30853504 0.06713315
000200 21 62 de 3e 44 4b 6e 3f 0b da 4a bf 01 b7 65 be
       0.4343424 0.93083596 -0.7923896 -0.22433092
000210 97 12 db bd 51 e9 88 40 d2 d4 bf 3e 1b d6 ff 3b
       -0.10696905 4.278481 0.37467057 0.007807506
000220 44 a7 be bd af e2 a6 3d 82 ba c6 be 24 4e 39 3d
       -0.09309247 0.08148705 -0.3881417 0.045240536
000230 9d 81 cd 3e a3 12 9c be 1d 01 bd be d8 36 8e bf
       0.4013795 -0.3048297 -0.36914912 -1.1110487
000240 2d 87 c3 bf 5f 69 11 bf 81 1d 9e be d7 f7 37 3f
       -1.5275627 -0.5680141 -0.30881885 0.7186255
000250 9f dd cb 41 32 7e c0 3e ac 9f 9b b9 55 a6 85 bd
       25.483213 0.3759628 -0.0002968287 -0.06525866
000260 40 40 c4 3f dd 32 ce bf f8 94 9d bf 18 67 55 3c
       1.5332108 -1.6109272 -1.2311087 0.013025068
000270 be a0 d5 bf 40 e1 5e 3e 66 3e 50 3e e7 6b 1b 40
       -1.668968 0.21765614 0.20336303 2.4284608
000280 9a 89 e7 3f 94 2a f1 3e 31 4c 8d be 1c 49 ea bb
       1.8088868 0.47102797 -0.27597192 -0.0071498286
000290 bb 38 bc 3e 32 52 02 be fd b7 89 3e b2 c7 3d be
       0.36762032 -0.12726668 0.26898184 -0.18533209
0002a0 39 cc 81 3e c6 1b a2 3e e0 69 ac bd 93 a8 a0 be
       0.25351122 0.31661814 -0.084186316 -0.31378612
0002b0 3c d4 ab bd 72 9e 9c bf 11 49 c2 c0 4b 47 03 bf
       -0.0839009 -1.2235854 -6.0714192 -0.5128066
0002c0 3a 7e c0 bd cc 47 f0 3e d4 f9 3a 3d 37 b9 3b bf
       -0.09399076 0.46929777 0.04564841 -0.7332949
0002d0 2d 59 dd bc 98 54 81 be 2c 83 05 be 53 b5 95 bf
       -0.027020061 -0.25259852 -0.1303832 -1.1695961
0002e0 6d 6b 6a 3c f8 f9 7f bf 89 a0 2a bd 0c 72 35 be
       0.014307839 -0.999908 -0.041657005 -0.17719287
0002f0 c7 39 da 3e 28 5b 05 3f 8a c0 eb 3c 8b be 8d 3d
       0.42622206 0.5209222 0.028778333 0.06921109
000300 f6 5d e2 40 fd 20 83 3d bc f7 64 3e b8 4b 3d bd
       7.07397 0.064027764 0.22360128 -0.04621479
000310 80 8b 26 3f 63 6d bf bf 29 1f 8f bf e9 18 98 be
       0.6505661 -1.4955257 -1.1181384 -0.29706505
000320 36 cc 29 3e 32 04 5b 3e ef 48 17 3e 32 83 1c be
       0.16581807 0.21388319 0.14773916 -0.15284422
000330 34 5f 83 bd 56 3c 74 3e b6 f6 04 bd 0e 23 10 bd
       -0.06414643 0.23851141 -0.032461844 -0.03518968
000340 4b fe 94 3e 49 47 69 be bc 06 27 3f 10 92 c7 be
       0.2910026 -0.227811 0.6524465 -0.38978624
000350 0f 91 ae bf e6 bd 6f be 4b a0 f5 3e 21 e4 00 3f
       -1.3638018 -0.23412284 0.47973856 0.503481
000360 d6 e9 08 3f 05 3c 13 bf 70 17 00 bf b7 3f dc 3d
       0.53481805 -0.5751346 -0.5003576 0.1075434
000370 ff 17 90 3d d4 11 d0 3e 08 8e a1 bd b4 ae c7 3e
       0.07035827 0.40638602 -0.078884184 0.39000475
000380 f4 7f f4 3e c6 7d 31 3f 0f 64 43 bf 5a 5b 62 bf
       0.4775387 0.6933254 -0.7632455 -0.8842064
000390 f4 a4 f9 be d0 60 e8 bd b8 e9 bf 3e 7f 3e 53 bf
       -0.48758662 -0.113465905 0.37483 -0.82517236
0003a0 cc 53 f3 bd f3 4b 01 bd 8c 14 dc bb 2f bf 64 bf
       -0.11881217 -0.03156657 -0.0067163166 -0.89354223
0003b0 26 98 02 bf 6d 83 86 bd ab 98 8b 3e 55 05 05 3e
       -0.5101341 -0.06568036 0.27264914 0.12990315
0003c0 84 09 55 3f 0b a2 2e 3c e3 7c 8c be a0 0d 4f 3e
       0.83217645 0.010658751 -0.2743903 0.20220041
0003d0 c8 e6 6e 3d 3d 0f 4e be a5 37 61 bf 29 88 96 bf
       0.05832556 -0.20123 -0.8797553 -1.1760303
0003e0 01 eb a0 be 4d ef 16 be de ad 23 3f ea e2 88 3d
       -0.31429294 -0.14739724 0.63937175 0.066839054
0003f0 7e cc 39 bd 74 60 4f be 06 13 d5 3f 0a 75 db 3e
       -0.045361035 -0.20251638 1.664643 0.4286273

lstm.weight_hh_l1 f4 [200, 50]
000000 78 59 a0 3e bf 11 64 c0 d3 bc e3 c0 cd 75 af bf
       0.3131826 -3.5635831 -7.1168 -1.3707825
000010 46 a7 44 c0 c8 9e 63 3f 45 e9 97 3f 3e f6 7b be
       -3.0727096 0.88914156 1.1868063 -0.24605653
000020 87 d9 d7 40 1d 2b b8 bf 10 3e 2f c0 e9 b7 bf bf
       6.7453036 -1.4388157 -2.738163 -1.4978
000030 91 13 24 40 3c 4a 7c bf 59 02 b8 be cf 9f 83 40
       2.5636942 -0.9855077 -0.3593929 4.113258
000040 e5 a8 81 c0 2b 40 05 40 1d 3e 09 40 b7 52 30 c0
       -4.051867 2.0820415 2.144416 -2.7550485
000050 64 03 b5 bf 08 23 2c c1 39 a2 c0 bf 81 3e 46 3f
       -1.414166 -10.758553 -1.5049506 0.77439123
000060 fe 8a 31 c0 28 97 02 c0 7b 66 30 c0 4e 10 cc bf
       -2.7741084 -2.0404758 -2.756255 -1.5942476
000070 21 06 e8 bd 87 62 1b c0 16 37 83 be cf 2d 1c 40
       -0.11329294 -2.4278886 -0.25627965 2.440296
000080 7e 41 75 3f 58 ac c2 3f b0 0b ab 3e cb 35 e5 bf
       0.9580306 1.5208845 0.33407354 -1.7907041
000090 fc 7c 13 bf 48 c2 78 c0 c9 bd 1a c0 5f e2 30 c0
       -0.57612586 -3.886858 -2.4178336 -2.7638166
0000a0 f4 0c f0 3d 76 1d b6 be 18 07 91 bf 87 24 4b bf
       0.117212206 -0.35569352 -1.133029 -0.7935261
0000b0 fe 33 98 ba 70 0d f0 bf ca 63 0c bf 4a 46 ea bd
       -0.0011612175 -1.8754101 -0.54839766 -0.11439188
0000c0 b9 82 27 40 88 a3 f8 3f 1a d2 24 40 ff ee 97 c0
       2.6173537 1.9424906 2.5753236 -4.7479243
0000d0 39 e7 11 40 fc c7 a4 bf 65 ff 28 bf a8 d1 4d be
       2.2797377 -1.287353 -0.660147 -0.20099509
0000e0 58 43 02 40 7b d9 9f bf 77 09 ae 3d 2a 09 ae be
       2.0353603 -1.2488245 0.08497899 -0.33991367
0000f0 a0 48 59 3f 80 c5 5c c0 16 b4 b5 3f 54 72 4d 40
       0.8487644 -3.4495544 1.4195583 3.210103
000100 17 7c 8b bf ba 02 0b c0 e6 9e 1c bf f4 b2 4d 40
       -1.0897244 -2.1720414 -0.6117996 3.2140474
000110 e9 a5 82 bf a3 c2 fe bf 03 eb 43 3f 26 d0 b2 c0
       -1.0206882 -1.9903148 0.76530474 -5.5879087
000120 3e df ef 3e 99 4a 8a 40 07 fa e3 bf 5c 06 01 40
       0.46850008 4.321606 -1.7810677 2.0160131
000130 b4 4d c2 3e 55 9d a9 3f d4 05 23 be de 29 44 c0
       0.37949908 1.3251139 -0.15920192 -3.0650554
000140 f9 7a a1 3f 7f 5e ec bf 8c f3 80 bf 5f 62 72 bf
       1.2615653 -1.8466338 -1.0074325 -0.9468135
000150 2e 15 9e 3f 26 8f f6 be a5 83 da be f0 db e5 be
       1.2350214 -0.4815609 -0.42678562 -0.44894361
000160 58 b4 52 c0 77 d4 72 bf 99 1a af 3f b4 e1 5b 40
       -3.2922573 -0.94855446 1.3679992 3.4356508
000170 d9 5b 96 3f 3d bd 8c 3e 0e 26 e9 3f 70 07 12 c0
       1.174678 0.27488127 1.8214738 -2.281704
000180 a7 59 4a bf 64 bc 89 be 41 eb ad bf a1 7c 4f 3f
       -0.7904305 -0.26901543 -1.3587419 0.81049544
000190 d9 78 1f bf a9 b1 08 3e e7 1f 74 be ce 83 24 bf
       -0.62293774 0.13349022 -0.23840295 -0.6426362
0001a0 82 94 13 3e f4 58 a8 bf e7 5b 28 be b2 28 f7 3e
       0.1441212 -1.3152146 -0.16441308 0.48273236
0001b0 9b 06 2f 3f bf 9f c1 3f e7 72 f2 bf e0 5c c0 bf
       0.68369454 1.5126876 -1.8941315 -1.5028343
0001c0 17 00 6c bf a4 d9 9b c0 36 84 ec 3f 24 36 0e 40
       -0.9218764 -4.8703175 1.8477848 2.2220545
0001d0 5e d0 37 3f 41 a8 11 40 4c a0 b4 be 06 01 c7 3e
       0.7180232 2.2758944 -0.35278547 0.38867968
0001e0 ef d6 33 41 43 7a 6d c0 eb 9f fc 3f 49 94 3b 3f
       11.239974 -3.7105873 1.9736303 0.7327314
0001f0 1e ad d3 3f 25 3e 92 3f 44 96 2f 3f 1b f0 80 40
       1.6537206 1.1425215 0.6858866 4.0293097
000200 6b 2f 49 bf 85 19 4f 40 58 d4 fe 3f d1 49 9f 3f
       -0.7858798 3.2359326 1.9908552 1.2444402
000210 a0 71 71 40 47 97 cf be cd 67 59 40 44 9d 7f 3e
       3.7725601 -0.40545103 3.3969605 0.24962336
000220 8a f8 c5 bf 70 53 6f 40 5f 2d 66 3f 2d c9 c4 bf
       -1.5466473 3.7394676 0.8991298 -1.5373894
000230 e4 44 a1 3f 08 3d 08 c0 92 c9 3f 3d b1 2c 8a 3e
       1.2599149 -2.128725 0.04682309 0.26987222
000240 31 f9 8f bf c6 f8 73 3e 72 3e f1 3e 59 b5 d3 be
       -1.1247922 0.23825368 0.47117954 -0.41349295
000250 b4 07 e9 3d ee 5f e3 3d 67 83 07 bf d7 18 4c be
       0.113784224 0.111022815 -0.5293488 -0.1993135
000260 a0 cf 38 be dc 76 13 bf 66 cc dd bd 00 fe 24 3e
       -0.18047953 -0.5760324 -0.108300015 0.16112518
000270 42 df a1 be 63 f6 22 3f f4 a3 9f bf fa a1 cd 3e
       -0.31615645 0.63657206 -1.247191 0.4016264
000280 69 39 ca 3f fd 14 c0 3c 56 fc 96 bd f7 0d d6 be
       1.579877 0.023447508 -0.07372348 -0.4180753
000290 20 7d fb be d3 9d 8b bf 03 57 06 be cf d0 fe bf
       -0.491189 -1.0907539 -0.1311913 -1.9907473
0002a0 91 51 77 bc d8 47 08 c0 39 1a ea be df 13 1c c0
       -0.015095131 -2.129385 -0.4572313 -2.4387128
0002b0 94 6d 19 bf 58 09 57 3f c7 de 22 40 ca 1a 14 be
       -0.5993283 0.8399863 2.5448472 -0.14463344
0002c0 ee 13 9d bf 7b a4 78 bf b4 54 2f 40 d4 a6 d4 3e
       -1.2271707 -0.9712598 2.7395449 0.4153353
0002d0 89 60 03 c0 42 ec eb 3e c4 f1 54 3f c6 d0 1c bf
       -2.052767 0.46078688 0.83181405 -0.61256063
0002e0 e9 e2 e4 3e 77 27 0b bf bb ad 1a 3f c8 97 fc 3e
       0.4470437 -0.54357094 0.6042134 0.4933455
0002f0 af 1b f7 be f7 7c 8f bf 60 b2 0a bf ae ba a8 3f
       -0.48263308 -1.1210011 -0.5417843 1.318197
000300 50 d7 13 3f b1 58 ce bf 39 20 66 be 31 86 07 bf
       0.57750416 -1.6120816 -0.2247323 -0.52939135
000310 3d 84 0f bf 8c 1a 09 3e 72 68 03 bf 15 27 64 be
       -0.56061155 0.13389033 -0.51331246 -0.22280534
000320 57 21 ce be cc 09 b8 3f 13 0f ce 3d b7 a4 36 bf
       -0.4025981 1.437799 0.10061469 -0.71345085
000330 8d 03 12 bf 6f 72 36 3f 66 28 83 3f 94 52 19 c0
       -0.5703667 0.7126836 1.0246704 -2.3956652
000340 3c 02 ce 3d 7b ef 65 bf 41 2e 81 bf 17 ab db bf
       0.1005902 -0.89818543 -1.009224 -1.7161587
000350 3e 64 49 bf 78 66 fc 3f ba da 7d bf b6 6c 91 3f
       -0.7866858 1.9718771 -0.99161875 1.1361301
000360 ca f5 82 be 01 48 29 c0 57 01 84 bf b0 62 b3 be
       -0.25578147 -2.6450198 -1.0312909 -0.3503623
000370 96 5f b3 bf 5d 10 cf 41 8f 4b b0 3e c8 05 f1 3f
       -1.4013546 25.88299 0.34432647 1.8829889
000380 01 b5 49 bf 7e 56 a8 bf e9 41 3b bf dd 5d 87 3e
       -0.78791815 -1.3151395 -0.73147446 0.264388
000390 9c eb 68 bf 38 84 9e 3c e1 70 75 40 5e 2f 46 bf
       -0.9098451 0.019350156 3.8350146 -0.77416027
0003a0 b0 b5 b7 bf 14 6a 27 3f 55 7f 9f bf b3 50 6f 3f
       -1.4352322 0.6539624 -1.2460734 0.9348251
0003b0 8a 04 35 3d a2 77 62 be 96 70 df be 74 93 35 40
       0.044193782 -0.22115949 -0.43640584 2.8371248
0003c0 98 14 db bf 9d 9c c9 bf 89 d0 ba 3f 0c ab cd be
       -1.711566 -1.575092 1.459489 -0.4016956
0003d0 6f 2d 52 bf 40 82 2b 3f 55 c4 f1 bf 54 5a 23 bf
       -0.82100576 0.6699562 -1.8888041 -0.63809705
0003e0 52 48 51 bf a9 24 0e be ed 85 9d be 42 f2 77 bf
       -0.8175098 -0.13881172 -0.3076624 -0.9685403
0003f0 63 3b b6 bf 24 80 bf bd 1f de 46 3e 7b c0 5d bf
       -1.4236873 -0.09350613 0.1942067 -0.86621827

lstm.bias_ih_l1 f4 [200]
000000 fe 31 ac bf 83 99 45 bd ea 3e bf bf 57 0b c2 bf
       -1.3452756 -0.048242103 -1.4941075 -1.5159711
000010 2d 7d 29 be f9 a7 1b bf 7c 57 9c bf 9d 76 ba bf
       -0.16551657 -0.6080318 -1.2214198 -1.4567448
000020 b0 3c a1 3f 99 fd a0 bf 9e fb 9e bf cd e7 a8 bf
       1.2596645 -1.2577392 -1.2420537 -1.319574
000030 bd 6f 33 c0 03 40 77 bf bc a3 ca bf fe 8f a1 bf
       -2.803695 -0.9658205 -1.5831218 -1.2622068
000040 37 58 d1 bf fa fd dc bf db dd 9c bf 59 16 b5 bf
       -1.6355046 -1.7265007 -1.2255205 -1.4147445
000050 74 5c 69 3f ca ac 29 3e cc 70 4c bf 9b 85 81 bf
       0.911567 0.1656982 -0.79859614 -1.0118898
000060 22 ad ce bf 44 ae c9 bf 84 b1 c0 bf c7 1e dc bf
       -1.6146586 -1.5756307 -1.5054173 -1.7196892
000070 d0 65 a5 bf 87 de 9f bf ec a6 c2 bf 0a 8a 16 c0
       -1.2921696 -1.2489785 -1.520719 -2.3521752
000080 a4 51 aa bf e3 15 e6 3d b1 f0 c6 bf b4 1e 26 3f
       -1.3306165 0.11234643 -1.5542203 0.648906
000090 e9 f1 90 bf 88 f9 09 c0 3d 05 ee bf bf 67 9f bf
       -1.1323825 -2.1558552 -1.8595349 -1.2453536
0000a0 04 37 b0 bf 4d b9 bf bf 6a 68 37 bf 8d 39 04 be
       -1.376679 -1.4978424 -0.716437 -0.12912579
0000b0 6e 5d 80 bf a2 48 aa bf c9 82 45 bf eb aa d1 bf
       -1.0028512 -1.3303416 -0.7715269 -1.6380285
0000c0 6d 4d 7a bf ab b6 77 bf 07 c6 0e bf b7 2d 64 bf
       -0.9777439 -0.96763104 -0.55770916 -0.89132255
0000d0 f0 f3 4b c0 7e 3a 44 bf 21 04 02 c1 61 35 87 c0
       -3.1867638 -0.7665175 -8.126008 -4.225266
0000e0 ca e4 da c0 4f 36 b0 bf 81 ca a1 3d 2a 40 a4 c0
       -6.8404284 -1.3766574 0.07899953 -5.1328325
0000f0 8c 77 41 c1 08 26 c2 c0 fe 9c b3 c0 ce c3 98 c0
       -12.091686 -6.0671425 -5.612914 -4.773902
000100 dd 0c 07 c1 eb e7 04 c0 9f a9 f6 c0 ad c2 5b c0
       -8.44064 -2.0766551 -7.7082057 -3.433757
000110 3b 8e aa c0 1d 0c 12 c1 35 71 12 c1 e2 58 1a c0
       -5.329862 -9.127957 -9.152638 -2.411675
000120 e0 d6 c5 c0 3a c5 bb c0 70 6c c5 c0 2e ee a6 c0
       -6.18248 -5.8678255 -6.169487 -5.2165747
000130 b9 b0 3e c0 db 32 a9 bf 19 12 89 c0 21 ef 29 c0
       -2.9795363 -1.3218645 -4.283459 -2.6552203
000140 61 96 ba c0 0b 6f 48 c0 15 a9 a0 c0 97 88 5e bf
       -5.830857 -3.1317775 -5.02064 -0.8692717
000150 73 db c0 c0 a1 c9 c0 c0 18 7c 9c c0 e2 d9 9d c0
       -6.026788 -6.024613 -4.890148 -4.932847
000160 2e fd 2f c0 66 10 3f c0 06 86 ac bf 77 3c 76 bf
       -2.7498279 -2.985376 -1.3478401 -0.9618601
000170 56 a0 51 bf d0 4a 00 c1 eb 60 e2 bf c7 6f b1 be
       -0.8188528 -8.018265 -1.7685827 -0.34655592
000180 14 53 cf bf 34 fb fc bf 37 30 16 c1 25 a3 2a c1
       -1.6197228 -1.9764161 -9.386771 -10.66483
000190 6b ce 3a 40 d7 ff f6 bf 7e a9 95 3e 2f 6a 94 c0
       2.9188488 -1.9296826 0.29230875 -4.637962
0001a0 f2 b8 b3 be b6 9d ee be 90 83 1f c0 f2 9f 5d 40
       -0.3510204 -0.466047 -2.492405 3.4628873
0001b0 f5 1f d1 3f fb fd 12 be 85 59 c8 3c b3 86 02 be
       1.6337878 -0.14354698 0.024456749 -0.12746696
0001c0 0f e0 ee bc 79 05 e1 bd 70 db 20 bf 07 96 1f 3f
       -0.029159574 -0.10987372 -0.62834835 0.623383
0001d0 33 ee 41 bf 6f 05 25 3d 92 a8 02 bd b7 61 11 3e
       -0.7575409 0.040288385 -0.031899042 0.14197432
0001e0 5b f6 83 3a 7a c7 ae 3e 58 4f ea bd 53 47 ac bd
       0.0010067926 0.34136564 -0.11440915 -0.084120415
0001f0 60 54 28 bd 66 e2 43 40 1a cb af bf 17 b5 b4 3e
       -0.04109609 3.0606933 -1.3733857 0.3529441
000200 02 d9 03 c0 3f b8 4f 40 e5 0b bb 3e 89 3b 29 3e
       -2.06012 3.2456205 0.36532512 0.16526617
000210 9a 97 bc 3d 00 e7 24 40 4b a1 02 3e 88 cd 7d be
       0.09208603 2.5765991 0.12756841 -0.24785435
000220 df 1a 52 be 0a 72 24 be c6 40 67 40 c8 2f 12 3f
       -0.20518063 -0.16059127 3.6133285 0.5710416
000230 79 a5 7f be ba 0f c4 3d 16 cf e3 be 58 54 3d 3f
       -0.24965467 0.09573312 -0.44493932 0.73956823
000240 95 55 fe c0 3f bc 2a c0 9f da 67 c0 ae 1f 0b 3e
       -7.947947 -2.6677396 -3.6227186 0.13586304
000250 2c f7 d4 3e 2c a1 e8 be d5 c3 ad bf 93 60 ef bf
       0.41594827 -0.45435464 -1.3575388 -1.8701347
000260 6b b0 68 be c0 e9 6d bf 86 e9 78 bf a4 aa 1a bf
       -0.22723548 -0.929348 -0.9723133 -0.60416627
000270 31 17 d0 bf 41 53 79 bf b7 d8 01 c0 2b 28 90 bf
       -1.6257077 -0.9739266 -2.0288522 -1.1262258
000280 f1 f1 23 bf a8 42 94 bf 3a 44 bd 3e d3 f7 cb be
       -0.6404105 -1.1582842 0.36966115 -0.39837512
000290 75 4d af 3e 87 ee 9a bf 76 be 1e bf 79 7a f1 be
       0.34238783 -1.2104043 -0.6200937 -0.47163752
0002a0 aa bc 19 3f 12 78 09 3f b8 a3 df bf 48 6c 01 c0
       0.60053504 0.5369884 -1.7471838 -2.022234
0002b0 53 8f 02 c0 a6 d8 7d 3e 35 b1 03 c0 32 9b 0e bd
       -2.0399978 0.24789676 -2.0576909 -0.034815975
0002c0 88 8d 50 be 3f 27 8c bf 68 cf 03 c0 17 b6 0b c0
       -0.2036649 -1.0949477 -2.059534 -2.182989
0002d0 5b 0a 78 3f ea f8 a0 bf 0d 84 a0 bf fa 29 07 c0
       0.968908 -1.2575963 -1.2540299 -2.111937
0002e0 28 c5 39 bf ed d7 83 bf 20 28 f3 bf 9d 90 0b 3e
       -0.7256646 -1.030027 -1.899662 0.13629384
0002f0 15 81 16 bf 51 8f b0 be 5e c4 78 bf 6e 51 8e 3f
       -0.58790714 -0.34484342 -0.9717463 1.11186
000300 0e 4b e6 be 42 e0 f5 bf d7 4f a1 bf e0 08 33 bf
       -0.44979137 -1.9209063 -1.260249 -0.6993542
000310 cf 69 81 be 0c 18 fe be b1 ea c1 bf 65 a3 f7 bf
       -0.25276038 -0.4962772 -1.5149747 -1.9346739

lstm.bias_hh_l1 f4 [200]
000000 a8 a4 a8 bf 56 ea dd bd bc 25 ad bf 6c 90 b8 bf
       -1.3175249 -0.10835712 -1.3527141 -1.4419074
000010 10 1c 20 be 53 eb 32 bf 32 4e 82 bf 1a 9b b9 bf
       -0.15635705 -0.69890326 -1.0180113 -1.4500458
000020 c7 09 8f 3f 33 7e b8 bf 3a e8 89 bf 3b 6d 8e bf
       1.1174859 -1.4413513 -1.0773995 -1.1127084
000030 c3 a7 2c c0 ac 6f 90 bf 7d fb b7 bf 97 5f 93 bf
       -2.6977394 -1.128408 -1.4373623 -1.1513547
000040 ca e6 e8 bf 99 ca db bf 29 d8 98 bf eb 43 a8 bf
       -1.8195431 -1.7171203 -1.1940967 -1.3145727
000050 4d 7e 4e 3f 79 38 85 3d f2 5d 61 bf 21 1d 6a bf
       0.8066147 0.06504912 -0.88033974 -0.914507
000060 6f 39 e8 bf 41 3a c5 bf 1f 48 b9 bf c8 01 f0 bf
       -1.8142527 -1.5408403 -1.4475135 -1.8750544
000070 d3 dc 99 bf dd 9f b0 bf 41 34 d7 bf e6 3d 0e c0
       -1.2020515 -1.3798786 -1.6812822 -2.222528
000080 39 6d a6 bf 6c 08 7d 3e 2c 18 c8 bf 07 31 16 3f
       -1.3002082 0.24710244 -1.5632377 0.5866856
000090 a6 95 a3 bf 6f ba 02 c0 99 4d ea bf 1d c9 a6 bf
       -1.2780044 -2.042629 -1.8304931 -1.3030125
0000a0 b1 da c5 bf 5a fb c8 bf 07 e0 2c bf 29 a6 34 be
       -1.5457364 -1.5701706 -0.6752934 -0.1764151
0000b0 bf 72 76 bf 9b 3e af bf 96 33 5b bf bc 51 eb bf
       -0.9626884 -1.3690981 -0.8562559 -1.8384318
0000c0 92 9c 87 bf 62 c2 9e bf c1 72 dc be 34 23 4d bf
       -1.0594656 -1.2403071 -0.430563 -0.8013184
0000d0 3e ee 52 c0 21 61 61 bf c2 5f 00 c1 5c bd 8c c0
       -3.2957911 -0.8803883 -8.023378 -4.398115
0000e0 5c 46 dd c0 2e 2c b5 bf 68 cb 88 3e b4 6c ab c0
       -6.914839 -1.4154108 0.26717687 -5.3570194
0000f0 01 ed 40 c1 f4 d7 c6 c0 55 49 b6 c0 fa b4 9b c0
       -12.057862 -6.2138615 -5.6964517 -4.865842
000100 d8 d5 07 c1 33 a2 0d c0 a8 80 f3 c0 59 76 4e c0
       -8.489708 -2.2130249 -7.609455 -3.2259734
000110 c4 47 a7 c0 15 7f 10 c1 55 b8 10 c1 20 2b 15 c0
       -5.2275105 -9.031026 -9.045003 -2.3307571
000120 c6 03 be c0 02 5c b8 c0 0c 8e c4 c0 1e bb a6 c0
       -5.9379606 -5.7612314 -6.1423397 -5.2103415
000130 23 34 46 c0 d0 95 c5 bf 67 56 8e c0 ee b5 30 c0
       -3.0969322 -1.5436344 -4.448047 -2.761104
000140 73 7f bc c0 7a f6 40 c0 7d d6 a1 c0 a2 d8 60 bf
       -5.890558 -3.0150437 -5.0574327 -0.87830555
000150 7d c7 c6 c0 18 f1 c5 c0 e3 52 9d c0 06 90 9c c0
       -6.2118516 -6.1856804 -4.916368 -4.892581
000160 95 38 32 c0 78 a0 44 c0 a6 c2 9f bf 2c a3 45 bf
       -2.7847035 -3.0722942 -1.2481277 -0.77202106
000170 19 7b 56 bf a6 75 00 c1 00 0a db bf 65 46 15 bf
       -0.8378158 -8.028723 -1.7112427 -0.5831054
000180 95 6e d4 bf 76 61 e9 bf cf 76 16 c1 42 55 28 c1
       -1.6596247 -1.8232868 -9.404006 -10.520815
000190 3d 2f 41 40 70 f7 02 c0 6e 87 5d 3e 57 7e 97 c0
       3.0185082 -2.0463524 0.21633694 -4.7341723
0001a0 fd c8 54 be f6 88 08 bf 4f 8f 1f c0 58 44 63 40
       -0.20779796 -0.53333986 -2.4931219 3.5510464
0001b0 d4 0b c5 3f 9b 05 59 be 69 6a 44 be 7d e1 fe bd
       1.5394235 -0.21193545 -0.19181217 -0.12445352
0001c0 9f f4 0c 3e 16 be 8e bd 09 35 09 bf b6 6c 35 3f
       0.1376519 -0.0696985 -0.5359655 0.70869005
0001d0 29 c8 42 bf 6f bd 73 bd 29 fc 1f 3e 5b 4c 0a bd
       -0.7608667 -0.05950683 0.15623535 -0.033764224
0001e0 eb 8b b4 3d b9 a1 87 3e a5 27 62 be e9 22 1d 3e
       0.0881575 0.26490572 -0.22085436 0.15345348
0001f0 4a c9 32 3c d7 83 4b 40 6c 20 b3 bf 74 62 82 3e
       0.010912249 3.1799219 -1.3994269 0.2546574
000200 da 9b 05 c0 76 21 40 40 88 9d 4d 3e 6a dc 18 3e
       -2.0876374 3.0020423 0.20079625 0.14927831
000210 30 a2 97 bc 09 20 2c 40 c1 e0 ef 3d bd 37 05 be
       -0.018509954 2.6894553 0.1171279 -0.13009544
000220 9c ca cd bd b7 04 47 bd fe e4 62 40 5c 40 12 3f
       -0.1004841 -0.04858848 3.5452266 0.57129455
000230 98 28 ab be 83 53 98 3d 3e d3 08 bf 42 d0 2f 3f
       -0.33429408 0.074378036 -0.5344733 0.6867715
000240 00 c1 02 c1 51 31 31 c0 28 5b 69 c0 c2 b5 bf 3d
       -8.172119 -2.768635 -3.6461887 0.093608394
000250 2d 04 a6 3e c6 ba 2f bf e9 37 ae bf 2b ca f3 bf
       0.3242506 -0.6864437 -1.3610812 -1.9046072
000260 6a 5c ad be 4a 5a 97 bf ed a3 7d bf d5 d8 0e bf
       -0.3385957 -1.1824429 -0.99078256 -0.5579961
000270 a5 b8 d8 bf a7 01 8e bf 2f a2 f6 bf 18 60 8a bf
       -1.6931349 -1.1094254 -1.9268245 -1.0810575
000280 86 f7 0a bf ac 3c 86 bf a0 8a b6 3e 13 05 d3 be
       -0.5428394 -1.0487266 0.35652637 -0.4121481
000290 04 f6 92 3e 50 6a 95 bf ff ec e2 be 0c 2d f8 be
       0.2870332 -1.1673069 -0.4432144 -0.48471868
0002a0 8b 0a 27 3f 41 58 f7 3e 8e c6 de bf f7 bc 04 c0
       0.6525046 0.4830952 -1.7404344 -2.0740335
0002b0 ed da fe bf 72 8c 7e 3e 72 a6 f5 bf f6 2a 59 bd
       -1.9910561 0.24858263 -1.919142 -0.053019486
0002c0 31 06 a7 be d9 51 98 bf ca b0 f5 bf 3a af f7 bf
       -0.3262191 -1.1899978 -1.9194577 -1.935035
0002d0 3a 50 4a 3f cf ff a0 bf d0 2d 99 bf 20 00 10 c0
       0.79028666 -1.2578067 -1.1967106 -2.2500076
0002e0 de 47 18 bf ef a2 84 bf 49 10 e5 bf 8e 7a 91 3e
       -0.5948466 -1.0362223 -1.7895595 0.28413814
0002f0 b6 33 bf be 2a 2f be be e9 ba 6f bf 6b df 69 3f
       -0.3734414 -0.37145358 -0.9364458 0.91356534
000300 06 8e de be bc af 04 c0 cd 83 8c bf d5 b4 0f bf
       -0.4346773 -2.073226 -1.0977722 -0.561353
000310 95 e2 5b be 00 02 8b be 46 02 bf bf 1f 4d ea bf
       -0.21473153 -0.27149963 -1.4922569 -1.8304785
