NEURAL_MODELS/LSTM/jolly-bush-44_epoch0.pth (torch, 833135 bytes, 42 tensors)

lstm.weight_ih_l0 f4 [200, 69]
0	0xc0a937c7	-5.2880588
1	0xbee2a569	-0.44266823
2	0x3f211baf	0.62932867
3	0x3e871aaa	0.2638753
4	0x3f466362	0.77495396
5	0xc01007e5	-2.2504818
6	0x3f171e54	0.5903065
7	0xbe48f4ae	-0.19624588
8	0xbf6ede14	-0.93307614
9	0xbe850ed7	-0.25987884
10	0xbf275189	-0.6535879
11	0x40a61d05	5.1910424
12	0xbe191c2a	-0.1495215
13	0xbfab464f	-1.3380831
14	0x3fd9532a	1.6978505
15	0x40a7c089	5.242253
16	0xbf7ee210	-0.99563694
17	0xc0749916	-3.8218436
18	0xbfa48bf3	-1.2855209
19	0x3f1dde53	0.61667365
20	0x3ddd6e40	0.10812044
21	0xbe8fb70a	-0.28069335
22	0xbf88ceaa	-1.0688069
23	0x3ebd8a67	0.37019655
24	0x4082fd6c	4.0934353
25	0x3ea98a58	0.3311336
26	0x3ecb0cd3	0.39658222
27	0xbfb086c1	-1.3791124
28	0x408823e0	4.2543793
29	0xbedd8aad	-0.43269864
30	0xbf03934e	-0.51396644
31	0xbf40e93a	-0.75355875
32	0x405b128d	3.4230072
33	0x3e9a50a9	0.30139664
34	0xbeeb6d45	-0.45981804
35	0x3dcbffda	0.09960909
36	0xbf81b167	-1.0132264
37	0xbf808f71	-1.0043775
38	0x3ef7d777	0.48406574
39	0xbd91a23f	-0.07111024
40	0x3ed03f46	0.40673274
41	0xbc44f643	-0.012021604
42	0x3ea65bff	0.32492062
43	0xbefe1d8b	-0.49631914
44	0xbe2dc5d4	-0.16969997
45	0xbfea26ce	-1.8293092
46	0xc00f0a32	-2.2349973
47	0xbecf3816	-0.40472478
48	0x3f78a1fb	0.9712216
49	0xbf23a035	-0.6391633
50	0x3e857613	0.26066646
51	0xbea04696	-0.31303853
52	0xbcc7032f	-0.02429351
53	0xbf0a241a	-0.53961337
54	0xbdbf15f8	-0.09330362
55	0x40476fff	3.1162107
56	0x3ff250f2	1.8930953
57	0xc0a0a2d8	-5.0198784
58	0x3d8c4e18	0.06850833
59	0x3f7f2086	0.99659
60	0xbf4869eb	-0.7828662
61	0x405829eb	3.3775585
62	0xbf2e866b	-0.68173856
63	0xc08efbf8	-4.468258
64	0x3ec5cc4b	0.38632426
65	0xbebb030c	-0.36525762
66	0xbefbf32d	-0.49208966
67	0xbe0ff191	-0.14056994
68	0xbf802744	-1.0011983
69	0x4085f115	4.185679
70	0xc0005910	-2.005436
71	0x3f69c5c7	0.9131741
72	0x3fec6e95	1.8471247
73	0xbf1cb8ee	-0.6121968
74	0xbf54ad3f	-0.8307685
75	0xc02125c9	-2.5179312
76	0x3f50ebac	0.81609607
77	0x3ee2d5f6	0.44303864
78	0xc02a159a	-2.6575685
79	0x3f791567	0.9729828
80	0x4013c2f6	2.3087745
81	0xbe6ac265	-0.22925718
82	0x3fa714c4	1.3053212
83	0xbe51ed09	-0.20500578
84	0xbf086efa	-0.53294337
85	0xbf0a513e	-0.54030216
86	0xc00ce9ce	-2.2017703
87	0x404b8b23	3.1803672
88	0xc01e320c	-2.4718046
89	0x3da325f4	0.07966223
90	0xbfc036f8	-1.5016775
91	0xbee65208	-0.4498446
92	0xc00097a8	-2.0092564
93	0x3f9b8abc	1.2151713
94	0x3ecbd542	0.3981114
95	0xbf68a379	-0.9087444
96	0x40534b5e	3.301475
97	0xbfa952ac	-1.3228354
98	0x3e41b801	0.18917848
99	0x3f810b92	1.0081656
100	0xbf440d33	-0.7658264
101	0x3f8e1780	1.1100922
102	0xbdd7492c	-0.10512003
103	0x3f1abeb3	0.60447234
104	0xbf5942e3	-0.84867686
105	0xc04c107a	-3.1885056
106	0xc00446ae	-2.066814
107	0x40b3062f	5.594505
108	0xbd908242	-0.07056095
109	0xbc53c61a	-0.012925649
110	0x3fca30c3	1.5796131
111	0xc0c9f227	-6.3108096
112	0xbf5b8921	-0.8575612
113	0x3ff2d64d	1.897165
114	0x3f6dc695	0.9288114
115	0x404f106e	3.2353778
116	0xbe7c7343	-0.24653344
117	0x40462a5b	3.0963352
118	0x3f847b06	1.0350044
119	0xc001b942	-2.0269322
120	0x3fbfcac2	1.4983752
121	0x3f209a3e	0.62735355
122	0x3c574a64	0.013140295
123	0xbd803d63	-0.062617086
124	0x3f7baf1d	0.98314077
125	0xc017c96f	-2.3716695
126	0xbeb836b7	-0.35979244
127	0x3e0e8107	0.13916408
128	0xc04ce146	-3.2012496
129	0x3d9b8a71	0.07594765
130	0x3e1b4725	0.15163858
131	0x3f9d7d7f	1.2303923
132	0x40302ff2	2.7529263
133	0x3ff3cf25	1.904759
134	0x401ae58f	2.4202611
135	0xbfe8a504	-1.8175359
136	0xbdf23744	-0.11826947
137	0x3f4b9fd7	0.7954077
138	0xbfdb2c94	-1.7122979
139	0x3fb3948e	1.402971
140	0xbf190d26	-0.5978569
141	0x3f5ecd63	0.87032145
142	0xbfa54c83	-1.2913975
143	0x40ba6116	5.8243513
144	0xbcdeb964	-0.02718801
145	0x3f82328e	1.0171678
146	0xbf410d5f	-0.7541103
147	0x405c6361	3.4435656
148	0x3f62ccb2	0.8859359
149	0x3e9bf8c2	0.30463225
150	0x3e49c563	0.19704203
151	0xc0759cd2	-3.8376966
152	0xbe879e2a	-0.26487857
153	0x3e9abbc9	0.30221394
154	0xc00ff8f8	-2.2495708
155	0xbec6da34	-0.3883835
156	0x3f46ad56	0.7760824
157	0xc049edbe	-3.1551356
158	0xbe104e87	-0.14092456
159	0xbfb6ebf4	-1.4290757
160	0x3fc3b327	1.5289048
161	0xc028505d	-2.629905
162	0x3eb73131	0.35779718
163	0xbecb9861	-0.39764693
164	0x3fbe34ec	1.48599
165	0xbf663e9c	-0.89939284
166	0x3d62c127	0.055359986
167	0xbeb6eac5	-0.3572599
168	0xbffb76ae	-1.9645593
169	0x3fa77656	1.3082988
170	0xc01e0b8e	-2.4694552
171	0x3fffc0d3	1.998072
172	0x3fb0f242	1.3823931
173	0x40679dd6	3.6190085
174	0x3fc345de	1.5255697
175	0x3fc66876	1.5500629
176	0x3fd77b40	1.6834488
177	0xbd83ff7e	-0.06445216
178	0x3f55a2bb	0.8345143
179	0xbf104251	-0.5635119
180	0x3eb248ab	0.34821066
181	0xc04672e8	-3.1007633
182	0xbeaf15d4	-0.3419634
183	0xbe4d166a	-0.20028082
184	0xbe389e57	-0.18029152
185	0x3fdb180f	1.7116717
186	0x3e798505	0.24367149
187	0x3fb3b767	1.4040345
188	0x3fe32fed	1.7749001
189	0xbfab0cc0	-1.3363266
190	0xbeaf2092	-0.34204537
191	0x402967d4	2.6469622
192	0x3c4c30b0	0.01246278
193	0x3d8d3dd0	0.068965554
194	0xbff6fb65	-1.929547
195	0x3f8f04dd	1.1173359
196	0x3de66896	0.11250417
197	0x3eef5de4	0.4675132
198	0x3f9f82dd	1.2461811
199	0x3fdb732d	1.7144524
200	0x4031db47	2.7790086
201	0xc019c473	-2.4026153
202	0xbf0974a2	-0.5369359
203	0x3d921c9a	0.071343616
204	0xbf350f59	-0.70726544
205	0xbda5762c	-0.0807918
206	0x3ed34dfc	0.41270435
207	0xbbe38d04	-0.0069443006
208	0x3e784f7c	0.24249071
209	0x3e28931f	0.16462372
210	0x3f1fc7dc	0.62414336
211	0x3f0f5c72	0.56000435
212	0x3e992477	0.29910633
213	0x3e2386a8	0.15969336
214	0xbeb1561b	-0.34636006
215	0x3e0aaaca	0.13541713
216	0x3e886ea1	0.26646903
217	0x3c368bd7	0.011141739
218	0x3e05eb3d	0.13078018
219	0xbd9ee9e2	-0.07759453
220	0x3e584306	0.21119317
221	0x3c12cc60	0.00895986
222	0x3f322576	0.6958841
223	0x3f814bca	1.0101254
224	0x3e43b67c	0.19112581
225	0x3efae80b	0.4900516
226	0x3ee27015	0.44226137
227	0xbd30f5dc	-0.04320322
228	0xbe47cb11	-0.19511057
229	0x3f036600	0.51327515
230	0x3e6ac35c	0.22926086
231	0x3f1bc52e	0.6084775
232	0xbdde5aeb	-0.10857185
233	0x3e897c85	0.26852813
234	0x3f1be378	0.60893965
235	0xbe379bd1	-0.17930533
236	0x3f5ac56f	0.8545751
237	0x3f037ce0	0.5136242
238	0x3e7ebb14	0.24876052
239	0x3e6be842	0.23037818
240	0xbe247d38	-0.16063392
241	0x3e9d3299	0.30702665
242	0x3d685740	0.056723833
243	0x3f84f7a7	1.0388077
244	0x3f1652fc	0.58720374
245	0x3e9e0ca3	0.30869016
246	0xbd0d0dac	-0.034436867
247	0x3e7293a0	0.23689127
248	0x3e06046c	0.13087624
249	0x3e945f46	0.28978938
250	0x3e9eea0f	0.31037948
251	0xbe4d0a78	-0.20023525
252	0x3f8c776f	1.0973948
253	0x3ef56dae	0.4793524
254	0xbdf7c67b	-0.12098404
255	0x3e71371b	0.23556177

lstm.weight_hh_l0 f4 [200, 50]
0	0xc03a85a2	-2.9144063
1	0xbfb03497	-1.3766049
2	0x3e69a49d	0.22816701
3	0xbee2dfe9	-0.44311455
4	0x3f5f6127	0.8725762
5	0x3f4e1f77	0.8051676
6	0xbe145b2d	-0.14487906
7	0x3e8613b0	0.26186895
8	0xbeca85c8	-0.39555192
9	0xbef065e4	-0.46952736
10	0xbff85f3a	-1.9404061
11	0x401eeb69	2.4831183
12	0xbffef79c	-1.9919314
13	0xbf5cd6e6	-0.8626541
14	0xbf9ebbe2	-1.2401087
15	0xbfe57e03	-1.7929081
16	0x403ade2e	2.9198108
17	0xbe264a7e	-0.16239354
18	0xbf3edea1	-0.74558455
19	0x3f73cf63	0.9523832
20	0x3f69fb25	0.9139884
21	0xbfa4e76d	-1.2883126
22	0xbd93fc9c	-0.07225916
23	0xbe31f196	-0.17377314
24	0x407527d0	3.830555
25	0x3f8d4907	1.1037911
26	0x3e731f91	0.2374251
27	0xbee4d53a	-0.4469393
28	0x3e5d0e83	0.21587567
29	0xbe672a17	-0.2257465
30	0x3fb5bbc2	1.4197924
31	0x3f9967f1	1.1984845
32	0x3f8c1084	1.094254
33	0xbfa2fa31	-1.2732602
34	0x3ea3a367	0.31960604
35	0xbffb42cb	-1.9629759
36	0x3f044eff	0.5168304
37	0xbfedd00b	-1.8579115
38	0xbfe1094c	-1.7580962
39	0xbf2f250e	-0.68415916
40	0xbf5516fa	-0.83238184
41	0x3e4cdacd	0.20005341
42	0x3f573935	0.84071666
43	0xbf164568	-0.58699656
44	0x3f295eb5	0.66160136
45	0xbf653fc9	-0.89550453
46	0xbf1bc26e	-0.6084355
47	0x3dd83ea8	0.10558826
48	0xbfc7dc9a	-1.5614197
49	0xbf931be2	-1.1492884
50	0xbfffb4bd	-1.9977032
51	0x3fb22ced	1.391996
52	0x3c65d95f	0.014028876
53	0xbea39e95	-0.31956926
54	0xbee5ac44	-0.4485799
55	0x3ff0a285	1.8799597
56	0x3ed78f4b	0.4210151
57	0xbfcbbfc5	-1.5917898
58	0xbf358c47	-0.7091717
59	0xbfd49418	-1.6607695
60	0xbf45287c	-0.770149
61	0xc00336f9	-2.0502303
62	0x3f89ba54	1.0759988
63	0xbf7bb688	-0.98325396
64	0xbfa4d6fd	-1.2878109
65	0x3decbcd7	0.11559456
66	0x3ed21c0f	0.41037032
67	0xbeb753de	-0.35806173
68	0x3ed31b58	0.412318
69	0x40242e98	2.5653439
70	0xbf3d9fde	-0.7407206
71	0xbfbf2588	-1.4933329
72	0x400fb141	2.2451937
73	0xbf280a30	-0.65640545
74	0x3f88e1f7	1.0693959
75	0x3e48399c	0.19553226
76	0xbfb45b83	-1.4090427
77	0x3ed57a11	0.41694692
78	0x4019981e	2.3999095
79	0x3f26e1cd	0.65188295
80	0x3f3b045c	0.73053527
81	0x3ea1ad9b	0.31577763
82	0x3fbd4c8a	1.4788983
83	0xbdf14ac7	-0.11781841
84	0xbf514cb8	-0.8175769
85	0xc04e91ac	-3.227641
86	0xbf98b251	-1.1929418
87	0x3dcd0cca	0.10012205
88	0x3fadb854	1.3571877
89	0x3f4c4f6c	0.7980869
90	0xbef56ae2	-0.47933108
91	0xbe88a391	-0.2668729
92	0x3e369b81	0.17832758
93	0x3ff7f4f1	1.9371625
94	0xbfb9394c	-1.4470611
95	0x3fa4730d	1.2847611
96	0xbf3b5969	-0.73183304
97	0x3ffb49b9	1.9631873
98	0x3eacac25	0.33725086
99	0x3e861419	0.26187208
100	0xbf3e3438	-0.7429843
101	0x3fb19829	1.387456
102	0xbf9f20b4	-1.2431855
103	0x3fa100ac	1.257833
104	0x4038e9a1	2.8892596
105	0xbf6c90df	-0.92408556
106	0xbfc04705	-1.5021673
107	0xbf3c1358	-0.73467016
108	0xc00fd0d2	-2.2471204
109	0xbf080344	-0.5312998
110	0x3d4d6f5d	0.050155032
111	0x3ffb7150	1.9643955
112	0xbf8856f4	-1.0651536
113	0xbf8a4f63	-1.0805477
114	0xbff0134a	-1.8755887
115	0xbef34492	-0.47513252
116	0xbebd7f7b	-0.37011322
117	0x3ec80cd9	0.39072302
118	0xbf8e801c	-1.1132846
119	0xbd292935	-0.041299064
120	0xc008f150	-2.1397285
121	0xbfc59a5b	-1.543773
122	0xbf3429bb	-0.70376176
123	0x3f853c1f	1.0408973
124	0xc03dd04d	-2.9658387
125	0xbf94c719	-1.162326
126	0xc0128d32	-2.2898679
127	0x3efb214d	0.49048844
128	0x3f0cb759	0.54967266
129	0x3f65cc7e	0.89765155
130	0x4001cb03	2.0280159
131	0x3fd78dcc	1.6840148
132	0x3ff89de4	1.9423184
133	0x3f0ccc14	0.549989
134	0xbf354baf	-0.7081861
135	0xbfef1678	-1.8678732
136	0x3fd5228f	1.6651171
137	0x400289bf	2.0396574
138	0x3e48ef76	0.19622597
139	0x3e4fee07	0.20305644
140	0xbfc39bdc	-1.528194
141	0x3e91287a	0.28351194
142	0x40595eb0	3.3964043
143	0xc0120166	-2.2813354
144	0x3fe9c579	1.8263389
145	0xbf378867	-0.7169251
146	0xbf48abd5	-0.78387195
147	0x3ec24d9e	0.37949842
148	0x3eb3bac7	0.35103437
149	0xbe70adb1	-0.23503758
150	0xbdc1641a	-0.09442921
151	0xbde89604	-0.11356738
152	0x3eada0d9	0.3391178
153	0xbebf959f	-0.3741884
154	0x3ed6a235	0.4192063
155	0xbf07f298	-0.53104544
156	0xbf53928a	-0.82645476
157	0xbe7e2818	-0.24819982
158	0xbecc5817	-0.39910957
159	0xbf0bbfe9	-0.54589707
160	0x3f34268e	0.7037133
161	0x3f221add	0.6332224
162	0xbe3f7093	-0.18695287
163	0x3e32cc2f	0.17460702
164	0xbe05dcc0	-0.1307249
165	0xbe4ae0dd	-0.19812341
166	0x3e89bbbb	0.2690104
167	0xbeb132b3	-0.34608993
168	0x3e3c47ee	0.18386814
169	0x3e6ef3ff	0.23335265
170	0xbeb1b826	-0.34710807
171	0x3e98ee7b	0.29869446
172	0x3efd4361	0.4946547
173	0x3eb8ec6e	0.36117882
174	0x3d6fda7f	0.058557983
175	0x3e58d6fc	0.2117576
176	0xbe9be5d0	-0.3044877
177	0xbf05373e	-0.5203742
178	0xbdfa2349	-0.12213761
179	0xbefbfb20	-0.4921503
180	0xbdd9f0cd	-0.10641632
181	0xbec64a5a	-0.387286
182	0xbd864651	-0.065563805
183	0xbe646ebe	-0.2230787
184	0x3e885ab7	0.2663171
185	0xbe97fadd	-0.2968358
186	0xbd4b7f3c	-0.049681887
187	0x3ef252bc	0.47328746
188	0xbd5684c7	-0.05237272
189	0xbe9a2356	-0.30105084
190	0xbe43fdba	-0.19139758
191	0x3e3b3bdf	0.18284558
192	0xbe857cc2	-0.26071745
193	0x3f048c22	0.51776326
194	0x3ebac2fc	0.36476886
195	0x3e5f70ab	0.21820323
196	0xbeca72c1	-0.39540675
197	0xbef4eb62	-0.47835833
198	0xbf0159d8	-0.50527716
199	0xbe27d950	-0.16391492
200	0x3f3f001b	0.74609536
201	0x3d52365b	0.05132137
202	0x3fc9ab48	1.5755396
203	0xbf903ecc	-1.1269164
204	0xbe4aa067	-0.19787751
205	0x3f89b58b	1.0758528
206	0x3f8c2cee	1.0951211
207	0x3d2afa98	0.04174289
208	0xbe8dc1ef	-0.27687022
209	0x3fa0583e	1.2526929
210	0xc05434e4	-3.3157282
211	0xbde08baf	-0.109641425
212	0x3d254a85	0.04035427
213	0x3f8e0197	1.1094235
214	0xc0225b9c	-2.5368414
215	0x3e8c9d28	0.2746365
216	0x3f1a9725	0.6038688
217	0xbfeea9b8	-1.8645544
218	0x3f8be349	1.0928737
219	0x40336dbe	2.8035731
220	0xbed4ffec	-0.41601503
221	0x3f2dab86	0.6783985
222	0xbf82f609	-1.0231334
223	0x3f1c95ca	0.6116606
224	0x3e9bc874	0.3042637
225	0xbe7c5454	-0.24641544
226	0x403626da	2.8461213
227	0xbfaa3579	-1.3297569
228	0x40473156	3.1123862
229	0xbfe83b40	-1.8143082
230	0x3fd06e2d	1.6283623
231	0xbfc99acf	-1.5750369
232	0xbeda3211	-0.42616323
233	0x404a4493	3.1604354
234	0x3fb648ee	1.4241006
235	0x3ebcaf14	0.36852324
236	0xc0334bac	-2.8014936
237	0x3fbb9cc1	1.4657212
238	0xc00cfdce	-2.202991
239	0x3fa44b5b	1.2835497
240	0x3f842804	1.0324712
241	0x3e19c377	0.1501597
242	0xbf84b30e	-1.0367143
243	0x3e2b7fab	0.1674792
244	0xbf62e25f	-0.88626665
245	0xbf7f641b	-0.99762124
246	0xbfd2acfb	-1.645904
247	0xbfbf1983	-1.492966
248	0xbe96564d	-0.29362717
249	0xbd6db3bb	-0.058032732
250	0xbef3a310	-0.47585344
251	0x3ee4640d	0.44607583
252	0xbff2d361	-1.8970758
253	0xbf6398cf	-0.8890504
254	0x3e5e427e	0.21705052
255	0x40241477	2.563749

lstm.bias_ih_l0 f4 [200]
0	0x3e41bf41	0.18920614
1	0x3db4f97b	0.08836647
2	0x3f4329c8	0.7623563
3	0x3e79cb21	0.24393894
4	0xbd9f2307	-0.07770353
5	0x3ebb4c7e	0.36581796
6	0x3d272811	0.040809695
7	0x3f0a22be	0.5395926
8	0xbeed820c	-0.4638828
9	0x3e818909	0.25299862
10	0xbe1132cd	-0.14179535
11	0x3e10a46b	0.1412522
12	0xbe19b1e9	-0.15009274
13	0xbeb6ecce	-0.35727543
14	0xbddde3bf	-0.10834455
15	0x3f0c213c	0.5473821
16	0x3d96bd2f	0.07360303
17	0x3d39177d	0.045188416
18	0x3e68733f	0.22700213
19	0xbdd642f0	-0.10461986
20	0xbec728bb	-0.38898262
21	0x3f0aa3b2	0.5415603
22	0x3dfdead0	0.123983026
23	0x3e41b66e	0.18917248
24	0x3e94103a	0.2891863
25	0x3f2b4561	0.6690274
26	0xbded6689	-0.11591823
27	0x3ecfd750	0.40593958
28	0x3e62953e	0.22127244
29	0x3dc280a2	0.09497191
30	0x3eede7ad	0.46465817
31	0xbf0cfab6	-0.55070055
32	0x3d6fbd19	0.058529947
33	0xbda52654	-0.08063951
34	0x3df5ce29	0.120022126
35	0xbe073c56	-0.1320661
36	0x3f4db9dc	0.80361724
37	0x3f2edb92	0.6830379
38	0x3e97a29a	0.29616243
39	0x3f05c516	0.52253854
40	0xbd864d87	-0.06557756
41	0x3fa13de3	1.2597011
42	0x3f2d61fc	0.6772764
43	0x3e9cb99a	0.30610353
44	0x3f10c7f2	0.5655509
45	0x3e349f93	0.17638998
46	0x3ed84235	0.42238012
47	0xbe999c69	-0.30002144
48	0x3e5529a5	0.20816667
49	0x3ea049e6	0.3130638
50	0xbea9b1d9	-0.331435
51	0xbee01392	-0.4376493
52	0xbe8443ef	-0.2583308
53	0x3f3603b3	0.71099395
54	0xbef7bf53	-0.48388156
55	0xbea2e95c	-0.31818664
56	0xbf13912f	-0.5764341
57	0xbf6f6235	-0.9350923
58	0x3d7b2f67	0.061324503
59	0xbf332ec4	-0.69993234
60	0xbf14779c	-0.5799501
61	0xbefd3d6a	-0.49460918
62	0xbf15d1cb	-0.58523244
63	0xbe71899f	-0.23587655
64	0xbe9d5322	-0.30727488
65	0xbeb69e6a	-0.35667735
66	0xbed11644	-0.408373
67	0xbe99096a	-0.29889995
68	0xbf4a8228	-0.7910485
69	0xbe97eb7a	-0.29671842
70	0x3e4a5e6a	0.19762579
71	0xbf175a36	-0.59122026
72	0xbf006480	-0.5015335
73	0xbf7004fd	-0.9375761
74	0x3e53d91d	0.20688291
75	0xbf9852ff	-1.1900328
76	0xbf636146	-0.888203
77	0xbf1a6ee7	-0.60325474
78	0x3ddfb317	0.109228306
79	0xbdc70a46	-0.097187564
80	0xbe78061f	-0.24221085
81	0xbed3e133	-0.4138275
82	0xbee35c33	-0.4440628
83	0xbe821bc3	-0.25411806
84	0xbf09f04f	-0.53882307
85	0xbec53efc	-0.38524616
86	0xbe77b720	-0.2419095
87	0xbf1673cd	-0.5877045
88	0xbe40f446	-0.18843183
89	0xbf0428ed	-0.5162495
90	0x3e2ecd81	0.17070581
91	0x3db4c1a3	0.08825996
92	0xbf0e6d79	-0.5563579
93	0xbed329e3	-0.41242895
94	0xbe6cd8bc	-0.23129553
95	0xbe3182f1	-0.17335106
96	0xbf453535	-0.7703431
97	0xbf64e4c3	-0.8941156
98	0xbdb4363b	-0.08799406
99	0xbf021ae9	-0.5082231
100	0xbed31cfe	-0.41233057
101	0xbeb16960	-0.34650707
102	0x3f1e2f10	0.6179056
103	0xbe0d9023	-0.13824515
104	0x3e459c4a	0.19297901
105	0xbf265783	-0.6497728
106	0xbe89f0d7	-0.2694156
107	0xbe935ca7	-0.28781626
108	0xbeb14c92	-0.3462873
109	0xbea9760f	-0.33097884
110	0x3e2c8c8f	0.16850494
111	0x3e375f2b	0.17907397
112	0xbef5c5df	-0.48002526
113	0x3eabb6b7	0.33537838
114	0xbe8f03d5	-0.2793261
115	0x3d39f261	0.045397166
116	0x3e709383	0.23493771
117	0xbe48d474	-0.19612294
118	0xbdd42d06	-0.1036015
119	0x3eb541f7	0.3540189
120	0xbf361d85	-0.71138793
121	0x3e9b2c61	0.30307296
122	0x3e2c6bb6	0.16837963
123	0x3e6d81ab	0.23193996
124	0x3e6c7a44	0.23093516
125	0x3bf36053	0.007427254
126	0xbee82248	-0.45338655
127	0xbec42236	-0.3830735
128	0xbed30fe2	-0.41223055
129	0xbf170c80	-0.5900345
130	0x3d8ae3e8	0.06781751
131	0xbefbb9e5	-0.49165264
132	0x3cf3617e	0.029709574
133	0xbf09b496	-0.5379118
134	0x3ea65b00	0.32491302
135	0xbe860726	-0.2617733
136	0x3ddefdec	0.108882755
137	0x3e9e2fc3	0.30895814
138	0xbe87d73e	-0.26531404
139	0xbe1c43e3	-0.15260272
140	0xbe8775d3	-0.2645708
141	0x3ec3aefe	0.38219446
142	0xbeec9a52	-0.46211487
143	0x3eb244a0	0.34817982
144	0x3ebabde0	0.36472988
145	0x3e7d678d	0.24746533
146	0xbe9d5e53	-0.30736026
147	0x3cdd7fc0	0.027038455
148	0xbefe9a42	-0.49727064
149	0xbe0bf4f7	-0.13667665
150	0xbf368fbe	-0.71313083
151	0x3e507814	0.20358306
152	0xbf45f214	-0.77322507
153	0xbf508473	-0.814521
154	0x3e49b0eb	0.19696395
155	0xbdb40fc4	-0.087920696
156	0xbe170e77	-0.14751612
157	0xbd29e16b	-0.04147474
158	0xbf0f9458	-0.5608573
159	0xbf4fc210	-0.8115549
160	0xbe9bcd6c	-0.30430162
161	0xbf49d516	-0.7884077
162	0xbea82bf4	-0.32846034
163	0xbf076106	-0.5288242
164	0xbef3aa5d	-0.47590914
165	0xbf5809c1	-0.84389883
166	0xbdf670a2	-0.12033202
167	0x3f04f8ac	0.51941943
168	0x3da96626	0.082714364
169	0xbe2c51e5	-0.16828115
170	0xbe8b7fce	-0.27245945
171	0xbe5cb284	-0.21552473
172	0xbf3ac110	-0.7295084
173	0x3ed4d585	0.41569152
174	0xbf48832b	-0.78325146
175	0xbe83efc3	-0.2576886
176	0x3e912441	0.28347972
177	0xbe8add71	-0.2712207
178	0xbf6cd9d5	-0.92519885
179	0xbed36cdb	-0.41293988
180	0xbdc6b4a1	-0.09702421
181	0xbe306f4f	-0.17229961
182	0xbe7cc7bb	-0.24685566
183	0xbe8a76d4	-0.27043784
184	0x3ce859ef	0.028363196
185	0xbf089fa7	-0.5336861
186	0xbe3b742d	-0.18306036
187	0xbcf26001	-0.029586794
188	0xbf0c2ee6	-0.5475906
189	0x3ebbdff5	0.36694303
190	0xbf1af542	-0.60530484
191	0xbf2d2f12	-0.6764995
192	0xbe4b71a6	-0.19867572
193	0xbe3bec13	-0.18351774
194	0xbeb55268	-0.35414433
195	0xbebbc065	-0.36670223
196	0xbe9b5f43	-0.30346116
197	0xbd868574	-0.06568423
198	0xbf16fb1b	-0.58976907
199	0xbe994b73	-0.29940376

lstm.bias_hh_l0 f4 [200]
0	0x3e373e4b	0.17894857
1	0x3ea216e3	0.31658086
2	0x3f4b491a	0.7940842
3	0x3e3a1d6e	0.18175289
4	0x3d8ad3cd	0.06778679
5	0x3e9275be	0.28605455
6	0x3df8d4fc	0.121499985
7	0x3ea6b0eb	0.32556853
8	0xbe506094	-0.20349342
9	0x3eec2a31	0.4612594
10	0xbd68a92a	-0.056801952
11	0x3e6b4cff	0.2297859
12	0xbeaa4332	-0.3325439
13	0xbe520be6	-0.20512351
14	0xbda44c6c	-0.08022389
15	0x3f2e212b	0.6801936
16	0x3e060b3d	0.13090225
17	0x3e4631a4	0.19354874
18	0x3e946227	0.28981134
19	0x3d993fb6	0.07482855
20	0xbe7ed8ba	-0.24887362
21	0x3f0fa1cf	0.56106275
22	0x3d3d1b89	0.046168838
23	0x3e63beee	0.22240803
24	0x3eac4434	0.33645785
25	0x3ee5f0a3	0.44910154
26	0xbb6da1ea	-0.0036259838
27	0x3ea70f16	0.32628697
28	0x3dbe3a7c	0.09288499
29	0x3d97c08d	0.07409773
30	0x3eba34e8	0.3636849
31	0xbf1e48ae	-0.6182965
32	0x3db50a02	0.088397995
33	0xbe039aba	-0.12851992
34	0xbd0847c3	-0.033271562
35	0xbdc8e091	-0.09808458
36	0x3f66728a	0.9001852
37	0x3f684701	0.90733343
38	0x3e4c7b13	0.19968824
39	0x3ea93e07	0.33055136
40	0x3be28991	0.006913372
41	0x3f9025b5	1.1261507
42	0x3f166939	0.5875431
43	0x3e8d3fba	0.27587682
44	0x3ec67921	0.3876429
45	0x3df121e9	0.11774046
46	0x3efe8efe	0.4971847
47	0xbe5cab05	-0.21549614
48	0x3e5bd786	0.21468934
49	0x3ea8eb5c	0.32992065
50	0xbe84f79a	-0.25970155
51	0xbf1e42a1	-0.6182042
52	0xbe8d4b90	-0.27596712
53	0x3f1cbaa5	0.61222297
54	0xbec09c00	-0.3761902
55	0xbdae6a4a	-0.08516367
56	0xbf2b7a0b	-0.669831
57	0xbf7a7b98	-0.9784484
58	0xbbeace69	-0.0071657193
59	0xbf58e4dc	-0.8472421
60	0xbef6d4e8	-0.4820931
61	0xbef40c92	-0.4766584
62	0xbf41c171	-0.75685793
63	0xbe6accb1	-0.22929646
64	0xbea4afb5	-0.32165304
65	0xbec8a0ab	-0.3918508
66	0xbedbe85d	-0.42950717
67	0xbe28c4c4	-0.1648131
68	0xbf46b088	-0.77613115
69	0xbe776d8d	-0.24162884
70	0x3e753f9b	0.23950045
71	0xbf081080	-0.53150177
72	0xbe9999a9	-0.30000046
73	0xbf7f8c60	-0.9982357
74	0x3e0f0115	0.13965257
75	0xbfb89b4a	-1.442239
76	0xbf7cc066	-0.98731077
77	0xbf0516f5	-0.51988155
78	0x3d879b0a	0.06621368
79	0x3d717192	0.0589462
80	0xbe5b3b7f	-0.21409415
81	0xbec21ee8	-0.37914205
82	0xbf062559	-0.5240074
83	0xbefc5d3f	-0.4928989
84	0xbf4465f7	-0.76718086
85	0xbee068f9	-0.43830088
86	0xbe55f98e	-0.20895979
87	0xbf29d7ed	-0.663451
88	0xbe5238ef	-0.20529531
89	0xbf097ec4	-0.53709054
90	0x3dc4be1f	0.09606575
91	0x3e798263	0.24366145
92	0xbf163034	-0.586673
93	0xbeb7d5a8	-0.35905194
94	0xbca419c7	-0.020031823
95	0xbec202ea	-0.37892848
96	0xbf3d4955	-0.7394002
97	0xbf4088c6	-0.752087
98	0xbe722416	-0.23646578
99	0xbf20e8cf	-0.6285524
100	0xbec126fe	-0.3772506
101	0xbed95cd7	-0.42453644
102	0x3f28dd96	0.65963113
103	0xbe8929dd	-0.26789752
104	0x3e905b69	0.2819474
105	0xbf0ada93	-0.5423977
106	0xbed48d8f	-0.4151425
107	0xbec98ea8	-0.3936665
108	0xbe68bbd3	-0.22727899
109	0xbed57577	-0.4169118
110	0x3ebeb298	0.3724563
111	0x3d8c231f	0.06842636
112	0xbef7c723	-0.48394117
113	0x3f0e9c0a	0.55706847
114	0xbea84f30	-0.32872915
115	0xbcaaf3cd	-0.020868206
116	0x3dcf62e6	0.10126285
117	0xb9578601	-0.00020553918
118	0x3dce2024	0.10064724
119	0x3ecfb87d	0.4057044
120	0xbf1233e9	-0.5711046
121	0x3e9104a6	0.2832386
122	0x3d70d9c2	0.05880142
123	0x3e275104	0.16339499
124	0x3d7a1e8b	0.061064284
125	0x3dff3896	0.12461965
126	0xbec5ab55	-0.38607278
127	0xbeb144cd	-0.34622803
128	0xbf022997	-0.5084471
129	0xbf5e3b4e	-0.8680924
130	0xbddfdff6	-0.10931389
131	0xbeec2b46	-0.46126765
132	0xbdbf0303	-0.09326746
133	0xbefccd58	-0.49375415
134	0x3ec2b764	0.3803054
135	0xbe915f19	-0.28392866
136	0x3d34b3dd	0.044116843
137	0x3eac6f3c	0.33678615
138	0xbdd5ab1b	-0.104330264
139	0xbd9be886	-0.0761271
140	0xbe95b183	-0.29236993
141	0x3ed89f8d	0.42309228
142	0xbec86ba7	-0.39144632
143	0x3ee5004f	0.44726798
144	0x3ea73ac1	0.32662013
145	0x3e035a36	0.12827381
146	0xbea9eaf2	-0.33187062
147	0x3e617905	0.22018822
148	0xbeb9211d	-0.36158076
149	0xbe4d47d3	-0.2004693
150	0xbf3e9cdb	-0.7445809
151	0x3e946715	0.28984895
152	0xbf6a3fb3	-0.9150345
153	0xbf367056	-0.7126516
154	0x3e8c42c8	0.273947
155	0x3d255b48	0.040370256
156	0xbd19325c	-0.037401542
157	0xbb9f60d7	-0.004863839
158	0xbf0d2855	-0.55139667
159	0xbf39e7ba	-0.7261921
160	0xbe2e90a1	-0.17047359
161	0xbf7a569c	-0.97788405
162	0xbe4268d2	-0.18985298
163	0xbeca82d6	-0.39552945
164	0xbf032460	-0.5122738
165	0xbf5b48ae	-0.85657775
166	0xbe30d9f8	-0.17270648
167	0x3e99ac41	0.30014232
168	0x3d80d016	0.06289689
169	0xbe78baab	-0.24289958
170	0xbe1f1ffc	-0.15539545
171	0xbe9c638a	-0.30544692
172	0xbf465ace	-0.77482307
173	0x3edd5bac	0.43234003
174	0xbf7781e3	-0.96682566
175	0xbe9aa911	-0.30207112
176	0x3e31e0f7	0.17370974
177	0xbe9d7429	-0.30752686
178	0xbf6e0d50	-0.92989063
179	0xbec31a11	-0.38105825
180	0x3df14b9c	0.117819995
181	0xbe9c6000	-0.30541992
182	0xbe2940c2	-0.1652861
183	0xbe3d29bf	-0.18472956
184	0x3e21834b	0.1577274
185	0xbec82a26	-0.39094657
186	0xbebd92b5	-0.3702599
187	0xbde175ee	-0.110088214
188	0xbee3daef	-0.4450297
189	0x3ead5ed7	0.3386142
190	0xbf5ef980	-0.87099457
191	0xbf1b9ea2	-0.6078893
192	0xbe9773f4	-0.29580653
193	0xbe9265ff	-0.28593442
194	0xbf118f8e	-0.5685967
195	0xbe2a7987	-0.16647922
196	0xbdf4e0a0	-0.11956906
197	0xbe07b2ab	-0.1325175
198	0xbf1a0f6c	-0.6017978
199	0xbe2ffb35	-0.17185672

lstm.weight_ih_l1 f4 [200, 50]
0	0x3e31e7c9	0.17373575
1	0x3d9b8eaf	0.07595574
2	0x3dc4a2d6	0.09601371
3	0x3e95b78e	0.29241604
4	0xbf952e36	-1.1654727
5	0x3eb7a785	0.35869995
6	0xbe3a6e8c	-0.18206233
7	0x3d6b259d	0.057408918
8	0x3f337c4d	0.7011154
9	0x3d2c7f19	0.042113397
10	0x3ef15248	0.47133088
11	0x3f2c3bb4	0.672786
12	0xbf97b0e5	-1.1850859
13	0xbeb1bde6	-0.34715194
14	0xbe8b716e	-0.27234977
15	0x3e6614d5	0.22468884
16	0xbe2d494a	-0.16922489
17	0xbee796e1	-0.452323
18	0x3f97e365	1.186627
19	0x3ee539c0	0.44770622
20	0xbe5084a9	-0.20363106
21	0xbf98da9b	-1.1941713
22	0x3f620c9f	0.8830051
23	0xbf9e9642	-1.2389605
24	0xbe2fd9ea	-0.17172971
25	0xc047b139	-3.1201918
26	0x3da1e439	0.07904858
27	0xbf008ed2	-0.50217927
28	0x3fb31de2	1.3993495
29	0x3ede77bf	0.43450734
30	0xbef19def	-0.47190806
31	0x3e470fe8	0.19439662
32	0x3f117d1a	0.56831515
33	0x3db0ba34	0.086292654
34	0x400a3c70	2.1599388
35	0x3f9b8755	1.2150675
36	0x3f03671e	0.5132922
37	0xbd97d16b	-0.0741299
38	0x3f95d59e	1.1705816
39	0xbf38bbac	-0.72161365
40	0x3e28005f	0.16406392
41	0xbe6eb86e	-0.23312542
42	0x3e0e6b04	0.1390801
43	0xbeaba38a	-0.33523208
44	0x3f126b66	0.57195127
45	0xbe72394f	-0.23654674
46	0x3e8be2d2	0.27321488
47	0xbc972c1d	-0.018453652
48	0xbe761e0e	-0.24034902
49	0xbec49630	-0.38395834
50	0x3f0e250f	0.55525297
51	0xbf0f0639	-0.5586887
52	0x3eebf56a	0.46085674
53	0xbfffe5bf	-1.9991988
54	0x3e43a687	0.19106494
55	0x3e030802	0.12796023
56	0xbf875675	-1.057326
57	0x3fa8015c	1.3125415
58	0x3f063c54	0.52435803
59	0x3f619049	0.88110787
60	0x3fd83735	1.6891848
61	0xbdadef9b	-0.08492967
62	0x3fbfacb3	1.4974579
63	0x3d83f6c3	0.064435504
64	0x4038ee39	2.88954
65	0x3f1897dd	0.59606725
66	0x3f5373f0	0.8259878
67	0x3e2113dc	0.15730232
68	0x3e34e2f4	0.17664701
69	0xbedd7139	-0.43250445
70	0xbef65573	-0.48112068
71	0x3fb0b866	1.3806274
72	0xbe43b639	-0.19112481
73	0x3fed9c66	1.8563354
74	0x3ed232d1	0.41054395
75	0x3eaa6a20	0.33284092
76	0xbfc376cd	-1.527063
77	0xbf09d0a2	-0.53833973
78	0xbe1181a5	-0.14209612
79	0xbff164fe	-1.8858945
80	0xbf767021	-0.96264845
81	0xbf8b4856	-1.088145
82	0x3f04ce1e	0.5187701
83	0xc011c440	-2.2776031
84	0xbdb825be	-0.08991574
85	0xbdf0b99c	-0.11754152
86	0xbe95acdf	-0.29233453
87	0xbe74dd6a	-0.23912588
88	0x3f866033	1.0498108
89	0x3f3c006d	0.7343815
90	0x3e0247f8	0.12722766
91	0x3f8980ba	1.0742409
92	0xbe248eb9	-0.1607007
93	0x3fc47eb0	1.5351162
94	0x3f31dfe3	0.6948225
95	0x3f1d8bcf	0.61541456
96	0xbf60fa8a	-0.8788229
97	0xc01dd5c4	-2.4661722
98	0xbfb656d3	-1.4245247
99	0xbef290d8	-0.47376132
100	0x3e9c38a5	0.30511966
101	0xbe5f799e	-0.21823737
102	0x3ebd03c6	0.3691694
103	0x3cde16dc	0.02711051
104	0x3d5fec84	0.05466892
105	0xbee33adf	-0.44380853
106	0x3f383810	0.71960545
107	0x3e428eaf	0.18999742
108	0xbd01e637	-0.03171369
109	0x3e4fb662	0.20284417
110	0xbf97a1db	-1.1846269
111	0xbda1a02d	-0.07891879
112	0xbec5be87	-0.38621923
113	0xbea35649	-0.31901768
114	0x3ead36e9	0.33830956
115	0xbf15a8a5	-0.58460456
116	0x3f450764	0.769644
117	0xbf41b0ea	-0.75660574
118	0x3f462562	0.7740079
119	0x3f0a6eaa	0.5407511
120	0xbea1972a	-0.31560642
121	0x3f08d481	0.53449255
122	0x3e5fda8c	0.21860713
123	0x3f0936ea	0.5359942
124	0xbcea8c11	-0.028631242
125	0x3e9c1f6f	0.30492732
126	0xbee16acd	-0.44026795
127	0x3ed8ca21	0.42341712
128	0x3ca7c012	0.020477328
129	0xbf12e856	-0.57385767
130	0xc014cc23	-2.3249595
131	0x3eb40abe	0.35164446
132	0xbedeea08	-0.43537927
133	0x3e00f8f2	0.12594965
134	0xbc8d28ca	-0.017231364
135	0xbf68c2cc	-0.90922236
136	0xbea9efb0	-0.3319068
137	0x3e3a3b56	0.18186697
138	0xbf623fb9	-0.88378483
139	0x3e1b045e	0.15138385
140	0x3e08ed12	0.13371685
141	0x3ea06dc4	0.31333745
142	0x3beb9260	0.00718908
143	0x3f3d1751	0.73863703
144	0xbf990363	-1.1954159
145	0xbecd14fc	-0.40055072
146	0xbe8c6c13	-0.27426204
147	0x3eb33b96	0.35006398
148	0xbf865c8d	-1.0496994
149	0xbf95873f	-1.1681899
150	0xbf4a26cb	-0.78965443
151	0x3e9ced34	0.30649722
152	0x3fa37f44	1.2773213
153	0xbf4cb52f	-0.79963964
154	0xbf1f56e2	-0.6224195
155	0x3e6a83c3	0.22901826
156	0xbf47f18b	-0.7810294
157	0x3f8e9e2c	1.114202
158	0x3f30b89f	0.6903171
159	0x3d682338	0.056674212
160	0x3f88352d	1.0641228
161	0x3ee30279	0.44337824
162	0x3d9b70ba	0.0758986
163	0xbd90a998	-0.070635974
164	0xbe493720	-0.19649935
165	0x3f93f6a9	1.155965
166	0x3f6ddabb	0.9291188
167	0xbf2cce7e	-0.6750258
168	0x3dee29d1	0.116290696
169	0x3f2a96e2	0.6663648
170	0xbe7160b8	-0.23572052
171	0x3f1f222a	0.62161505
172	0x3fa83ca9	1.3143512
173	0xc007b5bd	-2.1204674
174	0xbf57d0da	-0.8430306
175	0xbf1defcb	-0.6169402
176	0xbfacb63d	-1.3493115
177	0x3f94c8ec	1.1623816
178	0x3e0b823c	0.13623899
179	0xbf93ede0	-1.1556969
180	0x3e6ba38f	0.23011611
181	0xbedc7112	-0.43055016
182	0xbec7ffd8	-0.3906238
183	0xbfac7a7d	-1.347488
184	0xbee0aa36	-0.4387986
185	0x3fd026bd	1.6261822
186	0x3e0f05bb	0.1396703
187	0x3de116e2	0.10990693
188	0xbd67082c	-0.056404278
189	0x3f5384c1	0.8262444
190	0x3fabf137	1.3432988
191	0xbef99df0	-0.4875331
192	0x3f1cf13b	0.6130559
193	0x3e5f5404	0.21809393
194	0x3e692df1	0.22771432
195	0xbeabca6e	-0.3355288
196	0xbe943b84	-0.28951657
197	0x3daecd1a	0.08535214
198	0xbf975165	-1.1821715
199	0xbe9b04ad	-0.30277005
200	0x3f378487	0.71686596
201	0x3e796be3	0.24357562
202	0x3e5fb6f1	0.2184713
203	0xbf1135b5	-0.56722575
204	0xbf0e46de	-0.55576885
205	0xbd785144	-0.060624376
206	0xbf16be9c	-0.58884597
207	0x3f246887	0.64221996
208	0x3ded6afe	0.11592673
209	0x3f607f5d	0.8769434
210	0x3e752f20	0.23943758
211	0x3e2efdb0	0.17088962
212	0xbebd87b1	-0.37017587
213	0xbe95d5e7	-0.29264757
214	0x3fa98c7f	1.3246001
215	0x3ee84cde	0.45371145
216	0x3da0d4e8	0.07853109
217	0xbd09c0b8	-0.033631057
218	0xbf8b0803	-1.086182
219	0x3e98ee28	0.298692
220	0x3de73977	0.112902574
221	0xbed529d8	-0.41633487
222	0xbd8a2ff0	-0.067474246
223	0xbf834f49	-1.0258571
224	0x3f9e3655	1.2360331
225	0xbf945245	-1.1587607
226	0x3fc3665f	1.5265616
227	0xbf8bd411	-1.0924093
228	0xbd6f7928	-0.058465153
229	0xbe8db406	-0.2767641
230	0x3e0e7675	0.13912375
231	0xbeb81a46	-0.35957545
232	0x3f3bc538	0.73347807
233	0xbe099c3f	-0.1343851
234	0xbf11a3c7	-0.5689053
235	0xbf26fd15	-0.6522992
236	0xbe76c4d0	-0.24098516
237	0xbf32e041	-0.69873434
238	0xbf23b89d	-0.6395357
239	0x3e5d0f39	0.21587838
240	0x3eebc020	0.46045017
241	0xbf83900d	-1.0278336
242	0xbeb5c01b	-0.35498127
243	0x3e3941b0	0.18091464
244	0x3dd2c659	0.10291738
245	0x3ea9a8d1	0.3313661
246	0xbf1a90bf	-0.60377115
247	0xbf829251	-1.0200902
248	0xbc8be3f4	-0.01707647
249	0xbcfee3f4	-0.031114556
250	0x3f8eea7d	1.116531
251	0x3ee5b54d	0.44864884
252	0xbef12853	-0.47101077
253	0x3dc24bea	0.09487136
254	0xbe702bb9	-0.23454179
255	0x3f0b0a48	0.5431256

lstm.weight_hh_l1 f4 [200, 50]
0	0x3e611fad	0.2198474
1	0xbf5ebc48	-0.87006044
2	0xbe8c0235	-0.27345434
3	0xc01df5cd	-2.4681275
4	0x3e9097d8	0.28240848
5	0xbdc0f508	-0.09421736
6	0x3fc9650f	1.5733966
7	0x3f930f2c	1.1489005
8	0xbf5f7af4	-0.87296987
9	0x3c95d01a	0.018287707
10	0x3cc52a7f	0.024068115
11	0xbeab920b	-0.3350986
12	0x4009162c	2.1419783
13	0xbd876949	-0.066118784
14	0x3cab45d9	0.02090733
15	0x3e13c263	0.14429621
16	0x3e98f913	0.2987753
17	0x3f4c57ee	0.7982167
18	0x3f87a67e	1.0597684
19	0xbff1d320	-1.8892555
20	0x3f801f23	1.0009502
21	0x3eabae86	0.33531588
22	0x3f5ea573	0.86971205
23	0x3fb7c1f0	1.435606
24	0x3f553259	0.8327995
25	0x3fcc1bc4	1.5945973
26	0xbec41614	-0.38298094
27	0xbf4559b2	-0.7708999
28	0xbf69ed99	-0.9137817
29	0xbeb0cadf	-0.34529778
30	0xbd02f366	-0.031970404
31	0x3f433ac8	0.7626157
32	0x3f92ede5	1.147885
33	0xbb405706	-0.0029348745
34	0xbd7d889e	-0.061897866
35	0xbf49b8ea	-0.7879778
36	0xbea7a06b	-0.32739577
37	0x3ee77b9a	0.45211488
38	0x3fa52a6d	1.2903572
39	0x3da9a03f	0.08282518
40	0xbf25f667	-0.64829105
41	0x3ee662a8	0.44997144
42	0xbfb7e4e0	-1.4366722
43	0x3ec21ebc	0.37914073
44	0xbf1d9100	-0.6154938
45	0xbf5c63a9	-0.8608957
46	0xbeafd0af	-0.343389
47	0x3fc7b271	1.5601331
48	0x3f14e55b	0.5816247
49	0x3ebe4e1e	0.37168974
50	0xbf344367	-0.7041535
51	0x3e0b6c1f	0.13615464
52	0xc006dffa	-2.1074204
53	0xbf626a02	-0.88443005
54	0xbe5f5a31	-0.21811749
55	0xbf3daae0	-0.7408886
56	0x3ecb1698	0.39665675
57	0xbee967aa	-0.45586902
58	0xbe81cae3	-0.25350103
59	0xbe40216e	-0.18762752
60	0x3f0c6733	0.5484497
61	0xbe4e4323	-0.20142798
62	0x3fb6fefb	1.4296564
63	0x3f5835c0	0.84457016
64	0xbfa0c6cb	-1.2560667
65	0xbfc1855f	-1.5118827
66	0x3ee48c3a	0.44638234
67	0xbf9611c6	-1.1724174
68	0x3fa1594f	1.260538
69	0xbee10a71	-0.4395328
70	0x3f997606	1.1989143
71	0x3e9616ed	0.29314366
72	0x3efcb71d	0.49358454
73	0xbee7b305	-0.4525377
74	0x3fbeddb1	1.4911405
75	0x3fcedc7c	1.6161036
76	0xbee5410e	-0.44776195
77	0xbecdea74	-0.40217936
78	0xbdbd2c42	-0.09236957
79	0xbf21421a	-0.6299149
80	0x3f3b55c4	0.7317774
81	0xbedc8713	-0.43071803
82	0x3f86050a	1.0470288
83	0xbf5fab05	-0.8737033
84	0x3fd59569	1.6686221
85	0x3f34c03e	0.7060584
86	0x3f3bc66c	0.7334964
87	0x3eb6d4bc	0.35709178
88	0xbe7d0ac8	-0.24711144
89	0xbee4647f	-0.44607922
90	0xc0140e19	-2.3133605
91	0x3f91297b	1.1340784
92	0xbd798508	-0.060917884
93	0xbf88e4bd	-1.0694805
94	0xbfc15aee	-1.5105875
95	0x3d85c0b1	0.065308936
96	0x3cb35edd	0.02189582
97	0xbf68ca7d	-0.9093397
98	0xbee5fbdd	-0.4491872
99	0x3dd39b20	0.10332322
100	0xbeacfe97	-0.33787987
101	0x3de3252e	0.11091076
102	0x3f4aff42	0.7929574
103	0x3f16d4dd	0.58918554
104	0xbebefa66	-0.37300414
105	0xbf21a1d0	-0.6313753
106	0x3d816e1d	0.063198306
107	0x3f3dfa53	0.7421009
108	0x406f8700	3.7426147
109	0x3f278a3a	0.6544529
110	0x3fe22dac	1.7670188
111	0x3f48fa4f	0.7850694
112	0x3e617cb8	0.22020233
113	0x3e4b7a66	0.1987091
114	0x405d051a	3.4534364
115	0x3f042268	0.51615
116	0x3f840198	1.0312986
117	0x3ef7147f	0.48257825
118	0x3fa6078a	1.2971051
119	0xbfb646e7	-1.4240388
120	0x3fc95b11	1.5730916
121	0xc01b3668	-2.4251957
122	0x3f14a126	0.58058393
123	0x3d85f749	0.065413065
124	0xbf02b02a	-0.51050055
125	0xbfaa26d8	-1.3293104
126	0xbf2c0341	-0.67192465
127	0x3f569d0b	0.8383338
128	0x3e8efecb	0.27928767
129	0x3de22152	0.110415116
130	0xbff768eb	-1.9328893
131	0xbe19b5b5	-0.15010722
132	0x3f78a015	0.97119266
133	0x3f8b4258	1.0879622
134	0x3ed0d8c5	0.40790382
135	0xbefc14f6	-0.49234742
136	0x3e1f70bf	0.15570353
137	0x3e529fda	0.20568791
138	0x3ecc9856	0.39959973
139	0x3e30b8ea	0.17258039
140	0xbec2acc7	-0.38022444
141	0x3f3b3698	0.7313018
142	0xbf481fc4	-0.7817347
143	0xbf442519	-0.76619107
144	0xbec60abd	-0.38680068
145	0xbeb0539c	-0.3443879
146	0x3ebb8890	0.36627626
147	0xbd41dbc7	-0.047328737
148	0x3faca30c	1.3487258
149	0xbf1b47ed	-0.60656625
150	0x3e994683	0.2993661
151	0xbec4b6fc	-0.38420856
152	0x400581c9	2.0860465
153	0x3f16edfa	0.58956873
154	0x3f4a1c4d	0.78949434
155	0x3dc1e4eb	0.09467491
156	0xbfcccd0c	-1.6000075
157	0xbfca5227	-1.5806321
158	0x3ebd3ac3	0.36958894
159	0xbe4e778d	-0.20162793
160	0x3f4f8ccd	0.8107422
161	0xbf1fc3bf	-0.6240806
162	0xc048d756	-3.138143
163	0x3f1d6bbd	0.6149252
164	0x3efedcc5	0.4977781
165	0x3f55a534	0.83455205
166	0xbf15428b	-0.5830466
167	0x3df887cd	0.12135277
168	0x3fb4f70b	1.4137892
169	0xbee0ef56	-0.439326
170	0xc033a918	-2.8071957
171	0x3ecf00ca	0.4043029
172	0xc00f9639	-2.2435439
173	0x3f630764	0.8868315
174	0xbf89af27	-1.0756577
175	0x3f905539	1.1276008
176	0x3f5f069f	0.8711948
177	0x3efbc072	0.49170262
178	0xbf91d399	-1.13927
179	0x403501ec	2.8282423
180	0xbf1d48c0	-0.6143913
181	0xc023d63e	-2.5599513
182	0x406b944f	3.680927
183	0xbeaf6b56	-0.34261578
184	0xbea38090	-0.31934023
185	0xbe9de3a0	-0.30837727
186	0x3e70d105	0.23517235
187	0xbe4f67c3	-0.20254426
188	0xbe3b756b	-0.1830651
189	0xbe337159	-0.17523707
190	0xbe54a0c3	-0.2076445
191	0x3d3fe626	0.046850346
192	0xbeb47615	-0.3524634
193	0x3f0410c4	0.5158808
194	0xbcc97edf	-0.02459663
195	0xbe9282ca	-0.2861541
196	0xbec03260	-0.37538433
197	0x3ed22ab5	0.41048208
198	0x3dd7b274	0.10532084
199	0xbf32fe44	-0.6991923
200	0x3ef6fefe	0.4824142
201	0xbf2dcfcf	-0.67895216
202	0x3e92c245	0.2866384
203	0xbf0cdb5d	-0.5502222
204	0x3ea100b8	0.3144586
205	0xbd8b2b49	-0.06795365
206	0x3e1cc760	0.1531043
207	0xbd4fb00a	-0.050704993
208	0x3ef4a18b	0.47779498
209	0xbeb04be6	-0.34432906
210	0xbe3dbaee	-0.1852834
211	0x3e0070e3	0.12543063
212	0x3f954491	1.166155
213	0x3f31ecdb	0.6950204
214	0x3f615462	0.8801938
215	0x3ed125ae	0.4084906
216	0xbe1bb9df	-0.15207623
217	0xbe859559	-0.26090506
218	0xbf518362	-0.818411
219	0x3eba3048	0.3636496
220	0xbf6abdaa	-0.91695654
221	0x402eb3ad	2.7297165
222	0xbff4eee9	-1.913541
223	0x3f291647	0.6604962
224	0xbec0b731	-0.37639764
225	0xbee38c0b	-0.44442782
226	0xbeeb8406	-0.45999163
227	0x3fac65e6	1.3468597
228	0xbe9efdfc	-0.3105315
229	0xbed3a0f5	-0.41333738
230	0xbff9a4a7	-1.9503373
231	0xbf10d82d	-0.5657986
232	0xbf169dd2	-0.58834565
233	0xbeaa0ce4	-0.3321296
234	0xbf224749	-0.6339002
235	0xbf9947a2	-1.1974986
236	0xbec78058	-0.38965106
237	0xbe7be300	-0.24598312
238	0xbf51289e	-0.817026
239	0xbe8339b6	-0.25629967
240	0x3e8fbd99	0.2807434
241	0x3ebc1877	0.36737415
242	0x3e809ac6	0.25118083
243	0xbfe22133	-1.7666382
244	0xbe62a4e4	-0.22133213
245	0xbea2777d	-0.31731787
246	0x3f92357c	1.1422572
247	0xbecf763f	-0.40519902
248	0xc0324a98	-2.7858028
249	0x3ee51474	0.44742167
250	0x3f6dfbab	0.9296214
251	0xbeb93913	-0.36176357
252	0x3f013fa7	0.5048775
253	0xbf27fa4b	-0.6561629
254	0xbdb60424	-0.088875085
255	0x3e5b67c8	0.21426308

lstm.bias_ih_l1 f4 [200]
0	0xbe575068	-0.21026766
1	0x3d59d639	0.053182814
2	0xbf139eab	-0.57663983
3	0xbf0f343e	-0.5593909
4	0xbea5c1c4	-0.32374394
5	0x3e210595	0.15724786
6	0xbf35075b	-0.7071435
7	0xbf21aefe	-0.6315764
8	0x3ef97f42	0.48729903
9	0x3e634e01	0.22197725
10	0xbf11722d	-0.56814843
11	0x3c3638ab	0.011121909
12	0xbf832492	-1.0245535
13	0xbe83964c	-0.25700605
14	0xbe8296f5	-0.25505796
15	0xbefad617	-0.48991463
16	0x3d63e168	0.055634886
17	0xbecaf092	-0.39636666
18	0xbf132609	-0.5747991
19	0xbf28d63c	-0.65951896
20	0x3ded0838	0.11573833
21	0x3e2b141d	0.16706891
22	0xbf60ee66	-0.8786377
23	0xbf3a9f9b	-0.7289979
24	0x3d022594	0.03177412
25	0xbe33729f	-0.17524193
26	0x3e850507	0.25980398
27	0x3e3e9250	0.18610501
28	0xbe1fbfdb	-0.15600531
29	0xbee5ed0b	-0.44907412
30	0xbec34e4b	-0.3814567
31	0xbf99a47f	-1.2003325
32	0xbeb39b8c	-0.3507961
33	0x3ec9c80a	0.3941043
34	0xbee80623	-0.45317182
35	0xbefaa67e	-0.48955148
36	0x3cc2199d	0.023693854
37	0xbf4f8766	-0.81065977
38	0xbe71935e	-0.23591372
39	0xbed66394	-0.41872847
40	0xbdeacfcf	-0.114654176
41	0xbe05d0bc	-0.13067907
42	0xbf2afa4a	-0.6678816
43	0x3f846dc3	1.0345997
44	0xbf114029	-0.56738526
45	0xbeb5376d	-0.3539385
46	0xbeb22a06	-0.34797686
47	0xbe89434d	-0.2680916
48	0xbe047f2f	-0.12939142
49	0x3ebcea8c	0.36897695
50	0xbe393554	-0.1808675
51	0x3e575431	0.2102821
52	0xbf18c1a3	-0.59670466
53	0x3f126da3	0.5719854
54	0xbf8b623b	-1.0889353
55	0xbf84c40e	-1.0372331
56	0xbf481070	-0.7815008
57	0xbf30b2c1	-0.69022757
58	0x3f1a10bf	0.601818
59	0x3ec8f302	0.392479
60	0xc01ac8f1	-2.4185145
61	0xbfa5c9dd	-1.2952229
62	0xbfd13dfb	-1.634704
63	0xbf624552	-0.88387024
64	0xbf7489a0	-0.955225
65	0x3e1c725c	0.15278
66	0xbf901b14	-1.1258264
67	0xbf89e7af	-1.0773829
68	0xbf1cda9b	-0.61271065
69	0xc01b56ac	-2.427165
70	0xbf67d669	-0.9056154
71	0xbf4e9039	-0.80688816
72	0xbf8ead91	-1.1146718
73	0xc00b2148	-2.1739063
74	0xbf78b436	-0.9714998
75	0xbf9a989d	-1.2077824
76	0xbf30813c	-0.68947196
77	0xbef2faee	-0.4745707
78	0x3d59e7a5	0.05319943
79	0xbf900c02	-1.1253664
80	0xbeef2372	-0.4670673
81	0xbf8e4f7e	-1.1118009
82	0xbfa673e7	-1.300412
83	0xbece73ba	-0.40322667
84	0xbf5a72cb	-0.8533141
85	0xbf2f6881	-0.68518835
86	0xbe4009a5	-0.18753679
87	0xbed9a750	-0.42510462
88	0xbec45578	-0.38346457
89	0xbfa2284b	-1.2668546
90	0x3e316c9c	0.17326587
91	0xbf3b9882	-0.73279583
92	0xbf5b3704	-0.8563082
93	0xbf10a66e	-0.5650395
94	0xbf03537f	-0.5129928
95	0xbf3a0164	-0.7265837
96	0xbf7fbf3f	-0.99901193
97	0xbf83a391	-1.0284292
98	0xbfbc13c1	-1.4693528
99	0xbf8f3dac	-1.1190696
100	0x3f18127c	0.59403205
101	0xbf3972e1	-0.72440916
102	0x3e7f5ae8	0.24937022
103	0xbf3943c2	-0.72369015
104	0x3d7f2909	0.062294994
105	0xbe64509a	-0.22296372
106	0xbf01613f	-0.5053901
107	0x3f12ded3	0.5737125
108	0x3f640d87	0.8908314
109	0x3ebed3c0	0.37270927
110	0x3ec4ce13	0.38438472
111	0xbd2d7f2f	-0.04235762
112	0xbba832a8	-0.005132992
113	0xbe773eef	-0.24145101
114	0xbe81c9d6	-0.253493
115	0x3ddc2b18	0.10750407
116	0xbccaf070	-0.024772853
117	0xbda41a45	-0.08012823
118	0xbe63a869	-0.22232212
119	0x3d9e0a7f	0.07716846
120	0xbdc0d4c7	-0.09415584
121	0x3dcfa4a3	0.10138824
122	0xbd90045a	-0.0703208
123	0xbd33c78c	-0.043891475
124	0xbdcf09b3	-0.10109272
125	0x3e3536c8	0.17696679
126	0xbe9d4e89	-0.3072398
127	0x3e0753f3	0.13215618
128	0xbf41a00d	-0.75634843
129	0x3e16b38b	0.14716928
130	0x3f35f386	0.7107471
131	0xbdf386c9	-0.118909426
132	0x3e4e19c6	0.2012702
133	0x3ecc5b73	0.3991352
134	0x3e064dfe	0.13115689
135	0x3de9d77c	0.114180535
136	0xbf0ca76e	-0.5494298
137	0xbe95b47c	-0.2923926
138	0x3ed5cfec	0.41760194
139	0x3f06753f	0.52522653
140	0xbe1653f5	-0.14680465
141	0x3bc3952e	0.0059687113
142	0xbe830f2f	-0.25597522
143	0x3ebbeedb	0.3670567
144	0xbf523ee5	-0.8212722
145	0xbeeb7752	-0.45989472
146	0xbdd58c10	-0.104271054
147	0xbd0ece70	-0.034864843
148	0x3eaa0ff3	0.33215293
149	0xbd679f7c	-0.05654858
150	0xbfc5149b	-1.5396913
151	0xbfb549f0	-1.4163189
152	0xbf8ea29a	-1.1143372
153	0xbf83821b	-1.027408
154	0x3ee3487c	0.4439124
155	0xbf1a7ce1	-0.603468
156	0xbf338b2d	-0.7013424
157	0xbe11408b	-0.14184777
158	0xbf986b23	-1.1907696
159	0xbfdac72b	-1.7092031
160	0xbf376489	-0.7163778
161	0xbfcaecbf	-1.5853499
162	0xbf2f641d	-0.68512136
163	0xbefe2828	-0.49640012
164	0xbe711130	-0.23541713
165	0xbf91b8ee	-1.1384561
166	0xbf28c9fa	-0.6593319
167	0xbf316bbd	-0.6930502
168	0x3f7adb16	0.9799055
169	0xbe22bbc1	-0.15891935
170	0xbfc61808	-1.5476084
171	0xbf9de94a	-1.2336819
172	0xbfaa9e8b	-1.3329633
173	0x3eabea6a	0.3357728
174	0xbfefb76d	-1.8727852
175	0xbedf0756	-0.43560284
176	0xbf470505	-0.77742034
177	0xbfaf9319	-1.3716766
178	0xbf9f598e	-1.2449205
179	0xbfff9eab	-1.9970297
180	0xbf87ad11	-1.0599691
181	0xbf3ed002	-0.74536145
182	0xbfcff1ca	-1.6245663
183	0xbf878dbb	-1.0590128
184	0xbf30f374	-0.6912148
185	0xbfa9faf8	-1.3279715
186	0xbfd37c72	-1.6522353
187	0xbf518e08	-0.8185735
188	0xbfa965e6	-1.3234222
189	0xbf4456e0	-0.7669506
190	0xbf9b480e	-1.2131364
191	0xbf0d5340	-0.55205154
192	0x3e2688eb	0.16263168
193	0xbff53c90	-1.9159107
194	0xbf12d481	-0.57355505
195	0xbf7042b3	-0.93851775
196	0xbdb0aaf8	-0.0862636
197	0xbf0456c4	-0.51694894
198	0xbf8c84ca	-1.0978024
199	0xbfe6d514	-1.8033776

lstm.bias_hh_l1 f4 [200]
0	0xbe3ae617	-0.18251835
1	0xbbe30369	-0.0069278968
2	0xbeded893	-0.43524608
3	0xbef87cb4	-0.4853264
4	0xbea1111b	-0.31458363
5	0x3d87f1a0	0.06637883
6	0xbf00f5c2	-0.50374997
7	0xbf1ff7f3	-0.62487715
8	0x3eb0b4d6	0.34512967
9	0x3d1d2635	0.038366515
10	0xbece9897	-0.40350792
11	0x3e5f32ec	0.21796769
12	0xbf6b2851	-0.9185839
13	0xbed6d421	-0.41958717
14	0xbddfd90a	-0.10930069
15	0xbec2161f	-0.37907502
16	0xbe037d33	-0.12840728
17	0xbec622fa	-0.3869856
18	0xbf0b1aac	-0.54337573
19	0xbf0f309c	-0.5593355
20	0x3c3094a0	0.010777622
21	0x3d8805ee	0.06641756
22	0xbf75da78	-0.9603648
23	0xbf21b17c	-0.63161445
24	0xbe2bd964	-0.16782147
25	0xbe0fd249	-0.14045061
26	0x3ea2aa01	0.31770328
27	0x3cfbd5ee	0.030741658
28	0xbd86f43d	-0.065895535
29	0xbf1478cd	-0.5799683
30	0xbf0ac1d9	-0.5420204
31	0xbf890bca	-1.0706723
32	0xbea40a3c	-0.32039058
33	0x3f076395	0.52886325
34	0xbeeca3f0	-0.46218824
35	0xbf0d40c8	-0.55176973
36	0xbdf9b7b4	-0.12193242
37	0xbf328936	-0.6974062
38	0xbe53d66a	-0.20687261
39	0xbef3e955	-0.47638956
40	0xbe91432b	-0.28371558
41	0xbe4fe168	-0.2030083
42	0xbf2071c2	-0.6267358
43	0x3f7cc014	0.9873059
44	0xbf06f8f1	-0.52723604
45	0xbec90fc3	-0.39269838
46	0xbedd8d44	-0.4327184
47	0xbeefdebe	-0.46849626
48	0xbe582f82	-0.21111873
49	0x3dc53eae	0.09631096
50	0xbd5c0c7c	-0.053722844
51	0x3e99c047	0.30029508
52	0xbf34aa6c	-0.70572543
53	0x3eea8e0f	0.45811507
54	0xbf7c7dcc	-0.9862945
55	0xbf9ae327	-1.2100571
56	0xbf5b1cfc	-0.855911
57	0xbf3a9e56	-0.7289785
58	0x3f4a3d35	0.78999645
59	0x3e2c608a	0.16833702
60	0xc0189ebf	-2.384689
61	0xbfb891d1	-1.44195
62	0xbfdbef3f	-1.7182387
63	0xbf79cec9	-0.97581154
64	0xbf808c73	-1.0042862
65	0x3c86844d	0.016420508
66	0xbf837767	-1.0270814
67	0xbf5e9e45	-0.8696025
68	0xbf02a82d	-0.51037866
69	0xc01522f8	-2.3302593
70	0xbf4c495c	-0.7979944
71	0xbf39d8d8	-0.725965
72	0xbf5ec217	-0.8701491
73	0xc0044f12	-2.067326
74	0xbf71c07c	-0.9443433
75	0xbf99cc55	-1.2015482
76	0xbf4e8f76	-0.80687654
77	0xbf324354	-0.69633985
78	0xbde424f4	-0.11139861
79	0xbf9d99f0	-1.2312603
80	0xbf06da93	-0.5267727
81	0xbf7ebce7	-0.9950699
82	0xbfab2a13	-1.3372215
83	0xbed31369	-0.41225746
84	0xbf84ea53	-1.038401
85	0xbf58a39a	-0.84624636
86	0xbe5ae56a	-0.21376577
87	0xbec5091d	-0.38483515
88	0xbed63096	-0.41833943
89	0xbfad488f	-1.3537768
90	0x3e8bc3a7	0.27297708
91	0xbf0aff97	-0.5429625
92	0xbf6011d7	-0.8752722
93	0xbf1354aa	-0.5755106
94	0xbee94b82	-0.4556542
95	0xbf768fb1	-0.96313006
96	0xbf84fb0e	-1.0389116
97	0xbf6013d7	-0.87530273
98	0xbfbe4860	-1.4865837
99	0xbf799bf8	-0.97503614
100	0x3f319661	0.69370085
101	0xbf5750ce	-0.84107673
102	0x3e318f95	0.17339928
103	0xbf51e4c3	-0.8198969
104	0x3e52739b	0.20551912
105	0xbe949d51	-0.29026273
106	0xbf019042	-0.50610745
107	0x3f296f7f	0.66185755
108	0x3f4be54d	0.7964676
109	0x3e9bd01f	0.3043222
110	0x3e2c266d	0.16811533
111	0xbd2127e8	-0.0393447
112	0x3e258f19	0.16167869
113	0xbe4e1b55	-0.20127614
114	0xbe24f7b3	-0.16110115
115	0x3e456f96	0.19280848
116	0xbce63049	-0.028099196
117	0xbe383d94	-0.1799224
118	0xbd0c0a0d	-0.034189273
119	0xbdc9df36	-0.09857027
120	0xbbe5849e	-0.0070043346
121	0x3ccc3add	0.024930412
122	0xbe350247	-0.1767665
123	0x3e46545b	0.19368117
124	0xbd4908e2	-0.049080737
125	0x3e97a736	0.2961976
126	0xbeaaa46f	-0.33328578
127	0x3d0ab627	0.03386512
128	0xbf48aae6	-0.7838577
129	0xbdc56b8b	-0.09639653
130	0x3f0bd532	0.54622185
131	0xbe0a2258	-0.13489664
132	0x3db9b3fa	0.09067531
133	0x3f03114d	0.51198274
134	0x3df739a8	0.12071544
135	0x3e6d82c2	0.23194411
136	0xbee3b43a	-0.4447344
137	0xbe38b801	-0.18038942
138	0x3eb2f125	0.34949604
139	0x3f0685d5	0.5254796
140	0xbe6cff63	-0.23144297
141	0xbc7c1b78	-0.015387408
142	0xbeb0e699	-0.34550932
143	0x3ea0e5ee	0.31425422
144	0xbf85d123	-1.0454448
145	0xbf0f8fea	-0.5607897
146	0xbe02cf8e	-0.12774488
147	0xbd9df079	-0.07711882
148	0x3e763a3d	0.24045654
149	0xbe93c765	-0.28863063
150	0xbfc588af	-1.5432338
151	0xbfb9b38b	-1.4507917
152	0xbf9ce3cb	-1.2257017
153	0xbfa3e76e	-1.2805002
154	0x3ed9d3be	0.4254436
155	0xbf0eab19	-0.55729824
156	0xbf44ce27	-0.76877064
157	0xbe8e00e2	-0.2773505
158	0xbf8b5bd0	-1.0887394
159	0xbfd4ff31	-1.6640378
160	0xbf1e6a25	-0.61880714
161	0xbfbce698	-1.4757872
162	0xbf32c0d4	-0.6982548
163	0xbf029ac7	-0.5101742
164	0xbe94e150	-0.2907815
165	0xbf8c34b7	-1.0953587
166	0xbef70509	-0.4824603
167	0xbf34c50f	-0.7061319
168	0x3f84148b	1.0318769
169	0xbe59ebba	-0.21281329
170	0xbfc53ade	-1.540859
171	0xbfa48a5a	-1.2854722
172	0xbfa45ade	-1.284023
173	0x3eac444e	0.33645862
174	0xbfddfcdc	-1.7342792
175	0xbee8593b	-0.45380577
176	0xbf666527	-0.89998096
177	0xbfbbbdca	-1.4667294
178	0xbf8d6afb	-1.1048273
179	0xbfdfe201	-1.7490846
180	0xbf9e8a7e	-1.2386014
181	0xbf3eddc7	-0.74557155
182	0xbfc89b6d	-1.5672432
183	0xbf993837	-1.197028
184	0xbf0f75b6	-0.5603899
185	0xbfaac603	-1.3341678
186	0xbfc56495	-1.542132
187	0xbf2bb515	-0.67073184
188	0xbf8df22c	-1.108953
189	0xbf4b26cc	-0.79356074
190	0xbf96c35e	-1.1778371
191	0xbf401646	-0.75033987
192	0x3e360260	0.17774343
193	0xc0045df6	-2.068235
194	0xbed27a4f	-0.4110894
195	0xbf4cee82	-0.80051434
196	0xbd458fdd	-0.0482329
197	0xbe9596c0	-0.29216576
198	0xbf899c5f	-1.0750846
199	0xbfd97e5f	-1.699169
