NEURAL_MODELS/LSTM/leafy-music-35.pth (torch, 304007 bytes, 14 tensors)

weight_ih_l0 f4 [200, 92]
0	0xbff11cbb	-1.8836893
1	0x40753841	3.8315585
2	0x3fcfd5ec	1.6237159
3	0x3e378ff0	0.17926002
4	0x3f900ecb	1.1254514
5	0x407a515b	3.9112155
6	0x40505d48	3.2556934
7	0x3fd23778	1.6423178
8	0x3ee68108	0.45020318
9	0x3fe178f7	1.761504
10	0xc0309d63	-2.7596061
11	0xbe5ea44f	-0.21742366
12	0x418b958e	17.448025
13	0xbf21106b	-0.62915677
14	0xbfb16692	-1.3859427
15	0x3faee05a	1.3662217
16	0x3f64ab70	0.8932409
17	0x3fb694fd	1.4264218
18	0xbf562784	-0.83654046
19	0xbf1bbc64	-0.60834336
20	0x3c974a69	0.018468099
21	0xbe744f68	-0.23858416
22	0x40e6efea	7.2167864
23	0xc0530cba	-3.2976518
24	0xbeacf468	-0.33780217
25	0x3c8bd4e5	0.01706929
26	0xc08e9d0b	-4.4566703
27	0x4024e780	2.5766296
28	0x407355c7	3.8021104
29	0x3f8c573c	1.0964122
30	0xc01627e3	-2.3461845
31	0x3fb07f7e	1.3788908
32	0xbf248755	-0.64269
33	0x40316ca7	2.7722566
34	0x409154fb	4.5416236
35	0xbfa03b0d	-1.2518021
36	0x3fb7ac68	1.4349489
37	0x40b53290	5.662422
38	0x3ed401e3	0.4140769
39	0xc0031ab6	-2.0485053
40	0x3f60cafc	0.8780973
41	0x3f30c963	0.6905729
42	0xc0f3c1ac	-7.6173916
43	0x3efe37a2	0.4965182
44	0xbfe3e0e4	-1.7803006
45	0x40a48b3f	5.141998
46	0x400708a1	2.1099017
47	0xc026dc73	-2.6072052
48	0x40afb1a0	5.4904327
49	0xbfc77f56	-1.5585735
50	0x3fa59b8e	1.2938097
51	0xc04e28a6	-3.221231
52	0xbe276ff3	-0.16351299
53	0xc06feb9e	-3.748756
54	0x3fe39300	1.7779236
55	0x3fb4dee4	1.4130521
56	0xc02d8a27	-2.7115571
57	0x3f4128b8	0.75452757
58	0x3ffee522	1.9913676
59	0xbf1069a6	-0.56411207
60	0xbf81c3f2	-1.0137923
61	0x4132de6a	11.1793
62	0x40743e64	3.816308
63	0xbf8b81f9	-1.089904
64	0xbfef6964	-1.8704038
65	0xbf887ccd	-1.0663086
66	0x408d73f0	4.4204025
67	0x415a5dc2	13.64789
68	0x4099afb1	4.8026967
69	0xbfac9f54	-1.3486123
70	0x401d7e0e	2.4608188
71	0xbf717e18	-0.9433303
72	0x40b9bf02	5.8045664
73	0x4098a120	4.7696686
74	0xc096fc20	-4.718277
75	0x3e03fcc3	0.1288939
76	0x40917df3	4.5466247
77	0x40577981	3.366791
78	0xbf107d02	-0.56440747
79	0x3e8e0c0e	0.27743572
80	0x4122e7e3	10.181613
81	0x40480a2e	3.1256213
82	0x40767f21	3.8515093
83	0xbd857581	-0.06516553
84	0xbcc2fe2c	-0.02380284
85	0xbe8f69e1	-0.28010467
86	0x3f8803c2	1.0626147
87	0x3f8572f6	1.0425708
88	0xc030bde5	-2.7615902
89	0x40426f3c	3.0380392
90	0x3eb4eddc	0.35337722
91	0xc00595cf	-2.0872686
92	0x40260718	2.594183
93	0xc01a18ea	-2.4077706
94	0xc07a0390	-3.9064674
95	0xc06bc359	-3.683798
96	0x3e4066ca	0.18789211
97	0x4094a2b7	4.6448627
98	0xbe9b824d	-0.3037285
99	0xbfbceffb	-1.4760736
100	0xbffe00cf	-1.9843997
101	0x405113b3	3.2668273
102	0xc123454b	-10.204417
103	0xbf393e55	-0.72360736
104	0x4143268a	12.196909
105	0x3fb0000f	1.3750018
106	0x415dfb16	13.8738
107	0xbf9c795c	-1.2224536
108	0x4105ca2a	8.361856
109	0xbfd60c84	-1.672257
110	0xbf5f1159	-0.87135845
111	0xbfb8a7c7	-1.4426202
112	0x4100fef4	8.062244
113	0x407db589	3.964205
114	0xbf2a52ec	-0.6653278
115	0x3f43e8a0	0.7652683
116	0xbc794bb9	-0.015215808
117	0xbfc21a79	-1.5164329
118	0x4082faac	4.0930996
119	0xbfaddf5c	-1.3583789
120	0x4022a913	2.5415695
121	0xc0108570	-2.2581444
122	0xbfbbd6f6	-1.4674976
123	0x3fbe5fb1	1.4872953
124	0xc0506e76	-3.256742
125	0xc0560ae5	-3.344415
126	0x401c2ce6	2.4402404
127	0x4108cddc	8.550259
128	0x3cbeb8e2	0.023281518
129	0x3faa392f	1.3298701
130	0xbff84e61	-1.9398919
131	0x40a8f5f4	5.2800236
132	0x3f264a7a	0.6495739
133	0xbfb84d52	-1.4398596
134	0xbf183840	-0.5946083
135	0x4077be75	3.8709996
136	0xbfdee059	-1.7412215
137	0xc0770a0e	-3.8599887
138	0xc0eb3b74	-7.3510075
139	0x411a5287	9.645148
140	0x3fd5be0d	1.6698624
141	0xbf592697	-0.8482451
142	0x3fc38101	1.5273744
143	0x405e1bd6	3.470449
144	0x409fd0d1	4.9942403
145	0xbfc533bd	-1.5406414
146	0xbe69ac99	-0.22819747
147	0xbe2c4ec0	-0.16826916
148	0x4080fe7f	4.0310664
149	0xbf9cd7eb	-1.2253393
150	0xbfb8bb52	-1.4432166
151	0xbf37e9d3	-0.7184116
152	0x4077e3ff	3.8732908
153	0x4034eeec	2.8270826
154	0xbd400b22	-0.046885617
155	0x3ce837bb	0.028346887
156	0x4008e48f	2.13895
157	0x4007ab54	2.119832
158	0xc02098e9	-2.509333
159	0x4190263f	18.018675
160	0x3f527463	0.8220884
161	0x3ee580c5	0.44824806
162	0xc0058e14	-2.0867968
163	0xbf1ef5da	-0.6209389
164	0xc00293f6	-2.0402808
165	0xbf7b8651	-0.98251826
166	0xc0a17e95	-5.046702
167	0xbd743ea6	-0.05963006
168	0xc037b03a	-2.870131
169	0xc0800a17	-4.0012317
170	0x3f68ff49	0.91014534
171	0x40c41a27	6.1281924
172	0x409dce96	4.931468
173	0x3f1dcc5e	0.61639965
174	0xc03edfb0	-2.9824028
175	0x401908b0	2.3911552
176	0x401255a9	2.2864783
177	0xbf117c31	-0.56830126
178	0x3f57a33d	0.84233457
179	0x3fce3c08	1.611207
180	0x40b10add	5.532576
181	0xbdd81ecf	-0.10552751
182	0xc0547af4	-3.3200045
183	0xbe555ebe	-0.20836923
184	0xc015a445	-2.3381512
185	0xbe7204e7	-0.23634683
186	0xc1393cdf	-11.577361
187	0xc10e7336	-8.903128
188	0xbe1aa0b3	-0.15100364
189	0x4037c07d	2.8711236
190	0x3fea6038	1.8310614
191	0x3f2c0daf	0.6720838
192	0x3e8c6a8e	0.27425045
193	0xc044f521	-3.0774615
194	0xc0881a4f	-4.2532115
195	0x40f3a097	7.6133533
196	0x3fb4a360	1.4112358
197	0x40a9cbc0	5.306122
198	0xbf4d68c6	-0.80237997
199	0xbeb61734	-0.35564578
200	0x40696dec	3.647334
201	0xbfaf443b	-1.3692697
202	0xbe5a46a6	-0.21316013
203	0x4093f8de	4.6241293
204	0x401608a2	2.344277
205	0xbf19d299	-0.6008697
206	0xc037a568	-2.8694706
207	0x3f950db0	1.1644802
208	0xbcf83842	-0.030300263
209	0x3f97ff63	1.1874813
210	0x40d13896	6.5381575
211	0xc077fd28	-3.8748264
212	0xbfa37321	-1.276951
213	0x40e7560d	7.2292542
214	0xbe97e62b	-0.29667792
215	0xc0416438	-3.0217419
216	0xbdc201ac	-0.09472975
217	0x3e0616a5	0.13094576
218	0xbe169e3f	-0.14708804
219	0x416c2e8d	14.761365
220	0xbf8e0b86	-1.1097267
221	0xc076318b	-3.8467739
222	0xc07dc7a7	-3.9653108
223	0x403757fa	2.8647447
224	0x3fffeb20	1.999363
225	0xbfb95165	-1.4477965
226	0x3f274d59	0.653524
227	0x405d487c	3.457549
228	0xc06d5020	-3.7080154
229	0xbf2deab6	-0.67936265
230	0x3f6e1a94	0.93009305
231	0xbf38115f	-0.71901506
232	0x400a4a57	2.1607873
233	0xbfad17ed	-1.3522927
234	0x3fe5e822	1.7961466
235	0x3fac294a	1.34501
236	0x4056d22f	3.3565786
237	0xc030dce2	-2.7634816
238	0x3f3b876b	0.73253506
239	0x400ad11a	2.1690125
240	0x3ebc145c	0.36734283
241	0xbf018570	-0.50594234
242	0x40aa8731	5.329003
243	0x3e70580c	0.23471087
244	0xc082b538	-4.0846214
245	0xc101d3c4	-8.114201
246	0x3f8261a2	1.0186045
247	0xc026d6c8	-2.6068592
248	0xc0af0219	-5.469006
249	0x40396ff4	2.897458
250	0x418f4937	17.91075
251	0xbfb7346a	-1.431287
252	0x403cb2ee	2.948421
253	0x40b24fd8	5.5722466
254	0xbfe312b2	-1.774008
255	0xbf14e1f9	-0.58157307

weight_hh_l0 f4 [200, 50]
0	0xbe9304c4	-0.28714573
1	0x3f85b527	1.0445908
2	0x405258f3	3.286679
3	0x3eed29d6	0.4632098
4	0xbeb867b3	-0.36016616
5	0xbee89d5b	-0.45432553
6	0xbf4d82e8	-0.8027787
7	0x3fbd0f12	1.4770224
8	0x3fd7761a	1.6832917
9	0x3f9bbd0a	1.2167065
10	0xbeffd52e	-0.4996733
11	0xc00883ff	-2.1330564
12	0xbf9a64b8	-1.2061987
13	0x3fc4c15a	1.5371506
14	0x3d92f7f3	0.07176199
15	0x3f8264f5	1.018706
16	0xc0250a9d	-2.5787728
17	0xbfa35e05	-1.2763067
18	0xbde98d99	-0.11403961
19	0xbeb355fe	-0.35026544
20	0x400c3c61	2.1911852
21	0xbefab96a	-0.48969585
22	0x403e965f	2.977928
23	0xc03c592b	-2.9429424
24	0xc0508109	-3.2578757
25	0x409fc9d1	4.993386
26	0x3fc313c4	1.5240407
27	0x3f5c1699	0.8597198
28	0x40525a81	3.286774
29	0x406aa767	3.6664674
30	0xbee3bbcd	-0.44479218
31	0xbf974308	-1.1817331
32	0xbfb5f210	-1.4214497
33	0x3f41d5ad	0.7571667
34	0x3e9e79d6	0.30952328
35	0xbeee8612	-0.46586663
36	0x400e8c4a	2.2273126
37	0x3fced35f	1.6158255
38	0xbfd105d3	-1.6329902
39	0xbfe2a28f	-1.7705859
40	0x3f622278	0.88333845
41	0x3f0c627b	0.5483777
42	0x401ad16d	2.4190323
43	0xbeff7fa3	-0.49902067
44	0xbe92707f	-0.28601453
45	0xc0bddd30	-5.9332504
46	0x3fb66056	1.4248149
47	0xbf839ebb	-1.0282816
48	0x40163634	2.3470583
49	0x3f7f804f	0.9980516
50	0xbe60f93c	-0.21970075
51	0x3fc339be	1.5251997
52	0xc093a9f9	-4.6144986
53	0x3f4c1bcc	0.79729915
54	0x3ee0cecd	0.43907776
55	0x3f6e9d69	0.9320894
56	0xbfa7f57a	-1.3121789
57	0x3f8a4f4c	1.080545
58	0x3fbaf9b7	1.4607457
59	0x40195cf0	2.3962975
60	0x3f34924c	0.7053573
61	0x3f845657	1.0338849
62	0x3e503599	0.20332946
63	0xbe215b57	-0.157575
64	0x3f0a6cdd	0.5407236
65	0x3fdae89e	1.7102239
66	0x3fc38605	1.5275275
67	0x3fa6a917	1.3020352
68	0x3e9503de	0.29104513
69	0xbed76a8b	-0.42073473
70	0xbf2914c4	-0.6604731
71	0xbf3e1beb	-0.7426135
72	0xbfba0c74	-1.453505
73	0xbdefe540	-0.11713648
74	0x3fbf5816	1.4948757
75	0x40448e4f	3.0711858
76	0x3f8df0dc	1.108913
77	0xbf906e3c	-1.1283641
78	0x3e78b2e3	0.2428699
79	0xbf03790c	-0.5135658
80	0x40143ca7	2.316202
81	0xbdd17309	-0.10227019
82	0x3f8a8779	1.0822593
83	0xbf6789f7	-0.9044489
84	0xbd82b5f5	-0.06382362
85	0x3ec4a69d	0.38408366
86	0xbfb91a2d	-1.4461113
87	0x3d820b20	0.06349778
88	0xbf75c6f7	-0.9600672
89	0xc012152a	-2.2825418
90	0x4028efb0	2.6396294
91	0x400b3bcb	2.1755245
92	0x40de9fa7	6.956989
93	0xbf9fc808	-1.248292
94	0xc009db3a	-2.1540055
95	0x3f3d5ddf	0.7397136
96	0x3fc7a15e	1.559612
97	0xbdc063bd	-0.093940236
98	0x3ff4bf42	1.9120867
99	0x3ddb9cf7	0.10723298
100	0x3f642262	0.89114964
101	0xbe8adaa8	-0.27119946
102	0x3f62a43c	0.8853185
103	0x3e3ec518	0.18629873
104	0x3f005abc	0.5013845
105	0xc03f544b	-2.9895198
106	0x3f2625ae	0.64901245
107	0x4049f396	3.1554923
108	0x3fcd5607	1.6041878
109	0x402b9715	2.6810963
110	0xc0054062	-2.0820546
111	0xc02951c4	-2.6456156
112	0x3eb98565	0.36234584
113	0xbf31aa2c	-0.69400287
114	0x40263a8f	2.5973241
115	0xc03686ef	-2.8519857
116	0xc038eee8	-2.8895817
117	0x3f9f750c	1.2457595
118	0xbe852bb2	-0.260099
119	0xbfc0f185	-1.5073706
120	0xc00b79d2	-2.1793103
121	0xbebb2669	-0.36552742
122	0xc01b95af	-2.431011
123	0xbedc6644	-0.43046772
124	0xc03c76b3	-2.9447448
125	0x3dfa7ab4	0.12230435
126	0x4099b6e5	4.803576
127	0x3fcb5719	1.5885955
128	0x3fab3a14	1.3377099
129	0xbf303a64	-0.688391
130	0x3dcc3c61	0.09972454
131	0xbfd799da	-1.6843827
132	0xbf9509b3	-1.1643585
133	0x3f2231fa	0.6335751
134	0x402b3518	2.6751156
135	0xc072d3f1	-3.7941859
136	0x406afae1	3.6715624
137	0x3eca62e7	0.39528582
138	0x3fa2aa22	1.270817
139	0xbf92cbb3	-1.1468414
140	0x3fdead71	1.739668
141	0x401faf89	2.4950888
142	0x40059e89	2.0878012
143	0xc0627476	-3.5383582
144	0xc098c1f1	-4.7736745
145	0xc0bf99c2	-5.9875193
146	0xbf86f702	-1.0544131
147	0xc02a4059	-2.6601775
148	0x3f5939e2	0.8485395
149	0x3feebb8a	1.8650982
150	0xbea5bfb9	-0.32372835
151	0x3ead5f11	0.33861592
152	0x3fbc324d	1.470285
153	0x3f8cdad6	1.1004283
154	0x3b3bfedc	0.0028685844
155	0xbf2eb0ce	-0.6823853
156	0x3f6c035d	0.9219263
157	0x3e9713a9	0.29507187
158	0x3dda6e55	0.106655754
159	0xbe6b7bf1	-0.22996499
160	0xbfb1f6b7	-1.3903416
161	0x3d6a4e50	0.05720359
162	0xbf1cbf22	-0.61229146
163	0x3e370678	0.17873561
164	0xbf378e6d	-0.717017
165	0x40169cb9	2.3533156
166	0x4029a3d2	2.6506238
167	0xbc8d883a	-0.017276872
168	0x3f1b7ee8	0.6074052
169	0xbfef5f7b	-1.8701013
170	0x3fe41211	1.7818013
171	0xbfc007a6	-1.5002334
172	0xbf29f2e6	-0.6638626
173	0x3f419e3f	0.7563209
174	0xbf7fd732	-0.99937737
175	0x3edfc071	0.4370151
176	0x3d806e02	0.06270982
177	0xbf018fb1	-0.5060988
178	0xbf23ab38	-0.63933134
179	0x3fa792f3	1.309172
180	0x3fd7788e	1.6833665
181	0xbf890891	-1.0705739
182	0xc0193c28	-2.3942966
183	0x3f0e1bde	0.5551127
184	0x3de634b9	0.11240525
185	0x3fc8f092	1.5698416
186	0x3eb6a92e	0.3567595
187	0x3f337814	0.701051
188	0xbd15b27f	-0.03654718
189	0xc00ad055	-2.1689656
190	0x4003892f	2.055248
191	0x3f0ccd3b	0.55000657
192	0x3ff05ce6	1.877835
193	0xc030032b	-2.7501934
194	0x3f8cc0d3	1.0996345
195	0x3f40b946	0.75282705
196	0x402e33ed	2.7219193
197	0x3ed00a55	0.40632883
198	0xbeeb2be1	-0.45931914
199	0x3e9ca74d	0.3059639
200	0xbd02bd31	-0.03191871
201	0x401e7d52	2.476399
202	0x3ea9dd90	0.3317685
203	0x3ea7b95d	0.32758608
204	0xbf8fcbab	-1.123403
205	0xbf9ffc93	-1.2498955
206	0xbed0cf57	-0.40783188
207	0x3fe1cb91	1.7640249
208	0x3e69c895	0.22830422
209	0xc04dca3b	-3.2154682
210	0x3fd9c6b0	1.701376
211	0x3fe9bc65	1.8260618
212	0xbf302a02	-0.688141
213	0x3f66be54	0.9013417
214	0x3f6d825c	0.9277704
215	0x402b1207	2.6729753
216	0x3fa469ea	1.2844822
217	0xbe599832	-0.21249464
218	0xbfe41204	-1.7817998
219	0x400029fc	2.0025625
220	0xbfc29014	-1.5200219
221	0x4030252c	2.7522688
222	0x3f13a101	0.5766755
223	0x3f1c32e5	0.6101516
224	0xbfe2b592	-1.7711661
225	0x40cbaeea	6.365102
226	0x3e4fab79	0.20280255
227	0x3fd48d16	1.6605556
228	0x4007925d	2.1183083
229	0x3fa34357	1.2754925
230	0xbf06073f	-0.52354807
231	0xbf4848fa	-0.78236353
232	0x3f51d2fa	0.8196255
233	0x3f09d7dc	0.53845
234	0xbfcd2a84	-1.60286
235	0x3e8304a9	0.25589493
236	0xbc3c99fc	-0.011511322
237	0xc01e2157	-2.470785
238	0x3de46408	0.11151892
239	0xbea2957f	-0.3175468
240	0x3fad7174	1.3550248
241	0xbf166b4f	-0.5875749
242	0xbf349c0d	-0.70550615
243	0x3d25c25c	0.04046856
244	0x3d8391eb	0.06424316
245	0xc01386b3	-2.3050964
246	0xc0053d9e	-2.0818858
247	0x3c6c9259	0.014439189
248	0xbf254023	-0.6455099
249	0xc05694f9	-3.3528426
250	0xc0082579	-2.1272871
251	0xbfecf1cf	-1.8511294
252	0x3f59ca68	0.8507447
253	0xbd1d1e04	-0.038358703
254	0xbf2eaac0	-0.68229294
255	0xbf11bd90	-0.56929874

bias_ih_l0 f4 [200]
0	0x3f1e23c3	0.6177332
1	0x3eb912bf	0.36147115
2	0x3f070456	0.5274099
3	0xbd8bbabc	-0.06822726
4	0xbd8cd224	-0.06876019
5	0xbcdcb2c1	-0.026940705
6	0xbf18e9eb	-0.5973193
7	0x3e29bbe3	0.1657558
8	0xbf07ea90	-0.5309229
9	0x3ef43edd	0.4770421
10	0xbcf16f44	-0.029472
11	0xbf0db2a3	-0.55350703
12	0x3f167fa0	0.5878849
13	0xbe595ab0	-0.21226001
14	0xbe2477ed	-0.16061373
15	0x3dbd629b	0.09247323
16	0x3f4a201a	0.78955233
17	0xbc75be9c	-0.014999058
18	0xbfa37e2c	-1.277288
19	0xbf0867ac	-0.5328319
20	0xbdc7504f	-0.097321145
21	0x3f6750c7	0.9035763
22	0x3f27939d	0.65459615
23	0x3c186703	0.009301904
24	0xbe738328	-0.23780501
25	0xbf9d4313	-1.2286094
26	0x3ed06320	0.40700626
27	0xbe48ccff	-0.1960945
28	0x3e4792cc	0.19489592
29	0x3ecf2221	0.40455726
30	0x3edb9ac7	0.42891523
31	0xbf21903c	-0.6311071
32	0xbefd57ff	-0.49481198
33	0xbecd9c79	-0.40158442
34	0xbf0fea56	-0.56216943
35	0x3f89beb8	1.0761328
36	0x3e7d7770	0.24752593
37	0x3d9a0c32	0.07521857
38	0x3ef585df	0.47953698
39	0xbf26ad06	-0.6510776
40	0xbd04ae23	-0.032392632
41	0x3f24440f	0.6416635
42	0xbf14dc79	-0.58148915
43	0x3e97e218	0.29664683
44	0xbf2b1955	-0.6683553
45	0x3ed9ee09	0.4256442
46	0x3e3cdd04	0.18443686
47	0x3e21c4d0	0.15797734
48	0xbec4c74e	-0.38433307
49	0x3e79ca73	0.24393634
50	0xbf8af37e	-1.0855558
51	0xbf8cc23b	-1.0996774
52	0xbec0a409	-0.3762515
53	0xbfc66c65	-1.5501829
54	0xbffa9f40	-1.9579849
55	0xbf67c0c4	-0.9052851
56	0xbf5862cd	-0.8452576
57	0xbfa23702	-1.2673037
58	0xbedd762f	-0.4325423
59	0xbeceea93	-0.4041334
60	0xbf6a5202	-0.91531384
61	0xbfb53670	-1.4157238
62	0x3eb84ea0	0.35997486
63	0xbfbf61d5	-1.4951731
64	0xbf7b0ed8	-0.98069525
65	0xbf8d5239	-1.1040717
66	0xbe12389a	-0.14279404
67	0xbf84f0a0	-1.0385933
68	0x3ee0c4db	0.4390019
69	0xbf70743c	-0.9392736
70	0xbeb2a075	-0.34888044
71	0xbf0fb575	-0.56136256
72	0xbf37e654	-0.7183583
73	0xbf917332	-1.136328
74	0xbf6979a3	-0.9120123
75	0xbfa3dca9	-1.2801715
76	0xbf1b2ebc	-0.60618186
77	0xbf9ecbb9	-1.2405921
78	0xbf886006	-1.0654304
79	0xbe5dd710	-0.21664071
80	0xbeacc91e	-0.3374719
81	0xbf37443d	-0.715885
82	0xbf50608e	-0.8139733
83	0xbf794346	-0.97368276
84	0xbf985886	-1.1902015
85	0x3d4122bf	0.047152277
86	0xbfef9cd3	-1.8719734
87	0xc0189d9e	-2.3846202
88	0xbf0b8829	-0.5450464
89	0x3d2ee530	0.04269904
90	0xbf1dcc02	-0.61639416
91	0xbf2fb117	-0.6862959
92	0xbfe2e237	-1.7725285
93	0x3f769e1c	0.96335006
94	0xbf440590	-0.7657099
95	0xbfddfd49	-1.7342921
96	0xbe5092ef	-0.2036855
97	0x3ea22a38	0.31672835
98	0x3eb07fa7	0.3447239
99	0xbed8670c	-0.4226612
100	0x3e4de86a	0.2010819
101	0xbd3deee6	-0.04637041
102	0x3f944df9	1.1586295
103	0xbe7ea437	-0.2486733
104	0x3bf0e3a7	0.007351357
105	0x3e633663	0.22188716
106	0x3e11aaef	0.14225362
107	0x3c0cbc96	0.008589884
108	0x3f0bdc30	0.54632854
109	0xbf654cd6	-0.8957037
110	0x3eba6107	0.3640215
111	0xbf4531ac	-0.7702892
112	0xbf6ae753	-0.9175922
113	0xbd9f2e2e	-0.0777248
114	0xbf25a6e0	-0.64707756
115	0x3ecf53c7	0.40493605
116	0xbe03c018	-0.12866247
117	0xbe81b4f9	-0.25333384
118	0x3def5799	0.1168663
119	0xbe34d4d3	-0.17659311
120	0x3f49f043	0.78882235
121	0xbec0bf72	-0.3764606
122	0x3f17caeb	0.59294003
123	0x3e9e5805	0.3092653
124	0x3e9198dc	0.28436935
125	0x3f52223c	0.8208349
126	0x3e27432c	0.16334218
127	0xbf66ac1c	-0.9010637
128	0x3f2e0e91	0.67990977
129	0xbf773412	-0.9656383
130	0xbf74cea6	-0.9562782
131	0x3f8e50f6	1.1118457
132	0x3f109604	0.56478906
133	0x3f15db92	0.5853816
134	0x3f6b5b4e	0.91936195
135	0x3f31c4d3	0.69440955
136	0x3e998f5d	0.2999219
137	0xbf1c0d73	-0.6095802
138	0x3f96dc90	1.178606
139	0x3edfb93b	0.43696007
140	0x3e2a4f6b	0.16631858
141	0x3f1cbaf2	0.61222756
142	0x3f8371da	1.026912
143	0x3f7e592c	0.99354815
144	0xbf41f985	-0.7577136
145	0xbeaff993	-0.34370098
146	0xbebc42d9	-0.3676975
147	0xbf862ada	-1.0481827
148	0xbf31706a	-0.69312155
149	0xbf382e97	-0.7194609
150	0xbf4a2c68	-0.7897401
151	0xbeab3bd7	-0.33444092
152	0xbfab9c98	-1.3407164
153	0x3fb24105	1.3926092
154	0x3ee3cfc1	0.4449444
155	0x3eb51c8e	0.35373348
156	0xbe99e10e	-0.30054516
157	0xbeafca61	-0.3433409
158	0xbe935c8d	-0.28781548
159	0xbf3caff8	-0.73706007
160	0xbecc0712	-0.39849144
161	0xbfb4cb83	-1.4124607
162	0xbf846609	-1.0343639
163	0xbefdd73a	-0.49578267
164	0xbf95ebd9	-1.17126
165	0x3904cefc	0.00012665609
166	0xbf60cc4e	-0.87811744
167	0xbecc7b0d	-0.3993763
168	0xbfd63f35	-1.6738039
169	0x3ea04346	0.31301326
170	0xbfc0c70a	-1.5060742
171	0xbf7734a9	-0.9656473
172	0xbdfcc9be	-0.12343167
173	0x3eaabb7d	0.33346167
174	0xbf7d2193	-0.98879355
175	0xbf4f259f	-0.8091678
176	0xbe80e6d0	-0.25176096
177	0x3ef8f242	0.48622328
178	0xbf3195e9	-0.6936937
179	0xbdc5297c	-0.09627053
180	0xbf3aec1f	-0.7301654
181	0xbf22e64a	-0.63632643
182	0xbe8d6f10	-0.27623796
183	0xbdadda8a	-0.08488949
184	0xbf05b6ac	-0.5223186
185	0xbf0721d9	-0.5278602
186	0x3c886b15	0.016652623
187	0xbea7c11a	-0.32764512
188	0xbe881a6e	-0.26582664
189	0xbf847c5b	-1.035045
190	0x3ee7c5f9	0.4526823
191	0xbf144243	-0.5791361
192	0xbfa43505	-1.282868
193	0xc001c6cd	-2.0277588
194	0xbeec6136	-0.46167916
195	0xbe91b09f	-0.28455064
196	0xbddd2864	-0.107987195
197	0xbf4cafa4	-0.79955506
198	0x3d1ac863	0.03778876
199	0xbfa06484	-1.2530675

bias_hh_l0 f4 [200]
0	0x3f1be473	0.6089546
1	0x3eb2f91c	0.3495568
2	0x3f1f6760	0.6226711
3	0x3d31e44b	0.043430608
4	0xbe151509	-0.14558806
5	0xbd952229	-0.07281906
6	0xbf38887a	-0.72083247
7	0x3e97dade	0.2965917
8	0xbee9ded5	-0.4567782
9	0x3efbd7b2	0.49188
10	0xbe5e0acb	-0.21683805
11	0xbf48bb8e	-0.78411186
12	0x3ec16df2	0.37779194
13	0xbde2bdef	-0.11071383
14	0xbe8e103e	-0.27746767
15	0x3e91a974	0.28449595
16	0x3f13997a	0.5765606
17	0xbd83bd35	-0.06432573
18	0xbfaabd9e	-1.3339117
19	0xbef6a13e	-0.48169893
20	0xbdffccc0	-0.12490225
21	0x3f8fd702	1.123749
22	0x3ec36325	0.3816158
23	0xbd872902	-0.065996185
24	0xbe389f51	-0.18029524
25	0xbfa29aab	-1.2703451
26	0x3e67eea8	0.22649634
27	0xbe8af9c2	-0.27143675
28	0x3d5caa69	0.053873453
29	0x3e8d6439	0.27615526
30	0x3f0b7750	0.5447893
31	0xbf24ce5d	-0.64377385
32	0xbeea708f	-0.45789
33	0xbef98c67	-0.4873993
34	0xbf3600aa	-0.71094763
35	0x3f9342ac	1.1504722
36	0x3df0488a	0.11732586
37	0x3e4f9a87	0.20273791
38	0x3ecb7112	0.39734703
39	0xbf12f56d	-0.5740574
40	0xbd94cf65	-0.0726612
41	0x3f395647	0.72397274
42	0xbf3e575f	-0.7435207
43	0x3e8e1c9d	0.27756205
44	0xbf0b2966	-0.54360044
45	0x3e9d6c2a	0.30746585
46	0x3e8d2a07	0.27571127
47	0x3e4e6d75	0.20158942
48	0xbf02eca8	-0.5114236
49	0x3ea529f5	0.32258573
50	0xbf776e99	-0.96653134
51	0xbf9bfa20	-1.2185707
52	0xbe97143e	-0.2950763
53	0xbfafb944	-1.3728414
54	0xbffd741c	-1.9801059
55	0xbf451be9	-0.7699571
56	0xbf447dec	-0.7675464
57	0xbfb2a548	-1.395669
58	0xbf14c888	-0.58118486
59	0xbeb7be17	-0.35887215
60	0xbf422dda	-0.75851214
61	0xbfc13f7d	-1.50975
62	0x3ea35bd2	0.3190599
63	0xbfc33330	-1.5249996
64	0xbf8a3287	-1.079667
65	0xbf7dcd49	-0.99141365
66	0xbe5438dd	-0.20724817
67	0xbf5c6434	-0.860904
68	0x3ea422bb	0.32057747
69	0xbf7e09a8	-0.99233484
70	0xbebf3c0e	-0.37350506
71	0xbf0e22b3	-0.55521697
72	0xbf4f443f	-0.8096351
73	0xbf8bc344	-1.0918965
74	0xbf82b1c5	-1.0210501
75	0xbfab0c5e	-1.3363149
76	0xbf344cb2	-0.7042953
77	0xbf7db07e	-0.9909743
78	0xbf8fdfed	-1.1240212
79	0xbe7aa161	-0.24475624
80	0xbea14936	-0.31501168
81	0xbf0310cc	-0.51197505
82	0xbf5bf54c	-0.8592117
83	0xbf65a664	-0.89707017
84	0xbf9139b0	-1.134573
85	0xbdb2e3b9	-0.08734841
86	0xbfff7f9a	-1.9960816
87	0xc00fdf01	-2.247986
88	0xbf090a9c	-0.53531814
89	0x3e1ef086	0.1552144
90	0xbf16688e	-0.5875329
91	0xbf45a63a	-0.77206767
92	0xbfe9c17e	-1.8262174
93	0x3f7791ab	0.96706647
94	0xbf34d847	-0.70642513
95	0xbfea3ff5	-1.8300768
96	0xbe1f0461	-0.15529014
97	0x3eb5ab23	0.3548213
98	0x3ea0da6f	0.31416652
99	0xbef27904	-0.47357953
100	0x3e87328f	0.2640576
101	0x3d9b9a13	0.07597747
102	0x3f7e42f6	0.99320924
103	0xbe66c402	-0.22535709
104	0xbd155081	-0.036453728
105	0x3e8617a7	0.2618992
106	0x3d48e37e	0.04904508
107	0x3d8d42b5	0.06897489
108	0x3f25c861	0.6475888
109	0xbf5d7af5	-0.8651574
110	0x3ee1ebce	0.44125217
111	0xbf3727d1	-0.7154513
112	0xbf8159b8	-1.0105505
113	0x3df39ed6	0.1189553
114	0xbf433739	-0.7625614
115	0x3e682525	0.2267042
116	0xbe1eec7a	-0.15519896
117	0xbe40be6e	-0.18822643
118	0x3ea30384	0.3183862
119	0x3d4335aa	0.0476586
120	0x3f38e0ee	0.72218215
121	0xbea46252	-0.32106262
122	0x3ef80c52	0.484469
123	0x3eb571b0	0.354383
124	0x3df69580	0.120402336
125	0x3f2c2980	0.67250824
126	0x3e43c4f7	0.19118105
127	0xbf8d0ecc	-1.1020141
128	0x3f22dc5d	0.636175
129	0xbf8310be	-1.0239484
130	0xbf7a4e78	-0.97775984
131	0x3f8624ed	1.0480019
132	0x3f0d78ee	0.5526265
133	0x3f212167	0.6294159
134	0x3f78b6e7	0.97154087
135	0x3f0187be	0.5059775
136	0x3eaea21e	0.3410806
137	0xbf03f4e6	-0.5154556
138	0x3f9d7b28	1.2303209
139	0x3ebf8c9c	0.37411964
140	0x3cee6519	0.029100941
141	0x3f42de22	0.761202
142	0x3f80a6aa	1.0050862
143	0x3f8a794c	1.0818267
144	0xbf7688d4	-0.96302533
145	0xbe3803a3	-0.17970137
146	0xbe39a09c	-0.18127674
147	0xbf7dfe99	-0.9921661
148	0xbf11167f	-0.5667495
149	0xbf398f39	-0.72484165
150	0xbf494018	-0.78613424
151	0xbe84a4ce	-0.25906986
152	0xbfba02f7	-1.4532155
153	0x3fac204a	1.3447354
154	0x3f11c284	0.5693743
155	0x3f17c284	0.5928118
156	0xbdfb24e7	-0.12262898
157	0xbe9ff7e7	-0.31243822
158	0xbe95f059	-0.29284933
159	0xbf6a3645	-0.9148906
160	0xbec49006	-0.3839113
161	0xbfb746c4	-1.4318471
162	0xbf722210	-0.94583225
163	0xbf0db882	-0.5535966
164	0xbf9c349f	-1.2203559
165	0xbd0a490b	-0.033761065
166	0xbf3693ca	-0.7131926
167	0xbef0df2a	-0.4704526
168	0xbfe6e2dd	-1.8037983
169	0x3ef3a292	0.4758497
170	0xbfc3c274	-1.5293717
171	0xbf680e9c	-0.9064729
172	0xbe454606	-0.19264993
173	0x3e85a7e7	0.26104662
174	0xbf763a57	-0.9618277
175	0xbf15bb24	-0.5848868
176	0xbd90b524	-0.070658
177	0x3eb7e1ea	0.35914546
178	0xbf1758d0	-0.5911989
179	0xbe5e53e4	-0.21711689
180	0xbf191284	-0.5979388
181	0xbf0e58ec	-0.55604434
182	0xbee3a849	-0.4446433
183	0xbe2a8f0f	-0.16656135
184	0xbee348f1	-0.44391587
185	0xbf39579e	-0.7239932
186	0xbdb9fa07	-0.09080892
187	0xbe7be591	-0.24599291
188	0xbe9d540d	-0.30728188
189	0xbf8cec62	-1.1009638
190	0x3ee7b0e5	0.45252147
191	0xbf2ea27d	-0.6821669
192	0xbfad63b8	-1.3546057
193	0xc008056d	-2.1253312
194	0xbf1131cd	-0.56716615
195	0xbea30120	-0.31836796
196	0xbd2773f6	-0.040882073
197	0xbf5fe449	-0.8745771
198	0xbe2bc66f	-0.16774915
199	0xbfa52625	-1.2902266

weight_ih_l1 f4 [200, 50]
0	0x3fb96033	1.4482483
1	0x3da97a70	0.08275306
2	0xbccb9f12	-0.024856124
3	0x3ec82444	0.39090168
4	0xbcd03cd7	-0.025419636
5	0xbde38bab	-0.11110624
6	0xbed7d94e	-0.42157978
7	0x3e66771f	0.22506379
8	0xbd2e88da	-0.04261098
9	0xbfeb48bb	-1.838157
10	0xbe1eaf83	-0.1549664
11	0xbe15dca1	-0.14634944
12	0xc00f0905	-2.2349255
13	0x3e890aa2	0.26765925
14	0xc0793a1b	-3.8941715
15	0xbe79ba35	-0.24387439
16	0x3e8f0937	0.27936718
17	0x3dafe71e	0.08589004
18	0xbdc998ad	-0.09843574
19	0x3d29b924	0.04143633
20	0x3e7cc8a4	0.24685913
21	0xbe14beb3	-0.14525871
22	0x3dd50222	0.104007974
23	0x3e34165c	0.17586654
24	0xba3c318c	-0.0007179014
25	0x3fe18a71	1.7620374
26	0xbf699355	-0.91240436
27	0xbf1d632f	-0.6147947
28	0xbf9de344	-1.2334981
29	0xc05f6036	-3.4902472
30	0xc090aa19	-4.520764
31	0xbf123182	-0.5710679
32	0x3d698944	0.057015672
33	0x4019354e	2.3938785
34	0xbf3885a5	-0.72078925
35	0xbe02b4fd	-0.12764354
36	0xbe1a4240	-0.15064335
37	0xbaae34ed	-0.001329092
38	0xbeea2b0a	-0.4573596
39	0x4096f671	4.717583
40	0xbea93c3d	-0.3305377
41	0xbfcb931b	-1.5904268
42	0xc0be5e7a	-5.949033
43	0xbe71387d	-0.23556705
44	0x3fa14474	1.2599015
45	0x3fb9aafe	1.4505308
46	0xbdf9ac52	-0.121910706
47	0x3e202aaa	0.15641275
48	0x3e69e67d	0.2284183
49	0x3ea342bb	0.3188685
50	0x3fb86a10	1.4407368
51	0x3e54dfb3	0.2078846
52	0x3f9bb392	1.2164176
53	0xbdd6f719	-0.10496349
54	0x3d3a58f2	0.04549498
55	0xbd7ac542	-0.061223276
56	0x3e4cce7c	0.20000643
57	0x3fc09201	1.5044557
58	0xbe8d063c	-0.2754382
59	0x3ee83e6e	0.4536013
60	0x3e5e8025	0.21728571
61	0xbf43a4ce	-0.76423347
62	0xbd673ab0	-0.056452453
63	0xbf7758f8	-0.9662013
64	0xbf87d643	-1.0612262
65	0xbe125c59	-0.1429304
66	0xbe74fa3d	-0.23923583
67	0xbe8b1370	-0.27163267
68	0xc1175483	-9.458133
69	0x3eba3930	0.36371756
70	0x40b62638	5.6921654
71	0x3f27e55f	0.6558437
72	0x3e91511f	0.28382203
73	0x40187b80	2.3825378
74	0x3ed0257a	0.40653592
75	0x3f06551c	0.52473617
76	0x3d295fbe	0.041351072
77	0xbe21a1fc	-0.15784448
78	0x3df0103d	0.11721847
79	0xbe24fedd	-0.16112848
80	0xbd251329	-0.040301476
81	0xbdd91ae7	-0.10600834
82	0x3f4771e4	0.7790816
83	0x3e57d37b	0.21076767
84	0xbe17d846	-0.14828596
85	0xbf81efec	-1.0151343
86	0xbf305d63	-0.68892497
87	0xbeb1a32e	-0.3469481
88	0xbd2c00c9	-0.041992936
89	0x3e86d540	0.26334572
90	0xbf263ca5	-0.64936286
91	0x3ea7c5ec	0.3276819
92	0x3fa360f7	1.2763966
93	0x3f8ec6d7	1.1154431
94	0x3eb3042a	0.34964114
95	0x3f828621	1.0197183
96	0x3dda41d9	0.10657091
97	0xbd563648	-0.05229786
98	0x3fba2d93	1.4545158
99	0x3f716eca	0.94309676
100	0x3f0954bc	0.5364492
101	0x3fb936ec	1.4469886
102	0x40e64f52	7.1971827
103	0xc00e4115	-2.2227223
104	0xbee617e4	-0.44940102
105	0xbe12bfe1	-0.14331008
106	0xbde7fcbe	-0.113275036
107	0xbff34da7	-1.9008073
108	0x3f416c05	0.7555545
109	0x3db594fd	0.08866308
110	0x400320b8	2.048872
111	0x405f2c95	3.487096
112	0x3e5c2aa3	0.2150064
113	0xc09573de	-4.670394
114	0x402f690a	2.740786
115	0x3eb1d796	0.34734792
116	0xbf424b9c	-0.7589662
117	0xbfb3c45b	-1.4044298
118	0x406838f2	3.6284757
119	0xbf74cd39	-0.95625645
120	0x3fafff8c	1.3749862
121	0xc0c99c7f	-6.3003535
122	0x3eca6846	0.3953268
123	0xbfaf7acd	-1.3709351
124	0x3f7571cc	0.95876765
125	0xbff14868	-1.8850222
126	0x3c8596ff	0.016307352
127	0x3e0abf2c	0.13549489
128	0x3f7362d6	0.95072687
129	0xbe93f5c0	-0.2889843
130	0xbd773f9c	-0.060363397
131	0x3e038845	0.12844951
132	0x3fa0f965	1.2576109
133	0x3f1930fd	0.59840375
134	0x404677a5	3.1010525
135	0x3fe70d6b	1.805097
136	0x3fb810e9	1.438016
137	0xc011a25a	-2.2755342
138	0xbee242cc	-0.44191587
139	0xc020b663	-2.511132
140	0xbf6c6a80	-0.92350006
141	0xbd8ece51	-0.069729455
142	0xbf7ca7b3	-0.9869339
143	0xbddcf7e4	-0.10789469
144	0x3e422e14	0.1896289
145	0xbed8a5b5	-0.42313924
146	0x3f09147e	0.53546894
147	0xbf8191e7	-1.0122651
148	0xbe9d8816	-0.30767888
149	0xc0933aca	-4.6009264
150	0x3f45b891	0.7723475
151	0x3e1335da	0.14376011
152	0x3e8755d5	0.26432672
153	0x3f288f66	0.6584381
154	0xbea1dae2	-0.31612307
155	0xbd3587b4	-0.04431887
156	0xbe5fda63	-0.21860652
157	0x3f791c0e	0.97308433
158	0xbe2bdfb4	-0.16784555
159	0xbe85914d	-0.26087418
160	0xbdf41ccb	-0.11919554
161	0xbe156803	-0.14590459
162	0xbe1efca8	-0.15526068
163	0xbd5775c5	-0.05260255
164	0xbecb548b	-0.3971294
165	0xbed6aa52	-0.4192682
166	0x3ebfdbd9	0.37472418
167	0x3a398eaf	0.00070784515
168	0xbe94915f	-0.2901716
169	0xbe989eb1	-0.29808572
170	0x3f05d003	0.52270526
171	0x3de79c40	0.11309099
172	0x3db9cc17	0.0907213
173	0x3c383216	0.01124241
174	0x3e7abbf1	0.24485756
175	0x3e11f95d	0.14255281
176	0xbe6fe3e2	-0.23426774
177	0x3cda13be	0.026620742
178	0xbfaad0dc	-1.3344989
179	0x3e5eab0c	0.21744937
180	0x3ee6a96d	0.45051137
181	0xbedcdce4	-0.43137276
182	0x3f0364b2	0.51325524
183	0x3c35750d	0.01107527
184	0xbf8ba0c7	-1.090844
185	0xbeadbc35	-0.33932653
186	0x3e0718a9	0.13193001
187	0xbee28120	-0.4423914
188	0xbcb767c5	-0.022388348
189	0x3f1158e2	0.5677625
190	0xbea00278	-0.31251884
191	0x3b53440a	0.00322366
192	0xbf5021d0	-0.81301594
193	0xbe9a8b82	-0.3018456
194	0x3ce0b2b4	0.027428962
195	0x3e535ee8	0.20641673
196	0xbe3e1e19	-0.18566169
197	0x3d341389	0.043963943
198	0x3e098958	0.13431299
199	0x3f0c1acf	0.54728407
200	0x3f2f77d1	0.685422
201	0x3d576b49	0.05259255
202	0x3feb34b7	1.8375462
203	0xbe976188	-0.29566598
204	0x3f13369a	0.5750519
205	0xbe3e6d1c	-0.1859631
206	0x3f997e29	1.1991626
207	0xbdb52234	-0.08844414
208	0x3eda60bf	0.42651936
209	0x3e35db7d	0.1775951
210	0xbdab2efd	-0.08358572
211	0xbdb9c934	-0.090715796
212	0xbfaadefa	-1.3349297
213	0xbe454d57	-0.19267784
214	0xbf8d77ce	-1.1052186
215	0x3eedda5c	0.46455657
216	0xbd977281	-0.07394887
217	0x3dc4a454	0.096016556
218	0x3e02d3b5	0.12776072
219	0x3d0d1a27	0.03444877
220	0x3bb807d0	0.0056161657
221	0x3f032f60	0.51244164
222	0xbed795c9	-0.42106465
223	0xbd639b34	-0.055567935
224	0xbe6c35cd	-0.23067398
225	0x3f26e57b	0.6519391
226	0x3e591445	0.21199138
227	0x3e333fec	0.17504853
228	0xbe8b58b4	-0.27216113
229	0xbe3f9914	-0.18710738
230	0xbd818fdd	-0.06326268
231	0x3d8b4eec	0.068021625
232	0x3c05edde	0.008174388
233	0x3e366cf7	0.17815004
234	0x3eb917c7	0.36150953
235	0xbeea079e	-0.45708936
236	0xbe84e414	-0.2595526
237	0x3de21ee7	0.110410504
238	0xbf0516b9	-0.519878
239	0xbeea6fd3	-0.4578844
240	0x3f9c679c	1.2219119
241	0x3ee352d5	0.44399133
242	0x3fd2bb7b	1.6463464
243	0x3e9fb83a	0.3119524
244	0x3f4500e4	0.76954484
245	0xbf4891b1	-0.7834731
246	0xbd778d87	-0.060437705
247	0xbe520251	-0.20508696
248	0x3f54a76f	0.83067983
249	0x3b118fe7	0.0022211017
250	0x3d5c0dd1	0.053724114
251	0x3f90b5e6	1.1305511
252	0xbc057cee	-0.008147461
253	0x3d8d159b	0.068888865
254	0xc071ea91	-3.7799418
255	0xbf5dd70d	-0.86656266

weight_hh_l1 f4 [200, 50]
0	0x3fd04b76	1.6273029
1	0xbe9a3997	-0.30122063
2	0xbfc28578	-1.5196981
3	0x3f0c7953	0.54872626
4	0xc0d19f39	-6.5506864
5	0xc09e415e	-4.9454794
6	0xbf54ae04	-0.83078027
7	0x3f9be102	1.2178042
8	0xbf80f5bf	-1.0074996
9	0xbfd54693	-1.6662163
10	0xc02c0515	-2.6878102
11	0x3f192e12	0.5983592
12	0x3f2996d9	0.662458
13	0x4054b404	3.3234873
14	0x3efad6e4	0.48992074
15	0x3de26918	0.11055201
16	0xbe8fffad	-0.28124753
17	0xbf8fd968	-1.1238222
18	0x3f84462a	1.0333912
19	0x405e99b6	3.4781318
20	0xbf90fc99	-1.1327087
21	0x3e80d187	0.25159857
22	0x407c0299	3.9376585
23	0x3f00b557	0.502767
24	0xc00cd750	-2.2006416
25	0x3ec9d0d8	0.39417148
26	0xc087e917	-4.2472034
27	0x3ed692f6	0.41908997
28	0xc011746e	-2.2727313
29	0x3f87e627	1.0617112
30	0x3f263142	0.6491891
31	0xbfa6b71f	-1.3024634
32	0xbfc39bce	-1.5281923
33	0xbf37a32f	-0.71733373
34	0xbf825032	-1.0180724
35	0x402b8e8c	2.6805754
36	0xbf34e9c0	-0.70669174
37	0x3ee93c50	0.45553827
38	0xbcfd6d67	-0.030935956
39	0x3fdb3f8a	1.7128766
40	0xbf780903	-0.9688875
41	0x3e05eda0	0.13078928
42	0x3ea94108	0.33057427
43	0x3f0f2e0a	0.55929625
44	0xc011cdde	-2.2781901
45	0xbfba928b	-1.4575971
46	0xbfeadb20	-1.8348122
47	0xc088ba8b	-4.2727714
48	0xbf430e6f	-0.761939
49	0xbf3ad20c	-0.72976756
50	0x3e90a482	0.2825051
51	0xbffc9096	-1.9731624
52	0x3f12f5c7	0.57406276
53	0x3f14e583	0.5816271
54	0xbf978eec	-1.1840491
55	0x3e7393ed	0.23786898
56	0x3e85ae34	0.2610947
57	0xbfc99c82	-1.5750887
58	0xbe3c77cb	-0.18405072
59	0x3e85e422	0.26150614
60	0xbe122478	-0.14271724
61	0x3f1206c2	0.5704156
62	0xbea7cb51	-0.32772306
63	0x3e9163e4	0.28396523
64	0x3ee66986	0.45002383
65	0xbf9a3da1	-1.2050058
66	0xbebf9e79	-0.37425593
67	0xbd8bde73	-0.06829538
68	0x3f9a7b0b	1.20688
69	0xbf2d9ccc	-0.6781738
70	0xbda68699	-0.08131141
71	0x3f224199	0.63381344
72	0x3f05fd22	0.52339375
73	0x3e53b5c0	0.20674801
74	0x3ea4078b	0.32037005
75	0xbfdffa6b	-1.7498296
76	0x3f11fcfd	0.57026654
77	0x3f1e190a	0.61756957
78	0xbf2c4c85	-0.6730426
79	0xbf88f3c6	-1.0699394
80	0x3e229397	0.15876614
81	0xbf98b712	-1.1930869
82	0xbce748ab	-0.028232893
83	0x402e0eea	2.7196603
84	0xbef2688e	-0.47345394
85	0x3e615544	0.22005183
86	0xbf23861d	-0.63876516
87	0x3f279b8b	0.65471715
88	0x3f2887b5	0.6583207
89	0x3dd07074	0.10177699
90	0xbdccaf79	-0.09994406
91	0x3e031b92	0.12803486
92	0x3f33f88e	0.7030114
93	0x3dfc0190	0.123049855
94	0x3f1cc1fc	0.61233497
95	0xbf02d7e6	-0.51110685
96	0xbea5cabb	-0.32381234
97	0x3ef452da	0.4771946
98	0x3e4caa30	0.19986796
99	0x3e641417	0.22273289
100	0xbefd4f89	-0.49474743
101	0x3be8092e	0.0070811724
102	0xbf3f9a37	-0.7484469
103	0x3fc3b67a	1.5290062
104	0xbf10e624	-0.56601167
105	0xbee7c0b0	-0.45264196
106	0xbad448e0	-0.0016196035
107	0x3e438c7f	0.19096564
108	0xbf220ee1	-0.63303953
109	0xbee5f533	-0.44913635
110	0xbe97d915	-0.29657808
111	0xbecd9d6e	-0.40159172
112	0xbefe18f9	-0.49628428
113	0x3f024815	0.5089124
114	0xbff3aa32	-1.9036314
115	0x3f30816b	0.68947476
116	0x3f02a6ea	0.5103594
117	0xbfafa3e7	-1.3721894
118	0x3ef59e26	0.4797222
119	0xbf2eed15	-0.6833051
120	0x3ef05e31	0.46946862
121	0x3fc4d8a0	1.5378609
122	0xc07b5491	-3.9270365
123	0xc0945321	-4.6351476
124	0xbedf33de	-0.4359426
125	0x3e2551f2	0.16144541
126	0xbf933ada	-1.1502335
127	0xbf46f240	-0.77713394
128	0xbe4cece6	-0.20012245
129	0xbfdf2721	-1.7433816
130	0x3fc39d8f	1.5282458
131	0xbfbc5976	-1.4714801
132	0x3eb0464b	0.3442863
133	0x4065c888	3.5903645
134	0x3e561c72	0.20909289
135	0x3f67fc7f	0.90619653
136	0xbebcd78c	-0.368832
137	0x3fd4f3b0	1.6636868
138	0x40630421	3.547127
139	0xbf809098	-1.0044127
140	0xbf02217a	-0.5083233
141	0x3f2dced4	0.6789372
142	0x3e8703eb	0.26370177
143	0x3f1c4967	0.61049503
144	0x3f964001	1.1738282
145	0x3e9b0aa9	0.3028157
146	0xbf8aac21	-1.083378
147	0x3e7444db	0.23854391
148	0x3e7c70d9	0.24652423
149	0x3f461a8e	0.7738427
150	0xbecb856c	-0.3975023
151	0xbed77c59	-0.42087057
152	0x3da47a67	0.08031159
153	0xbcf92547	-0.030413283
154	0xbea7f341	-0.32802776
155	0xbf522cae	-0.82099426
156	0x3fa9a1c7	1.3252496
157	0xbd02b5c2	-0.03191162
158	0xbedb57d6	-0.4284045
159	0xbf06dbed	-0.5267933
160	0xbeee9895	-0.46600786
161	0x3f733a5d	0.9501093
162	0xbec733da	-0.38906747
163	0xbfa140f0	-1.2597942
164	0xbdef8bc4	-0.1169658
165	0x3f289fb8	0.6586871
166	0xbf05d57c	-0.52278876
167	0xbe9a58c3	-0.30145845
168	0xbeee7815	-0.4657599
169	0x3e9ed527	0.31021997
170	0xbf75b42d	-0.9597805
171	0x3d930ef7	0.07180589
172	0xbd5e805f	-0.054321643
173	0xbed5f37e	-0.41787332
174	0xbdd84d02	-0.10561563
175	0xbf45ce3f	-0.7726783
176	0x3f16d3f3	0.5891716
177	0x3e7053fd	0.23469539
178	0xbf8a04c4	-1.0782704
179	0x3f42f029	0.76147705
180	0x3ee3934b	0.44448313
181	0xbe979630	-0.2960677
182	0xbebd012c	-0.36914957
183	0xbe24cc71	-0.16093613
184	0xbefd7f1e	-0.49511045
185	0x3ee72991	0.451489
186	0xbf1f90d7	-0.62330383
187	0x3eb412b2	0.35170513
188	0x3ce2a55c	0.02766674
189	0x3f0a2da8	0.53975916
190	0x3f25ec91	0.64814097
191	0xbe525b80	-0.20542717
192	0x3d560ab9	0.05225632
193	0x3f16880b	0.58801335
194	0xba5199e5	-0.00079956494
195	0xbe9448e9	-0.28961876
196	0xbec671d8	-0.3875873
197	0xbf16d862	-0.58923924
198	0x3f42134a	0.7581068
199	0xbf1efb4c	-0.621022
200	0x3f22e17e	0.63625324
201	0x3ecf7443	0.40518388
202	0xbf447f3e	-0.76756656
203	0xbfc27e0b	-1.5194715
204	0xbf3ec549	-0.74519783
205	0xbf7cd2f6	-0.987594
206	0xbe5726de	-0.2101092
207	0x3fe00fc6	1.7504814
208	0xbd5b2858	-0.05350527
209	0x3e50e8bc	0.20401281
210	0x3f58ca56	0.8468374
211	0x3f1ca593	0.61190146
212	0xbfafc165	-1.3730894
213	0x3e31ddbf	0.17369746
214	0xbea47be3	-0.32125768
215	0xc01d195e	-2.4546733
216	0xbdc8be21	-0.09801889
217	0xbf2ad765	-0.66734916
218	0x3fb3cd58	1.4047041
219	0x3e0ffc69	0.1406113
220	0xbed39848	-0.4132712
221	0x3f24b5ba	0.6433979
222	0x3f63b4be	0.88947666
223	0x3f28ff2c	0.6601436
224	0xbf5e933a	-0.869434
225	0x40179498	2.3684444
226	0xbfc505ee	-1.5392435
227	0x3f2507a7	0.644648
228	0xbed210e5	-0.41028515
229	0xc00c9733	-2.1967285
230	0xbf8b4978	-1.0881796
231	0xbf0ba396	-0.5454649
232	0xbe960506	-0.29300708
233	0x3f588889	0.84583336
234	0xbf068880	-0.5255203
235	0x3f058006	0.52148473
236	0xbf0255ec	-0.50912356
237	0x3fae1c83	1.3602451
238	0xbf223af6	-0.6337122
239	0x3f81dfac	1.0146384
240	0xbef82930	-0.48468924
241	0xbe4782c5	-0.19483478
242	0x3f1300d9	0.5742317
243	0xbf3f452b	-0.74714917
244	0xbf5b3758	-0.8563132
245	0x3ebd5e4a	0.36986
246	0x3e0456c1	0.12923719
247	0x3f2792e6	0.65458524
248	0x3eac5bda	0.33663827
249	0xbf4d6604	-0.8023379
250	0xc04bbf10	-3.1835365
251	0x3f5eb4a2	0.86994374
252	0x3ebc4323	0.3676997
253	0x3fe92db6	1.8217075
254	0xc09fb66e	-4.9910192
255	0xbecd9f2c	-0.401605

bias_ih_l1 f4 [200]
0	0xbf3b2343	-0.7310068
1	0xbfbdf395	-1.483996
2	0xbedd6b83	-0.43246087
3	0xbfc79798	-1.5593138
4	0x3ddb857a	0.10718818
5	0xbf658fc4	-0.89672494
6	0xbf56173c	-0.836292
7	0xbfb66f54	-1.4252725
8	0xbf747d71	-0.9550391
9	0xbf36168b	-0.7112815
10	0xbfbdd506	-1.4830635
11	0xbfc650e4	-1.5493436
12	0xbed7dbf8	-0.4216001
13	0xbf72c911	-0.94838053
14	0xbf9061dd	-1.1279866
15	0xbfef10d2	-1.8677008
16	0x3f65237d	0.89507276
17	0xbf4958ce	-0.7865113
18	0xbf95aa49	-1.1692592
19	0xbf6f6832	-0.93518364
20	0xbe6a32e7	-0.2287098
21	0xbf79255f	-0.9732265
22	0xbe5e468a	-0.21706596
23	0xbf78ec8e	-0.97235954
24	0xbfd9ef99	-1.7026244
25	0xbef89bf4	-0.48556483
26	0xbed21842	-0.41034132
27	0xbf1e33d3	-0.6179783
28	0xbf6de549	-0.92927986
29	0xbff92022	-1.9462931
30	0xbfc9ae00	-1.5756226
31	0x3e45a886	0.19302568
32	0xbfba8406	-1.457154
33	0xbdab5a8a	-0.08366878
34	0xbf63fe89	-0.89060265
35	0xbf5c6739	-0.86095005
36	0xbebf6f7f	-0.37389752
37	0xbf7473dc	-0.9548929
38	0xbfbfc6a0	-1.498249
39	0xbf7d4199	-0.9892822
40	0xbe2dcba4	-0.16972214
41	0xbf1afd46	-0.60542715
42	0xbd1fde6f	-0.03903049
43	0xbf85f1f4	-1.0464463
44	0x3e94167d	0.28923407
45	0xbfc9cafd	-1.5765072
46	0xbf87a029	-1.0595752
47	0xbf345c91	-0.70453745
48	0xbf866cb2	-1.0501921
49	0xbf2b2ad7	-0.66862243
50	0xbf95f7f4	-1.1716294
51	0xbff80f06	-1.9379585
52	0xbf991dc7	-1.1962212
53	0xc05e9624	-3.4779139
54	0x3ea56fd3	0.32311878
55	0xbfa91abc	-1.3211284
56	0xc0173de9	-2.3631537
57	0xc035ecae	-2.8425708
58	0xc0349e08	-2.8221455
59	0xbffb4630	-1.9630795
60	0xbf890971	-1.0706006
61	0xbfccd3c7	-1.6002129
62	0xbfc9e3eb	-1.577268
63	0xc01c374c	-2.440875
64	0xbff42361	-1.9073297
65	0xc05ffb8c	-3.4997282
66	0x3fbc8ae7	1.472989
67	0xbfc508c8	-1.5393305
68	0xc028f2fa	-2.63983
69	0xc01338b1	-2.3003352
70	0xbf720ec3	-0.94553775
71	0xc0812b49	-4.036534
72	0xbffa4f52	-1.9555457
73	0xc044d97c	-3.0757742
74	0x3fec6211	1.8467427
75	0xbfc7b2a5	-1.5601393
76	0x3e068262	0.13135675
77	0xc03d858e	-2.9612765
78	0x3fc7e50f	1.5616778
79	0xc019fe14	-2.4061327
80	0xc011298e	-2.2681613
81	0xbfd0d3d8	-1.631465
82	0xc082904a	-4.0801134
83	0xc0c32c48	-6.0991554
84	0xbfbff1b4	-1.4995637
85	0xbf08912e	-0.53346527
86	0xc049539e	-3.1457286
87	0xc010599f	-2.25547
88	0xc01a0d7b	-2.4070728
89	0xc0416dab	-3.0223186
90	0xbf1ad356	-0.60478723
91	0x3d99cea8	0.0751012
92	0xc001e0f8	-2.029356
93	0xbff25682	-1.893265
94	0xc0410e5e	-3.016502
95	0xc013dbb3	-2.3102844
96	0xbfb8cd02	-1.4437563
97	0xbfd6fdb6	-1.6796176
98	0xc02f0c7d	-2.7351372
99	0xbec2e096	-0.3806197
100	0xbf08be27	-0.5341515
101	0x3f176f0e	0.5915383
102	0x3e81940e	0.2530827
103	0x3e0a4d47	0.13506041
104	0x3d6a7352	0.057238884
105	0xbee126c2	-0.43974882
106	0xbc7a2fd1	-0.015270189
107	0xbf1751ed	-0.59109384
108	0xbd75140d	-0.059833575
109	0xbe86cc76	-0.26327866
110	0x3ef2f009	0.47448757
111	0xbf40d4a6	-0.75324476
112	0x3fdd111c	1.7270846
113	0x3c449eff	0.012000798
114	0xbe155f9d	-0.14587255
115	0x3e1700a2	0.14746335
116	0xc00bd2a8	-2.1847324
117	0x3dd768f8	0.10518068
118	0x3e3ab892	0.1823447
119	0xbeb37d5f	-0.35056588
120	0x3e066c53	0.1312726
121	0xbeeda2aa	-0.46413165
122	0xbe1f131f	-0.15534638
123	0xbf026e57	-0.50949615
124	0x3f79b01d	0.9753435
125	0xbef57387	-0.47939703
126	0xbdcc2422	-0.09967829
127	0xbfb88eaa	-1.4418538
128	0x3f8454c7	1.0338372
129	0xbed2f9bc	-0.41206157
130	0xbeaa2f50	-0.33239222
131	0x3fc2a1d2	1.5205634
132	0x3fbf1fdb	1.4931597
133	0xbdeccb6a	-0.11562236
134	0x3e31b341	0.17353536
135	0x400d51f2	2.2081265
136	0xbe25821c	-0.16162914
137	0x3f0ca460	0.54938316
138	0x3e850e28	0.25987363
139	0xbf588f8f	-0.84594053
140	0xbd4f1f2c	-0.050566837
141	0x3f42854b	0.7598464
142	0x3ef50993	0.47858867
143	0x3e5c4cdc	0.21513695
144	0xbf6f17c0	-0.93395615
145	0xbea5d97d	-0.32392493
146	0x3ea10475	0.31448713
147	0x3f1db602	0.61605847
148	0x404fc1d2	3.2462049
149	0xbf821f67	-1.0165833
150	0xbfd0a3bc	-1.6299968
151	0xbfa06b56	-1.2532756
152	0xbf93ce06	-1.1547248
153	0xbef47946	-0.47748774
154	0xbfce519d	-1.6118656
155	0xbf2aefd7	-0.66772217
156	0xbfa862a6	-1.3155105
157	0xbfa47375	-1.2847735
158	0x3f61b042	0.88159573
159	0xbfcbcdb6	-1.5922153
160	0xbf92186e	-1.1413705
161	0xbfa48249	-1.285226
162	0xbff1ef3e	-1.8901136
163	0x3e8ec6f5	0.27886167
164	0xbf4376b5	-0.7635301
165	0xbea3f97d	-0.32026282
166	0xbff384d9	-1.9024917
167	0xbf9c51fb	-1.2212518
168	0xbf663ffc	-0.8994138
169	0xbe33f83d	-0.17575164
170	0xbe336dc8	-0.17522347
171	0xbe852a78	-0.26008964
172	0xc011fb98	-2.280981
173	0xbf5465eb	-0.82968014
174	0xbfcdf98a	-1.6091778
175	0xc00e1eb9	-2.2206252
176	0xbebc586c	-0.3678621
177	0xc00d43eb	-2.2072704
178	0xbff0bccf	-1.880762
179	0xbf6d7fdc	-0.9277322
180	0xbf8b1448	-1.0865564
181	0xbfd08c7a	-1.629287
182	0xc00d4f7b	-2.207976
183	0xbfd76492	-1.6827567
184	0xbf8a2bea	-1.0794652
185	0xbfa13bb3	-1.2596344
186	0xbf4bfabb	-0.7967946
187	0xc05a1800	-3.4077148
188	0xbf8a10a9	-1.0786334
189	0xc01a7bab	-2.413798
190	0xbf673a70	-0.90323544
191	0xc00a61e3	-2.1622245
192	0xbf928dc6	-1.1449516
193	0xbfaeaaa2	-1.3645823
194	0xbf8f2599	-1.1183349
195	0xbf775573	-0.9661476
196	0xbfbbb0d1	-1.4663335
197	0xbf5bb81a	-0.8582779
198	0xbf4cf08b	-0.8005454
199	0xc0080a33	-2.1256225

bias_hh_l1 f4 [200]
0	0xbf2e097a	-0.6798321
1	0xbfbc620b	-1.471742
2	0xbec8558f	-0.39127776
3	0xbfa76232	-1.3076842
4	0xbd806467	-0.0626915
5	0xbf39d79b	-0.7259461
6	0xbf4aa043	-0.7915079
7	0xbfbd5568	-1.4791689
8	0xbf42572f	-0.7591428
9	0xbf1f60cc	-0.62257075
10	0xbfaf9ea2	-1.3720286
11	0xbfd33708	-1.6501169
12	0xbecea183	-0.403576
13	0xbf847a03	-1.0349735
14	0xbf7c39c9	-0.98525673
15	0xbfeb0146	-1.8359764
16	0x3f6591b2	0.8967544
17	0xbf7049de	-0.9386271
18	0xbf9a2864	-1.2043576
19	0xbf678e0b	-0.90451115
20	0xbed231e8	-0.410537
21	0xbf8eefef	-1.1166972
22	0xbe1ad45f	-0.15120076
23	0xbf6d3112	-0.92653
24	0xbfe4face	-1.788904
25	0xbf17eb95	-0.59343845
26	0xbeefcbf1	-0.46835282
27	0xbedb6b70	-0.42855406
28	0xbf8f5313	-1.1197227
29	0xbfe1a362	-1.7627985
30	0xbfab6a13	-1.3391746
31	0x3c065dff	0.008201121
32	0xbfa0e795	-1.2570673
33	0xbe05336c	-0.13007897
34	0xbf63e549	-0.89021736
35	0xbf45efa9	-0.7731882
36	0xbe8d37c4	-0.27581608
37	0xbf758124	-0.9590018
38	0xbfc6cf2d	-1.5531975
39	0xbf779179	-0.9670635
40	0xbe1174f8	-0.14204776
41	0xbf1ef0a4	-0.6208594
42	0x3b687384	0.0035469243
43	0xbf846944	-1.0344625
44	0x3e231b82	0.15928462
45	0xbfc0fe8e	-1.5077684
46	0xbf9a43a5	-1.2051893
47	0xbf59e8e9	-0.8512102
48	0xbf7565bb	-0.95858353
49	0xbf267f76	-0.6503824
50	0xbfb30f2a	-1.3989003
51	0xbffa056a	-1.9532902
52	0xbf937b1e	-1.1521947
53	0xc05e8e63	-3.4774406
54	0x3dab1d4d	0.08355198
55	0xbfa91ff2	-1.3212874
56	0xc016dabb	-2.3571002
57	0xc031dc9d	-2.7790902
58	0xc0359292	-2.837071
59	0xc002893c	-2.0396261
60	0xbf786947	-0.9703564
61	0xbfc10e1a	-1.5082428
62	0xbfcbc12e	-1.5918329
63	0xc00fdcc7	-2.2478502
64	0xbfefcea8	-1.8734941
65	0xc065be1b	-3.589728
66	0x3fd709e6	1.6799896
67	0xbfbe8b6a	-1.4886296
68	0xc01d48cd	-2.4575684
69	0xc0169249	-2.3526785
70	0xbf63df63	-0.89012736
71	0xc0834dff	-4.103271
72	0xc0044823	-2.0669029
73	0xc046f617	-3.1087701
74	0x3fe1ae05	1.7631232
75	0xbfc68f59	-1.5512496
76	0x3cf34a35	0.02969847
77	0xc03df79b	-2.9682376
78	0x3fe0e60f	1.7570208
79	0xc020ea11	-2.5142863
80	0xc0217587	-2.5227983
81	0xbfd11f50	-1.6337681
82	0xc084b547	-4.1471286
83	0xc0c0d204	-6.0256367
84	0xbfbe0be8	-1.4847383
85	0xbf0bdf7f	-0.546379
86	0xc041ce24	-3.0282068
87	0xc017ac38	-2.3698864
88	0xc019397d	-2.3941338
89	0xc03ed305	-2.9816296
90	0xbf43f950	-0.76552296
91	0x3e001d38	0.12511146
92	0xbfe41323	-1.781834
93	0xbfeb3055	-1.8374125
94	0xc0465d6d	-3.0994523
95	0xc0124152	-2.2852368
96	0xbfae3144	-1.3608785
97	0xbfd99ef4	-1.7001634
98	0xc03b03f4	-2.9221163
99	0xbeb15d67	-0.34641573
100	0xbf32687c	-0.6969068
101	0x3ee4b65a	0.44670373
102	0x3eb2fba1	0.34957603
103	0xba49da6d	-0.00077000895
104	0x3e777860	0.24167013
105	0xbf022f58	-0.5085349
106	0xbe4726bb	-0.19448368
107	0xbf20bc8d	-0.62787706
108	0xbdd104f4	-0.10206023
109	0xbd8e5728	-0.069502175
110	0x3f15dfa8	0.585444
111	0xbf3fd749	-0.74937874
112	0x3fef6899	1.8703796
113	0xbc2be6f6	-0.010492077
114	0xbda9c72b	-0.082899414
115	0x3e03a849	0.12857164
116	0xc01044b7	-2.254194
117	0x3d82b78b	0.06382664
118	0x3de4dbaf	0.11174714
119	0xbeb0b264	-0.345111
120	0xbd1b7db6	-0.037961684
121	0xbf04bea1	-0.51853377
122	0xbdcc54ed	-0.09977136
123	0xbf24a867	-0.6431946
124	0x3f912730	1.1340084
125	0xbeec66a4	-0.4617206
126	0x3d36e78e	0.04465442
127	0xbfbcfc9f	-1.4764594
128	0x3f8539b5	1.0408236
129	0xbebef7cd	-0.37298432
130	0xbe654508	-0.22389615
131	0x3fb541aa	1.4160664
132	0x3fb6f034	1.4292054
133	0xbe8e33bb	-0.27773842
134	0x3e327c1e	0.1743016
135	0x40144672	2.3167996
136	0xbdbf23bd	-0.093329884
137	0x3f382ccd	0.7194336
138	0x3e5916de	0.2120013
139	0xbf2035c7	-0.6258206
140	0xbe49e767	-0.19717179
141	0x3f2b3432	0.6687652
142	0x3ec023e8	0.37527394
143	0x3e21d360	0.1580329
144	0xbf834cbf	-1.0257796
145	0xbecad32c	-0.39614236
146	0x3e7bb163	0.24579386
147	0x3f2e6a5c	0.6813104
148	0x404db429	3.214121
149	0xbf889cf4	-1.0672898
150	0xbfe6d0f9	-1.8032523
151	0xbf995be3	-1.1981167
152	0xbf8860b5	-1.0654513
153	0xbefbbe14	-0.49168456
154	0xbfb9c6b1	-1.4513761
155	0xbf5a2463	-0.8521177
156	0xbfafa45e	-1.3722036
157	0xbfa442ba	-1.2832863
158	0x3f638bcc	0.8888519
159	0xbfc1e24d	-1.5147187
160	0xbfa7e2ea	-1.3116124
161	0xbfab78e0	-1.3396263
162	0xc007d779	-2.1225264
163	0x3e9eee43	0.31041154
164	0xbf7ce4fe	-0.98786914
165	0xbef76e26	-0.48326224
166	0xbfddc3ab	-1.7325338
167	0xbfb6c0b6	-1.4277561
168	0xbf681a16	-0.90664804
169	0xbeb382fb	-0.35060868
170	0x3d03958e	0.03212505
171	0xbe83da92	-0.25752693
172	0xc010bdb1	-2.2615778
173	0xbf6163b9	-0.8804279
174	0xbfd63ce2	-1.673733
175	0xc0056880	-2.0845032
176	0xbe8948ac	-0.26813257
177	0xc01b5c8e	-2.427524
178	0xbfe09af2	-1.7547286
179	0xbf8395cd	-1.028009
180	0xbf807a10	-1.003725
181	0xbfc28fbd	-1.5200115
182	0xc010a81d	-2.2602608
183	0xbfc8dd6d	-1.5692574
184	0xbf9db3cc	-1.2320495
185	0xbfb9f520	-1.4527931
186	0xbf777296	-0.9665922
187	0xc0569566	-3.3528686
188	0xbf9a3b48	-1.2049341
189	0xc02179c0	-2.523056
190	0xbf328368	-0.6973176
191	0xc00a99fc	-2.1656485
192	0xbf870c14	-1.0550561
193	0xbfafdb47	-1.3738793
194	0xbf7a734d	-0.97832185
195	0xbf486c52	-0.78290284
196	0xbfcda983	-1.6067356
197	0xbf25d018	-0.6477065
198	0xbf520931	-0.82045275
199	0xbfffe607	-1.9992074
