NEURAL_MODELS/LSTM/misty-monkey-50_epoch20.pth (torch, 815279 bytes, 42 tensors)

lstm.weight_ih_l0 f4 [200, 63]
0	0xbd80db76	-0.06291859
1	0x3ffa2d2a	1.9545033
2	0x3fad1366	1.3521545
3	0xbeec55b5	-0.4615914
4	0x3fdc14d3	1.7193855
5	0x3fe33c51	1.7752782
6	0xc08dc346	-4.430087
7	0x3dfae21e	0.1225016
8	0x3f5b5143	0.8567087
9	0xbe0151eb	-0.12628905
10	0x40047cbb	2.070113
11	0x4011003c	2.2656393
12	0xc006efa2	-2.108376
13	0x3ff36aff	1.9017028
14	0xbfa15883	-1.2605137
15	0xbdde1b6c	-0.10845074
16	0x400a8568	2.1643925
17	0xbfbd4f1e	-1.478977
18	0x3dd8e9c5	0.10591463
19	0xbebf0fdd	-0.3731679
20	0x3e82b594	0.25529158
21	0x403c7b68	2.9450321
22	0x3f8d6341	1.1045915
23	0x407c7b75	3.9450352
24	0x3e13717a	0.14398757
25	0x3f8a45b6	1.0802524
26	0x40287971	2.6324122
27	0x3f921f77	1.1415852
28	0xbfabb211	-1.3413717
29	0x3e581dcf	0.21105121
30	0xbf4dc6cc	-0.80381465
31	0xbf095326	-0.536425
32	0x3dff165a	0.12455435
33	0xbec06180	-0.37574387
34	0x3f0150f6	0.5051416
35	0x3f455992	0.770898
36	0xbfe2591e	-1.7683446
37	0x4019ce34	2.4032106
38	0xc0156587	-2.3343217
39	0xc04aefd3	-3.1708877
40	0x400ed735	2.2318852
41	0x40959c4b	4.6753287
42	0xc075d788	-3.84128
43	0xbe44afab	-0.19207637
44	0x3f7af41c	0.9802873
45	0x3e592c52	0.21208313
46	0x3fadb32a	1.3570302
47	0x40f00df1	7.501702
48	0x3f4e858b	0.8067252
49	0xbfbaf5e6	-1.4606292
50	0x3f836dbb	1.0267862
51	0x3f85b3d6	1.0445507
52	0x3ff1d151	1.8892003
53	0x40235e74	2.55264
54	0x3fa66df7	1.3002309
55	0x3efd4bce	0.49471897
56	0x3fb92899	1.4465514
57	0x4065926a	3.5870614
58	0xbf990878	-1.195571
59	0x3fbbc5e2	1.4669764
60	0xc029132d	-2.6417954
61	0x3f1a1a9c	0.6019685
62	0xbfc9298a	-1.5715802
63	0xbfee6e72	-1.8627455
64	0x3f42b751	0.7606097
65	0xbf2e3704	-0.680527
66	0xbef2ea24	-0.4744426
67	0xbf714fd9	-0.9426246
68	0xbfa17055	-1.2612406
69	0x40068fa2	2.1025167
70	0x40117c31	2.273205
71	0x3f8b6f4c	1.089334
72	0xbf010f3f	-0.5041389
73	0xbe92a117	-0.28638527
74	0x3ec9e4e7	0.3943245
75	0xbfb0809d	-1.378925
76	0xbec34d5c	-0.38144958
77	0x3f40d955	0.7533162
78	0xbf7ab6ce	-0.9793519
79	0xc04b89af	-3.1802785
80	0xbf1a9dbd	-0.6039694
81	0x405ed27d	3.4815972
82	0x3f4e776b	0.8065097
83	0xbfd65458	-1.674449
84	0x3fb1169b	1.3835024
85	0xbfafd0af	-1.373556
86	0xbf83d27b	-1.0298609
87	0xbdd0c10e	-0.10193072
88	0xbfa4e6a5	-1.2882887
89	0x3e032d1f	0.12810181
90	0x3da503c0	0.08057356
91	0xc02bc1cb	-2.6837032
92	0xc07e8b0e	-3.9772372
93	0xbfadd3c5	-1.3580252
94	0x3fc1d573	1.5143265
95	0xbfeed57b	-1.8658899
96	0xbf53af3a	-0.8268925
97	0x3dec32cc	0.11533126
98	0x400ff9dd	2.2496254
99	0xbf667abc	-0.9003103
100	0x3e428f07	0.18999873
101	0x400824f1	2.1272547
102	0xc076db69	-3.8571417
103	0x3f71e07a	0.9448315
104	0x40834c0d	4.1030335
105	0x3fa172d1	1.2613164
106	0xbf0b22da	-0.54350054
107	0x3eb7e607	0.35917684
108	0xc006cdb4	-2.1063051
109	0xbfcacfa2	-1.5844615
110	0x40af576b	5.479421
111	0x40073616	2.1126761
112	0xbdadc2f3	-0.08484449
113	0xbf601070	-0.8752508
114	0xbfa38496	-1.2774837
115	0x3ead03a9	0.33791855
116	0xc00c3780	-2.1908875
117	0xbd5ca784	-0.053870693
118	0x3f87a70c	1.0597854
119	0x4013945b	2.30593
120	0xbffe5048	-1.986825
121	0x3f991f3f	1.196266
122	0x4013acad	2.3074143
123	0x409f8901	4.985474
124	0xbfa03c70	-1.2518444
125	0xbea3c42d	-0.31985608
126	0xbff0c48b	-1.880998
127	0x400f8fd2	2.243153
128	0x3f6c2a75	0.92252284
129	0xbef0b0ce	-0.4700989
130	0xbf09cc31	-0.53827196
131	0xc01d4bec	-2.457759
132	0x3f467420	0.7752094
133	0xbf85b7a4	-1.0446668
134	0x3f7f6f6c	0.9977939
135	0x3fd084c3	1.6290516
136	0x3e91019d	0.28321543
137	0x3d304862	0.04303778
138	0x3f880bb6	1.0628574
139	0x3ff36af1	1.9017011
140	0x3f8f762d	1.1207939
141	0xbfd0c757	-1.6310834
142	0x40885d2a	4.2613726
143	0x3f45f918	0.7733321
144	0x402238dd	2.5347207
145	0xbfc6976f	-1.5514964
146	0xbd175a57	-0.03695139
147	0xbebe4ab3	-0.37166366
148	0x3d583b79	0.052791093
149	0x40ab5acf	5.354835
150	0xbf461328	-0.7737298
151	0xbfb3d078	-1.4047995
152	0xbe72850b	-0.23683564
153	0x3fb62010	1.4228535
154	0xbd238dd5	-0.039930183
155	0xc082fdda	-4.0934877
156	0xc016fbf8	-2.359129
157	0x40209192	2.508885
158	0x3d349216	0.04408463
159	0x4005062e	2.0785022
160	0x40715b14	3.771184
161	0x3f091564	0.53548265
162	0xbe4ef78a	-0.20211616
163	0x3f8a4033	1.0800842
164	0xbedeb86f	-0.43500087
165	0xbf33fbb7	-0.7030596
166	0x3fe17965	1.7615172
167	0x405c9410	3.446537
168	0xbfd07539	-1.6285774
169	0xbd06764f	-0.03282767
170	0x3ef8a798	0.48565364
171	0x3f39a0ba	0.72510874
172	0xbf6fdd32	-0.9369689
173	0x403162b4	2.7716494
174	0x3fe04918	1.7522306
175	0x3fbeaab0	1.489584
176	0x3e4fb2ec	0.20283097
177	0xbfe0a734	-1.7551026
178	0xbccefffd	-0.02526855
179	0x4027fc3c	2.6247702
180	0x3f6e2583	0.9302599
181	0x3f881a7f	1.0633086
182	0x3f987e7b	1.1913599
183	0xbd84a2b4	-0.06476346
184	0xbfd76735	-1.6828371
185	0x3f72c4c4	0.9483149
186	0xbfa51120	-1.2895851
187	0xbdb2e5c9	-0.08735234
188	0xbdb0de1b	-0.08636113
189	0x3fc090a2	1.5044138
190	0xc0237d3a	-2.5545182
191	0x3fc19ab0	1.5125332
192	0xbf8a3abc	-1.0799174
193	0xbfd4e613	-1.6632713
194	0xbf53302b	-0.82495373
195	0x40939329	4.611714
196	0xc0112c30	-2.268322
197	0xc017fcc5	-2.3748028
198	0x3f23b854	0.6395314
199	0xbfcf49a0	-1.6194344
200	0xbfb2c591	-1.3966542
201	0xc091730e	-4.545295
202	0xbea1785f	-0.31537148
203	0xc02c5692	-2.6927838
204	0xc0048c78	-2.0710735
205	0xbf3e49a9	-0.74331146
206	0x3ee4bd99	0.44675902
207	0x3fd97caa	1.699117
208	0xbfc25699	-1.5182678
209	0x3e8bda97	0.27315208
210	0xbfcfd2de	-1.6236227
211	0xbe3aa340	-0.18226337
212	0xc0236d4b	-2.5535457
213	0xbf55a338	-0.8345218
214	0xbee5935a	-0.44838983
215	0x402538b6	2.5815864
216	0x3f0fb92b	0.5614192
217	0xbfd1e1e7	-1.6397065
218	0x40952940	4.6612854
219	0x405c56a2	3.4427876
220	0xc02c0984	-2.6880808
221	0xbdf3e28c	-0.11908445
222	0xbfbf4cab	-1.4945272
223	0xc029cb03	-2.6530159
224	0x3fec3481	1.8453523
225	0x40cc2839	6.37991
226	0xc011ed83	-2.2801216
227	0x41155465	9.333104
228	0x4027a6d2	2.619557
229	0x3f3e85da	0.7442299
230	0x410ba31d	8.727323
231	0xbfa6594f	-1.2996005
232	0xbf538cf8	-0.82636976
233	0x3e9e6155	0.30933633
234	0xbfdbfd14	-1.7186608
235	0xbf1c689d	-0.6109713
236	0x3f8dc3ec	1.1075416
237	0x3f8befd9	1.0932571
238	0x3f5f2cbf	0.8717765
239	0xbd9d5167	-0.07681542
240	0xbfc04b0b	-1.5022901
241	0x40bce7ae	5.903281
242	0xbf35c542	-0.71004117
243	0x3b03bda6	0.0020102053
244	0x406a8db1	3.6648982
245	0x40e7f25f	7.2483363
246	0xbfea2e2a	-1.8295338
247	0x3f9d916e	1.2310007
248	0x3f9a4985	1.2053686
249	0x40349473	2.8215606
250	0xbf999b16	-1.2000453
251	0x4099f3bf	4.811004
252	0xbed0ee4d	-0.4080681
253	0xc0491e28	-3.1424656
254	0x3f543904	0.828995
255	0x3e0a6dc3	0.13518433

lstm.weight_hh_l0 f4 [200, 50]
0	0xbea39ad0	-0.3195405
1	0x4041a393	3.0256088
2	0x3e8ca09b	0.27466282
3	0x3fecf456	1.8512065
4	0xc0055275	-2.0831578
5	0x3da6f340	0.08151865
6	0xc08e19b5	-4.440638
7	0x3f33c0c4	0.7021601
8	0x3f8bfc30	1.0936337
9	0xbf03813f	-0.5136909
10	0x4014141b	2.3137271
11	0xbf52ba44	-0.8231547
12	0xbf8f4fdf	-1.119625
13	0xbf37a606	-0.71737707
14	0xbf335e8d	-0.7006615
15	0xc044cd7e	-3.0750422
16	0xbf6f1dbf	-0.93404764
17	0x3f0d1a08	0.55117846
18	0xbf924fa9	-1.143056
19	0x3e151ee9	0.14562573
20	0x403f9e55	2.9940388
21	0xc06a474a	-3.6606011
22	0x3fc2d396	1.5220821
23	0x3fd056cf	1.6276492
24	0x3facdf52	1.3505652
25	0xbfa3abe6	-1.2786834
26	0xbf6e14cc	-0.93000484
27	0x3e5e30d0	0.21698308
28	0xbf215a73	-0.6302864
29	0xbf8b2582	-1.0870821
30	0xbfbe2e74	-1.4857926
31	0x3f558f39	0.83421665
32	0x3f2018bd	0.6253775
33	0xbf81a0ae	-1.012716
34	0x3ec41019	0.38293532
35	0x4028339c	2.62815
36	0xbe05744c	-0.13032645
37	0xbf20a05a	-0.6274468
38	0xbff9bf70	-1.9511547
39	0x400425f9	2.0648177
40	0x3f5842c5	0.8447688
41	0x3f0f17a4	0.5589545
42	0xc056b64e	-3.354877
43	0x3f37ddce	0.7182282
44	0x3fadfa3d	1.3591992
45	0xbe4f8dcf	-0.2026894
46	0xbfe305fa	-1.7736199
47	0xbfb16199	-1.385791
48	0xbf8a646c	-1.0811896
49	0x3f9ed0c7	1.2407464
50	0x3f20cc5d	0.62811834
51	0x3f60f6a9	0.87876374
52	0x3e81b3b0	0.25332403
53	0xbf40713e	-0.75172794
54	0x3fdbe8b7	1.7180394
55	0xbf69b597	-0.9129271
56	0xbfa42068	-1.282239
57	0x3ecfc616	0.40580815
58	0xbe9aa3a7	-0.30202982
59	0x3f1ae018	0.6049819
60	0x3f116a87	0.5680317
61	0xbde45e3d	-0.11150787
62	0x3f2de5f2	0.67928994
63	0xbfa4fc25	-1.2889448
64	0xbe72d84a	-0.2371532
65	0x3f2876ea	0.6580645
66	0x3f8fbe88	1.123002
67	0x3f744a70	0.9542608
68	0xbd55450e	-0.05206781
69	0x3f3d2843	0.7388956
70	0x3dd1fb35	0.10252992
71	0x3f9194cb	1.1373533
72	0xbeeba53f	-0.4602451
73	0x3e6525bb	0.22377674
74	0xbf8a06c9	-1.0783321
75	0xbe05c72a	-0.13064256
76	0x3e807544	0.25089467
77	0xbf9d5b83	-1.2293552
78	0x3eacac06	0.33724993
79	0x3f581e07	0.8442082
80	0xbdf2f407	-0.11862951
81	0x3f5409c9	0.8282743
82	0x3f374b43	0.71599215
83	0xbe92b1d8	-0.2865131
84	0xbf9c385a	-1.2204697
85	0x3eb965fc	0.3621062
86	0x3d85ef42	0.065397754
87	0x3e49574a	0.19662204
88	0x3e9f8c5e	0.3116178
89	0xbf8e186d	-1.1101204
90	0x3f14daca	0.58146346
91	0xbf9c76e5	-1.2223784
92	0xbd543705	-0.051810283
93	0x3fbb7d7d	1.4647671
94	0xbf2fb042	-0.68628323
95	0xbdcff296	-0.101536915
96	0xc0391bea	-2.8923287
97	0xbd57fda4	-0.052732125
98	0x3f152c77	0.5827097
99	0xbed69a2e	-0.41914505
100	0x4007d7de	2.1225505
101	0x40307041	2.7568514
102	0x3f5483d5	0.8301366
103	0xbc95e176	-0.018295985
104	0xbf4eccd5	-0.807813
105	0xbeb84d25	-0.35996357
106	0xbfad0712	-1.3517783
107	0x40272c26	2.6120696
108	0xbfe3c31c	-1.7793918
109	0x3f699bac	0.9125316
110	0xc04780a4	-3.1172266
111	0xbfcd7a3a	-1.6052926
112	0x3f87af22	1.0600321
113	0x3e679862	0.22616723
114	0x3f751f60	0.95751
115	0x4056d2a9	3.3566077
116	0x4006a3f7	2.1037576
117	0x3f8f08db	1.1174577
118	0x401d507d	2.4580376
119	0xbfbfc381	-1.4981538
120	0x3f97a3a1	1.184681
121	0x403589f8	2.836546
122	0x3e63421a	0.22193184
123	0x3daf7f68	0.08569223
124	0xbfd80479	-1.6876365
125	0xbeb7f843	-0.35931596
126	0xbc9390b4	-0.018013336
127	0xc0140e26	-2.3133636
128	0x402e5426	2.723886
129	0xbfa79ad4	-1.3094125
130	0xbe1337c0	-0.14376736
131	0xbfe77c33	-1.8084778
132	0xbf9c6b5b	-1.2220262
133	0xc01563a5	-2.3342068
134	0xbfc9c960	-1.576458
135	0x402f7540	2.7415314
136	0xbfaf1b22	-1.3680155
137	0xc01f685e	-2.490745
138	0xbf7d6f3a	-0.98997843
139	0xbc3519b7	-0.011053494
140	0xbd49536f	-0.049151834
141	0xc043d7f2	-3.0600553
142	0xbfdf40ce	-1.7441652
143	0x3f825c9a	1.018451
144	0x3f82bc6f	1.0213755
145	0x3e6f4d2f	0.23369287
146	0xc0470c68	-3.1101322
147	0xbed89b98	-0.4230621
148	0xc07482f6	-3.8204932
149	0xc00db1ec	-2.2139845
150	0xbf84f27e	-1.0386503
151	0xbef0120c	-0.4688877
152	0x3fb9740a	1.4488537
153	0x3f8af4cd	1.0855957
154	0xbf37d833	-0.7181427
155	0xbf8329ac	-1.0247092
156	0xbe91bd7d	-0.2846488
157	0x3f03316b	0.5124728
158	0x3eab678c	0.33477437
159	0x3e9693fd	0.2940978
160	0x3facc89d	1.3498722
161	0xbf73d756	-0.9525045
162	0x3e879cc8	0.26486802
163	0x3fe95ea1	1.8232003
164	0x3ff7dbb7	1.9363927
165	0x3ff894ee	1.942045
166	0x400e2bd9	2.2214262
167	0xbf827d32	-1.0194457
168	0xc0062b42	-2.0963902
169	0xbebc3898	-0.36761928
170	0x3fb60d37	1.4222783
171	0x4029347e	2.6438289
172	0xbf5d6f7a	-0.86498225
173	0xbf5042a8	-0.8135171
174	0x4013d418	2.3098202
175	0xc00b638c	-2.1779509
176	0x402a481f	2.660652
177	0xbec6a0d9	-0.38794592
178	0xbff66fc7	-1.9252862
179	0x3fa246ff	1.2677916
180	0x4015275c	2.3305273
181	0x3e9d43a8	0.3071568
182	0x3e35f8f7	0.17770754
183	0x3f902234	1.1260438
184	0xbfa7ddd5	-1.3114573
185	0x3f9a571b	1.2057832
186	0xc0794342	-3.89473
187	0xbda94009	-0.08264167
188	0x3da4da2c	0.080494255
189	0xbf31cf93	-0.6945736
190	0xbf33e50f	-0.7027139
191	0xbffa82ed	-1.9571205
192	0xc0108c19	-2.258551
193	0x3e72d0f2	0.23712519
194	0xbf9c123e	-1.2193067
195	0xc0087c94	-2.1326036
196	0x3d8ef363	0.06980016
197	0xbffca03c	-1.97364
198	0x3e4d551a	0.20051995
199	0xbec5bdee	-0.38621467
200	0x3f847724	1.0348859
201	0xbfe8e195	-1.8193842
202	0x3f0f0d87	0.55880016
203	0x3fd7d91f	1.6863135
204	0xc000bbf8	-2.0114727
205	0xbdaa8947	-0.08326965
206	0xbf4160b4	-0.7553818
207	0x3e88fb2d	0.26754132
208	0xbf23adfe	-0.63937366
209	0x3f105977	0.5638651
210	0x3f0e4e8a	0.5558859
211	0xbf4878d0	-0.78309345
212	0xbf595425	-0.8489402
213	0xbf97766a	-1.1833012
214	0xbedba911	-0.42902425
215	0xc0347519	-2.819647
216	0xbfd6a36d	-1.6768624
217	0x3eada7d9	0.3391712
218	0xc005f3cc	-2.0930052
219	0x3e466ed0	0.19378209
220	0xbc5e8222	-0.013580831
221	0xbf8dc267	-1.1074952
222	0x40033621	2.0501788
223	0x3f021a68	0.5082154
224	0x40296b6d	2.6471817
225	0xc011a38a	-2.2756066
226	0x3e4b193d	0.19833846
227	0xbe3cce34	-0.18438035
228	0x3f381cce	0.7191895
229	0xbf5fe9bc	-0.87466025
230	0xbf8a1043	-1.0786213
231	0x3f4d7796	0.802606
232	0xbf2c9cc7	-0.67426723
233	0x3e6106db	0.21975271
234	0x4048a040	3.134781
235	0x3f9a50c4	1.2055898
236	0xbf84fb45	-1.0389181
237	0xbf9453b6	-1.1588047
238	0xc0144125	-2.316476
239	0xbde64192	-0.11242975
240	0xbf12f08a	-0.57398283
241	0x3fc73055	1.5561625
242	0xbfd212b0	-1.6411953
243	0x4001e150	2.029377
244	0x3f0b4ecc	0.5441711
245	0xbf8dde95	-1.1083552
246	0xbd55759b	-0.05211411
247	0x3fe2c8c1	1.7717515
248	0xbfce9491	-1.6139089
249	0xbec6d0d5	-0.388312
250	0xbe7f53aa	-0.24934259
251	0x40abd204	5.3693867
252	0x3f9c7342	1.2222674
253	0xbfd93b30	-1.6971188
254	0x3f81f499	1.015277
255	0xc05ef62b	-3.483775

lstm.bias_ih_l0 f4 [200]
0	0x3f2bbc1e	0.6708392
1	0x3f07cca7	0.5304665
2	0x3ef727f8	0.4827268
3	0xbea47559	-0.3212078
4	0x3d3de0d7	0.046357002
5	0x3ece2da5	0.402692
6	0xbf18c7d6	-0.59679925
7	0xbd7d0aba	-0.061777808
8	0x3e8a6a20	0.27034092
9	0xbeb209f5	-0.34773222
10	0xbe05153c	-0.12996382
11	0xbe26f2b3	-0.1630352
12	0x3c5c1b8f	0.013434305
13	0x3e5ac8a5	0.21365602
14	0x3e8eff9f	0.27929398
15	0x3d0f819b	0.03503571
16	0x3ebcbca0	0.3686266
17	0x3c4adcd2	0.012381749
18	0x3eea108e	0.45715755
19	0xbe956df7	-0.2918546
20	0x3f672b51	0.9030047
21	0xbdc32abc	-0.09529635
22	0x3dbc510e	0.091951475
23	0x3e80223f	0.25026128
24	0xbdb2c5b9	-0.08729119
25	0x3eb69fa7	0.3566868
26	0x3e15005a	0.14550915
27	0x3edc3525	0.43009296
28	0x3eb5b1d7	0.35487244
29	0xbe0c517c	-0.13702959
30	0x3f892f5e	1.071758
31	0x3dedca39	0.116108365
32	0xbf13b0f3	-0.5769188
33	0x3ea0b81b	0.3139046
34	0xbe3a795d	-0.18210359
35	0x3e38b95c	0.18039459
36	0x3ee4392b	0.44574866
37	0x3ef8b117	0.4857261
38	0x3e79ddf5	0.24401076
39	0x3e49a479	0.19691648
40	0x3da4b8fb	0.08043095
41	0x3f05bc65	0.5224059
42	0x3f156c43	0.5836832
43	0x3e0c7f1e	0.13720366
44	0x3f244af0	0.64176846
45	0x3e22bea6	0.15893039
46	0xbd9ba042	-0.07598926
47	0xbea16e91	-0.31529668
48	0x3eed8183	0.46387872
49	0x3f0a9239	0.5412937
50	0xbe9fa1ec	-0.31178224
51	0x3e8df328	0.27724576
52	0xbefb87e2	-0.49127108
53	0xbe22186d	-0.1582963
54	0x3d4228d4	0.047402218
55	0xbdb426a8	-0.087964356
56	0xbdd151db	-0.10220691
57	0xbd41b7c6	-0.0472944
58	0xbe994277	-0.2993352
59	0x3ec70f49	0.3887885
60	0x3d9f0aba	0.07765718
61	0xbe95e1fd	-0.29273978
62	0xbee03399	-0.43789366
63	0xbf08af00	-0.5339203
64	0xbccda908	-0.025105014
65	0xbe4c5962	-0.19955972
66	0xbe192dea	-0.14958921
67	0xbea26063	-0.31714162
68	0x3eba7833	0.3641983
69	0xbf255cdf	-0.64594835
70	0xbe876d97	-0.26450798
71	0xbf41f47d	-0.75763685
72	0xbe6e3a97	-0.23264538
73	0x3f1c06a0	0.6094761
74	0xbef012bc	-0.46889293
75	0xbeac9dfd	-0.33714285
76	0x3e376049	0.17907824
77	0x3e015d2a	0.12633196
78	0xbed13599	-0.40861204
79	0xbf0532fb	-0.52030915
80	0xbe0df7c6	-0.1386405
81	0x3d78f771	0.060782854
82	0x3d5c8940	0.05384183
83	0x3e7a8efe	0.2446861
84	0xbf205cdc	-0.6264169
85	0xbec96f72	-0.3934284
86	0xbea4abf3	-0.32162437
87	0x3ee02517	0.43778297
88	0x3e7f5c22	0.2493749
89	0x3f259a09	0.64688164
90	0x3ee9f754	0.4569651
91	0xbf5c390c	-0.86024547
92	0xbdf3ff90	-0.11913979
93	0xbe0d0ebb	-0.1377515
94	0xbf4a7405	-0.7908328
95	0xbeda7aa4	-0.42671692
96	0xbee68b75	-0.45028272
97	0x3d8cec27	0.0688098
98	0x3e9b8aab	0.30379233
99	0x3e233a89	0.15940298
100	0x3eadf1f7	0.33973667
101	0xbd890413	-0.0669023
102	0xbe8eca0c	-0.27888525
103	0xbe9ad8f4	-0.30243647
104	0xbc88be63	-0.016692346
105	0xbeb064bb	-0.3445185
106	0xbedf84f5	-0.43656126
107	0xbe990d04	-0.29892743
108	0x3e604f9a	0.21905366
109	0x3ed7d9a7	0.42158243
110	0xbec104ba	-0.3769892
111	0x3e097a77	0.13425623
112	0x3ed09e40	0.40745735
113	0x3e21d26a	0.15802923
114	0xbe93af81	-0.28844836
115	0xbe1517bc	-0.14559835
116	0x3e750d4f	0.23930858
117	0x3c9784b6	0.018495899
118	0xbec87383	-0.39150628
119	0xbe41ea76	-0.18937096
120	0xbe5713b1	-0.21003605
121	0x3e046f23	0.1293302
122	0xbdad4e52	-0.08462204
123	0xbe8348b1	-0.25641397
124	0x3f00945d	0.50226384
125	0xbeb9da9c	-0.36299598
126	0xbed9f861	-0.4257231
127	0x3e75d23c	0.2400598
128	0xbd323e85	-0.043516655
129	0xbdd45d7f	-0.103693955
130	0xbe5b4b30	-0.214154
131	0x3e0bcfef	0.13653539
132	0x3e8cf151	0.2752786
133	0xbe178b74	-0.14799291
134	0x3ec1f2b8	0.37880492
135	0x3ea1336a	0.31484538
136	0xbdf3bc81	-0.11901189
137	0x3f0859cf	0.5326204
138	0x3ebc2be6	0.36752242
139	0xbecb9a7e	-0.39766306
140	0xbe831c99	-0.25607756
141	0x3ddd6967	0.108111195
142	0xbef4534d	-0.47719803
143	0xbef99113	-0.48743495
144	0xbd820c40	-0.06349993
145	0xbe4912d7	-0.19636093
146	0xbe85fce4	-0.26169503
147	0x3f2014d9	0.6253181
148	0xbeb5a11f	-0.35474488
149	0xbeed7b8e	-0.46383327
150	0xbf21444b	-0.6299483
151	0x3e21edd6	0.15813383
152	0xbedec73d	-0.43511382
153	0xbf366974	-0.7125466
154	0xbf826588	-1.0187235
155	0xbf0c7dfd	-0.5487974
156	0xbe2e4395	-0.17017968
157	0xbf58bc89	-0.8466268
158	0xbda8558e	-0.08219443
159	0xbf31e1e5	-0.6948531
160	0xbe8f74f1	-0.28018907
161	0xbe280916	-0.16409716
162	0x3cd4085a	0.025882889
163	0xbd4e154e	-0.050313286
164	0xbf634d3b	-0.8878972
165	0x3c7f0f9f	0.015567689
166	0xbe73808e	-0.23779508
167	0x3dbf547b	0.09342285
168	0xbf8ca7fa	-1.0988762
169	0xbdb208f4	-0.08693114
170	0xbe8d1867	-0.2755768
171	0x3d81922f	0.063267104
172	0xbec3570d	-0.38152352
173	0xbdd3f4ad	-0.103494026
174	0xbe584079	-0.21118344
175	0xbea22114	-0.31665862
176	0xbf705948	-0.9388623
177	0x3e328ee4	0.17437321
178	0xbec797e5	-0.38983074
179	0xbf4bfde2	-0.7968427
180	0xbebafe72	-0.3652225
181	0xbc69b82a	-0.0142651
182	0xbf484d76	-0.78243196
183	0xbefb97d8	-0.49139285
184	0xbe7f00e8	-0.2490269
185	0xbeeb51c3	-0.45960817
186	0xbee48745	-0.44634452
187	0xbfadd5c2	-1.3580859
188	0xbee98431	-0.45608667
189	0xbf8b94b5	-1.0904757
190	0xbef9dd4c	-0.4880165
191	0xbeab1f22	-0.3342219
192	0xbe83c147	-0.25733396
193	0xbf82f0d4	-1.0229745
194	0x3e3b5a3c	0.1829614
195	0x3ed406a4	0.41411316
196	0xbefbaa1d	-0.49153224
197	0x3e6b6d6f	0.22990964
198	0xbe8f24fe	-0.2795791
199	0x3cd049a4	0.02542574

lstm.bias_hh_l0 f4 [200]
0	0x3eda8d7e	0.42686075
1	0x3ec78c99	0.38974455
2	0x3ee90cfd	0.45517722
3	0xbe50a959	-0.20377101
4	0x3e84c955	0.25934854
5	0x3eee342d	0.46524182
6	0xbefb657d	-0.49100867
7	0x3ddaacc7	0.10677486
8	0x3e8e110e	0.27747387
9	0xbf10ab97	-0.56511825
10	0xbdc179ee	-0.09447084
11	0x3d73bad2	0.059504338
12	0x3cc8850f	0.02447751
13	0x3e17c093	0.14819555
14	0x3e822db9	0.2542551
15	0x3c9e2d92	0.019308839
16	0x3e6764df	0.22597073
17	0xbd30e4d6	-0.043186985
18	0x3ebcb600	0.36857605
19	0xbe3db793	-0.1852706
20	0x3f45ae6f	0.7721929
21	0xbd6ffec4	-0.058592573
22	0x3ea3b726	0.3197567
23	0x3dcc723f	0.09982728
24	0x3d60b32d	0.054858375
25	0x3edeaa8d	0.43489495
26	0x3e8f0ef7	0.27941105
27	0x3e71082b	0.23538272
28	0x3ed67171	0.41883424
29	0xbe4ed8bd	-0.20199867
30	0x3f61d78c	0.88219523
31	0x3e867760	0.2626295
32	0xbefd2e81	-0.49449542
33	0x3eaf2e80	0.34215164
34	0xbde5f3d9	-0.11228151
35	0x3d173625	0.03691687
36	0x3eaf41ff	0.3423004
37	0x3eb92b3c	0.36165798
38	0x3e63dac0	0.22251415
39	0x3ecf112d	0.40442792
40	0xbd4041ef	-0.04693788
41	0x3e99bd95	0.30027452
42	0x3f051967	0.51991886
43	0xbde25473	-0.11051264
44	0x3f1acb6b	0.6046664
45	0x3e8d69d7	0.27619812
46	0xbce26b10	-0.027638942
47	0xbf08abb9	-0.5338703
48	0x3f168d46	0.58809316
49	0x3ed4630f	0.41481826
50	0xbeb89c9b	-0.3605698
51	0x3d7a1676	0.061056577
52	0xbede859b	-0.43461308
53	0xbe2b4150	-0.16724133
54	0x3dd2fecd	0.10302506
55	0xbea96103	-0.33081827
56	0xbe303003	-0.17205815
57	0x3d9e8371	0.07739914
58	0xbe358f2b	-0.17730395
59	0x3e8805d7	0.26566955
60	0x3e76db55	0.24107106
61	0xbedddade	-0.43331045
62	0xbefafe9a	-0.4902237
63	0xbeb694a7	-0.35660288
64	0xbd539ec9	-0.0516651
65	0xbe7fb917	-0.2497295
66	0xbdca5a48	-0.09880501
67	0xbe8c0c7e	-0.2735328
68	0x3e04a8cb	0.12955014
69	0xbf2ecfb7	-0.682857
70	0xbeeaf20a	-0.45887786
71	0xbf5dd70c	-0.8665626
72	0xbe0cd36a	-0.13752523
73	0x3eeb658e	0.45975918
74	0xbeccaee1	-0.39977172
75	0xbe3adc77	-0.18248163
76	0x3e5c0639	0.21486749
77	0x3e5b175f	0.21395634
78	0xbf16aaa0	-0.58854103
79	0xbf1c7957	-0.6112265
80	0xbd8668e8	-0.06562978
81	0xbd922604	-0.07136157
82	0x3e06f399	0.13178863
83	0x3e80c08c	0.25146902
84	0xbf4b70a6	-0.7946876
85	0xbf05b44d	-0.5222824
86	0xbe46b4c2	-0.19404891
87	0x3f0db969	0.5536104
88	0x3e9eecde	0.3104009
89	0x3f438cd1	0.76386744
90	0x3ef43735	0.4769837
91	0xbf3cab3c	-0.7369878
92	0xbccb350b	-0.024805566
93	0xbd313dc5	-0.0432718
94	0xbf580233	-0.84378356
95	0xbee8692a	-0.45392734
96	0xbeb58f23	-0.35460767
97	0x3d4fdd87	0.050748374
98	0x3e5d4bbe	0.21610925
99	0x3e5126ec	0.20425004
100	0x3efba2e9	0.49147728
101	0x3d17c49d	0.03705274
102	0xbe2a4fab	-0.16631953
103	0xbe922630	-0.2854476
104	0xbe3461dd	-0.17615457
105	0xbefbf3e6	-0.49209517
106	0xbeb83eff	-0.35985562
107	0xbe70f2a0	-0.23530054
108	0x3ebba56d	0.36649647
109	0x3ebbffec	0.3671869
110	0xbf018b2e	-0.50602996
111	0xbda3456d	-0.07972226
112	0x3ef48469	0.4775727
113	0x3e8d5938	0.2760713
114	0xbea403a8	-0.3203404
115	0xbe36e93c	-0.1786241
116	0x3e8b6e18	0.27232432
117	0x3e5d05af	0.215842
118	0xbedbe717	-0.42949745
119	0xbcd4b374	-0.025964476
120	0xbec20f79	-0.3790243
121	0x3e9930dc	0.2992009
122	0x3e113c1c	0.14183086
123	0xbe412f2c	-0.18865651
124	0x3f0481c7	0.51760525
125	0xbebdc93d	-0.37067595
126	0xbf0a788a	-0.5409018
127	0x3dc6b0d5	0.09701697
128	0x3cc4a3ec	0.024003945
129	0xbdf4c2e3	-0.11951234
130	0xbd825e76	-0.06365673
131	0xbca8962a	-0.020579416
132	0x3db44caa	0.08803685
133	0xbd586107	-0.052826907
134	0x3e879fb4	0.2648903
135	0x3e9f9caf	0.31174228
136	0xbd46e9b9	-0.04856274
137	0x3f07ec49	0.5309492
138	0x3f044d1a	0.5168015
139	0xbee5bb10	-0.4486928
140	0xbdda6f94	-0.10665813
141	0x3d8aad05	0.06771282
142	0xbeb78b0d	-0.35848275
143	0xbf146448	-0.5796552
144	0x3e13c6aa	0.14431253
145	0xbe50f8dc	-0.20407432
146	0xbe8ace7d	-0.27110663
147	0x3f1387db	0.57629174
148	0xbe8abe88	-0.2709849
149	0xbede084f	-0.43365714
150	0xbf39d02e	-0.7258328
151	0x3e554efc	0.20830911
152	0xbeee3769	-0.4652665
153	0xbf666a23	-0.900057
154	0xbf6dc691	-0.92881113
155	0xbf0efcf1	-0.5585471
156	0xbd013678	-0.031546086
157	0xbf16f802	-0.5897218
158	0xbe1860b9	-0.14880647
159	0xbf5bb0af	-0.8581647
160	0xbea2e34e	-0.31814045
161	0xbe5a78f3	-0.21335201
162	0xbda88b6c	-0.082297176
163	0xbe42cf56	-0.19024405
164	0xbf510d45	-0.8166087
165	0xbe1f94b0	-0.15584064
166	0xbebebd6c	-0.37253892
167	0x3e0784c2	0.13234237
168	0xbf7e54b7	-0.99348015
169	0xbd467574	-0.048451856
170	0xbdfe7863	-0.12425306
171	0x3e72d12e	0.23712608
172	0xbea2d808	-0.31805444
173	0xbe08e666	-0.1336914
174	0xbdfa843b	-0.12232252
175	0xbec8dc70	-0.3923068
176	0xbf3b55d9	-0.7317787
177	0x3d2e1926	0.042504452
178	0xbeb0a64e	-0.3450188
179	0xbf6141b5	-0.87990886
180	0xbe01e374	-0.12684423
181	0xbc4491a4	-0.011997614
182	0xbf544e1c	-0.82931685
183	0xbf3f8e33	-0.74826354
184	0xbeb27880	-0.3485756
185	0xbef137fc	-0.47113025
186	0xbeb8a218	-0.36061168
187	0xbf99510f	-1.1977862
188	0xbefd020c	-0.49415624
189	0xbf883451	-1.0640966
190	0xbf0b160d	-0.5433052
191	0xbea4bf5c	-0.32177246
192	0xbed694a5	-0.41910282
193	0xbf9949a4	-1.1975598
194	0x3cca1341	0.024667384
195	0x3eb805bc	0.35941875
196	0xbef2af8b	-0.47399554
197	0x3b0fccb1	0.0021942074
198	0xbe878d56	-0.26475018
199	0x3d456d1c	0.048199758

lstm.weight_ih_l1 f4 [200, 50]
0	0x3e892f72	0.2679401
1	0xbdcb5437	-0.09928172
2	0x3eb4d64f	0.35319754
3	0x3eb177e1	0.34661773
4	0xbdc31d4e	-0.09527074
5	0x3ebe3b9f	0.37154862
6	0xbc5dd5e6	-0.013539767
7	0x3ed182d6	0.40920132
8	0xbe8ae642	-0.27128798
9	0xbfab4853	-1.3381447
10	0x3e9bce1f	0.30430695
11	0x3e70e521	0.23524906
12	0x3e305c26	0.17222652
13	0xbf1c44f9	-0.61042744
14	0x3f1c3def	0.61032003
15	0x3f0aec03	0.54266375
16	0x3cb37551	0.021906527
17	0x3d547f56	0.05187925
18	0xbf8fc42b	-1.1231741
19	0xbcb28685	-0.02179266
20	0x3da014dd	0.07816479
21	0x3e29ce4e	0.16582605
22	0xbedb0165	-0.427745
23	0x3f52d3ce	0.8235444
24	0x401f3ad3	2.4879653
25	0xbdcbd06c	-0.09951863
26	0x3f1afe81	0.6054459
27	0xbfa12a47	-1.2591027
28	0x3f0a887b	0.541145
29	0xbe516b4a	-0.20451084
30	0xc0012e38	-2.018446
31	0x3e83325e	0.25624365
32	0x3f48b50c	0.78401256
33	0xbf852975	-1.0403277
34	0xbe8e72dc	-0.27822006
35	0xbfcdf7c5	-1.6091238
36	0xbe47af76	-0.19500527
37	0xbe85dbc2	-0.26144224
38	0x3e0b98a8	0.13632452
39	0x3e6e8fa4	0.23296982
40	0xbd54b139	-0.051926825
41	0xbe534084	-0.2063008
42	0xbe03eb37	-0.12882696
43	0xbee2c49f	-0.44290635
44	0xbf4359fe	-0.7630919
45	0xbc2c255d	-0.010506955
46	0xbf24dacd	-0.64396363
47	0x3fe611e8	1.7974215
48	0x3bb5fc16	0.0055537326
49	0xbda9476a	-0.08265574
50	0xbc06ab3d	-0.008219537
51	0xbdc28ab7	-0.09499114
52	0x3f971510	1.1803303
53	0xc0effecc	-7.499853
54	0xc0702593	-3.7522933
55	0xc0c07eed	-6.015494
56	0xc0a2e2b4	-5.0901737
57	0x3beb8eab	0.007188638
58	0x3e8b6ead	0.27232876
59	0x3f097f12	0.5370952
60	0x3e772f00	0.24139023
61	0xbfe29d1c	-1.7704196
62	0x3f093b05	0.5360568
63	0x3d2d342b	0.04228608
64	0x3e24cefd	0.16094585
65	0xbf23b1a6	-0.63942945
66	0x40adf80b	5.4365287
67	0x3f2f6560	0.6851406
68	0xc07d2815	-3.9555714
69	0x3f1f6029	0.62256104
70	0x3ed03e3d	0.40672484
71	0xbe7fb8af	-0.24972795
72	0x3e433607	0.19063579
73	0xbf5dbf56	-0.8662008
74	0x40b86702	5.762574
75	0xbd1f214c	-0.038850114
76	0x3df05437	0.11734813
77	0x3d3d24cf	0.04617768
78	0x3e1f84b9	0.15577973
79	0x3e9308c9	0.2871764
80	0xbd5f2434	-0.054477885
81	0x3e176c35	0.14787371
82	0x407fe602	3.9984136
83	0x3e674c9c	0.22587818
84	0xbe66c93f	-0.22537707
85	0x3ffe9077	1.9887837
86	0x3d99c609	0.07508475
87	0x3d51d4ea	0.05122844
88	0x3fe16142	1.7607806
89	0xbef19733	-0.47185668
90	0x3eb7e448	0.35916352
91	0xbf53ea09	-0.82778984
92	0xbdb57b1c	-0.08861372
93	0x3f4b03ad	0.79302484
94	0xbf7e375e	-0.99303234
95	0xbf7e68d1	-0.9937869
96	0xc015be90	-2.339756
97	0xbdb7f82f	-0.08982884
98	0x3e007c98	0.12547529
99	0x3c18e15e	0.0093310755
100	0x3f1afe65	0.60544425
101	0xbd3d21ce	-0.046174817
102	0x3dbef0b3	0.093232535
103	0x3f9317c3	1.1491627
104	0xbf484706	-0.78233373
105	0xbe7f20f1	-0.2491491
106	0xbf3daffd	-0.7409666
107	0x3df1b72c	0.118025154
108	0x3ed25e4b	0.41087565
109	0xc066e76b	-3.6078746
110	0x4010d976	2.2632728
111	0xbec4ae47	-0.38414213
112	0x3da59112	0.080843106
113	0xbefc218b	-0.4924434
114	0xbdad1c82	-0.08452703
115	0xbee14f01	-0.44005588
116	0xbe0730b0	-0.13202167
117	0xbfa671e8	-1.3003511
118	0xbfc5f9b1	-1.5466825
119	0x3f04cf0f	0.51878446
120	0x3fe99ebb	1.8251566
121	0x3d5fb7d1	0.05461866
122	0xc0451806	-3.0795913
123	0xbeda5f31	-0.4265075
124	0xbf943742	-1.1579363
125	0xbe4459bf	-0.1917486
126	0x3dfb5c4b	0.12273463
127	0xbda36350	-0.07977927
128	0x3c5ef209	0.01360751
129	0x3eed5666	0.4635498
130	0x3f8b4efc	1.0883479
131	0x3d55b4b8	0.0521743
132	0x3ebb6468	0.3660004
133	0xbf478804	-0.7794192
134	0x3e700ab8	0.23441589
135	0xbeff12a0	-0.49818897
136	0x3eb0ffed	0.34570256
137	0x3cf0704e	0.029350426
138	0x3f07eef5	0.53098994
139	0xbefc0b11	-0.49227193
140	0x3d7ff88d	0.062492896
141	0x3efb654a	0.49100715
142	0xbf5d3d42	-0.86421597
143	0xbe51c0c6	-0.20483693
144	0x3e527768	0.20553362
145	0xbe752278	-0.2393893
146	0xbfab42c5	-1.3379751
147	0x3f903e6c	1.126905
148	0xbeabe94c	-0.3357643
149	0xbe5b9475	-0.2144335
150	0x3fb69bcb	1.4266294
151	0x3e77c184	0.24194914
152	0x3e859fc2	0.26098448
153	0x3ee6f5ba	0.4510935
154	0xbbe15090	-0.006876059
155	0xbec43b0e	-0.38326305
156	0xbdbb71a6	-0.09152536
157	0xbf224b0c	-0.6339576
158	0x3bc6a9df	0.0060627307
159	0x3f2a1a4c	0.66446376
160	0xc0078566	-2.117517
161	0xbe39deaf	-0.18151353
162	0xbed22a4a	-0.4104789
163	0xbea69b32	-0.3254028
164	0x3e4cf76f	0.20016263
165	0xbf1930aa	-0.5983988
166	0x3fca86f2	1.5822432
167	0xbe846240	-0.2585621
168	0xbed6a2a6	-0.41920966
169	0xbd7a42df	-0.06109893
170	0xbf9a08aa	-1.2033894
171	0xbf270628	-0.6524377
172	0x3b9a9f45	0.0047186934
173	0x3e9db761	0.3080397
174	0x3e9bb814	0.30413878
175	0x3f2ee938	0.68324614
176	0x3f1d1462	0.61359227
177	0x3e1422a7	0.14466344
178	0x3ead56ab	0.33855185
179	0x3e1241e0	0.14282942
180	0xc01eed71	-2.4832423
181	0x3e495180	0.19659996
182	0x3f563ece	0.8368958
183	0xbfefcfe9	-1.8735324
184	0x3f929f94	1.1454949
185	0x402206c9	2.5316641
186	0x3d92d19d	0.07168887
187	0xbe7aabe5	-0.24479635
188	0x3f01389e	0.50477016
189	0x3e643738	0.2228669
190	0xbf7ca23b	-0.98685044
191	0x401e1ed5	2.4706318
192	0xbe41beba	-0.18920413
193	0xbe899f00	-0.2687912
194	0xbed863cf	-0.42263648
195	0x3f1ff0c5	0.6247676
196	0xbfb37920	-1.402134
197	0x402e47e8	2.7231388
198	0xbeb287b9	-0.34869173
199	0xbd1540f4	-0.036438897
200	0xbd9d2090	-0.076722264
201	0xbf117a5d	-0.56827337
202	0x3ca711ae	0.020394173
203	0xbd1d0ec4	-0.03834416
204	0xbe7b1fab	-0.24523799
205	0xbf108cec	-0.5646503
206	0x3ea7eac1	0.3279629
207	0x3d1badf3	0.038007688
208	0x3d9169e2	0.07100274
209	0xbf437ba9	-0.76360565
210	0xbd17975d	-0.037009586
211	0x3fa1beff	1.2636412
212	0xbe10209e	-0.14074942
213	0xbd659d30	-0.05605811
214	0x3ea6223f	0.32448003
215	0xbe54560d	-0.20735951
216	0x3f654174	0.89553
217	0x3f3f7960	0.7479458
218	0x3dce1562	0.10062672
219	0xbf0e254d	-0.55525666
220	0x3f6450ea	0.89185965
221	0xbfd74fff	-1.6821288
222	0xbfc59e8d	-1.5439011
223	0x3e4e0830	0.20120311
224	0x3d1e5705	0.038657207
225	0xbf06e8dd	-0.5269907
226	0x3e9fd8c9	0.3122008
227	0xbdcb4e65	-0.09927062
228	0xbf76ae8b	-0.9636008
229	0xbf21fe52	-0.63278687
230	0x3faeba3d	1.3650585
231	0xbe7c0acd	-0.24613495
232	0xbc836d22	-0.01604325
233	0x3f273610	0.6531687
234	0x3fdd9837	1.7312077
235	0x3e1a4f6a	0.15069357
236	0xbf42719c	-0.75954604
237	0xbecfd888	-0.40594888
238	0xbe6ffd4b	-0.23436467
239	0x3e6c1ac8	0.23057091
240	0x3df0f5b8	0.11765617
241	0x40059dd1	2.0877573
242	0x3f62fcc5	0.88666946
243	0xbf9ba32e	-1.2159173
244	0xbed6e297	-0.4196975
245	0x3e3820d5	0.17981274
246	0xc04cc3ec	-3.1994581
247	0xbea60d3d	-0.32431975
248	0xbea4ab75	-0.3216206
249	0x3eba7c26	0.36422843
250	0x3e2861d6	0.16443571
251	0x3d410d60	0.047131896
252	0x3bcef501	0.006315828
253	0xbf34bdf7	-0.70602363
254	0x3f54fcfa	0.8319851
255	0x3e9ad52c	0.30240762

lstm.weight_hh_l1 f4 [200, 50]
0	0xbe4c6396	-0.19959864
1	0x3e050fc3	0.12994294
2	0xbf7f2cb0	-0.9967756
3	0x3ffc93ab	1.9732565
4	0xbe980f7c	-0.29699314
5	0xbf086e84	-0.53293633
6	0xbf40638f	-0.75151914
7	0xbe2ca2c0	-0.16858959
8	0xbd9b30ce	-0.07577668
9	0x3f7dafe5	0.9909652
10	0xbe818d2b	-0.25303015
11	0x404b4378	3.175993
12	0xbfa06727	-1.253148
13	0x3f8fab06	1.1224067
14	0x40060a57	2.094381
15	0xbfae021c	-1.3594394
16	0x3fb01607	1.3756722
17	0xbf4cd187	-0.80007213
18	0x3f335cb7	0.70063347
19	0x3f0d8075	0.55274135
20	0x3f4f6622	0.8101522
21	0x3fab61d1	1.3389226
22	0xc05af403	-3.4211433
23	0xbf1d7d76	-0.61519563
24	0xbf73ed68	-0.9528413
25	0xc053a431	-3.3068964
26	0x3e146166	0.1449028
27	0x3eab8ef3	0.335075
28	0xbfa83dd8	-1.3143873
29	0xbdf0f92e	-0.11766277
30	0x3e9faf7b	0.31188568
31	0x4048c4d7	3.1370142
32	0x3f2bd683	0.67124194
33	0xbf6592db	-0.8967721
34	0xbee6a9b1	-0.4505134
35	0x3e0902a1	0.13379909
36	0x3f182e1e	0.5944537
37	0x3f8bb7f5	1.0915514
38	0xbe3311cc	-0.17487258
39	0xbd9c4bbb	-0.07631632
40	0xbfeba054	-1.8408303
41	0xbf211b37	-0.6293215
42	0xbec72da0	-0.38901997
43	0xbe12ea73	-0.14347248
44	0x3e261031	0.16217114
45	0xbeb06b00	-0.34456635
46	0x3e809db6	0.25120324
47	0x3f917d98	1.1366453
48	0x3e8d1c24	0.27560532
49	0x3d512733	0.051062774
50	0x3f63ceb4	0.8898728
51	0x3f00ed34	0.50361943
52	0xbe18fda9	-0.14940514
53	0x3f68963e	0.9085425
54	0x3f41e732	0.757434
55	0xc09981fb	-4.7971168
56	0xbf058e0d	-0.5216988
57	0x3f986ff1	1.1909162
58	0x3fb0af5f	1.3803519
59	0xbf3de1d0	-0.7417269
60	0x3ddd28ff	0.10798835
61	0xbf840785	-1.0314795
62	0x3f6a40b0	0.91504955
63	0x3fd0c349	1.6309596
64	0x3fa3a9ee	1.2786233
65	0xc000ba78	-2.0113811
66	0xbf880959	-1.0627853
67	0x3ee858fa	0.45380384
68	0xbf007e67	-0.50192875
69	0xbf74eca5	-0.9567359
70	0xbec05add	-0.37569323
71	0xc0096446	-2.1467452
72	0xbec311d9	-0.38099554
73	0x3df9b60f	0.12192928
74	0x3f398ac1	0.72477347
75	0xbee5b892	-0.44867378
76	0x3de85f04	0.11346248
77	0xc069bcac	-3.6521406
78	0x3fb5c9c0	1.4202194
79	0xbf9f414a	-1.24418
80	0xbf4fe28d	-0.81205064
81	0x3f67905e	0.9045466
82	0xbf4cddf2	-0.8002616
83	0xbc09f891	-0.008421079
84	0xbef321ec	-0.47486818
85	0x3f1a188d	0.6019371
86	0x3ebcd68a	0.3688243
87	0x3e89eac6	0.2693693
88	0x3fa0c4b3	1.2560028
89	0x3f0229d8	0.508451
90	0xbed46fd7	-0.41491577
91	0x3f30d8c5	0.69080764
92	0xbf654952	-0.89565
93	0xbff22ea2	-1.8920481
94	0xbf141e20	-0.5785847
95	0xbe81a3eb	-0.25320372
96	0x3e3f96a0	0.18709803
97	0xc000b49e	-2.011024
98	0xbfa1ae18	-1.2631254
99	0x3e7402b8	0.23829162
100	0x40162039	2.3457167
101	0xbf756ecb	-0.9587218
102	0xc007a8ff	-2.1196897
103	0xbfb29807	-1.3952645
104	0x3e74240e	0.23841879
105	0xc0573f60	-3.363243
106	0x400e5679	2.2240279
107	0xbd9ab201	-0.07553483
108	0xbdfd649a	-0.12372704
109	0xbfe387fa	-1.7775872
110	0xbf389bb1	-0.72112566
111	0xbfac3886	-1.345475
112	0x3ed3e11f	0.4138269
113	0x406814e2	3.6262746
114	0xbedc0590	-0.42972994
115	0x3eef9dcc	0.46800077
116	0x3c3940f9	0.011306995
117	0x3f100f3d	0.5627325
118	0x40426c97	3.0378778
119	0xc0154435	-2.332288
120	0xbfc81332	-1.5630858
121	0xbf151056	-0.5822805
122	0xc0486856	-3.1313682
123	0x3d7d1e16	0.06179627
124	0x3f7706d7	0.9649481
125	0xc04d1b10	-3.2047768
126	0x3e8c6a72	0.2742496
127	0xc002dce3	-2.0447319
128	0x3edd1a1f	0.4318399
129	0xbeacccfb	-0.33750138
130	0xbea0af25	-0.31383625
131	0x400b210b	2.1738918
132	0x3f502c05	0.8131717
133	0x3db733a7	0.08945399
134	0xbdf423e3	-0.11920907
135	0xbf2cd065	-0.67505485
136	0xbf767822	-0.9627706
137	0xbff12c4a	-1.8841641
138	0xbf8f1e52	-1.1181128
139	0xbf31546f	-0.6926946
140	0x3fa84ec4	1.3149037
141	0x3f821ecb	1.0165647
142	0xbeb96419	-0.3620918
143	0x3832f8c2	4.267018e-05
144	0xbfcd9272	-1.6060317
145	0x3f157d9f	0.5839481
146	0x3fe39be8	1.7781954
147	0xbf6cc917	-0.9249434
148	0xbf973473	-1.1812881
149	0x3f939279	1.1529075
150	0xbeae63a3	-0.34060392
151	0xbc9ddcd8	-0.019270346
152	0x3ff4011d	1.906284
153	0x402187c0	2.5239105
154	0x3efe028f	0.49611327
155	0x3f98b873	1.193129
156	0x3f5d64ba	0.8648182
157	0xbf115c47	-0.5678143
158	0x3da7a8d6	0.081865
159	0xbdb74ce9	-0.08950216
160	0xbf06a05b	-0.52588433
161	0xbf5653c1	-0.8372155
162	0x3e9d98b2	0.3078056
163	0xbf43f993	-0.76552695
164	0x3f45ad4c	0.77217555
165	0x3f35ca0b	0.7101142
166	0x3ef2a196	0.47388905
167	0x3f212cc6	0.62958944
168	0xbf15a9a9	-0.58462006
169	0xbf826e54	-1.018992
170	0x3f228ea5	0.6349891
171	0x3e8a3e09	0.27000454
172	0xbf26bd6e	-0.65132797
173	0xbea25679	-0.31706598
174	0xbea6b0c4	-0.32556736
175	0xbf15fc21	-0.58587843
176	0x3f432d17	0.76240677
177	0x3fe77271	1.80818
178	0xbf85a51b	-1.0441011
179	0xbe8f929a	-0.28041536
180	0xbf3b488c	-0.7315757
181	0x3f0a6755	0.5406392
182	0xbfbb0d00	-1.4613342
183	0x3d9ff38e	0.07810126
184	0x3fa23089	1.2671062
185	0xbfafbcd8	-1.3729506
186	0x3f8709b0	1.0549831
187	0x3f5615c2	0.8362695
188	0xbe6fc741	-0.23415853
189	0xbf072138	-0.5278506
190	0x3f1aedfe	0.605194
191	0xc015dc76	-2.3415809
192	0x3e605ed9	0.21911182
193	0x3f7d6a60	0.9899044
194	0x3ea9ac45	0.33139244
195	0x3e2b6d23	0.16740851
196	0xbf91c482	-1.1388094
197	0xbf931e3a	-1.14936
198	0x3edf8922	0.43659312
199	0xbf407a8d	-0.75187
200	0xbe35c1cb	-0.17749707
201	0x3f43513a	0.76295817
202	0xbe50d3ca	-0.20393291
203	0xbe8f11a9	-0.2794316
204	0x3fabdd6e	1.342695
205	0x3fb8a65b	1.4425768
206	0x3e4e992e	0.20175621
207	0x3e53ed85	0.20696075
208	0x3d71a8dd	0.05899893
209	0xbc20c786	-0.009813195
210	0x3f6389b0	0.8888197
211	0xbee5dca9	-0.44894913
212	0x3eb44f0d	0.3521656
213	0x3f3f544e	0.74738014
214	0xbe190214	-0.14942199
215	0xbee6756a	-0.45011455
216	0x3eaa585f	0.33270547
217	0x3f83d9b0	1.0300808
218	0xbf10e7a7	-0.56603473
219	0xbca7d208	-0.020485893
220	0x3cac4443	0.021028643
221	0xbead8929	-0.33893707
222	0xbf1908fa	-0.5977932
223	0xbee3b3f5	-0.44473234
224	0xbd404f97	-0.046950903
225	0xbf4342cc	-0.762738
226	0xbf4a3950	-0.789937
227	0xbfe1f195	-1.765185
228	0x3ef8b4b9	0.4857538
229	0x3e876782	0.26446158
230	0x3eb67e82	0.35643393
231	0x3fb2db88	1.3973246
232	0x3e633481	0.22187997
233	0x3d14e8c2	0.036354788
234	0xbd9cac14	-0.07650009
235	0x3f4c561c	0.7981889
236	0xbe25e6b1	-0.16201283
237	0xbdc60f6b	-0.096709095
238	0xbc324b54	-0.010882217
239	0xbf01d721	-0.50718886
240	0xbf53844c	-0.82623744
241	0xbcdff61f	-0.02733904
242	0xbe5b7aff	-0.21433638
243	0x3f2fc555	0.6866048
244	0x3ef042fc	0.46926105
245	0x3e882a10	0.2659459
246	0xbf141307	-0.57841533
247	0x3f5515dc	0.8323648
248	0x3ba0bbb1	0.004905187
249	0x3e0e4a32	0.13895491
250	0x3f8d9075	1.105971
251	0xbf19dce4	-0.6010268
252	0x3f278f66	0.65453184
253	0x3e12246f	0.14271711
254	0xbf7ee549	-0.9956861
255	0xbe9b6995	-0.3035399

lstm.bias_ih_l1 f4 [200]
0	0xbe542a48	-0.20719254
1	0xbe6fd1bd	-0.23419853
2	0xbe561fb3	-0.2091053
3	0xbe8e960c	-0.27848852
4	0xbf2e54c2	-0.6809808
5	0xbf91f472	-1.1402724
6	0x3e8435bf	0.25822255
7	0xbe7897c4	-0.24276644
8	0x3f255008	0.64575243
9	0x3f14817f	0.58010095
10	0xbf3e7f8d	-0.7441338
11	0xbf41c658	-0.75693274
12	0x3e7bc5be	0.24587151
13	0xbf6211c7	-0.88308376
14	0x3eb669a8	0.35627484
15	0x3e2818cd	0.16415711
16	0xbf72b47d	-0.94806653
17	0x3cad0038	0.021118268
18	0x3d5c1a7b	0.05373619
19	0xbf33fe8d	-0.7031029
20	0x3eee60d0	0.46558237
21	0xbf0553f3	-0.5208122
22	0x3f213533	0.629718
23	0x3dc20a28	0.094745934
24	0x3e93fbcc	0.28903043
25	0x3eae7d53	0.3407999
26	0xbf8d3c03	-1.1033939
27	0x3ea99317	0.33120033
28	0x3e01ad7e	0.12663838
29	0xbed4ab2f	-0.41536853
30	0xbed08915	-0.40729585
31	0xbec442c0	-0.38332176
32	0xbf2eb080	-0.6823807
33	0xbeeda839	-0.46417406
34	0xbe6b6b12	-0.22990063
35	0xbdb428e8	-0.08796865
36	0xbe74416f	-0.23853086
37	0xbf0770c5	-0.5290645
38	0x3cb71152	0.022347126
39	0xbf1c386e	-0.61023605
40	0xbe119cc4	-0.14219958
41	0xbf0075fc	-0.5018003
42	0xbe7a0595	-0.24416192
43	0xbd055439	-0.032551024
44	0x3f68fcd1	0.9101077
45	0x3e3c2175	0.18372138
46	0xbecab04d	-0.39587632
47	0xbf8ca0e3	-1.0986599
48	0xbbc6622b	-0.006054183
49	0xbec87b7c	-0.3915671
50	0xbf1d5e29	-0.614718
51	0xbfe0f2ac	-1.7574058
52	0xbf4f4f3a	-0.80980265
53	0xbf9dc3bc	-1.2325358
54	0xbf41a36d	-0.7563999
55	0xbedb7fa5	-0.42870823
56	0xbd1464db	-0.036228996
57	0xbf2c0d62	-0.6720792
58	0xbf24d42f	-0.64386266
59	0x3d0fe204	0.035127655
60	0xbf1fac1f	-0.6237201
61	0xbe8abcd3	-0.27097186
62	0xbdb19427	-0.08670836
63	0xbf0ecc0e	-0.5578011
64	0x3e4491ad	0.19196196
65	0xbf9b94cc	-1.2154784
66	0xbeae27e6	-0.34014815
67	0xbf03798a	-0.5135733
68	0xbe8397fa	-0.25701886
69	0xbf88ec77	-1.0697163
70	0xbf94bb14	-1.1619592
71	0xbf2e229f	-0.6802158
72	0xbda5da9d	-0.08098338
73	0x3e058657	0.13039528
74	0xbeb858f0	-0.36005354
75	0xbdd5fdd1	-0.10448802
76	0xbfe42b7b	-1.7825769
77	0xbfa4dc93	-1.2879814
78	0xbf861d8a	-1.0477765
79	0xbf0f9546	-0.5608715
80	0xbf964f19	-1.1742889
81	0xbf803e78	-1.0019064
82	0xbf802f62	-1.001446
83	0xbf2d69de	-0.67739666
84	0xbeb23f9c	-0.34814155
85	0x3dd0aa60	0.101887465
86	0xbfcb5159	-1.58842
87	0xbf588f0e	-0.84593284
88	0xbf4e4b70	-0.8058386
89	0xbf51594c	-0.8177688
90	0xbfe14423	-1.7598919
91	0xbed93f79	-0.42431238
92	0xbf995446	-1.1978843
93	0xbf5ea6f3	-0.86973494
94	0x3f3dcfd9	0.74145275
95	0xbf09e324	-0.53862214
96	0xbfc0dc7f	-1.506729
97	0xbf57cdbe	-0.8429831
98	0xbf60be65	-0.8779052
99	0xbf8d1ebd	-1.1025006
100	0x3d55b571	0.05217499
101	0x3e59de8c	0.21276301
102	0xbe328120	-0.1743207
103	0xbe710971	-0.23538758
104	0xbe43a83d	-0.19107147
105	0xbe5863cb	-0.21131818
106	0x3f06f24d	0.5271347
107	0xbeca37e8	-0.39495778
108	0xbecddc09	-0.40206936
109	0xbf591438	-0.84796476
110	0xbf0968d0	-0.53675556
111	0x3e4de671	0.20107438
112	0x3ebf96c1	0.37419704
113	0x3d4e1d00	0.050320625
114	0xbf0431c4	-0.51638436
115	0x3e80fb4c	0.25191724
116	0x3d5ed615	0.054403383
117	0x3df03ebd	0.117307164
118	0xbdd7f0d8	-0.10543984
119	0x3eddefbf	0.43346974
120	0x3bc155d8	0.005900126
121	0xbed53886	-0.41644686
122	0xbde9868f	-0.11402618
123	0xbea0414b	-0.31299815
124	0x3f240930	0.6407652
125	0xbef0601f	-0.46948335
126	0x3e62c0c2	0.22143844
127	0x3d0cfbab	0.034419697
128	0xbc2bf5b3	-0.010495591
129	0x3dbc3315	0.091894306
130	0x3d9047da	0.070449546
131	0x3deff15f	0.1171596
132	0x3ef7706a	0.48327953
133	0x3e923148	0.28553224
134	0xbf498160	-0.78713036
135	0xbeacd6c5	-0.33757606
136	0x3c86b38a	0.016443033
137	0xbf0fd7be	-0.5618857
138	0x3d3d8965	0.046273608
139	0xbe04db8a	-0.12974373
140	0xbdc418a5	-0.09575013
141	0xbe7700f9	-0.24121465
142	0xbca32619	-0.019915627
143	0xbc1e939b	-0.009678747
144	0x3dd8b1e3	0.10580804
145	0xbf23647a	-0.6382519
146	0x3e8c3e4c	0.2739128
147	0xbcc10040	-0.02355969
148	0xbdb1e6a1	-0.08686567
149	0xbd870edf	-0.06594633
150	0xbf1da86b	-0.6158511
151	0xbfb0f940	-1.3826065
152	0xbe8fe6d6	-0.281058
153	0xbf687bdf	-0.9081401
154	0xbf05ffc3	-0.52343386
155	0xbff0c9c3	-1.8811573
156	0xc00f5d03	-2.240052
157	0xc0090ef8	-2.1415386
158	0xbf23d31d	-0.6399401
159	0xbf999c79	-1.2000877
160	0xbffc9d2e	-1.9735467
161	0x3e39797f	0.18112753
162	0xbf77e234	-0.96829534
163	0xbf501784	-0.8128588
164	0xbfbe3416	-1.4859645
165	0xbfaef46f	-1.3668345
166	0xbe89968e	-0.26872677
167	0xbea82fc3	-0.3284894
168	0xbf28220d	-0.6567696
169	0xbf8dc661	-1.1076165
170	0xbf19ef22	-0.6013051
171	0xbde2b5fc	-0.11069867
172	0xbf9206b9	-1.1408302
173	0xbedec04e	-0.43506092
174	0xbf1e6e4c	-0.6188705
175	0xbfbea707	-1.4894723
176	0xc0007859	-2.0073454
177	0xbfaf5bac	-1.3699851
178	0xbf0176c5	-0.5057185
179	0xbf03a147	-0.51417965
180	0xbfd471c4	-1.6597219
181	0xbf0a578b	-0.5403983
182	0x3ed2cb4c	0.41170728
183	0xbe48a4c9	-0.1959411
184	0xbf356ce9	-0.7086931
185	0xbf83b82c	-1.029058
186	0xbfacb86e	-1.3493783
187	0xbf706df6	-0.9391779
188	0xbfcf89a0	-1.6213875
189	0xbf3289fb	-0.6974179
190	0xbeb21367	-0.34780428
191	0xbe6c8cfc	-0.23100656
192	0xbf33c3a8	-0.7022042
193	0xbf7410a1	-0.95337874
194	0xbf5d8d8c	-0.8654411
195	0xbf9342bc	-1.1504741
196	0xbf1b52f7	-0.6067347
197	0xbf4ed14f	-0.8078813
198	0xbe074071	-0.13208176
199	0xbed58a2d	-0.41706982

lstm.bias_hh_l1 f4 [200]
0	0xbe08e237	-0.13367544
1	0xbe358fee	-0.17730686
2	0xbebeed2e	-0.3729033
3	0xbe6389e3	-0.22220568
4	0xbf1abbd6	-0.60442865
5	0xbf8ad156	-1.0845134
6	0x3e50371a	0.2033352
7	0xbe836d7a	-0.2566946
8	0x3f4a6e5b	0.7907464
9	0x3f0a4eea	0.54026663
10	0xbf448b27	-0.7677483
11	0xbf4cd0f9	-0.80006367
12	0x3eb84d0f	0.3599629
13	0xbf79fd40	-0.97652054
14	0x3eebab62	0.46029192
15	0x3b7264ad	0.0036986277
16	0xbf94e401	-1.1632081
17	0x3dbe8a50	0.09303725
18	0x3d943bbc	0.07237956
19	0xbf461aff	-0.7738494
20	0x3ed19263	0.40931997
21	0xbee58ce2	-0.44834048
22	0x3f10465f	0.5635738
23	0x3e419128	0.18903029
24	0x3ea2e663	0.31816396
25	0x3e3885a0	0.18019724
26	0xbf859403	-1.0435795
27	0x3f0fd326	0.5618156
28	0x3e41f47d	0.18940921
29	0xbed49747	-0.41521665
30	0xbeabdc32	-0.33566433
31	0xbec33fae	-0.3813452
32	0xbf5cc22a	-0.8623377
33	0xbf0d50bc	-0.55201316
34	0xbe3e5874	-0.1858843
35	0xbe0c1502	-0.13679889
36	0xbed8a57f	-0.42313763
37	0xbf00125d	-0.5002802
38	0x3d39b750	0.045340836
39	0xbf41095c	-0.75404906
40	0xbc9a050a	-0.018801231
41	0xbf1105b0	-0.56649303
42	0xbe9426c6	-0.28935832
43	0xbe19921c	-0.14997143
44	0x3f776045	0.9663127
45	0x3e2b9ef1	0.1675985
46	0xbe719a19	-0.2359394
47	0xbf8c1690	-1.0944386
48	0xbdf9d595	-0.12198941
49	0xbe6a3d18	-0.22874868
50	0xbf4bcce3	-0.7960951
51	0xbff56a93	-1.9173149
52	0xbf231539	-0.6370426
53	0xbfad7575	-1.355147
54	0xbf1b2fbe	-0.60619724
55	0xbee5b065	-0.4486114
56	0xbc09f76b	-0.008420805
57	0xbf2e323a	-0.6804539
58	0xbf2a40d4	-0.6650517
59	0x3d80f467	0.06296616
60	0xbf31b691	-0.694192
61	0xbe8aa376	-0.27077836
62	0x3e343d27	0.17601453
63	0xbf1d2873	-0.61389846
64	0x3e1b67de	0.15176341
65	0xbfba1486	-1.4537513
66	0xbedc8650	-0.43071222
67	0xbf213e32	-0.6298553
68	0xbeb7cb99	-0.3589752
69	0xbf8ed34f	-1.1158236
70	0xbf958575	-1.1681353
71	0xbf47b1e0	-0.7800579
72	0xbd0088e6	-0.031380557
73	0xbe0027aa	-0.1251513
74	0xbf1bf91d	-0.6092699
75	0x3daf6be4	0.085655004
76	0xbfd6fff7	-1.6796864
77	0xbf8843db	-1.0645708
78	0xbfa05aa2	-1.2527659
79	0xbf23125c	-0.6369989
80	0xbf8e7e9f	-1.1132392
81	0xbf7eb968	-0.9950166
82	0xbf5bbf90	-0.85839176
83	0xbef564a1	-0.47928336
84	0xbe888e14	-0.26670897
85	0x3b838704	0.004013898
86	0xbfc5b48c	-1.5445724
87	0xbf40699b	-0.7516114
88	0xbf60bf2e	-0.8779172
89	0xbf8581f4	-1.0430284
90	0xbfd55488	-1.6666422
91	0xbedabecf	-0.427237
92	0xbf8b1706	-1.0866401
93	0xbf514807	-0.8175053
94	0x3f4be799	0.79650265
95	0xbf02082d	-0.50793725
96	0xbfa1ce2d	-1.2641045
97	0xbf7d7630	-0.99008465
98	0xbf32b74c	-0.6981094
99	0xbf81fecc	-1.0155883
100	0x3e52d32a	0.20588365
101	0x3e484291	0.19556643
102	0xbe855901	-0.26044467
103	0xbde5ae20	-0.11214852
104	0xbc57ffa3	-0.013183507
105	0xbe43756b	-0.1908776
106	0x3e9a3b7c	0.30123508
107	0xbea64795	-0.32476488
108	0xbe6b7ac9	-0.22996058
109	0xbf45d39f	-0.77276033
110	0xbf19ead5	-0.6012395
111	0xbd0c74ec	-0.034291193
112	0x3f036b8e	0.5133599
113	0xbe187866	-0.14889678
114	0xbee3268d	-0.4436535
115	0x3e9f9626	0.31169242
116	0xbdeb3f5e	-0.11486696
117	0x3e0081e2	0.12549546
118	0x3dffa2e6	0.12482242
119	0x3ee56d0b	0.44809756
120	0x3d700c10	0.058605254
121	0xbf1c79bb	-0.61123246
122	0xbd96acd2	-0.073571816
123	0xbe819a3c	-0.25312984
124	0x3f56689b	0.83753365
125	0xbf16505e	-0.5871638
126	0x3e492eca	0.19646755
127	0x3c8a076b	0.01684924
128	0x3da36a21	0.07979227
129	0x3d822a98	0.0635578
130	0x3e92a3a9	0.28640488
131	0x3e82b9fd	0.25532523
132	0x3ea2b171	0.31776002
133	0x3e995da6	0.2995426
134	0xbf65389d	-0.8953951
135	0xbea9a2db	-0.3313206
136	0x3d155cd9	0.0364655
137	0xbf0bda1b	-0.5462968
138	0xbd0e2e50	-0.034712136
139	0xbe11d09c	-0.14239734
140	0xbe87c8a0	-0.26520252
141	0xbe8cf47e	-0.27530283
142	0x3dfaa78a	0.12238987
143	0xbd8a18e0	-0.06743026
144	0x3e13e625	0.14443262
145	0xbefa176b	-0.48845991
146	0x3eb6a14d	0.35669938
147	0x3da1ac07	0.0789414
148	0xbe515116	-0.20441088
149	0x3d294500	0.04132557
150	0xbf3eab0d	-0.7447975
151	0xbfab4356	-1.3379924
152	0xbe8b9ab8	-0.2726648
153	0xbf53437a	-0.82524836
154	0xbed9b35c	-0.42519653
155	0xbfe48181	-1.7852021
156	0xc0030dea	-2.0477242
157	0xc009ca18	-2.1529598
158	0xbf2fb401	-0.6863404
159	0xbf84044a	-1.0313809
160	0xbff699c8	-1.926568
161	0xbcad7b81	-0.021177055
162	0xbf6de5be	-0.92928684
163	0xbf5683c1	-0.8379479
164	0xbfd8debe	-1.6942976
165	0xbfbddb34	-1.483252
166	0xbe22be9f	-0.15893029
167	0xbec51b3c	-0.3849734
168	0xbf5679b4	-0.83779454
169	0xbf968bd4	-1.1761422
170	0xbf30c48e	-0.6904992
171	0x3dc9154e	0.09818517
172	0xbf813cbb	-1.0096658
173	0xbf0358fe	-0.51307666
174	0xbf38ae79	-0.72141224
175	0xbfbee9c9	-1.4915096
176	0xc0037fc2	-2.0546727
177	0xbfba1573	-1.4537796
178	0xbf0f7d2f	-0.5605039
179	0xbec1d3b3	-0.37856826
180	0xbfdf1bd8	-1.7430372
181	0xbefc7ad7	-0.4931247
182	0x3e9b2e27	0.3030865
183	0xbeb29651	-0.34880307
184	0xbf52e68f	-0.82383054
185	0xbf56c028	-0.8388696
186	0xbfa29331	-1.2701169
187	0xbf7d3044	-0.9890177
188	0xbfcb9386	-1.5904396
189	0xbf390a02	-0.72280896
190	0xbef6fec9	-0.4824126
191	0xbec020ec	-0.37525117
192	0xbf1b3143	-0.6062204
193	0xbf869c3a	-1.0516427
194	0xbf578f63	-0.84203166
195	0xbf9552a2	-1.1665843
196	0xbf1145d4	-0.56747174
197	0xbf41b7db	-0.75671166
198	0xbe696ce4	-0.22795445
199	0xbeae45eb	-0.34037718
