NEURAL_MODELS/LSTM/misty-monkey-50_epoch40.pth (torch, 815279 bytes, 42 tensors)

lstm.weight_ih_l0 f4 [200, 63]
0	0xbe28da32	-0.16489485
1	0x3fb18232	1.3867857
2	0x3fe0bda2	1.7557871
3	0xbfdf47e5	-1.7443815
4	0xbc3a35e4	-0.011365388
5	0x3fdceecd	1.7260376
6	0xc0b2e5d5	-5.5905557
7	0xbdb942a9	-0.090459175
8	0x3e979696	0.29607075
9	0xbfa94769	-1.3224918
10	0x4081a371	4.0512013
11	0x3f9e4319	1.2364227
12	0xc02d5cae	-2.7087817
13	0x3f5ab93f	0.85438913
14	0xbeb7b9e1	-0.35884002
15	0xbf49fe52	-0.78903687
16	0x402cffaa	2.7031045
17	0xc026edea	-2.6082711
18	0x3f56e88a	0.83948576
19	0xbf2a6a29	-0.6656824
20	0x3eabadde	0.33531088
21	0x409d95b1	4.924523
22	0x3f874de0	1.057064
23	0x408153a6	4.041461
24	0x3f956ff8	1.1674795
25	0x3fcbad79	1.5912315
26	0x3fa06719	1.2531463
27	0x3fecf4d1	1.8512212
28	0x3f3c121a	0.7346512
29	0x3fae4198	1.3613768
30	0xbf77b5d9	-0.9676185
31	0xc017d267	-2.372217
32	0xbe9b1a4d	-0.30293503
33	0x400e532c	2.2238264
34	0x3f203b41	0.62590414
35	0x3efea5e1	0.4973593
36	0xc0723d4e	-3.7849917
37	0x40516fa3	3.2724388
38	0xc0386b6e	-2.881557
39	0xc04837f4	-3.128415
40	0x409ae81d	4.840834
41	0x40d4c0a3	6.648515
42	0xc0720d0b	-3.782046
43	0xbf948764	-1.1603818
44	0x3fe58614	1.7931542
45	0xbf735533	-0.9505188
46	0x3f9836b5	1.1891695
47	0x410e763b	8.903865
48	0x3fd9f41d	1.7027622
49	0x3dcd207c	0.100159615
50	0x3f301011	0.68774515
51	0x3fb6d5e4	1.4284024
52	0x3f14ab15	0.5807355
53	0x407998df	3.8999555
54	0x403cf903	2.9526985
55	0x402dfa9a	2.7184205
56	0x3ffbcf56	1.9672649
57	0x408bef85	4.372988
58	0xbffba73e	-1.9660413
59	0x401e1c07	2.4704607
60	0xc01ea506	-2.4788222
61	0x3fa6cd1c	1.3031344
62	0xc017386a	-2.3628182
63	0xc03e8cae	-2.9773364
64	0xbe96741c	-0.2938546
65	0xbfb3d09f	-1.4048041
66	0xbeeb7046	-0.45984095
67	0xc00335bd	-2.050155
68	0xc01b6927	-2.428293
69	0x403c2761	2.9399035
70	0x40321875	2.7827427
71	0x3f0dd83d	0.5540808
72	0xbe263ec9	-0.16234888
73	0x3f25d2c3	0.6477472
74	0x3f0c0c6a	0.5470644
75	0xbf5d72ab	-0.86503094
76	0x3f8405ea	1.0314305
77	0x3fdf9941	1.7468644
78	0xbf0b6b9d	-0.5446108
79	0xc05220db	-3.2832553
80	0xbf4bbd5e	-0.79585826
81	0x40c0b5a2	6.022172
82	0x3ffabb47	1.9588403
83	0xc01d2ecf	-2.455982
84	0x3e1b5438	0.15168846
85	0xbf752df8	-0.9577327
86	0xbf28b29e	-0.6589755
87	0xbf786c04	-0.9703982
88	0xbfecf6b1	-1.8512784
89	0xbf985e47	-1.1903771
90	0xbf0e59f2	-0.55605996
91	0xc04f3037	-3.2373178
92	0xc0908af6	-4.516963
93	0xbf7ba4aa	-0.9829813
94	0x40591bfa	3.3923326
95	0xc02d0eca	-2.7040277
96	0xbfa028c1	-1.2512437
97	0x3e83d2a1	0.25746635
98	0x404c11f9	3.188597
99	0xbfb7a1e9	-1.4346286
100	0x3ec0132c	0.37514627
101	0x40871fcc	4.2226315
102	0xc09df099	-4.93562
103	0x3f0bdf8a	0.5463797
104	0x40b8473e	5.7586966
105	0x3fceba04	1.6150517
106	0xbf7593d8	-0.95928717
107	0x3edf57cb	0.43621668
108	0xc06e4a6a	-3.7232919
109	0xc0451663	-3.0794914
110	0x40d38c81	6.6109014
111	0x40127e0c	2.2889433
112	0xbe481789	-0.19540228
113	0xbf910e97	-1.1332577
114	0xbff23996	-1.8923824
115	0x3f281160	0.6565151
116	0xc00ec732	-2.230908
117	0xbf6a1d28	-0.9145074
118	0x3ff8b4d2	1.9430182
119	0x409d3b9d	4.913527
120	0xbfff1ae5	-1.9930083
121	0x3f992c1e	1.1966588
122	0x40304e8e	2.7547946
123	0x40f0dbab	7.526815
124	0xc026986d	-2.6030533
125	0x3d0bc61d	0.034124482
126	0xc02a7139	-2.6631606
127	0x40843f29	4.13271
128	0x3f9e90d3	1.2387947
129	0x3e1e8ac9	0.1548263
130	0xbff12326	-1.8838851
131	0xc06ddade	-3.7164836
132	0x40346534	2.818677
133	0xbfd25640	-1.6432571
134	0x3fb42187	1.4072732
135	0x40250b2c	2.5788069
136	0xbfc8b2b5	-1.5679537
137	0xbea7a1c6	-0.3274061
138	0x3f132cab	0.5749003
139	0x403d61af	2.9590871
140	0x407559ec	3.8336134
141	0xbfd11966	-1.6335876
142	0x409643cb	4.6957755
143	0x40430ccf	3.0476568
144	0x3f9cb510	1.2242756
145	0xc0011467	-2.0168703
146	0x3c15618c	0.009117495
147	0xbf693be3	-0.91107005
148	0xbdcb4418	-0.09925097
149	0x4102ec9d	8.182767
150	0xbf405eeb	-0.75144833
151	0xbfb85fb9	-1.4404212
152	0x3ef9ffdb	0.48828015
153	0x3f3c337a	0.73516047
154	0x4020f279	2.5147994
155	0xc09402e2	-4.625352
156	0xc02d8897	-2.7114618
157	0x402283cc	2.5392942
158	0xbd20584e	-0.039146714
159	0x407defd5	3.9677632
160	0x4099ce70	4.80645
161	0x3f0a8289	0.5410543
162	0xbf04446c	-0.51666903
163	0x3fe5014a	1.7891018
164	0xbfab1fc6	-1.3369071
165	0xc01080e7	-2.2578676
166	0x40a74a8a	5.227849
167	0x4094d376	4.650813
168	0xbf9e8089	-1.2382976
169	0x3eb95a66	0.3620178
170	0x4023becd	2.5585206
171	0x3fdd6478	1.7296286
172	0xbfef55c8	-1.8698053
173	0x40669ad6	3.6032004
174	0x405d2148	3.4551563
175	0xbd3a77fa	-0.045524575
176	0x3dcc7101	0.09982491
177	0xc0770580	-3.8597107
178	0xbb8c7bf7	-0.0042872387
179	0x3fe08e4e	1.7543428
180	0x3fc91e53	1.5712379
181	0x3f812e88	1.0092325
182	0x3f3d6b99	0.73992306
183	0x3e118b55	0.14213307
184	0xbf8e844f	-1.1134127
185	0xbf726c2f	-0.94696325
186	0xbedd3b0c	-0.43209112
187	0xbe709f38	-0.23498237
188	0xc01cca17	-2.4498346
189	0x4025bf5a	2.5898042
190	0xc033f117	-2.81159
191	0x3fe9c0fe	1.8262022
192	0xbec4ecc5	-0.3846189
193	0xbf8f6ab4	-1.1204438
194	0xbfca24ef	-1.5792521
195	0x4096d418	4.7133904
196	0xc09f2fbf	-4.9745784
197	0xc083f001	-4.1230474
198	0x3d910a81	0.070820816
199	0xbf3d9ce2	-0.7406751
200	0xbf46a738	-0.77598906
201	0xc0e8e045	-7.2773767
202	0xbfe33d95	-1.7753168
203	0xc06e2454	-3.7209673
204	0xc028eae3	-2.6393363
205	0xbf250b3f	-0.64470285
206	0x401b124a	2.4229913
207	0x40010e4a	2.0164971
208	0x3ec0ae08	0.37632775
209	0x3eb7c11c	0.35889518
210	0xbfc10be1	-1.508175
211	0xbf3279d5	-0.6971715
212	0xc0290449	-2.6408865
213	0xbe964cb7	-0.29355404
214	0xbf00b1f3	-0.5027153
215	0x4044dd38	3.0760021
216	0x3fc72133	1.5557007
217	0xc03798cc	-2.868701
218	0x40eceb6f	7.4037395
219	0x40859ef5	4.175654
220	0xc08ce2e9	-4.402699
221	0xbf3a89e4	-0.72866654
222	0xbe5193d0	-0.20466542
223	0xc02e18e8	-2.7202702
224	0x401e2fd0	2.4716682
225	0x410e5838	8.896538
226	0xbe3eefd2	-0.18646172
227	0x411bec5d	9.745206
228	0x400401a6	2.0626006
229	0xbfb086ce	-1.3791139
230	0x413de75c	11.868984
231	0xbf32dd5d	-0.69869024
232	0xbf433605	-0.762543
233	0xbf76dcce	-0.9643067
234	0xc04d3edd	-3.2069619
235	0xbf345060	-0.7043514
236	0xbe85f21c	-0.26161277
237	0xbf1a0af3	-0.6017296
238	0x3f95b7b7	1.169669
239	0xbc79037d	-0.015198586
240	0x3ece3d40	0.40281105
241	0x40f29e8d	7.5818543
242	0xbf674109	-0.9033361
243	0xbf3fd85f	-0.7493953
244	0x4080a69e	4.020339
245	0x412e92c7	10.910834
246	0xbfe63f50	-1.7988071
247	0x3f4a58a1	0.79041487
248	0xbe8cdbb5	-0.27511373
249	0x406a9281	3.665192
250	0xbfddf828	-1.7341356
251	0x409c2aed	4.88024
252	0xbf369b84	-0.7133105
253	0xc089e1ae	-4.308799
254	0x3ff89a1a	1.9422028
255	0x3efd8be9	0.49520805

lstm.weight_hh_l0 f4 [200, 50]
0	0xbf435b50	-0.76311207
1	0x40831229	4.095967
2	0xbea6c8ca	-0.32575065
3	0x404d9512	3.2122235
4	0xc000d67c	-2.013091
5	0x3f7197a1	0.9437199
6	0xc085d6e9	-4.182484
7	0x3f76275a	0.96153796
8	0x3faa5a4a	1.3308804
9	0xbfea84f5	-1.8321825
10	0x4024eb37	2.5768564
11	0xbf59d4f5	-0.8509057
12	0xbfc09163	-1.5044369
13	0xbeb2e533	-0.3494049
14	0xbf4fdda6	-0.81197584
15	0xc05e9a85	-3.4781811
16	0xbf8fbf9c	-1.123035
17	0x3f378a20	0.7169514
18	0x3e95fa5c	0.29292572
19	0x3f18a056	0.59619653
20	0x4076dd38	3.8572521
21	0xc095de89	-4.683415
22	0x3fcc484b	1.5959562
23	0x3fc7e115	1.5615565
24	0x3f94c47e	1.1622465
25	0xbfd9f4f8	-1.7027884
26	0xbf78a788	-0.9713063
27	0xbdd5962b	-0.10429033
28	0xbe3fbb00	-0.18723679
29	0xbd6246a9	-0.055243168
30	0xbf2144be	-0.6299552
31	0x3fd52265	1.6651121
32	0x3fb40a9d	1.4065739
33	0xbfc926a7	-1.5714921
34	0xbed46672	-0.4148441
35	0x40587248	3.3819752
36	0xbe3b5a1a	-0.1829609
37	0xbf5f7fbe	-0.87304294
38	0xc008436e	-2.1291156
39	0x400eddcb	2.2322872
40	0x3ee3ea75	0.44514814
41	0x3f462399	0.7739807
42	0xc083639a	-4.1059084
43	0x3e0905ed	0.13381167
44	0x3f3dd62c	0.74154925
45	0xbec97c36	-0.39352578
46	0xc018b396	-2.385961
47	0xbfb920a6	-1.4463089
48	0xbfef9ed6	-1.8720348
49	0x3fc859f1	1.5652448
50	0x3f666795	0.90001804
51	0x3f5637c6	0.83678854
52	0x3eb3562a	0.35026675
53	0xbe994c32	-0.29940945
54	0x404d6d60	3.2098007
55	0xbfd42865	-1.6574827
56	0xbfc6a425	-1.5518843
57	0x3e96c0f0	0.29444075
58	0xbf401ef1	-0.7504721
59	0xbe9de52d	-0.3083891
60	0x3eafa8b0	0.34308386
61	0xbe38146f	-0.17976545
62	0x3fa457c3	1.2839283
63	0xbfa1ebba	-1.2650063
64	0x3f12e7d2	0.5738498
65	0x3f3a3e18	0.72751
66	0x3fb9c163	1.4512142
67	0x3f950e99	1.164508
68	0x3e36be0a	0.17845932
69	0x3f51b89a	0.81922305
70	0x3f2a299f	0.6646976
71	0x3fa2edec	1.2728858
72	0xbed61d7c	-0.4181937
73	0x3ee040bb	0.43799385
74	0xbfc56352	-1.5420935
75	0xbeca21dd	-0.3947896
76	0xbf2f08cf	-0.68372816
77	0xbfacc476	-1.3497455
78	0x3d591862	0.05300177
79	0x3f852d62	1.0404475
80	0x3eb5b8d0	0.35492563
81	0x3f780cc0	0.96894455
82	0x3fa79f63	1.3095516
83	0xbe67b0df	-0.22626065
84	0xbfaa002e	-1.3281305
85	0x3e5190cb	0.2046539
86	0x3e6ab4ed	0.2292058
87	0xbe8ce1a9	-0.27515915
88	0x3eb110e1	0.3458319
89	0xbfeb2723	-1.8371319
90	0x3f57c794	0.8428891
91	0xbf9ab40a	-1.2086194
92	0x3eea016a	0.45704204
93	0x401f3f34	2.4882326
94	0xbf2b52f1	-0.66923434
95	0xbd807deb	-0.06274017
96	0xc0831e17	-4.097423
97	0x3f826f1e	1.019016
98	0x3f2a50b8	0.6652942
99	0xbe285b80	-0.16441154
100	0x40068d5b	2.1023777
101	0x403725a1	2.8616717
102	0x3dd7c192	0.105349675
103	0x3f8a495b	1.0803636
104	0xbf748245	-0.95511276
105	0xbf98c1e3	-1.193417
106	0xbf844fa5	-1.0336806
107	0x40837531	4.1080556
108	0xc0366c5a	-2.8503633
109	0x3fc70bc5	1.5550467
110	0xc04cf5da	-3.2025056
111	0xc00e0dd9	-2.2195952
112	0x3eb1c913	0.3472372
113	0x3f1e80ad	0.61915094
114	0x3fdf2889	1.7434245
115	0x4053a6a9	3.3070471
116	0x400ad5a9	2.1692908
117	0x3fc74206	1.5567024
118	0x40534655	3.3011677
119	0xbfc60ab8	-1.5472021
120	0x4032d28c	2.7941008
121	0x401b7222	2.428841
122	0x3f146c70	0.5797796
123	0xbee8a510	-0.45438433
124	0xbf6dddd4	-0.9291661
125	0xbdd087a8	-0.101821244
126	0xbf6384fe	-0.88874805
127	0xc04e56de	-3.224052
128	0x4062fe62	3.5467763
129	0xbfe8d256	-1.818919
130	0xbf78e6c9	-0.9722715
131	0xc01d2b7d	-2.4557793
132	0xbff5596b	-1.9167913
133	0xc0134ba3	-2.3014915
134	0xbeadcd85	-0.3394586
135	0x402a8073	2.66409
136	0xc03cdac8	-2.9508533
137	0xbfda8e89	-1.7074748
138	0xbf373d9e	-0.71578395
139	0x3fa46ee1	1.2846338
140	0xbd7b8333	-0.06140442
141	0xc076224b	-3.845843
142	0xbeaf4f61	-0.3424025
143	0x3e97a894	0.29620802
144	0x3ed42f81	0.41442493
145	0x3ea990fb	0.33118424
146	0xc004fa21	-2.0777667
147	0x3efef33d	0.4979495
148	0xc0903366	-4.506274
149	0xc044d9fd	-3.075805
150	0xbf23903a	-0.6389195
151	0xbdefe298	-0.11713141
152	0x3fcefbb6	1.6170566
153	0x3f5b4040	0.8564491
154	0x3f4c0a16	0.7970289
155	0xbf5e724c	-0.86893153
156	0x3dd9b2b7	0.1062979
157	0x3f32c4a8	0.69831324
158	0x3f079bd4	0.5297215
159	0xbe1185d5	-0.14211209
160	0x400c1919	2.1890318
161	0xbf613803	-0.8797609
162	0xbdbe7424	-0.09299496
163	0x3fbb5208	1.4634409
164	0x40103deb	2.2537792
165	0x3f94bf47	1.1620873
166	0x4009d8eb	2.1538646
167	0xbe74c735	-0.23904116
168	0xbf9c3db6	-1.2206333
169	0xbed3186a	-0.41229564
170	0x3fba42c0	1.455162
171	0x40572341	3.3615267
172	0xbf1a5ed4	-0.60300946
173	0xbfbf75a3	-1.4957775
174	0x3f9bb33a	1.2164071
175	0xbffb2d7f	-1.9623259
176	0x405acb4b	3.418658
177	0xbf75ad38	-0.95967436
178	0xbfcda4fc	-1.6065974
179	0x3ff134aa	1.8844197
180	0x401ec435	2.4807255
181	0x3b4dc587	0.0031398253
182	0x3e999b08	0.30001092
183	0x3f97f4a4	1.1871533
184	0xbec3977f	-0.3820152
185	0x3f7f4a41	0.9972268
186	0xc0636312	-3.5529218
187	0xbf2a6ead	-0.6657513
188	0xbf20bc23	-0.62787074
189	0xbe9b8b1d	-0.30379573
190	0xbf1cc8b7	-0.61243767
191	0xc01c3c52	-2.4411817
192	0xc04ff3ad	-3.2492478
193	0x3e22a349	0.15882601
194	0xbfe0f97b	-1.7576135
195	0xbfd27c76	-1.6444232
196	0xbf6b5bd9	-0.91937023
197	0xbf9627f6	-1.1730945
198	0xbdd96e3a	-0.10616727
199	0xbe9a282e	-0.3010878
200	0x3edbadcf	0.42906043
201	0xc01f11a9	-2.485453
202	0xbd8917e1	-0.06694008
203	0x3fc5a479	1.5440818
204	0xbfa1556f	-1.2604197
205	0xbf57f77c	-0.84362006
206	0x3df982e8	0.121831715
207	0x3eca986c	0.39569414
208	0xbf1b02b7	-0.6055102
209	0x3efd8d4c	0.49521863
210	0xbe0efc83	-0.13963513
211	0xbf2701b2	-0.6523696
212	0xbe93e304	-0.28884137
213	0xbfefd0d2	-1.8735602
214	0xbf80b9e4	-1.0056729
215	0xc0458388	-3.086153
216	0xc0228c60	-2.5398178
217	0xbeff99c8	-0.49922013
218	0xc08093f9	-4.018063
219	0xbe6462fb	-0.22303383
220	0x3f21796f	0.6307592
221	0xbffcb29f	-1.9742011
222	0x401b7517	2.4290216
223	0x3fd73c8d	1.6815354
224	0x3f824684	1.017777
225	0xc02b8a04	-2.6802988
226	0x3eb3d330	0.3512206
227	0xbe09320f	-0.13398002
228	0x3f612f22	0.87962544
229	0xbf5829b8	-0.8443866
230	0xc00ca78f	-2.197727
231	0x3fafe43e	1.3741529
232	0xbe53bada	-0.20676747
233	0xbdb893b1	-0.09012545
234	0x408bf59f	4.373733
235	0xbe402ad2	-0.18766335
236	0xbedd7240	-0.43251228
237	0xbfe3b7f5	-1.7790514
238	0xc067d36d	-3.6222794
239	0xbf4975c5	-0.7869533
240	0xbfaec2dc	-1.3653216
241	0x3fbc1159	1.4692794
242	0xbfdb9e68	-1.7157717
243	0x40215aaa	2.5211587
244	0x3ea803a7	0.32815287
245	0xbf709137	-0.9397158
246	0xbe3e78f8	-0.18600833
247	0x3f76159f	0.9612674
248	0xbffe9899	-1.9890319
249	0xbf813f1a	-1.0097382
250	0x3f135bee	0.5756215
251	0x40be0555	5.938151
252	0x3fbabef5	1.4589525
253	0xbf3d69b2	-0.73989403
254	0x3febe8a7	1.8430375
255	0xc041db54	-3.0290117

lstm.bias_ih_l0 f4 [200]
0	0x3f306fca	0.68920577
1	0x3f39245d	0.7232111
2	0x3f26c714	0.6514752
3	0xbef290bb	-0.47376046
4	0x3dabb9e0	0.08385062
5	0x3f1c4778	0.6104655
6	0xbf1d1154	-0.61354566
7	0xbdd54498	-0.10413474
8	0x3d9d7dbf	0.0769
9	0xbf1e80f4	-0.61915517
10	0xbebfa77b	-0.37432465
11	0xbe1af4fb	-0.15132515
12	0x3db90370	0.09033859
13	0x3e42ded4	0.19030315
14	0x3ec84796	0.39117116
15	0x3df771c3	0.12082245
16	0x3f012bbc	0.5045736
17	0x3c82108c	0.01587703
18	0x3eb73d0c	0.35788763
19	0xbea2ab19	-0.31771162
20	0x3f5d8874	0.86536336
21	0xbd92c131	-0.071657546
22	0x3e058a6f	0.1304109
23	0x3e545ceb	0.2073857
24	0x3ba55682	0.005045713
25	0x3f1523e7	0.5825791
26	0x3e9e0445	0.30862632
27	0x3ef2f00a	0.4744876
28	0x3e6622d6	0.22474226
29	0xbe98a05b	-0.29809842
30	0x3f9b0891	1.2111989
31	0xbd69a246	-0.05703952
32	0xbf221609	-0.6331487
33	0x3e81ad6d	0.25327626
34	0xbe071fe7	-0.13195764
35	0x3df4f18a	0.119601324
36	0x3ec101aa	0.37696582
37	0x3e725e45	0.23668773
38	0x3ec831b1	0.39100412
39	0x3db66dbb	0.08907648
40	0xbe612bf3	-0.21989422
41	0x3e97097a	0.29499418
42	0x3f020ff4	0.5080559
43	0x3c0e0105	0.008667235
44	0x3f706d83	0.939171
45	0x3e5b27dd	0.21401925
46	0xbd848bdc	-0.064719886
47	0xbe85478c	-0.26031148
48	0x3f7454e2	0.9544202
49	0x3f3cf4be	0.73810947
50	0xbea902bc	-0.330099
51	0x3ef149a0	0.47126484
52	0xbf1e38ae	-0.61805236
53	0xbee9d906	-0.45673388
54	0x3e20c646	0.15700635
55	0xbe44f183	-0.19232754
56	0xbeec8ae4	-0.46199715
57	0xbe2d449a	-0.169207
58	0xbe89df5b	-0.2692822
59	0x3ea306de	0.31841177
60	0xbe1e0567	-0.15431748
61	0xbea4a26b	-0.32155165
62	0xbf133451	-0.57501704
63	0xbf3ad0fc	-0.72975135
64	0xba12d08a	-0.0005600533
65	0xbd97c6e1	-0.0741098
66	0xbd53dd00	-0.051724434
67	0xbedec10a	-0.43506652
68	0x3ecc142a	0.39859134
69	0xbf434260	-0.76273155
70	0xbec6418d	-0.38721886
71	0xbf96ddba	-1.1786416
72	0xbe08ce83	-0.13360028
73	0x3f741a58	0.953527
74	0xbf362aa8	-0.7115884
75	0xbf173e2a	-0.5907923
76	0x3de2f0fc	0.1108112
77	0x3e020bb0	0.12699771
78	0xbee002af	-0.43752047
79	0xbf344bea	-0.70428336
80	0xbe872313	-0.26393947
81	0x3d93b100	0.072114944
82	0x3e328631	0.17434002
83	0xbca5bb12	-0.020230804
84	0xbf4cb8e0	-0.79969597
85	0xbf16498d	-0.5870598
86	0xbef14396	-0.47121876
87	0x3eca6ce9	0.39536217
88	0x3effe300	0.49977875
89	0x3f615d4d	0.8803299
90	0x3f1c1fa9	0.6098581
91	0xbf9224ac	-1.1417441
92	0xbe1a8aca	-0.15092006
93	0xbedac22a	-0.4272626
94	0xbf670b53	-0.90251654
95	0xbeb70f8f	-0.35754058
96	0xbf1ba2e5	-0.6079543
97	0xbc921ecc	-0.01783695
98	0x3e35094f	0.17679332
99	0x3d8e1d4c	0.06939182
100	0x3ea921ee	0.330337
101	0xbd6fda42	-0.058557756
102	0xbe83a3e5	-0.2571098
103	0xbe9dd898	-0.3082931
104	0xbe2c10ee	-0.16803333
105	0xbec0a7d0	-0.3762803
106	0xbf085d33	-0.5326721
107	0xbe764500	-0.24049759
108	0x3e580a05	0.21097572
109	0x3f1e02ed	0.61723214
110	0xbe884d9b	-0.26621708
111	0x3d640060	0.05566442
112	0x3efaf035	0.49011388
113	0x3e1c8b1b	0.1528744
114	0xbea12bba	-0.31478673
115	0xbe4d4a3f	-0.20047854
116	0x3e336e46	0.17522535
117	0x3d3057e0	0.043052554
118	0xbf08c51f	-0.5342578
119	0xbe47731c	-0.19477504
120	0xbe5f802a	-0.21826234
121	0x3e58361b	0.2111439
122	0xbdc3bedf	-0.0955789
123	0xbeb17713	-0.3466116
124	0x3f0c4733	0.5479614
125	0xbedb2e98	-0.42808986
126	0xbf08dedc	-0.53465056
127	0x3ec72798	0.38897395
128	0x3d94ecdc	0.0727174
129	0xbe6f55a5	-0.23372515
130	0xbe8610b3	-0.26184615
131	0x3dfd34a9	0.1236356
132	0x3ed20998	0.41022944
133	0xbd88bff1	-0.06677235
134	0x3f1017dc	0.56286407
135	0x3eccf1e9	0.40028313
136	0xbe8ddb36	-0.27706307
137	0x3f411905	0.754288
138	0x3f128982	0.5724107
139	0xbf002b46	-0.5006603
140	0xbe9eec5e	-0.3103971
141	0x3e0151d1	0.12628867
142	0xbf439195	-0.76394016
143	0xbf6b25cf	-0.91854566
144	0xbc1e249a	-0.009652281
145	0xbe57e8a3	-0.21084838
146	0xbec9fc9b	-0.39450535
147	0x3f1b95c1	0.6077538
148	0xbeca9ca1	-0.39572623
149	0xbf134b55	-0.5753682
150	0xbf2c60d3	-0.6733524
151	0x3d7ef8e9	0.062249098
152	0xbf05fa6a	-0.52335227
153	0xbf31defc	-0.6948087
154	0xbf8839d9	-1.0642654
155	0xbec81919	-0.39081648
156	0xbe27af21	-0.163754
157	0xbf5c5d64	-0.8608
158	0x3da56f65	0.080778874
159	0xbf2f5097	-0.68482345
160	0xbcf9a1a1	-0.030472578
161	0xbd29cfe6	-0.041458033
162	0xbd36ca42	-0.04462648
163	0xbc411416	-0.011784574
164	0xbf8304ec	-1.0235877
165	0x3afc8455	0.0019265512
166	0xbede1f12	-0.4338308
167	0xbdcd6165	-0.10028342
168	0xbfa31112	-1.2739584
169	0xbe89f02f	-0.26941058
170	0xbe2b0746	-0.16701993
171	0x3dac660c	0.084179014
172	0xbea0f2d6	-0.3143527
173	0xbe733369	-0.2375008
174	0xbdccef18	-0.10006541
175	0xbe92ced4	-0.28673422
176	0xbf89dccc	-1.0770507
177	0x3e0f4b24	0.13993508
178	0xbec2058f	-0.37894866
179	0xbf667c34	-0.9003327
180	0xbed3e9b9	-0.41389254
181	0xbcb04bdf	-0.021520553
182	0xbf5ef511	-0.8709269
183	0xbf14b0eb	-0.58082455
184	0xbe89ce40	-0.2691517
185	0xbf03c902	-0.5147859
186	0xbec679aa	-0.38764697
187	0xbfc2501b	-1.5180696
188	0xbf0f1ad6	-0.55900323
189	0xbf9acfce	-1.2094667
190	0xbed97566	-0.4247238
191	0xbed52724	-0.41631424
192	0xbf0a584f	-0.54041
193	0xbf9fddd3	-1.248957
194	0x3e07b31d	0.1325192
195	0x3f029bf4	0.51019216
196	0xbecf73b6	-0.40517968
197	0x3ef3d2df	0.4762182
198	0xbe7da3cc	-0.24769515
199	0x3ce63adf	0.028104244

lstm.bias_hh_l0 f4 [200]
0	0x3ee3f49c	0.4452256
1	0x3f151de7	0.5824875
2	0x3f1fb9ae	0.623927
3	0xbeb6702a	-0.3563245
4	0x3e97fbb0	0.2968421
5	0x3f2c4ab6	0.673015
6	0xbf01fc52	-0.50775635
7	0x3d83ed77	0.06441777
8	0x3dac196a	0.08403285
9	0xbf5627ac	-0.83654284
10	0xbead7b56	-0.3388316
11	0x3d91d8cf	0.07121431
12	0x3dcfa143	0.1013818
13	0x3dffad6b	0.12484249
14	0x3ebb75b1	0.3661323
15	0x3dd73c5b	0.10509559
16	0x3eb94d46	0.36191767
17	0xbd2293b9	-0.03969166
18	0x3e89e283	0.26930627
19	0xbe5831f1	-0.21112801
20	0x3f3c0b92	0.73455155
21	0xbd0f2b99	-0.034953687
22	0x3eb76812	0.35821587
23	0x3d694603	0.056951534
24	0x3e16ba53	0.14719515
25	0x3f292967	0.660788
26	0x3ee29328	0.44252896
27	0x3e8f3f11	0.27977803
28	0x3e93d0fd	0.28870383
29	0xbeb9e405	-0.36306778
30	0x3f82c4d6	1.021632
31	0x3db74231	0.08948172
32	0xbf0cfc51	-0.55072504
33	0x3e9023d6	0.2815234
34	0xbd7e8155	-0.06213506
35	0xbcc3989e	-0.023876484
36	0x3e8c0a7a	0.27351743
37	0x3de6a4bf	0.112618916
38	0x3ebd301c	0.36950767
39	0x3e97da83	0.296589
40	0xbeb1cc70	-0.34726286
41	0x3d953917	0.0728628
42	0x3ee37a03	0.44429025
43	0xbe74c934	-0.23904878
44	0x3f66edfe	0.902069
45	0x3ea99e76	0.3312871
46	0xbc86196c	-0.016369544
47	0xbef5301c	-0.47888267
48	0x3f8a109d	1.078632
49	0x3f1c9403	0.6116335
50	0xbec1fd6e	-0.37888664
51	0x3e829975	0.25507703
52	0xbf0fb78b	-0.5613944
53	0xbeee6d7a	-0.465679
54	0x3e59bb6f	0.21262906
55	0xbeded009	-0.43518093
56	0xbf082742	-0.531849
57	0xbd3653f1	-0.044513647
58	0xbe16c8ea	-0.1472508
59	0x3e47fb46	0.19529447
60	0x3c150967	0.00909648
61	0xbeec9b4f	-0.4621224
62	0xbf2099db	-0.62734765
63	0xbf0d6c43	-0.5524332
64	0xbcde2ae8	-0.027120069
65	0xbdfe8656	-0.12427966
66	0xba7680db	-0.0009403356
67	0xbec86d21	-0.3914576
68	0x3e27e0d8	0.16394365
69	0xbf4cb538	-0.7996402
70	0xbf14e2f6	-0.58158815
71	0xbfa4cef6	-1.287566
72	0xbd1d9d21	-0.038479928
73	0x3f4dc67b	0.8038098
74	0xbf2478be	-0.6424674
75	0xbedf4c5a	-0.4361294
76	0x3e161e77	0.14660059
77	0x3e5bc5dc	0.21462196
78	0xbf1e113e	-0.6174506
79	0xbf4b9246	-0.7952007
80	0xbe4382f1	-0.19092919
81	0xbd75e11d	-0.060029138
82	0x3e812bd7	0.2522876
83	0xbc5c5510	-0.013448015
84	0xbf77ccaa	-0.9679667
85	0xbf37461a	-0.7159134
86	0xbeaff20c	-0.34364355
87	0x3f02dd49	0.51118904
88	0x3f0f90e4	0.5608046
89	0x3f7f500b	0.9973151
90	0x3f213f9d	0.6298769
91	0xbf825dba	-1.0184853
92	0xbd67c658	-0.05658564
93	0xbeaa6296	-0.3327834
94	0xbf749982	-0.95546734
95	0xbec4fe15	-0.384751
96	0xbf0324d6	-0.5122808
97	0xbd130a3c	-0.035898432
98	0x3db67f3a	0.08910985
99	0x3de9f62e	0.11423908
100	0x3ef6d2dd	0.4820775
101	0x3d39f273	0.045397233
102	0xbe140384	-0.14454466
103	0xbe9525db	-0.29130444
104	0xbea7ad8d	-0.32749596
105	0xbf061b64	-0.52385545
106	0xbee97445	-0.4559652
107	0xbe351db0	-0.17687106
108	0x3eb782b1	0.35841897
109	0x3f10160e	0.5628365
110	0xbeca5f3f	-0.39525792
111	0xbe221d32	-0.1583145
112	0x3f0f6b3a	0.5602299
113	0x3e8ab57c	0.27091587
114	0xbeb17fe4	-0.34667885
115	0xbe6f1bbf	-0.23350428
116	0x3e553d24	0.20824105
117	0x3e762b1a	0.2403988
118	0xbf127ef0	-0.5722494
119	0xbd007c4a	-0.03136853
120	0xbec645a5	-0.3872501
121	0x3ec3143c	0.38101375
122	0x3e0603c8	0.1308738
123	0xbe8ec624	-0.27885544
124	0x3f103490	0.56330204
125	0xbedf1d39	-0.43576983
126	0xbf265b2a	-0.64982855
127	0x3e7bd4e0	0.24592924
128	0x3e0f9aa9	0.14023842
129	0xbe7f8849	-0.24954332
130	0xbde40a5d	-0.11134789
131	0xbd09218f	-0.03347927
132	0x3e645711	0.22298838
133	0x3ce899df	0.028393684
134	0x3ee5dc8f	0.44894835
135	0x3ecb5b2e	0.39718002
136	0xbe5392b8	-0.20661438
137	0x3f40ab7f	0.7526168
138	0x3f38c08d	0.7216881
139	0xbf0d3b84	-0.5516894
140	0xbe24d73a	-0.16097727
141	0x3dafe6f9	0.085889764
142	0xbf252d73	-0.64522475
143	0xbf8160ca	-1.0107663
144	0x3e4aeaa2	0.19816068
145	0xbe5fcea8	-0.21856177
146	0xbecece34	-0.40391695
147	0x3f0f08c3	0.55872744
148	0xbe9fba08	-0.31196618
149	0xbf0b91b4	-0.545192
150	0xbf44ecb6	-0.7692369
151	0x3de63ee2	0.11242463
152	0xbf0db28b	-0.5535056
153	0xbf61dfab	-0.88231915
154	0xbf796f22	-0.974352
155	0xbecd16f8	-0.40056586
156	0xbccdc853	-0.025119936
157	0xbf1a98dd	-0.603895
158	0x3c681c43	0.014166894
159	0xbf591f61	-0.84813505
160	0xbd8c21bd	-0.068423726
161	0xbdb9c79d	-0.09071276
162	0xbe1c795d	-0.15280671
163	0xbe1b5b52	-0.15171555
164	0xbf73c9fc	-0.9523008
165	0xbe2d8c9b	-0.16948168
166	0xbf118e11	-0.568574
167	0xbd7b58ab	-0.061363857
168	0xbf959374	-1.1685624
169	0xbe6c7932	-0.23093107
170	0xbc8092d9	-0.015695022
171	0x3e841daa	0.25803882
172	0xbe8073d6	-0.25088376
173	0xbe890fc3	-0.26769838
174	0xbc379210	-0.011204258
175	0xbeb98a2f	-0.36238238
176	0xbf5eb5f1	-0.8699637
177	0x3c042786	0.008066064
178	0xbeab13f8	-0.33413672
179	0xbf7bc007	-0.98339885
180	0xbe33b9ed	-0.17551394
181	0xbc9db89f	-0.019253073
182	0xbf6af5b7	-0.9178118
183	0xbf567333	-0.8376953
184	0xbebcc635	-0.3686997
185	0xbf06bc1c	-0.5263078
186	0xbe9a9480	-0.30191422
187	0xbfadcb68	-1.35777
188	0xbf18d9d2	-0.5970737
189	0xbf976f6a	-1.1830876
190	0xbef5c43d	-0.4800128
191	0xbecec75e	-0.4038648
192	0xbf33c20c	-0.7021797
193	0xbfb636a3	-1.4235424
194	0xbcd325b0	-0.025774807
195	0x3ee936f1	0.4554973
196	0xbec67925	-0.387643
197	0x3e7e777e	0.2485027
198	0xbe6e7472	-0.23286608
199	0x3d5065be	0.05087828

lstm.weight_ih_l1 f4 [200, 50]
0	0x3edd0f41	0.431757
1	0xbe4baff1	-0.19891335
2	0x3e76f79e	0.24117896
3	0xbf3903d5	-0.7227147
4	0xbd0f3ae8	-0.034968287
5	0x3ed9797e	0.42475504
6	0xbe68b138	-0.22723854
7	0x3ebb7ebb	0.36620125
8	0xbe9bcd2d	-0.30429974
9	0xc01c2910	-2.4400063
10	0xbebfa00d	-0.37426797
11	0xbed22a91	-0.410481
12	0xbcd72aad	-0.026265467
13	0xbed3bb1d	-0.41353694
14	0x3ca8f6eb	0.020625552
15	0x3f01ed64	0.50752854
16	0xbd968096	-0.073487446
17	0x3ca2e978	0.019886717
18	0xbf9d09e7	-1.2268647
19	0x3e908e5c	0.28233612
20	0xbdb429a6	-0.08797006
21	0x3d8afbcb	0.06786307
22	0xbf05dd13	-0.5229046
23	0x3eefffc1	0.46874812
24	0x402a5cef	2.6619222
25	0xbe296c69	-0.16545261
26	0xbec9ad6a	-0.39390117
27	0xbf0bf8cf	-0.54676527
28	0x3f02864c	0.5098617
29	0x3e10f8f8	0.14157474
30	0xc00c64c1	-2.1936495
31	0x3d0b410c	0.03399758
32	0x3f93da0f	1.1550921
33	0xbfcbbade	-1.5916402
34	0xbe7e78bf	-0.24850748
35	0xbe0a8921	-0.13528873
36	0xbe2da3a1	-0.1695695
37	0xbe32e7eb	-0.17471282
38	0x3dec2916	0.11531274
39	0x3f1a758d	0.6033562
40	0xbe823ea1	-0.25438407
41	0xbf1d55d0	-0.61459064
42	0x3ca664de	0.02031177
43	0xbf5a274a	-0.852162
44	0xbf1bb1db	-0.6081826
45	0xbcc59e85	-0.02412344
46	0xbda06c37	-0.0783314
47	0x3fecc7ce	1.8498476
48	0xbdbd0331	-0.09229124
49	0x3e32d75f	0.1746497
50	0xbdca3e5f	-0.098751776
51	0x3e3dd269	0.18537296
52	0x3f4c1536	0.79719865
53	0xc0fd7448	-7.9204445
54	0xc064c587	-3.574556
55	0xc102a305	-8.1648
56	0xc092702a	-4.576192
57	0x3d76789f	0.060173627
58	0x3ea2ef2b	0.31823096
59	0x3e73ad17	0.23796497
60	0x3ec605ad	0.38676205
61	0xbfa221b0	-1.2666531
62	0x3ea17ce7	0.31540605
63	0x3eaf393b	0.3422335
64	0x3d27b5fb	0.040945034
65	0xbc75da2e	-0.015005631
66	0x409a659d	4.824904
67	0x3f134430	0.5752592
68	0xc0f5a64e	-7.676551
69	0x3eb748e4	0.357978
70	0x3ebb243e	0.36551088
71	0xbcd7e9d6	-0.026356619
72	0x3e0a9603	0.13533787
73	0xbec173d5	-0.37783685
74	0x41085479	8.520623
75	0xbb1bc3a5	-0.0023767736
76	0x3e1bca96	0.15213999
77	0x3cf7b938	0.030239686
78	0xbdc61e32	-0.09673728
79	0x3eecae68	0.4622681
80	0x3d8e8368	0.069586575
81	0x3ddba49b	0.107247554
82	0x41280241	10.50055
83	0x3ea3c055	0.31982675
84	0x3f26605f	0.649908
85	0x3faa22cc	1.3291869
86	0x3df1fb6b	0.11815532
87	0x3ca49b0b	0.020093461
88	0x3f7e8e00	0.99435425
89	0xbf9a9c9e	-1.2079046
90	0x3e8084fe	0.25101465
91	0xbf4e6ef7	-0.8063807
92	0x3de3c42e	0.11121403
93	0x3dfa40a3	0.1221936
94	0xbf67220e	-0.9028634
95	0xbf2828ab	-0.65687054
96	0xc03c3bf1	-2.9411585
97	0xbe21f501	-0.15816118
98	0x3e186818	0.14883459
99	0xbd04e9dd	-0.032449592
100	0x3e9ce417	0.3064277
101	0x3f724bdc	0.94647
102	0x3d78e46d	0.06076472
103	0x3fe01eea	1.7509434
104	0xbf1717f2	-0.5902091
105	0xbc6c0441	-0.014405311
106	0xbf51efe9	-0.820067
107	0x3f3fed21	0.74971205
108	0x3e918fb2	0.28429943
109	0xc0ab74a8	-5.3579903
110	0x3f848d4a	1.0355618
111	0xbc945b2f	-0.018109886
112	0x3ede4ee8	0.43419576
113	0x3e107f42	0.14111045
114	0x3c1dd67e	0.009633658
115	0xbe14f414	-0.14546233
116	0xbe288b9e	-0.1645951
117	0xbf9cc6f4	-1.2248216
118	0xbf8824c2	-1.0636218
119	0x3f96b045	1.1772543
120	0x40331ccf	2.7986333
121	0x3fb7409b	1.4316591
122	0xc0619ba4	-3.5251245
123	0xbec82a6f	-0.39094874
124	0xbfbfc6a6	-1.4982498
125	0xbda1d017	-0.07901018
126	0xbe872fcd	-0.26403657
127	0xbd856a9b	-0.06514474
128	0xbea22449	-0.31668308
129	0x3d5b46d3	0.05353434
130	0xbf3a8dcb	-0.7287261
131	0x3f942c51	1.1576024
132	0x3d8f6b00	0.070028305
133	0xbef151ae	-0.4713263
134	0xbd1767c3	-0.03696419
135	0xbf65f6ee	-0.8982991
136	0xbf78edcd	-0.97237855
137	0x3da228b8	0.07917923
138	0x3e9d6149	0.30738285
139	0xbf198765	-0.5997222
140	0x3e29be14	0.16576415
141	0x3e321cd7	0.17393814
142	0xc00bce6d	-2.1844742
143	0xbe6b95ad	-0.23006316
144	0x3f432f31	0.76243883
145	0x3cae5842	0.021282319
146	0x3ea2fdd4	0.3183428
147	0x3f93a270	1.1533947
148	0xbf8d6d62	-1.1049006
149	0xbe4f9b80	-0.20274162
150	0x400d4ac6	2.2076888
151	0x3dd90709	0.10597045
152	0x3f104260	0.5635128
153	0x3f6cf29b	0.92557687
154	0xbfd48d0c	-1.6605544
155	0xbf3ed789	-0.7454763
156	0xbf9c0e75	-1.2191912
157	0xbf31fadd	-0.6952341
158	0x3e71d829	0.23617615
159	0x3f0b6abb	0.5445973
160	0xc04bb638	-3.1829967
161	0xbe4c78b0	-0.19967914
162	0xbf7f2c54	-0.99677014
163	0xbf1dc900	-0.61634827
164	0xbcc9d009	-0.024635332
165	0x3d07baab	0.033137005
166	0x3f6caf0d	0.92454606
167	0xbe23404f	-0.159425
168	0xbfb7f491	-1.4371511
169	0xbed62466	-0.41824645
170	0xc0254cc6	-2.5828109
171	0xbee38822	-0.444398
172	0xbe4b75fb	-0.19869225
173	0xbeae75bb	-0.34074196
174	0x3efd83cb	0.49514613
175	0x3f2237b2	0.63366234
176	0x3e03dcd6	0.12877211
177	0x3e51242d	0.20423956
178	0x3e16858f	0.14699386
179	0xbe03495e	-0.12820956
180	0xc03b09af	-2.922466
181	0xbe6e74e9	-0.23286785
182	0x3fb80aba	1.4378273
183	0xc04426ba	-3.0648637
184	0x3f853ad8	1.0408583
185	0x3fe1201c	1.7587924
186	0xbe3e7c53	-0.18602113
187	0xbec9a80c	-0.39386022
188	0x3f2509c3	0.6446802
189	0x3f5dfdcc	0.8671539
190	0xbe6d9bb1	-0.23203923
191	0x4005cb7c	2.0905447
192	0xbf10f76b	-0.5662753
193	0x3c9f9e89	0.019484775
194	0xbe5d299b	-0.21597902
195	0x3e9dd388	0.30825448
196	0xbfbbdfa1	-1.4677621
197	0x405fe085	3.4980786
198	0xbf48daa8	-0.7845864
199	0xbea01f6c	-0.31273973
200	0xbc86d228	-0.016457632
201	0xbec05eaa	-0.37572223
202	0x3e4c0606	0.19924173
203	0xbded850d	-0.11597643
204	0xbe673c9c	-0.22581714
205	0xbea157df	-0.31512353
206	0xbe1522f4	-0.14564115
207	0x3e93191d	0.28730097
208	0x3dc4361c	0.09580633
209	0xbe87b361	-0.26504043
210	0xbe3c8014	-0.18408233
211	0x3fc37bbc	1.5272136
212	0xbeb847b5	-0.35992208
213	0xbdd92b6d	-0.10603986
214	0x3f3b257b	0.73104066
215	0xbe655c4c	-0.2239849
216	0x3f1767de	0.59142864
217	0x3f132d23	0.5749075
218	0xbe2171d5	-0.1576608
219	0xc00c4b4e	-2.1920962
220	0x3e34f704	0.17672354
221	0xbfd5fe3e	-1.6718214
222	0xbf55c5a8	-0.83504725
223	0x3e52fc2e	0.20604011
224	0x3e29d68e	0.16585752
225	0x3ea7cdf8	0.3277433
226	0x3ed7bae0	0.42134762
227	0xbe3fa891	-0.18716647
228	0xbed34fa2	-0.41271693
229	0xbf9ed8bf	-1.2409896
230	0x3efa8c0c	0.48934972
231	0xbe9a372f	-0.30120227
232	0x3dde8df5	0.1086692
233	0x3f7883e0	0.97076225
234	0x3f4ca34e	0.79936683
235	0x3eb7a08b	0.35864672
236	0xbf491852	-0.78552735
237	0xbf15bca6	-0.5849098
238	0x3e38134b	0.1797611
239	0x3e04b84a	0.12960926
240	0x3d644d79	0.055737946
241	0x400b098f	2.1724584
242	0x3f1a6e4a	0.6032454
243	0xbf2dc48c	-0.6787803
244	0xbe3b186f	-0.1827104
245	0x3e33d30e	0.1756098
246	0xc00e83bb	-2.2267902
247	0xbe85a2f7	-0.26100895
248	0x3f766039	0.96240574
249	0x3dbc2b2b	0.09187921
250	0x3ebfaf03	0.3743821
251	0xbe21ffd9	-0.15820254
252	0xbe182733	-0.14858703
253	0xbed262bd	-0.41090956
254	0x3ed78c9b	0.4209946
255	0x3e1c6639	0.1527337

lstm.weight_hh_l1 f4 [200, 50]
0	0xbee3429c	-0.44386756
1	0x3dea1668	0.11430055
2	0xc02059cd	-2.505481
3	0x4019ddf6	2.4041724
4	0x3eabf400	0.33584595
5	0xbec02660	-0.37529278
6	0xbf1106e5	-0.56651145
7	0xbec2329b	-0.37929234
8	0x3f71b967	0.94423527
9	0xbebeaf3e	-0.37243074
10	0x3c5879ae	0.013212604
11	0x400759c8	2.1148548
12	0xbfec16e5	-1.8444487
13	0x3ff6828d	1.9258591
14	0x4018e937	2.3892343
15	0xbfa6ab7e	-1.3021085
16	0x3ff1095c	1.8830981
17	0xbf93e3bb	-1.1553873
18	0x3f745a76	0.9545053
19	0x3fa46ead	1.2846276
20	0x3ecc34d6	0.3988406
21	0x3ed5b7d7	0.4174182
22	0xc0510e33	-3.2664917
23	0xbf1fe941	-0.6246529
24	0x3ee2c54e	0.44291157
25	0xc068dba7	-3.6384065
26	0x3d3fce41	0.04682756
27	0x3f88eaa1	1.0696603
28	0xbfaf8fdd	-1.3715779
29	0xbf719660	-0.9437008
30	0xbecde873	-0.40216407
31	0x408d26d1	4.4109883
32	0x3f2ba1b2	0.670436
33	0xbfb3db03	-1.4051212
34	0xbf6a370a	-0.9149023
35	0x3e971ea5	0.29515567
36	0xbf4432f8	-0.7664027
37	0x3f55bdf1	0.8349295
38	0x3f13402b	0.5751979
39	0x3d65e49c	0.056126222
40	0xbfc36b25	-1.5267073
41	0xbd4fb7e7	-0.050712492
42	0xbe90009a	-0.2812546
43	0xbd8862d0	-0.06659472
44	0xbef38e1c	-0.47569358
45	0xbec1506e	-0.37756675
46	0xbe91c011	-0.28466848
47	0x3f655c0b	0.8959357
48	0x3ef31c5d	0.47482577
49	0x3f35cfd9	0.71020275
50	0x3e80f8da	0.2518986
51	0x3f05aeb8	0.52219725
52	0x3ec27968	0.3798325
53	0x3f27e4dc	0.65583587
54	0x3f878571	1.0587598
55	0xc0791a9f	-3.8922498
56	0xbd5908b6	-0.052986823
57	0x3fe9103e	1.8208082
58	0x3fd2373f	1.642311
59	0xbf21bcab	-0.6317851
60	0xbf1a60c8	-0.60303926
61	0xbf9a209b	-1.20412
62	0x3fd14b00	1.6351013
63	0x3fc406e6	1.5314605
64	0x3ffa9e9f	1.9579657
65	0xbff40a9e	-1.906574
66	0xbf7bf334	-0.98417974
67	0x4003e1cd	2.0606568
68	0x3f17fbad	0.593684
69	0xbfb375bb	-1.4020303
70	0x3e7df81c	0.24801677
71	0xc00b90ef	-2.180721
72	0xbe826eea	-0.25475246
73	0x3ed68c42	0.41903883
74	0x3f3713aa	0.7151438
75	0xbeecd97d	-0.4625968
76	0xbd9c1963	-0.0762203
77	0xbf0e0cb3	-0.5548813
78	0x3fe1c687	1.7638711
79	0xbfa7a293	-1.3096489
80	0x3eeb83ad	0.45998898
81	0x3f3e03d8	0.74224615
82	0xbfa43b45	-1.2830588
83	0xbf3ccd9f	-0.7375125
84	0xbe3a64c7	-0.18202506
85	0x3fa48c5a	1.2855332
86	0x3d7d0a9f	0.061777707
87	0x3fabe8b4	1.343039
88	0x3d10e5e0	0.035375476
89	0x3f6efb84	0.9335253
90	0xbf225232	-0.6340667
91	0x3f97be0b	1.1854872
92	0xbfa293e6	-1.2701385
93	0xbfdc1bde	-1.7196004
94	0xbf0a43aa	-0.540095
95	0x3dafaa54	0.085774094
96	0x3f30b2bd	0.6902273
97	0xc050abbe	-3.2604823
98	0xbf70c674	-0.94052815
99	0x3f26418d	0.6494377
100	0x3eac5710	0.33660173
101	0xbe70b238	-0.23505485
102	0xc0625434	-3.5363894
103	0xbf05a704	-0.5220797
104	0x3f49aeaa	0.7878214
105	0xc073fcdc	-3.8123083
106	0x3f7f21da	0.9966103
107	0x3f4d59e3	0.8021528
108	0x3ee74d6a	0.4517625
109	0xc0249a07	-2.571901
110	0xbe2cc90b	-0.16873567
111	0xbfe82ded	-1.8139015
112	0x3f529e15	0.82272464
113	0x40723b6a	3.7848763
114	0xbe99624e	-0.29957813
115	0xbeab40d4	-0.33447897
116	0x3e3cdebd	0.18444343
117	0x3fc763bb	1.557731
118	0x40458b89	3.0866416
119	0xbfa8c563	-1.3185238
120	0xbf22b465	-0.6355651
121	0xbfaa597c	-1.3308558
122	0xc087ebb0	-4.2475204
123	0x3fc40242	1.5313189
124	0x3e4f9d44	0.20274836
125	0xc072d07b	-3.7939746
126	0x3ed599d6	0.4171893
127	0xbfd7d053	-1.686045
128	0x3f558bf0	0.8341665
129	0xbf08a03b	-0.5336949
130	0x3f90d93b	1.1316293
131	0x40119080	2.2744446
132	0x3f6fcf2a	0.9367548
133	0x3f692d1f	0.91084474
134	0xbf1e2bce	-0.6178559
135	0x3ea93f11	0.33055928
136	0xbf127b1a	-0.5721909
137	0xbf79aba4	-0.9752753
138	0xbeb46643	-0.3523427
139	0xbf3f9805	-0.7484134
140	0x3fd28a90	1.6448536
141	0x3f64925b	0.8928582
142	0xc00e1665	-2.2201169
143	0x3e2ee44b	0.17079274
144	0xbfb1ec33	-1.3900207
145	0x3e4c31db	0.19940893
146	0x3f7e7dd5	0.99410754
147	0xbeae2cb1	-0.34018472
148	0xbf82bac2	-1.0213244
149	0xbe7ba148	-0.24573243
150	0xbe0ebd27	-0.13939343
151	0x3ea5d302	0.3238755
152	0x3d40b90e	0.047051482
153	0x3febed52	1.84318
154	0xbe531727	-0.206143
155	0x3e929b3e	0.28634065
156	0x3f128761	0.5723782
157	0xbf226082	-0.6342851
158	0x3eef0b8b	0.46688494
159	0xbe8233b8	-0.25430083
160	0xbed8be08	-0.42332482
161	0xbfa914ac	-1.3209434
162	0xbe9bda4d	-0.30439988
163	0x3e8e3beb	0.2778009
164	0x3eeaa2bf	0.4582729
165	0x3dfda33c	0.1238465
166	0x3f500e3a	0.8127171
167	0xbeb6d67f	-0.35710523
168	0xbe9fd1e1	-0.31214812
169	0xbf485338	-0.7825198
170	0xbe9d00cd	-0.30664673
171	0x3e9d34b4	0.30704272
172	0xbf538781	-0.8262864
173	0xbecfb810	-0.40570116
174	0xbb064378	-0.0020486992
175	0xbf28c20f	-0.6592111
176	0x3f057eb7	0.52146477
177	0x3ffeb360	1.9898491
178	0xbf57ad2d	-0.8424862
179	0x3e30b26a	0.1725556
180	0xbff28e40	-1.8949661
181	0x3f43c20e	0.7646798
182	0xbf903062	-1.1264765
183	0x3edbd229	0.42933777
184	0x4042bef7	3.0429056
185	0xbffcdd8e	-1.9755113
186	0x3d0460b7	0.032318797
187	0x3f476c41	0.7789956
188	0xbf927355	-1.1441447
189	0xbead78c2	-0.33881193
190	0x3f50316e	0.81325424
191	0xbfc6bf33	-1.5527099
192	0x3f80ee2c	1.0072684
193	0x3e11c8fa	0.14236823
194	0xbd6da14f	-0.058015164
195	0xbe19c48b	-0.15016381
196	0xbfabc60e	-1.3419816
197	0xbf2ba785	-0.6705249
198	0x3e2c237a	0.16810408
199	0x3ead5bf0	0.33859205
200	0x3cf55f31	0.029952617
201	0xbcf9541f	-0.03043562
202	0x3ea1f591	0.31632665
203	0xbe8b2beb	-0.27181944
204	0x3f9a467d	1.2052761
205	0x3e040e57	0.12896095
206	0x3f4a05b1	0.78914934
207	0x3d6e1b3b	0.058131438
208	0x3e782ede	0.24236628
209	0xbe275fe1	-0.16345169
210	0x3f2e6f8b	0.6813895
211	0xbf2af0d0	-0.667737
212	0xbef1eeca	-0.47252494
213	0x3fa8c59a	1.3185303
214	0xbd835914	-0.06413475
215	0x3d94e936	0.07271044
216	0x3ede5ae2	0.43428713
217	0x3d88952e	0.06669079
218	0x3d670c7d	0.056408394
219	0x3ba25ee4	0.0049551595
220	0x3e329914	0.17441207
221	0xbeca59b5	-0.39521566
222	0xbf906672	-1.1281264
223	0xbf11e9bf	-0.56997293
224	0xbe291bbc	-0.16514486
225	0xbf4dcc07	-0.80389446
226	0xbf827ea1	-1.0194894
227	0xbfaf6a8e	-1.3704393
228	0x3ee0293e	0.43781465
229	0x3e2478e0	0.16061735
230	0xbdca6460	-0.09882426
231	0x3f6b9c5c	0.9203546
232	0xbe0fd3eb	-0.14045684
233	0x3f003c0c	0.50091624
234	0x3fbb0d61	1.4613458
235	0xbdc3a629	-0.09553177
236	0xbe8c9857	-0.27459976
237	0xbf27afd4	-0.6550267
238	0xbbb9066d	-0.005646518
239	0xbf369622	-0.71322834
240	0xbee61e44	-0.44944966
241	0x3ce5d8e3	0.028057521
242	0xbe998db6	-0.2999093
243	0x3e13e812	0.14443997
244	0x3e1f82d8	0.15577257
245	0x3f1490da	0.58033526
246	0xbf330c29	-0.6994043
247	0x3f3acb48	0.7296643
248	0x3e623283	0.22089581
249	0x3cdbec4e	0.026846077
250	0xbe3f849e	-0.18702933
251	0x3dcf094b	0.10109194
252	0x3ef32616	0.47489995
253	0x3dc2bffa	0.09509273
254	0xbe8a6455	-0.27029672
255	0x3ed4e6f0	0.4158244

lstm.bias_ih_l1 f4 [200]
0	0xbf004353	-0.5010273
1	0xbed2c141	-0.41163066
2	0xbf1e19cb	-0.61758107
3	0xbf218065	-0.6308654
4	0xbf8ad2be	-1.0845563
5	0xbf86a5c3	-1.0519336
6	0xbcaf8872	-0.021427367
7	0xbefac848	-0.48980927
8	0x3ec86851	0.39142087
9	0x3efb9450	0.4913659
10	0xbf727291	-0.94706064
11	0xbf81e9d9	-1.014949
12	0x3e8238ca	0.25433952
13	0xbf9935df	-1.1969565
14	0xbd158e54	-0.036512688
15	0xbd3b3aa5	-0.045710225
16	0xbf90883e	-1.1291578
17	0x3ddaa063	0.106751226
18	0xbec41342	-0.38295943
19	0xbf44b71c	-0.768419
20	0x3ee4dc66	0.446994
21	0xbf09b469	-0.5379091
22	0x3ee7c825	0.45269886
23	0xbe36f2cd	-0.17866059
24	0xbf0fe257	-0.5620474
25	0x3ef3b73b	0.4760073
26	0xbfb10ace	-1.3831422
27	0x3c783d9b	0.015151407
28	0xbe6ba2bd	-0.23011298
29	0xbf2b986d	-0.6702946
30	0xbf5a4f28	-0.8527703
31	0xbf63f536	-0.8904604
32	0xbf4d5b88	-0.8021779
33	0xbf4e9878	-0.807014
34	0xba2b078b	-0.00065242563
35	0xbec8457a	-0.39115506
36	0xbf3c74cd	-0.73615724
37	0xbf4668fb	-0.7750394
38	0x3e80f55d	0.25187197
39	0xbf481571	-0.78157717
40	0xbecb5015	-0.39709535
41	0xbebab661	-0.3646727
42	0xbead4893	-0.33844432
43	0xbe52596d	-0.20541926
44	0x3f834160	1.0254326
45	0xbf1e9d0b	-0.6195838
46	0xbe303d43	-0.1721087
47	0xbfc2e7a7	-1.5226945
48	0x3d194879	0.03742263
49	0xbf674790	-0.9034357
50	0xbf459981	-0.77187353
51	0xc0154e25	-2.3328946
52	0xbf8fd709	-1.1237499
53	0xc0097c20	-2.148201
54	0xbf26cc9b	-0.65155953
55	0xbf0af95e	-0.54286754
56	0x3e16fe7b	0.14745514
57	0xbf3c06a0	-0.7344761
58	0xbf9d71fc	-1.230041
59	0xbf48e584	-0.78475213
60	0xbf72cf54	-0.9484761
61	0xbea8dab0	-0.32979345
62	0xbeffb2db	-0.49941143
63	0xbf74e89a	-0.9566742
64	0xbe6f9de3	-0.23400073
65	0xbf9b2cdd	-1.2123066
66	0xbf0c195e	-0.5472621
67	0xbf5e1522	-0.86750996
68	0xbe778c5e	-0.2417464
69	0xbfd1f778	-1.6403646
70	0xbfdc1a5a	-1.7195542
71	0xbf99ebdf	-1.2025107
72	0x3ea97ed8	0.33104587
73	0x3d2c81a8	0.042115837
74	0xbf8095a7	-1.004567
75	0xbf1a201f	-0.6020526
76	0xc04e58a1	-3.2241595
77	0xbfdd7f83	-1.7304538
78	0xbfb692d8	-1.4263563
79	0xbf60da7f	-0.878334
80	0xc0282040	-2.6269684
81	0xbf9c83f1	-1.2227765
82	0xbfaf9283	-1.3716587
83	0xbfcf48d7	-1.6194104
84	0xbec6cd10	-0.38828325
85	0x3d98d7b3	0.07463016
86	0xc00bfaa0	-2.187172
87	0xbf7da1cf	-0.99075025
88	0xbf8ebf04	-1.1152043
89	0xbf98d74a	-1.1940701
90	0xbfc804f9	-1.5626518
91	0xbf4bf253	-0.7966663
92	0xbfbb6956	-1.4641521
93	0xbec12800	-0.3772583
94	0x3ee86aa2	0.45393854
95	0xbf851180	-1.0395966
96	0xbfd8a0a5	-1.6924025
97	0xbfb76a43	-1.4329304
98	0xbf9df42f	-1.2340144
99	0xbfb2d66b	-1.3971685
100	0x3d3f1cd2	0.046658345
101	0x3ee7abf3	0.45248374
102	0xbe4d4578	-0.20046031
103	0xbe00248d	-0.12513943
104	0xbe82d28d	-0.25551262
105	0x3ec5d7e3	0.3864127
106	0x3ee14d61	0.44004348
107	0xbf2a2907	-0.6646885
108	0xbef1b1dc	-0.47206008
109	0xbf866dac	-1.0502219
110	0xbf6ccd9b	-0.9250123
111	0x3e89f76e	0.26946586
112	0x3f005768	0.5013337
113	0xbd84469a	-0.06458779
114	0xbf5f443c	-0.8721349
115	0x3e3aa990	0.18228745
116	0x3df00a02	0.11720659
117	0xbd3cbf0b	-0.04608063
118	0xbeb2e035	-0.3493668
119	0x3e155bae	0.14585754
120	0x3de8bdc4	0.1136432
121	0xbeb98c56	-0.3623988
122	0xbef035c9	-0.46916035
123	0xbe753226	-0.23944911
124	0x3f12b6b5	0.5731004
125	0xbf091132	-0.5354186
126	0x3e3ed812	0.18637112
127	0xbdb72605	-0.089427985
128	0xbcc608a3	-0.02417404
129	0x3e72a4bd	0.23695655
130	0x3cbc7d54	0.02300898
131	0x3d12556b	0.035725992
132	0x3f0ef0fd	0.5583647
133	0x3f1b466f	0.6065435
134	0xbf97f2c6	-1.1870964
135	0xbeefdd29	-0.4684842
136	0x3dcc94c5	0.09989313
137	0xbf334fcd	-0.7004364
138	0x3c2ec04f	0.010665967
139	0xbe6c425f	-0.23072194
140	0xbc9835be	-0.018580314
141	0xbe535884	-0.20639235
142	0x3ef6a3c7	0.48171827
143	0x3ca46b05	0.020070562
144	0x3f252d60	0.6452236
145	0xbe905ff3	-0.28198203
146	0x3ebb5b82	0.36593252
147	0xbe842fa8	-0.2581761
148	0xbd98a6c8	-0.07453686
149	0xbdd63efb	-0.10461231
150	0xbf35d380	-0.7102585
151	0xbfe1f76e	-1.7653635
152	0xbe90d6d6	-0.28288907
153	0xbf7dbd8e	-0.9911736
154	0xbe985a0a	-0.29756194
155	0xbfb42abc	-1.4075541
156	0xc01f8d96	-2.4930167
157	0xc018781d	-2.3823311
158	0xbf2f404e	-0.68457496
159	0xbfb1c0cf	-1.3886966
160	0xc016262b	-2.3460796
161	0x3ed31532	0.41227108
162	0xbf8d34dd	-1.1031758
163	0xbf5fcc5f	-0.8742122
164	0xbfaa47e0	-1.3303185
165	0xbfc01343	-1.5005878
166	0xbed483d2	-0.4150682
167	0xbeeed01c	-0.4664315
168	0xbd30396f	-0.043023523
169	0xbf912e5b	-1.1342272
170	0xbf2d8844	-0.6778605
171	0x3dae5862	0.085129514
172	0xbfde6734	-1.7375245
173	0xbf45f657	-0.7732901
174	0xbf0077fa	-0.5018307
175	0xbfe2ae9b	-1.7709535
176	0xbfff0ebc	-1.9926372
177	0xbfda06f5	-1.7033373
178	0xbf55332e	-0.8328122
179	0xbf0d193e	-0.5511664
180	0xbfb6c49c	-1.427875
181	0xbf384b32	-0.7198974
182	0x3e926d19	0.2859886
183	0xbe593b0d	-0.21213932
184	0xbf3a410c	-0.72755504
185	0xbf621d4e	-0.88325965
186	0xbfb8a817	-1.4426297
187	0xbf1cf9b5	-0.6131852
188	0xbfe0813f	-1.7539443
189	0xbf21fc88	-0.6327596
190	0xbf087eae	-0.533183
191	0xbdcf9932	-0.101366416
192	0xbf46ea43	-0.77701205
193	0xbf6ac977	-0.9171366
194	0xbf837971	-1.0271436
195	0xbf62c910	-0.8858805
196	0xbf156e17	-0.5837111
197	0xbf23e5bf	-0.6402244
198	0xbe020d2d	-0.12700339
199	0xbe467b3a	-0.19382945

lstm.bias_hh_l1 f4 [200]
0	0xbedae2a8	-0.4275105
1	0xbeb5a04c	-0.3547386
2	0xbf48086c	-0.7813785
3	0xbf1317d6	-0.57458246
4	0xbf81063f	-1.0080031
5	0xbf7f0543	-0.99617404
6	0xbd9c4ae9	-0.076314755
7	0xbf00f4f1	-0.5037375
8	0x3f09527a	0.53641474
9	0x3ee72f41	0.4515324
10	0xbf787e2d	-0.9706753
11	0xbf876f36	-1.0580814
12	0x3ebca300	0.3684311
13	0xbfa52ba7	-1.2903947
14	0x3d8a3ff7	0.067504816
15	0xbe531de8	-0.20616877
16	0xbfac11ff	-1.3442992
17	0x3e36f559	0.1786703
18	0xbeba8799	-0.36431578
19	0xbf56d38e	-0.83916557
20	0x3ec80e2f	0.3907332
21	0xbeee4dd6	-0.4654376
22	0x3ec5ea7a	0.38655454
23	0xbdaccd7d	-0.08437631
24	0xbf086d06	-0.53291357
25	0x3ea17ce0	0.31540585
26	0xbfa962ce	-1.3233278
27	0x3e7baa0f	0.24576591
28	0xbe2b5bc5	-0.16734226
29	0xbf2b8e7a	-0.67014277
30	0xbf47f8b4	-0.78113866
31	0xbf6373ab	-0.8884837
32	0xbf7b6d2f	-0.98213476
33	0xbf651518	-0.8948531
34	0x3d319e95	0.043364126
35	0xbee1459f	-0.4399843
36	0xbf6bb749	-0.92076546
37	0xbf3f0a94	-0.74625516
38	0x3e8cbb34	0.27486575
39	0xbf6ce65f	-0.9253902
40	0xbe8c2219	-0.27369764
41	0xbedbd5a0	-0.4293642
42	0xbec46c83	-0.38364038
43	0xbea54b44	-0.32283986
44	0x3f8a7303	1.0816349
45	0xbf22bdab	-0.6357066
46	0xbc476be2	-0.012171717
47	0xbfc25d54	-1.5184731
48	0xbda0cb32	-0.078512564
49	0xbf3d991d	-0.7406176
50	0xbf740847	-0.9532513
51	0xc01f8a1f	-2.4928052
52	0xbf737401	-0.9509888
53	0xc01154f4	-2.2708101
54	0xbf0058ef	-0.501357
55	0xbf1011c4	-0.5627711
56	0x3e337834	0.17526323
57	0xbf3e2b78	-0.7428508
58	0xbfa02849	-1.2512294
59	0xbf41c513	-0.75691336
60	0xbf826ceb	-1.0189489
61	0xbea8c151	-0.3295999
62	0xbe725e89	-0.23668875
63	0xbf81a27a	-1.0127709
64	0xbe8c63f2	-0.27420002
65	0xbfb9ac97	-1.4505795
66	0xbf234885	-0.6378253
67	0xbf7bd9ce	-0.9837922
68	0xbeaff9dd	-0.34370318
69	0xbfd7de50	-1.6864719
70	0xbfdce4bb	-1.7257303
71	0xbfa6b368	-1.30235
72	0x3ec2e452	0.3806482
73	0xbe5a8dc4	-0.21343142
74	0xbfa07bf7	-1.2537831
75	0xbed2e5dc	-0.41190994
76	0xc047c2ec	-3.121272
77	0xbfc0e6cb	-1.5070432
78	0xbfd0cff0	-1.6313457
79	0xbf745793	-0.9544613
80	0xc0243803	-2.5659187
81	0xbf9ba22b	-1.2158865
82	0xbf9d42e1	-1.2286035
83	0xbfb5ed14	-1.4212976
84	0xbe9d1b92	-0.30685097
85	0xbcbe68a4	-0.023243256
86	0xc0092c37	-2.1433237
87	0xbf657c2d	-0.896426
88	0xbf97f8e3	-1.1872829
89	0xbfb5acac	-1.419332
90	0xbfbc155e	-1.4694021
91	0xbf4cb1ff	-0.799591
92	0xbfad2c18	-1.3529081
93	0xbea66a21	-0.32502845
94	0x3f024d1a	0.508989
95	0xbf812405	-1.0089117
96	0xbfb99253	-1.449778
97	0xbfca3e76	-1.5800312
98	0xbf86f0b3	-1.0542206
99	0xbfa7b67a	-1.3102562
100	0x3e4d2d09	0.20036711
101	0x3ededdfa	0.4352873
102	0xbe92bb23	-0.286584
103	0xbaf91b5a	-0.0019005344
104	0xbd9ef9b2	-0.07762469
105	0x3ed04f16	0.40685338
106	0x3e5b4844	0.21414286
107	0xbf1830de	-0.59449565
108	0xbe99931e	-0.29995054
109	0xbf799ae0	-0.97501945
110	0xbf7d4f98	-0.98949575
111	0x3d0bad42	0.03410078
112	0x3f23f7a0	0.6404972
113	0xbe87117a	-0.2638052
114	0xbf4ca5b7	-0.7994036
115	0x3e77df3f	0.24206255
116	0xbd5540ca	-0.05206374
117	0xbd1b3501	-0.037892345
118	0xbdf3ecce	-0.11910401
119	0x3e245636	0.16048512
120	0x3e2a574a	0.1663486
121	0xbf0ea371	-0.5571814
122	0xbedb7f54	-0.4287058
123	0xbe37e3d8	-0.17958009
124	0x3f451643	0.76987094
125	0xbf27318c	-0.6530998
126	0x3e25461e	0.16140029
127	0xbddb2207	-0.106998496
128	0x3d87668e	0.06611358
129	0x3e55a07b	0.20862
130	0x3e74b331	0.23896481
131	0x3e321097	0.17389141
132	0x3ec92312	0.3928457
133	0x3f1edca4	0.6205542
134	0xbfa5ce6b	-1.2953619
135	0xbeeca94a	-0.46222907
136	0x3df59666	0.11991577
137	0xbf2f5230	-0.68484783
138	0xbd9003cd	-0.07031975
139	0xbe79376a	-0.24337545
140	0xbe408b85	-0.18803222
141	0xbe76407f	-0.24048041
142	0x3f1fbfe1	0.6240216
143	0xbd1a5745	-0.037680883
144	0x3f2f10bd	0.68384916
145	0xbe075c8a	-0.13218895
146	0x3ee5be83	0.4487191
147	0xbe1f6930	-0.1556747
148	0xbe44b135	-0.19208224
149	0x3b2e499d	0.002659417
150	0xbf56d622	-0.8392049
151	0xbfdc4184	-1.7207494
152	0xbe8c8aba	-0.2744959
153	0xbf688529	-0.90828186
154	0xbe4c1c03	-0.1993256
155	0xbfa7e27a	-1.311599
156	0xc0133e79	-2.300688
157	0xc019333d	-2.3937523
158	0xbf3b2132	-0.7309753
159	0xbf9c28a0	-1.2199898
160	0xc0132472	-2.2990994
161	0x3e5701ba	0.20996752
162	0xbf883698	-1.0641661
163	0xbf6638a5	-0.8993018
164	0xbfc4f288	-1.5386515
165	0xbfcefa08	-1.6170053
166	0xbe9c4c5e	-0.30527014
167	0xbf05ddd4	-0.5229161
168	0xbe656ccb	-0.22404782
169	0xbf99f3ce	-1.2027528
170	0xbf445db0	-0.76705456
171	0x3e9688cd	0.29401246
172	0xbfcd9d36	-1.6063602
173	0xbf59ef33	-0.85130614
174	0xbf1ab826	-0.6043724
175	0xbfe2f15d	-1.7729908
176	0xc0028ec0	-2.0399628
177	0xbfe4c0bc	-1.7871318
178	0xbf63399a	-0.8875977
179	0xbed4c3b5	-0.41555563
180	0xbfc16eb0	-1.5111904
181	0xbf2c3113	-0.6726238
182	0x3e359fb7	0.17736708
183	0xbebae162	-0.36500078
184	0xbf57bab2	-0.8426925
185	0xbf316d05	-0.69306976
186	0xbfae82da	-1.3633683
187	0xbf29bbed	-0.66302377
188	0xbfdc8b25	-1.7229964
189	0xbf287c8f	-0.6581506
190	0xbf2af462	-0.6677915
191	0xbe7b818e	-0.2456114
192	0xbf2e57de	-0.68102825
193	0xbf81f8af	-1.0154017
194	0xbf807a5b	-1.003734
195	0xbf66e8ec	-0.9019916
196	0xbf0b60f6	-0.54444826
197	0xbf16cc4b	-0.58905476
198	0xbe64399a	-0.22287598
199	0xbdefe545	-0.117136516
