NEURAL_MODELS/LSTM/misty-monkey-50_epoch0.pth (torch, 815215 bytes, 42 tensors)

lstm.weight_ih_l0 f4 [200, 63]
0.21686368 0.2185263 0.036465764 -0.020370113 0.008012925 -0.022278389 0.097563386 0.04060214
0.06505918 -0.076192364 0.10871589 0.18426456 -0.014237626 -0.0015064462 0.13853985 0.03599455
0.23149808 0.086374484 0.14199814 0.24670619 -0.0073449137 0.070790015 -0.07924421 0.15935075
0.06334646 0.056896083 -0.011225845 -0.014228724 0.08622448 0.23337688 0.008737153 0.055898353
-0.13103668 0.11552881 0.16591634 -0.11459661 0.08063871 0.13781692 -0.062436916 -0.025278684
-0.07390373 0.1277252 0.0026993372 0.10026534 0.22340588 0.15076463 0.09185747 0.15863612
0.055822704 0.013406315 0.071973115 0.053566247 0.21677607 0.22013208 0.01790374 0.0061561405
0.04810855 0.20528205 -0.053859632 0.1479933 0.06700045 0.06499374 0.078414775 -0.054015446
0.4492505 0.17090261 -0.13892801 0.27088574 0.20010178 -0.488385 0.2553341 0.7768089
0.2535672 -0.21415006 -0.26693973 -0.93553174 0.4509361 0.6027301 -1.2762729 -1.6964691
0.14123791 0.5209601 -1.0370882 -0.14284812 0.571729 -0.20549075 -1.1465391 0.2629319
0.18106885 0.048294894 0.32062674 -1.5754826 -0.800484 -0.6485275 0.03980321 0.44510204
0.050774224 -0.44182956 0.59684247 -0.63446057 0.699455 -0.23200491 -1.530003 1.3778939
2.7067301 1.449094 1.0319402 0.4787812 1.0473529 0.18626767 0.7299105 1.096926
0.27568346 -0.33789667 0.1528516 -0.5955863 -1.2671791 0.8521355 -1.3148614 0.6906566
0.22210725 0.2867203 1.3346553 -1.0807393 0.7057268 -0.66721004 0.07736154 0.07136373
-0.07383572 -0.057531975 0.017351635 0.11688992 -0.05181992 0.023339745 -0.07122318 0.17918631
0.0065587303 -0.0083210105 -0.012025904 0.10134525 -0.042117007 0.20577273 0.017751753 0.038187034
0.030817175 0.10077008 -0.1635999 -0.015153751 0.05225706 0.18156028 0.03718543 -0.059031326
-0.07846186 -0.10544218 0.045860954 0.060453437 0.09918117 0.09492983 0.03541177 -0.04171161
0.032552022 0.013396399 0.18950608 0.15003343 0.10797199 0.09783464 0.11664557 0.19472021
0.15783279 0.008541046 0.10616539 -0.24180108 -0.017703975 0.2786518 -0.034857143 0.019773513
0.100800514 -0.028774807 0.14585175 0.17326677 -0.10144629 0.052440602 0.02785256 0.11339143
-0.023621995 -0.04866548 0.081548996 0.103936896 0.10579422 0.16573288 0.07198809 0.12126186
0.055695727 0.082022816 0.13205123 0.004509279 -0.10735446 -0.06351627 -0.017717056 -0.030829659
0.039245415 -0.030420404 0.04447609 0.046008013 0.15126087 0.10990492 -0.068270236 0.13713287
-0.028335039 -0.024972739 0.14909886 -0.012840894 0.14147727 0.09984059 -0.019888287 0.024158556
0.12922202 0.21172246 0.20956498 0.054106966 -0.051188234 -0.022148754 0.11007643 -0.086232275
-0.02952344 -0.044781704 0.16561908 0.16012472 0.060238976 0.107654676 0.01908435 -0.016800864
-0.0534099 0.1655691 0.07525126 -0.015940184 0.17890845 0.19787705 0.2310876 0.04399964
0.030153481 0.1252741 -0.024921155 0.025449261 -0.02358535 0.07716317 -0.011806157 0.19128333
0.07676414 -0.005293913 0.08224952 0.04263655 0.05143249 0.020379465 0.11991817 0.07803272
00000000: 8311 5e3e 5cc5 5f3e 205d 153d 39df a6bc
00000010: a548 033c 2b81 b6bc 50cf c73d 6e4e 263d
00000020: bf3d 853d be0a 9cbd 70a6 de3d d9af 3c3e
00000030: ef44 69bc f273 c5ba 64dd 0d3e 056f 133d
00000040: d50d 6d3e 1be5 b03d f667 113e 8ca0 7c3e
00000050: 9aad f0bb 5bfa 903d ca4a a2bd d82c 233e
00000060: cabb 813d de0b 693d 9bec 37bc 981f 69bc
00000070: 7696 b03d 59fa 6e3e 4726 0f3c acf5 643d
00000080: 7b2e 06be 5e9a ec3d f9e5 293e a1b1 eabd
00000090: e825 a53d e11f 0d3e dabd 7fbd 3e15 cfbc
000000a0: d75a 97bd 65ca 023e 5de7 303b ea57 cd3d
000000b0: 83c4 643e 0b62 1a3e c51f bc3d 8271 223e
000000c0: 59a6 643d 29a6 5b3c a466 933d 4868 5b3d
000000d0: 8cfa 5d3e 4e6a 613e ddaa 923c 73b9 c93b
000000e0: 790d 453d 7535 523e eb9b 5cbd 8e8b 173e
000000f0: 8837 893d 701b 853d ed97 a03d 4d3f 5dbd
00000100: 2904 e63e 1801 2f3e 2543 0ebe 89b1 8a3e
00000110: 7be7 4c3e 990d fabe 27bb 823e f3dc 463f
00000120: 8fd3 813e 274a 5bbe 53ac 88be 027f 6fbf
00000130: 19e1 e63e 854c 1a3f e95c a3bf e625 d9bf
00000140: aca0 103e a45d 053f 4ebf 84bf c746 12be
00000150: d55c 123f 2b6c 52be cbc1 92bf 039f 863e
00000160: 1d6a 393e ded0 453d 3029 a43e 6aa9 c9bf
00000170: 85ec 4cbf e605 26bf b108 233d 6ae4 e33e
00000180: a2f8 4f3d 7c37 e2be abca 183f 026c 22bf
00000190: 7c0f 333f b292 6dbe 23d7 c3bf d45e b03f
000001a0: 113b 2d40 ea7b b93f 9e16 843f cf22 f53e
000001b0: a90f 863f f4bc 3e3e 6adb 3a3f 1268 8c3f
000001c0: 6226 8d3e cb00 adbe 2185 1c3e 5878 18bf
000001d0: ed32 a2bf 8d25 5a3f 614d a8bf dfce 303f
000001e0: 1570 633e 01cd 923e fcd5 aa3f aa55 8abf
000001f0: 83aa 343f 47ce 2abf ba6f 9e3d 2627 923d
00000200: 2f37 97bd a6a6 6bbd 0425 8e3c fb63 ef3d
00000210: 2041 54bd fe32 bf3c 75dd 91bd 9e7c 373e
00000220: 9eea d63b d954 08bc 4c08 45bc 198e cf3d
00000230: e282 2cbd 16b6 523e 206c 913c 026a 1c3d
00000240: 4d74 fc3c 8b60 ce3d bb86 27be 7047 78bc
00000250: 800b 563d f0ea 393e c04f 183d d5ca 71bd
00000260: 9db0 a0bd 12f2 d7bd b2d8 3b3d 069e 773d
00000270: 7f1f cb3d 926a c23d ef0b 113d cbd9 2abd
00000280: 4555 053d 927c 5b3c e20d 423e 5da2 193e
00000290: 6b20 dd3d 875d c83d dfe3 ee3d bc64 473e
000002a0: eb9e 213e beef 0b3c 3d6d d93d b49a 77be
000002b0: ed07 91bc 73ab 8e3e 5dc6 0ebd 10fc a13c
000002c0: 8070 ce3d 25b9 ebbc 295a 153e d86c 313e
000002d0: 13c3 cfbd f5cb 563d 0d2b e43c c439 e83d
000002e0: ea82 c1bc 7455 47bd 2903 a73d dedc d43d
000002f0: a4aa d83d e1b5 293e 7e6e 933d 2358 f83d
00000300: 3421 643d 94fb a73d 7038 073e 93c2 933b
00000310: a8dc dbbd d114 82bd 5c23 91bc 7b8e fcbc
00000320: cdbf 203d 3634 f9bc 902c 363d e672 3c3d
00000330: 21e4 1a3e d515 e13d 44d1 8bbd 8f6c 0c3e
00000340: e21e e8bc a193 ccbc 5fad 183e 9d62 52bc
00000350: 6bdf 103e 3979 cc3d c3ec a2bc 2ae8 c53c
00000360: c752 043e c6cd 583e 3498 563e 449f 5d3d
00000370: c1aa 51bd 4e71 b5bc c06f e13d 8c9a b0bd
00000380: 24db f1bc 056d 37bd 0c98 293e bcf7 233e
00000390: 25bd 763d 0e7a dc3d c856 9c3c f7a1 89bc
000003a0: 57c4 5abd f28a 293e 551d 9a3d fd94 82bc
000003b0: c733 373e 48a0 4a3e 3aa2 6c3e f738 343d
000003c0: 6f04 f73c db47 003e 7327 ccbc f87a d03c
000003d0: 1036 c1bc b907 9e3d 9d6e 41bc c7df 433e
000003e0: 8436 9d3d 9078 adbb 7072 a83d aaa3 2e3d
000003f0: e0aa 523d d6f2 a63c a897 f53d 9ecf 9f3d

lstm.weight_hh_l0 f4 [200, 50]
0.018108144 -0.027694378 -0.19145028 0.003365947 -0.1485135 -0.25550658 -0.04123896 -0.09131786
0.19365041 0.1121089 -0.022427283 0.21362026 0.15612961 0.06323712 -0.0060305186 -0.029420676
-0.013495051 -0.02254477 0.005227278 0.12655441 0.028206049 0.0792364 -0.07773639 -0.02727717
0.10467121 -0.20053123 -0.19130649 0.19739193 -0.17295015 -0.25171748 -0.088699505 0.02669748
0.28908154 -0.1887381 -0.0028715874 0.1781244 -0.047705874 0.1966855 0.11384078 -0.13113378
-0.1319942 0.052887656 -0.14100966 -0.0946448 0.023272764 -0.11830808 -0.13085927 0.06132847
-0.17160378 -0.0039563384 0.1996687 0.42434898 0.38481313 0.113503315 0.30696902 -0.03226884
0.11708234 0.06480303 -0.115429625 0.19759554 0.09480329 -0.075765505 0.0020282469 -0.14607933
0.028090734 0.2134765 -0.25204659 -0.3899784 0.16138995 -0.07638791 0.18386136 0.69842625
-0.3656871 0.18315274 -0.25775716 -0.34583423 0.13947183 -0.17045619 0.020993335 0.06970042
0.17035551 0.009540992 -0.25578964 0.11189474 -0.016755864 -0.27709684 -0.3310252 -0.11689996
0.06510366 0.20794809 0.07140695 0.01169274 -0.10183432 -0.103168905 -0.2271143 0.3020588
-0.14435862 0.060252074 -0.06758155 -0.12634736 0.04036964 0.11240339 -0.008175686 -0.020596296
-0.16551769 -0.08356368 -0.10535809 -0.109047726 0.21184477 -0.034022223 -0.19147956 -0.019612627
0.13450274 0.19566128 -0.15602863 -0.19299008 0.17352906 0.07009354 -0.07228733 0.07496491
-0.08231419 0.12583074 -0.02919496 -0.09065286 0.042113647 -0.025120938 -0.12868524 0.101082355
-0.084150545 -0.061226264 -0.023371618 0.11757696 0.23396549 0.040154293 0.03254147 -0.0110528665
-0.09268972 0.0482237 -0.041469835 -0.11296654 -0.090415366 0.026868986 0.04667139 0.041535053
0.0888005 -0.11439257 -0.13712592 0.06564566 -0.1938046 -0.23470543 0.042623397 -0.026401576
-0.20847382 -0.07838582 -0.048741914 -0.0408379 -0.03534589 -0.20809296 0.032780033 0.13099481
0.029475396 0.14862166 0.13147625 0.1429238 -0.033145476 -0.24704131 -0.0077438555 -0.043131065
-0.0038563628 0.11280401 -0.07092866 0.12406453 0.04766147 -0.02880969 0.24908079 -0.07163203
-0.19617435 0.2048625 -0.0021480643 -0.06956263 0.0047600595 0.09228811 0.16058065 -0.19460844
0.23935226 0.04347269 0.013902365 0.20884967 0.17768343 0.060986143 0.043819856 -0.09634699
-0.13300595 -0.19351476 -0.018821105 -0.18456723 -0.12134679 -0.05564569 -0.00097594265 -0.09525368
-0.01444248 -0.033010382 -0.22369573 0.0016990342 -0.017696438 -0.034041986 -0.24764921 -0.20631613
0.026901454 0.00803395 -0.061583985 0.12223403 0.20671745 0.107108854 0.05228983 -0.2182254
-0.024906788 -0.034727387 -0.05164537 0.13849746 -0.02842743 0.11628206 -0.054398537 0.026579399
0.08715137 -0.2208676 0.036112387 0.18549433 -0.047650583 -0.04279426 0.02776179 0.10752592
-0.02190835 -0.17262301 -0.0795149 0.009989965 -0.1535085 0.117059626 0.065764 -0.023718351
-0.21248345 -0.03821079 -0.028805869 -0.05282704 0.2385358 -0.16859286 -0.26880988 0.1707163
-0.0203663 0.022587258 0.18441871 0.14605531 0.023483232 -0.15518337 -0.12605546 0.009433268
00000000: 8857 943c 52df e2bc 8b0b 44be 3897 5c3b
00000010: ec13 18be c2d1 82be 2fea 28bd dc04 bbbd
00000020: 4b4c 463e 5a99 e53d 6cb9 b7bc 45bf 5a3e
00000030: 71e0 1f3e 7782 813d a89b c5bb a103 f1bc
00000040: 591a 5dbc cfaf b8bc 9649 ab3b 7b97 013e
00000050: 5f10 e73c b246 a23d 4234 9fbd 5f74 dfbc
00000060: dc5d d63d 0f58 4dbe d9e5 43be 1c21 4a3e
00000070: d819 31be 1de1 80be 16a8 b5bd acb4 da3c
00000080: 7f02 943e 8f44 41be 3e31 3cbb 3e66 363e
00000090: 3c67 43bd ec67 493e 5b25 e93d ef47 06be
000000a0: 7d29 07be baa0 583d d664 10be 22d5 c1bd
000000b0: 86a6 be3c 824b f2bd f9ff 05be 9033 7b3d
000000c0: e7b8 2fbe 2ca4 81bb f475 4c3e 4544 d93e
000000d0: 3a06 c53e 6d74 e83d 0b2b 9d3e 552c 04bd
000000e0: dec8 ef3d 73b7 843d 5e66 ecbd 7c56 4a3e
000000f0: 3a28 c23d f22a 9bbd 56ec 043b d295 15be
00000100: 8a1e e63c 9599 5a3e 400c 81be 40ab c7be
00000110: 6843 253e 4471 9cbd 2746 3c3e 10cc 323f
00000120: 573b bbbe 648c 3b3e bff8 83be 2f11 b1be
00000130: b4d1 0e3e 118c 2ebe 37fa ab3c 18bf 8e3d
00000140: ad71 2e3e d251 1c3c dcf6 82be 1229 e53d
00000150: 9843 89bc a3df 8dbe 237c a9be 3f69 efbd
00000160: 1155 853d 58f0 543e cf3d 923d e892 3f3c
00000170: 838e d0bd 384a d3bd a790 68be 73a7 9a3e
00000180: bfd2 13be e1ca 763d 3268 8abd 3461 01be
00000190: a35a 253d c033 e63d 50f3 05bc 90b9 a8bc
000001a0: 787d 29be 6f23 abbd fbc5 d7bd 6a54 dfbd
000001b0: d6ed 583e e35a 0bbd 3813 44be a9aa a0bc
000001c0: 16bb 093e 6e5b 483e f8c5 1fbe 319f 45be
000001d0: 9ab1 313e 348d 8f3d 610b 94bd 3487 993d
000001e0: 5894 a8bd c6d9 003e 452a efbc 35a8 b9bd
000001f0: 5c7f 2c3d 6dca cdbc 10c6 03be 4404 cf3d
00000200: 1f57 acbd 64c8 7abd d675 bfbc 30cc f03d
00000210: a694 6f3e d478 243d 344a 053d 1517 35bc
00000220: 1cd4 bdbd 3786 453d 46dc 29bd 005b e7bd
00000230: b12b b9bd 591c dc3c 802a 3f3d a920 2a3d
00000240: 09dd b53d a746 eabd bd6a 0cbe 3b71 863d
00000250: b774 46be 9f56 70be df95 2e3d 1e48 d8bc
00000260: 297a 55be bf88 a0bd 9aa5 47bd a445 27bd
00000270: dac6 10bd 5216 55be 5b44 063d 8123 063e
00000280: 6376 f13c 4730 183e b6a1 063e 9e5a 123e
00000290: 8dc3 07bd 66f8 7cbe 2bc0 fdbb 33aa 30bd
000002a0: 08bb 7cbb ca05 e73d 0c43 91bd 8b15 fe3d
000002b0: ac38 433d 4d02 ecbc 090f 7f3e d0b3 92bd
000002c0: eee1 48be 7ac7 513e 8ac6 0cbb da76 8ebd
000002d0: 46fa 9b3b 8c01 bd3d 416f 243e 6f47 47be
000002e0: c218 753e 6b10 323d bfc6 633c b0dc 553e
000002f0: a5f2 353e 9bcc 793d 737c 333d 9251 c5bd
00000300: b632 08be bc28 46be b82e 9abc 31ff 3cbe
00000310: aa84 f8bd bcec 63bd 67d6 7fba 5d14 c3bd
00000320: 27a0 6cbc e535 07bd 7e10 65be 21b2 de3a
00000330: 1ff8 90bc 9c6f 0bbd c197 7dbe 8944 53be
00000340: 7060 dc3c d4a0 033c 7d3f 7cbd d655 fa3d
00000350: bdad 533e e35b db3d dc2d 563d 7b76 5fbe
00000360: 5209 ccbc 4e3e 0ebd 188a 53bd 47d2 0d3e
00000370: a4e0 e8bc 4a25 ee3d 00d1 5ebd 0abd d93c
00000380: 6b7c b23d 1e2b 62be 95ea 133d 3af2 3d3e
00000390: 422d 43bd 0949 2fbd b26c e33c 8d36 dc3d
000003a0: 2479 b3bc 16c4 30be b5d8 a2bd f3ac 233c
000003b0: 5531 1dbe f5bc ef3d 47af 863d fd4c c2bc
000003c0: 4395 59be eb82 1cbd 49fa ebbc 2b61 58bd
000003d0: bb42 743e 9ba3 2cbe 73a1 89be 41d0 2e3e
000003e0: 3ad7 a6bc ea08 b93c 42d8 3c3e 868f 153e
000003f0: e85f c03c 64e8 1ebe af14 01be fe8d 1a3c

lstm.bias_ih_l0 f4 [200]
0.21393962 0.08009056 0.032196995 0.01731365 -0.01800531 -0.07410591 -0.06753592 -0.0005982814
-0.025915636 0.17942542 0.13847654 -0.14668816 0.042462748 0.022194171 0.103183754 -0.0073682712
0.13563132 0.06906186 0.10972272 -0.14686248 0.22886588 -0.07535808 -0.020749899 0.22716318
-0.062007707 -0.039719097 -0.02495874 0.19080195 0.12699948 0.024127893 0.17757486 0.08611945
-0.034881752 0.09079803 -0.08601875 0.19665986 0.10560152 0.17007287 0.16195332 -0.057102736
0.21167973 0.1835883 0.19169506 0.22505929 0.055513747 0.022482857 0.024058895 0.19450508
-0.030342227 0.15660645 0.03638703 0.05274699 -0.018879833 0.1028659 0.1643983 0.19340162
0.12055384 0.086297214 -0.031047877 0.23144154 0.028585922 -0.09954525 0.027777024 -0.044354986
0.19588998 0.11508484 -0.04727954 -0.047482375 0.2032507 -0.24532859 0.20773064 0.03955912
0.013197958 0.16059634 0.054396566 0.028520571 0.16177356 -0.024988126 0.19661114 -0.06874926
0.00072902226 0.15880884 0.12942873 0.18298315 -0.058983564 0.12248522 -0.014374698 0.109622635
0.08559542 0.038878147 0.09728285 -0.053472433 0.00015473564 0.13964011 -0.0036879815 0.060551327
0.0018882233 0.052126117 0.23819056 0.098187275 0.0813531 -0.083441585 -0.20369816 -0.16261622
0.005556599 -0.041526385 -0.118792094 -0.21242511 0.06883895 0.14463662 -0.104177296 0.10488201
0.08679871 0.09789499 -0.20678924 -0.035007134 0.123440936 0.012826504 -0.09559205 -0.09768552
-0.027995074 -0.053350527 -0.19499356 -0.2148338 0.14036347 -0.13073431 -0.08342669 0.20735948
-0.12321136 0.019101476 -0.2232341 0.21440898 0.21391608 -0.13018215 0.14110383 0.19548531
-0.020096233 0.22623841 0.08599406 -0.060485188 -0.2106116 0.16848724 -0.18364091 -0.078376964
0.00014365763 -0.1094645 -0.084890075 0.13638411 -0.15729325 -0.14307012 -0.02289111 -0.071203284
0.0059252493 -0.09041246 -0.19313802 -0.20695885 -0.13282211 -0.12629044 0.06721992 0.022412375
-0.005229448 -0.12491303 0.07971209 0.048980333 -0.0412769 0.1389284 -0.03103967 -0.09890775
-0.21575943 -0.13444282 -0.059914738 -0.36065006 -0.057895996 0.04484016 -0.36412644 -0.12360954
-0.043215465 0.040011387 -0.001761462 -0.042773753 -0.16825047 -0.015475497 -0.12276992 0.15534249
-0.23069757 0.14137807 -0.33271623 -0.06851603 0.026354065 -0.22712392 -0.008324999 -0.080488175
0.052799404 0.07118425 0.103293635 0.04629905 -0.30762878 0.0623919 0.012675657 0.07624062
00000000: fd12 5b3e 8506 a43d ffe0 033d 5bd5 8d3c
00000010: df7f 93bc d7c4 97bd 4650 8abd fcd5 1cba
00000020: 074d d4bc 4cbb 373e cbcc 0d3e 6c35 16be
00000030: 6bed 2d3d 8dd0 b53c 0152 d33d 8a71 f1bb
00000040: f0e2 0a3e 4e70 8d3d 4eb6 e03d 1e63 16be
00000050: d15b 6a3e 5655 9abd b1fb a9bc 779d 683e
00000060: cbfb 7dbd 7eb0 22bd 4676 ccbc 9661 433e
00000070: 270c 023e dca7 c53c 2fd6 353e 655f b03d
00000080: 2be0 0ebd 51f4 b93d 992a b0bd 3461 493e
00000090: 9c45 d83d 9527 2e3e 17d7 253e 8fe4 69bd
000000a0: 92c2 583e 92fe 3b3e b64b 443e f175 663e
000000b0: 6262 633d f82d b83c 2917 c53c 572c 473e
000000c0: 4390 f8bc 715d 203e 910a 153d 3a0d 583d
000000d0: e1a9 9abc 5bab d23d 0758 283e 130b 463e
000000e0: efe4 f63d 98bc b03d 1e58 febc 03ff 6c3e
000000f0: 062d ea3c 61de cbbd a48c e33c 93ad 35bd
00000100: 6297 483e 9ab1 eb3d 31a8 41bd e17c 42bd
00000110: f420 503e 6b37 7bbe 57b7 543e be08 223d
00000120: 3f3c 583c 5e73 243e efce 5e3d f9a3 e93c
00000130: f8a7 253e e6b3 ccbc 6e54 493e 69cc 8cbd
00000140: db1b 3f3a c99e 223e f788 043e ef5f 3b3e
00000150: c098 71bd 88d9 fa3d da83 6bbc d581 e03d
00000160: a74c af3d b13e 1f3d 3b3c c73d e905 5bbd
00000170: 8840 2239 d1fd 0e3e 10b2 71bb ab04 783d
00000180: 437e f73a 3282 553d 3ae8 733e 6916 c93d
00000190: 749c a63d 6ce3 aabd 4096 50be de84 26be
000001a0: 2114 b63b 9217 2abd 4549 f3bd f885 59be
000001b0: 6ffb 8c3d 9f1b 143e e85a d5bd 61cc d63d
000001c0: 86c3 b13d 2b7d c83d 8fc0 53be a463 0fbd
000001d0: 9ace fc3d 4226 523c c4c5 c3bd 590f c8bd
000001e0: ed55 e5bc 1586 5abd 64ac 47be 64fd 5bbe
000001f0: 71bb 0f3e 37df 05be 9ddb aabd 0b56 543e
00000200: 3d56 fcbd b37a 9c3c 7b97 64be 078e 5b3e
00000210: d10c 5b3e 784e 05be 867d 103e 4d2d 483e
00000220: dba0 a4bc 0bab 673e a71d b03d 51bf 77bd
00000230: 91aa 57be eb87 2c3e 5d0c 3cbe 1a84 a0bd
00000240: cda2 1639 ec2e e0bd d9da adbd 47a8 0b3e
00000250: 7b11 21be f980 12be 2386 bbbc 07d3 91bd
00000260: 9828 c23b 2b2a b9bd f9c5 45be 05ed 53be
00000270: 8502 08be 4852 01be 99aa 893d 289a b73c
00000280: ca5b abbb 67d2 ffbd 1840 a33d 9a9f 483d
00000290: f711 29bd 3f43 0e3e e846 febc 2590 cabd
000002a0: 0af0 5cbe 61ab 09be 2869 75bd 20a7 b8be
000002b0: 5a24 6dbd 51aa 373d c86e babe 0027 fdbd
000002c0: b302 31bd fbe2 233d dbe0 e6ba 8833 2fbd
000002d0: da49 2cbe f08c 7dbc cc6e fbbd 1a12 1f3e
000002e0: fc3b 6cbe 6ac5 103e c859 aabe 2252 8cbd
000002f0: 7be4 d73c 2c93 68be 9465 08bc fcd6 a4bd
00000300: 3044 583d 0cc9 913d 9d8b d33d 13a4 3d3d
00000310: 8581 9dbe a68e 7f3d 8fad 4f3c 0b24 9c3d

lstm.bias_hh_l0 f4 [200]
-0.030038608 -0.060631223 0.004647422 0.13475133 0.19498657 -0.011555458 0.038254965 0.16795409
-0.018782828 -0.0379604 0.1739696 0.075851254 0.053505834 -0.043266334 0.078145035 -0.023095056
-0.0070244055 0.013493101 0.02114091 -0.040278092 0.098053716 -0.03865421 0.20705318 0.07672945
0.080141835 0.038489755 0.108942784 -0.0039094253 0.19095896 -0.040841416 -0.011990202 0.23264137
0.04754156 0.11904449 -0.016196568 0.053182136 0.0021539524 0.046003453 0.14045644 0.1504096
0.084309824 -0.038544513 0.12793046 -0.022657186 0.018411621 0.13975093 0.072409086 -0.024066795
0.093872406 0.03013134 -0.012399849 -0.16344242 0.037778232 0.09392084 0.22002079 -0.049452692
0.0507026 0.21099098 0.09098353 0.10832209 0.19200018 -0.24011594 -0.024553291 0.13296261
0.16932993 0.06491514 0.003504389 -0.0038731769 -0.0313973 -0.28223732 0.013360434 -0.06936612
0.10831708 0.01088064 0.12351718 0.18318217 0.19756277 0.062636144 0.016682265 -0.1596661
0.07373991 0.026664352 0.20737578 0.18976617 -0.22725442 -0.006369568 0.113201216 0.22544897
0.14662164 0.155863 0.117301635 0.06978472 0.09448916 0.2341199 -0.056639418 0.033341233
0.09756313 0.03406476 0.15050788 0.14303438 0.2330946 0.020513337 -0.0911319 -0.14562777
-0.15390553 -0.18910326 -0.04208675 -0.14879781 0.21628182 0.090240896 -0.23321776 -0.10909603
0.15691431 0.21593615 -0.23868123 -0.06803267 0.1564563 0.21017241 -0.13358314 0.06572106
-0.19698307 0.1165195 0.031459622 -0.14707667 0.1557051 -0.13841452 -0.19860537 0.064316474
-0.05569074 0.0032831447 -0.072737336 0.05729404 0.026673945 -0.03501555 0.027189134 0.19238232
0.05035303 0.22456731 0.23527212 -0.11151458 -0.061191883 0.12808818 -0.06492512 -0.17059639
0.20795597 -0.11717797 -0.09430163 0.0873579 -0.07353306 -0.112894274 -0.118775204 -0.021028152
-0.024227312 -0.27792272 -0.10322694 -0.21670854 0.0058114254 0.13061388 0.00060800876 -0.14089999
-0.043180823 -0.17416774 -0.02846791 -0.09095183 0.030011823 -0.0324802 -0.16578315 -0.05998804
-0.11036383 -0.095963284 0.09140979 -0.18679039 0.0055726203 0.0146433255 -0.27526528 -0.19925766
0.1638682 -0.09185701 0.043050893 -0.12583962 0.0701283 -0.013207981 -0.16965486 -0.10152845
-0.33024594 0.12985604 -0.24698351 0.09178417 -0.011715417 -0.20074503 -0.06361364 -0.068038695
-0.10896912 -0.10340089 -0.055000477 -0.008395968 -0.29009113 -0.16532327 0.027504738 0.09901457
00000000: 8713 f6bc 7258 78bd 6749 983b 41fc 093e
00000010: 8faa 473e 1b53 3dbc 3db1 1c3d 28fc 2b3e
00000020: 72de 99bc 5d7c 1bbd 1625 323e e757 9b3d
00000030: ef28 5b3d 0a38 31bd 810a a03d d831 bdbc
00000040: fc2c e6bb 2b12 5d3c b42f ad3c a4fa 24bd
00000050: 63d0 c83d e053 1ebd c005 543e 5424 9d3d
00000060: 6721 a43d 6fa7 1d3d 651d df3d a31a 80bb
00000070: bf8a 433e 5449 27bd 8d72 44bc 8a39 6e3e
00000080: f0ba 423d 99cd f33d aaae 84bc 83d5 593d
00000090: 5329 0d3b 1e6e 3c3d d0d3 0f3e f904 1a3e
000000a0: a1aa ac3d dae0 1dbd 3400 033e 909b b9bc
000000b0: f8d3 963c de1a 0f3e 374b 943d ba27 c5bc
000000c0: 2d40 c03d 00d6 f63c bc28 4bbc 735d 27be
000000d0: 59bd 1a3d 9259 c03d 214d 613e e88e 4abd
000000e0: 88ad 4f3d 050e 583e 9355 ba3d f9d7 dd3d
000000f0: b29b 443e f4e0 75be fc23 c9bc 5a27 083e
00000100: d364 2d3e 3bf2 843d e4a9 653b 20d5 7dbb
00000110: 759a 00bd 6981 90be b9e5 5a3c d30f 8ebd
00000120: 58d5 dd3d b644 323c 93f6 fc3d 1b94 3b3e
00000130: e54d 4a3e 6147 803d 3fa9 883c 837f 23be
00000140: f304 973d 336f da3c 515a 543e 1052 423e
00000150: 62b5 68be cfb7 d0bb 0ad6 e73d 18dc 663e
00000160: fc23 163e 8d9a 1f3e d73b f03d 4beb 8e3d
00000170: 8883 c13d 21bd 6f3e bcfe 67bd d190 083d
00000180: 2ecf c73d 7d87 0b3d bd1e 1a3e 9b77 123e
00000190: 5ab0 6e3e 960b a83c 5da3 babd 721f 15be
000001a0: 6999 1dbe 49a4 41be 2863 2cbd 745e 18be
000001b0: fb78 5d3e 38d0 b83d a3d0 6ebe bd6d dfbd
000001c0: 25ae 203e 5e1e 5d3e da68 74be b654 8bbd
000001d0: 1536 203e 7037 573e 05ca 08be c398 863d
000001e0: eeb5 49be c7a1 ee3d cedb 003d 449b 16be
000001f0: 2871 1f3e 89bc 0dbe 355f 4bbe 5bb8 833d
00000200: f91b 64bd 072a 573b 50f7 94bd 28ad 6a3d
00000210: 5183 da3c 776c 0fbd bfbb de3c dfff 443e
00000220: fb3e 4e3d f9f4 653e 2deb 703e c261 e4bd
00000230: 57a4 7abd 8c29 033e 76f7 84bd d2b0 2ebe
00000240: 69f2 543e 01fb efbd 3721 c1bd b3e8 b23d
00000250: 8098 96bd 1d35 e7bd 6a40 f3bd 3b43 acbc
00000260: 5b78 c6bc e34b 8ebe a568 d3bd d8e8 5dbe
00000270: c56d be3b a5bf 053e c762 1f3a 1648 10be
00000280: 60de 30bd 0759 32be 8935 e9bc f444 babd
00000290: 5bdb f53c f509 05bd 0fc3 29be 05b6 75bd
000002a0: 6f06 e2bd 6688 c4bd 0e35 bb3d fb45 3fbe
000002b0: 879a b63b 8fea 6f3c 92ef 8cbe 330a 4cbe
000002c0: 11cd 273e 871f bcbd 2256 303d 1adc 00be
000002d0: 6d9f 8f3d 4a66 58bc 01ba 2dbe 26ee cfbd
000002e0: ff15 a9be fbf8 043e 3fe9 7cbe 57f9 bb3d
000002f0: 05f2 3fbc 1b90 4dbe de47 82bd df57 8bbd
00000300: 342b dfbd d9c3 d3bd 2e48 61bd 3e8f 09bc
00000310: d386 94be 814a 29be 9e51 e13c 27c8 ca3d

lstm.weight_ih_l1 f4 [200, 50]
-0.00764252 -0.084796324 -0.12420581 -0.16864723 0.044177815 0.00606713 0.030376567 -0.020213328
-0.018853119 0.1883213 0.047275834 0.0685522 0.19899446 0.14694785 0.020994252 0.050821245
0.06087096 0.11119161 -0.16710648 0.09005008 -0.07823088 -0.11228997 -0.08853638 -0.21607612
0.22594398 0.0483505 -0.0863494 0.1767755 0.0295747 0.007194666 -0.13471802 0.16681257
0.03546074 -0.0437554 -0.032482002 -0.016863883 -0.12960608 0.113241866 0.2035173 -0.079341024
-0.013994228 0.061150797 -0.19915326 -0.19387533 -0.009554111 -0.19221322 -0.046599645 0.18309334
-0.18240014 -0.034928698 -0.040432062 0.04000273 -0.005170779 -0.02355501 -0.007493595 -0.20212609
-0.06126377 0.029525446 0.056080643 0.11901768 -0.11280477 0.11219529 0.04287765 0.18145874
-0.16324592 -0.0376104 -0.030803017 0.2370978 -0.004259121 0.022429537 0.0044772574 -0.027449414
-0.12984635 -0.24074008 0.05340953 0.046153523 -0.004262839 0.029026063 -0.08618329 -0.18316242
-0.1434502 0.22147846 0.03921998 -0.16000295 -0.073096186 0.07088913 -0.13134447 0.062238824
0.17341878 -0.097126134 -0.18021889 0.1745253 -0.069736116 -0.08693911 0.022554047 -0.1441868
-0.12565005 0.033720877 -0.19009084 -0.21058084 0.20568576 0.06140872 -0.111156344 -0.007557928
0.042604245 -0.18631183 -0.16369905 -0.092230774 0.005962876 0.17415516 -0.02914507 -0.006839278
0.13743885 0.175982 0.055850033 -0.002196716 0.03651074 -0.06950233 -0.22956714 -0.05042114
-0.107097805 -0.10871866 -0.14862302 -0.14742593 -0.023969885 0.031624224 0.0313132 0.11067335
-0.0982792 -0.06643801 -0.10951923 0.21941994 0.23390344 -0.18229544 -0.07722569 0.08260055
-0.13372615 0.178677 0.050731502 -0.050034184 -0.021849727 0.19832481 -0.038306817 0.021836037
-0.07148893 -0.09214373 0.018971605 0.18095724 -0.20702717 -0.02593551 -0.031763654 0.07090709
-0.17381307 -0.16074274 -0.12063153 -0.04098247 -0.07160044 -0.072799414 0.21307248 0.02598462
-0.14295314 0.11268471 -0.032358546 0.1194143 0.058587782 -0.1361839 -0.033057563 -0.052796695
0.037468262 -0.036852226 -0.2206201 0.15646994 -0.12306648 -0.12508231 -0.004182048 -0.07216708
-0.15386826 -0.03707187 -0.17200603 0.063998334 -0.21227242 0.14202423 0.113843 -0.13827644
0.052392423 0.14751394 -0.029479152 0.1616761 -0.053515274 -0.08600262 -0.074194685 0.08160381
-0.042748675 -0.14024958 0.24846807 -0.18833704 -0.15205666 0.065081455 0.03272721 -0.2167515
0.0017692338 -0.05570564 -0.099206656 -0.08565625 0.025204057 -0.21163453 -0.23269187 -0.18680388
-0.02071571 0.19105892 -0.04834276 -0.013083981 0.100072265 -0.017141206 -0.16189861 -0.052528426
0.18645328 0.18560505 -0.081969 0.041737836 -0.07286041 0.09143186 0.04310337 -0.18109277
-0.033824783 -0.07167784 -0.22342013 0.15063165 0.031031657 -0.094091564 -0.025465854 0.027128838
0.18951203 0.04077977 0.107747644 0.09339503 -0.16927192 0.05643939 0.13881615 0.05820163
0.03190797 -0.06893312 -0.18308236 0.013693 0.162445 -0.0008998247 -0.12986441 -0.029585583
-0.06296684 -0.21896997 0.11899775 0.14015676 -0.15966822 -0.02047809 -0.0517559 -0.20201945
00000000: 1b6e fabb b2a9 adbd 9e5f febd dcb1 2cbe
00000010: ccf3 343d c6ce c63b 47d8 f83c 6c96 a5bc
00000020: db71 9abc 4dd7 403e 4ea4 413d 1965 8c3d
00000030: 34c5 4b3e 7f79 163e 23fc ab3c f029 503d
00000040: d453 793d 6db8 e33d f61d 2bbe 2d6c b83d
00000050: 8337 a0bd 49f8 e5bd 9052 b5bd 0f43 5dbe
00000060: dc5d 673e 2d0b 463d f4d7 b0bd a304 353e
00000070: a446 f23c 3cc1 eb3b 85f3 09be ead0 2a3e
00000080: 483f 113d dd38 33bd d90b 05bd 2026 8abc
00000090: 75b7 04be 5aeb e73d d766 503e 8c7d a2bd
000000a0: 0c48 65bc 4279 7a3d d5ee 4bbe 4187 46be
000000b0: d988 1cbc 8bd3 44be 45df 3ebd d27c 3b3e
000000c0: 1ac7 3abe 6511 0fbd 179c 25bd e7d9 233d
000000d0: a36f a9bb 70f6 c0bc d58c f5bb 24fa 4ebe
000000e0: b8ef 7abd 59df f13c d1b4 653d 8bbf f33d
000000f0: 3006 e7bd a5c6 e53d 7aa0 2f3d 52d0 393e
00000100: f029 27be 5d0d 1abd 9c56 fcbc c4c9 723e
00000110: 1990 8bbb 26be b73c f5b5 923b 98dd e0bc
00000120: 71f6 04be 9184 76be f4c3 5a3d 7a0b 3d3d
00000130: 49af 8bbb 11c8 ed3c dd80 b0bd ee8e 3bbe
00000140: 9ce4 12be 40cb 623e 21a5 203d d0d7 23be
00000150: 74b3 95bd 522e 913d 2a7f 06be 23ee 7e3d
00000160: b194 313e 11ea c6bd 4d8b 38be c3b6 323e
00000170: cfd1 8ebd 220d b2bd 44c3 b83c b4a5 13be
00000180: 68aa 00be e71e 0a3d 2ca7 42be 81a2 57be
00000190: 4a9f 523e b687 7b3d f0a5 e3bd 7fa8 f7bb
000001a0: ca81 2e3d 87c8 3ebe b9a0 27be 7de3 bcbd
000001b0: 3b64 c33b bb55 323e a4c1 eebc 061c e0bb
000001c0: c5bc 0c3e a034 343e 01c3 643d c7f6 0fbb
000001d0: 498c 153d 3d57 8ebd a613 6bbe 6686 4ebd
000001e0: 1856 dbbd e4a7 debd a230 18be d3f6 16be
000001f0: 7e5c c4bc 6788 013d 4542 003d b6a8 e23d
00000200: 9b46 c9bd a710 88bd 9e4b e0bd 9faf 603e
00000210: 6284 6f3e a8ab 3abe 8128 9ebd 7a2a a93d
00000220: 82ef 08be 1af7 363e d6cb 4f3d a5f0 4cbd
00000230: 33fe b2bc a915 4b3e 9ce7 1cbd 7de1 b23c
00000240: ca68 92bd dab5 bcbd 576a 9b3c db4c 393e
00000250: eefe 53be b576 d4bc 9b1a 02bd bd37 913d
00000260: 0efc 31be bf99 24be aa0d f7bd 3cdd 27bd
00000270: 40a3 92bd dc17 95bd ac2f 5a3e b3dd d43c
00000280: 4f62 12be 3ec7 e63d 658a 04bd 7c8f f43d
00000290: bef9 6f3d cb73 0bbe 5e67 07bd 5941 58bd
000002a0: 5278 193d 5cf2 16bd 3cea 61be a839 203e
000002b0: 470a fcbd 9415 00be 9009 89bb 56cc 93bd
000002c0: a48f 1dbe acd8 17bd 5922 30be 8f11 833d
000002d0: f15d 59be cd6e 113e 8526 e93d 5798 0dbe
000002e0: 7099 563d e50d 173e 437e f1bc 6b8e 253e
000002f0: d532 5bbd 2422 b0bd 62f3 97bd e61f a73d
00000300: 3c19 2fbd 969d 0fbe 6a6e 7e3e 6ddb 40be
00000310: beb4 1bbe 6d49 853d f80c 063d 1bf4 5dbe
00000320: a3e5 e73a 992b 64bd dc2c cbbd 8b6c afbd
00000330: bd78 ce3c b9b6 58be c746 6ebe 8449 3fbe
00000340: feb3 a9bc f3a4 433e 0f03 46bd 325e 56bc
00000350: b0f2 cc3d b76b 8cbc c0c8 25be 0c28 57bd
00000360: 9ced 3e3e 400f 3e3e 5ddf a7bd 4bf5 2a3d
00000370: d737 95bd a140 bb3d 298d 303d 6270 39be
00000380: db8b 0abd d5cb 92bd 3fc8 64be 2f3f 1a3e
00000390: 1a36 fe3c 14b3 c0bd c49d d0bc 4c3d de3c
000003a0: 710f 423e b008 273d ccaa dc3d e545 bf3d
000003b0: 9e55 2dbe fd2c 673d d225 0e3e d564 6e3d
000003c0: eeb1 023d cf2c 8dbd f179 3bbe 9b58 603c
000003d0: fb57 263e 37e2 6bba 2dfb 04be 775d f2bc
000003e0: c2f4 80bd aa39 60be 18b5 f33d 4185 0f3e
000003f0: 1180 23be abc1 a7bc fffd 53bd 30de 4ebe

lstm.weight_hh_l1 f4 [200, 50]
0.22200038 -0.023920812 -0.11543716 -0.0827988 -0.08954076 0.023014078 -0.0286475 -0.11741851
0.07848138 0.09374931 -0.22412547 0.14780553 0.21144798 -0.10441128 0.014867036 0.020217001
-0.031565644 -0.011661923 -0.16351151 0.13741237 0.06991189 0.0057016946 -8.697732e-05 -0.07409221
0.022421712 -0.14936215 -0.04752797 -0.2276482 -0.031064495 -0.16739267 0.10767953 0.19407076
0.041993316 0.008350792 0.015690286 -0.16699103 -0.15043642 0.09378374 0.04987503 -0.09235293
-0.11811526 0.04048165 0.18742476 -0.017991534 -0.011853146 -0.017250614 0.114212304 0.0025223887
-0.19045791 -0.15748657 0.0112820715 -0.21983264 -0.02611715 0.03239634 -0.08620336 0.02103819
0.005485666 -0.11566621 -0.15188672 0.08423841 -0.1494207 0.19319187 0.10039009 -0.23961331
-0.1517732 0.017089816 -0.14731924 -0.02113342 -0.14256482 0.1892999 0.03232113 -0.12886456
-0.08510817 -0.13808787 0.032208685 -0.16879599 -0.03406709 -0.09627411 -0.02994095 -0.23714711
0.12398423 0.05971731 -0.010930715 0.10060403 -0.082173064 -0.07872704 -0.18055871 0.119059436
-0.071273275 -0.107022665 -0.16684392 0.17523924 0.045775015 -0.15150468 0.0013183322 -0.16823965
0.048386164 0.203998 -0.1486948 0.05605565 -0.019244298 -0.1637204 -0.104908094 -0.17272978
-0.119681545 -0.047895886 0.11194225 -0.097173356 -0.07709575 0.06686753 -0.14187695 0.055792864
0.10320318 -0.02844177 -0.03195888 0.04289784 -0.049941637 -0.09539358 -0.052481193 0.18633708
0.04122657 -0.092465386 -0.011234803 0.033385452 0.10968346 -0.008550024 0.060636412 -0.17120539
-0.14310074 -0.18345343 0.20523214 -0.0022093125 -0.0021939354 0.086810336 0.040655226 -0.017523801
-0.0885123 0.22386716 -0.08348321 -0.08986795 -0.033579286 0.100033104 0.17175211 -0.040867154
0.046094745 -0.06617831 -0.11364321 0.17270932 -0.17116232 0.04743536 0.21116988 0.03793475
-0.01831557 0.007834746 -0.020129476 -0.14563826 0.078454375 -0.14107893 -0.20412183 0.20456383
0.02531202 -0.017851066 0.16955924 -0.044812303 -0.19237974 -0.06449143 0.013029693 -0.12737074
-0.20057285 0.11220679 -0.13210674 0.048419923 0.058185115 0.056618743 0.10200015 -0.04922946
0.20481792 -0.2049 -0.20254563 0.021039085 -0.025370672 0.1356357 -0.16127944 0.19450255
-0.14882897 -0.06811101 -0.13531125 0.13784151 -0.12449855 -0.13322113 -0.040098447 0.17674431
0.01225394 -0.035305645 -0.049967274 -0.16172746 0.10429353 -0.00033303208 -0.08423367 -0.052691486
-0.0582365 -0.14051957 -0.03397687 -0.16661002 -0.015753645 -0.09822393 0.1886201 0.0134575805
0.008485096 -0.03168414 -0.03736404 0.14118114 0.105236046 -0.1653945 -0.060654618 -0.048563313
-0.1171808 0.022287853 -0.14706816 0.21243492 0.051879708 -0.025618516 0.16758624 -0.17619425
0.17382242 -0.005655434 0.19225249 0.010717854 -0.15604162 -0.07819754 0.16608359 -0.020706464
-0.081904225 0.18396994 0.023564486 -0.210584 -0.009850004 0.039926413 -0.0854029 -0.1013887
-0.17745754 -0.0406249 0.1543624 -0.06381985 0.05507859 -0.15493621 0.13507228 -0.05778257
-0.095075704 -0.22648771 0.014073325 -0.23105481 -0.095548704 -0.10488557 -0.10879724 -0.19491304
00000000: 1154 633e 94f5 c3bc 516a ecbd 6b92 a9bd
00000010: 2561 b7bd 0588 bc3c 29ae eabc 1e79 f0bd
00000020: d9ba a03d a3ff bf3d 2681 65be 555a 173e
00000030: d285 583e 95d5 d5bd de94 733c 209e a53c
00000040: fa4a 01bd a611 3fbc 906f 27be d4b5 0c3e
00000050: f72d 8f3d 48d5 ba3b 9867 b6b8 a8bd 97bd
00000060: bdad b73c 64f2 18be b0ac 42bd 9c1c 69be
00000070: f87a febc fc68 2bbe 1687 dc3d 7cba 463e
00000080: 2f01 2c3d c3d1 083c ea88 803c b2ff 2abe
00000090: 010c 1abe b111 c03d c249 4c3d 8823 bdbd
000000a0: 6ae6 f1bd 16d0 253d 47ec 3f3e fb62 93bc
000000b0: b333 42bc 2951 8dbc 24e8 e93d a94e 253b
000000c0: 6607 43be 2944 21be 70d8 383c cf1b 61be
000000d0: a2f3 d5bc 06b2 043d 638b b0bd 4858 ac3c
000000e0: 1ac1 b33b 68e2 ecbd 3188 1bbe 3085 ac3d
000000f0: bd01 19be 17d4 453e 5299 cd3d 315d 75be
00000100: 6f6a 1bbe f1ff 8b3c dbda 16be fe1f adbc
00000110: 83fc 11be d5d7 413e 2963 043d 12f5 03be
00000120: 314d aebd e866 0dbe 41ed 033d dbd8 2cbe
00000130: ef89 0bbd 5c2b c5bd b946 f5bc b1d6 72be
00000140: 72eb fd3d 239a 743d be16 33bc 7c09 ce3d
00000150: 5a4a a8bd a43b a1bd 62e4 38be 6fd5 f33d
00000160: b9f7 91bd b32e dbbd 22d9 2abe ea71 333e
00000170: 957e 3b3d 0b24 1bbe e3cb ac3a 0447 2cbe
00000180: 9230 463d dae4 503e 7343 18be 9c9a 653d
00000190: 38a6 9dbc 52a6 27be 0eda d6bd 13e0 30be
000001a0: 991b f5bd 7a2e 44bd fa41 e53d d302 c7bd
000001b0: 60e4 9dbd d8f1 883d 3148 11be 0f87 643d
000001c0: 305c d33d b7fe e8bc 51e7 02bd a5b5 2f3d
000001d0: 9a8f 4cbd b65d c3bd 85f6 56bd 26cf 3e3e
000001e0: 31dd 283d 7e5e bdbd 2e12 38bc 2fbf 083d
000001f0: b9a1 e03d 6615 0cbc e35d 783d 7750 2fbe
00000200: 0089 12be 37db 3bbe 6028 523e 1dca 10bb
00000210: 21c8 0fbb 9ec9 b13d 1886 263d 138e 8fbc
00000220: f045 b5bd 6f3d 653e 3ff9 aabd b00c b8bd
00000230: 6f8a 09bd 28de cc3d c9df 2f3e 5164 27bd
00000240: d8cd 3c3d 7e88 87bd c5bd e8bd b6da 303e
00000250: 2d45 2fbe 944b 423d eb3c 583e 7861 1b3d
00000260: 890a 96bc 4e5d 003c 92e6 a4bc 3222 15be
00000270: b0ac a03d ff76 10be 5005 51be 2e79 513e
00000280: 275b cf3c 663c 92bc f0a0 2d3e 1b8d 37bd
00000290: 32ff 44be 1514 84bd 7e7a 553c 7a6d 02be
000002a0: f862 4dbe accc e53d fd46 07be f853 463d
000002b0: 8453 6e3d 0ee9 673d 74e5 d03d d5a4 49bd
000002c0: cabb 513e 4ed1 51be 1f68 4fbe 295a ac3c
000002d0: 28d6 cfbc 16e4 0a3e 7026 25be ad2b 473e
000002e0: 9f66 18be c97d 8bbd 088f 0abe 5326 0d3e
000002f0: 19f9 febd 1f6b 08be 453e 24bd 76fc 343e
00000300: c0c4 483c a79c 10bd 7caa 4cbd e29b 25be
00000310: d997 d53d cf9a aeb9 b482 acbd 07d3 57bd
00000320: 6589 6ebd 5de4 0fbe 552b 0bbd d19b 2abe
00000330: ca0d 81bc a129 c9bd a125 413e 2f7d 5c3c
00000340: 1205 0b3c 3bc7 01bd 090b 19bd ca91 103e
00000350: ff85 d73d 2d5d 29be fa70 78bd 53ea 46bd
00000360: 7dfc efbd 0495 b63c 0999 16be 8a88 593e
00000370: d17f 543d ecdd d1bc ba9b 2b3e 446c 34be
00000380: 81fe 313e 3851 b9bb d6dd 443e f099 2f3c
00000390: 60c9 1fbe 0826 a0bd d111 2a3e 9aa0 a9bc
000003a0: 67bd a7bd 9e62 3c3e 4f0a c13c 55a3 57be
000003b0: e961 21bc e189 233d b7e7 aebd e1a4 cfbd
000003c0: 6eb7 35be 4c66 26bd 2d11 1e3e fbb3 82bd
000003d0: 169a 613d 99a7 1ebe 6350 0a3e 6bad 6cbd
000003e0: 0db7 c2bd 65ec 67be ce93 663c a299 6cbe
000003f0: 0aaf c3bd 3fce d6bd 16d1 debd 4997 47be

lstm.bias_ih_l1 f4 [200]
0.00034459398 0.015725141 0.1450564 -0.070244655 0.026002461 0.13791478 0.16601624 -0.026254298
-0.0071973633 0.030318106 0.040308863 0.09399346 0.045211527 0.06500771 0.10076463 0.17940333
0.20436375 0.12033768 0.12881248 0.23271117 0.15370557 0.07667187 -0.1177932 0.032771286
-0.04017927 0.09032931 -0.020202683 -0.041173548 -0.062400736 0.0820675 0.041341957 0.08967323
0.18984433 0.18111798 -0.010147474 0.06955762 0.18915753 0.117085926 0.098497055 0.19595969
0.06883344 0.21983637 0.022311049 -0.011654105 0.09223048 0.18421334 -0.031774025 0.080128774
0.19052781 0.074638456 0.18057555 0.16984923 0.018881382 0.115903445 0.069532596 0.23082715
0.16614543 0.18236001 0.043453835 0.07205445 0.23624672 -0.16014582 -0.053569905 0.20617113
0.19620927 0.22554107 0.03385317 0.19101539 0.11691071 0.1019408 -0.05521052 0.16197665
-0.051871434 0.24073173 0.17902212 -0.033255722 -0.014435823 -0.06135224 0.0007361383 0.17200238
-0.016132593 0.11930914 -0.03605495 -0.06039153 0.065723434 0.14760709 -0.025637904 0.04451283
0.20155314 0.20242904 -0.07313156 0.080603115 0.10069949 -0.11785049 0.03548138 0.12588364
-0.3099612 0.17805398 -0.026416166 -0.17645991 0.040783282 -0.20969562 -0.10777372 -0.19797489
-0.19761774 -0.16500784 0.22894934 -0.19568634 -0.07129875 -0.10417069 -0.1195928 0.1636699
0.029743701 -0.022862041 -0.104248494 -0.14676484 -0.001732959 -0.11349831 -0.21562518 0.13097803
0.04973804 -0.011712457 -0.13431875 -0.23795143 -0.062106468 0.030262018 0.21788576 -0.17554067
-0.028974468 -0.20654383 -0.0016040853 0.033527546 -0.042479087 0.09647809 -0.06866029 -0.13569729
-0.17190239 0.21624064 -0.06941484 -0.1372438 0.028692266 0.17326629 0.052680254 -0.09055608
0.10130355 -0.22282863 -0.08169448 0.13831243 0.0210793 -0.030725708 0.1267858 0.09982693
0.0317505 -0.00015781283 -0.1119491 -0.010558974 -0.035772663 0.08125993 -0.0029391062 -0.12903959
0.16155267 0.167588 0.07095157 -0.013027328 0.17739044 0.13384981 -0.087592795 0.1906205
0.1303018 0.05999591 0.07092164 -0.061626967 -0.15290235 0.048076566 0.056619156 0.048257947
0.04791855 0.062846966 0.14340363 0.04362018 0.1399427 -0.033960164 0.089281276 0.077353865
0.21421146 -0.05465238 -0.04630076 0.076483294 0.014568453 0.012808953 0.041643083 0.17932251
0.13920234 -0.09080419 0.102684155 0.09628998 0.22982845 0.18541296 0.11987713 0.118074775
00000000: 9faa b439 03d2 803c aa89 143e 6edc 8fbd
00000010: 1d03 d53c 8839 0d3e 2900 2a3e 4113 d7bc
00000020: dcd7 ebbb ad5d f83c e81a 253d a57f c03d
00000030: b92f 393d c322 853d b05d ce3d 82b5 373e
00000040: bb44 513e 9a73 f63d 6be7 033e d64b 6e3e
00000050: fe64 1d3e 2406 9d3d 903d f1bd 2f3b 063d
00000060: 0593 24bd 93fe b83d 1980 a5bc 98a5 28bd
00000070: ea97 7fbd 0113 a83d 2f56 293d 99a6 b73d
00000080: 8d66 423e fe76 393e 9741 26bc 3a74 8e3d
00000090: 83b2 413e bfca ef3d d3b8 c93d a8a9 483e
000000a0: 8cf8 8c3d c91c 613e a9c5 b63c dcf0 3ebc
000000b0: 55e3 bc3d 6ca2 3c3e 7b25 02bd 8e1a a43d
000000c0: b919 433e 0cdc 983d cce8 383e f5ec 2d3e
000000d0: 21ad 9a3c c95e ed3d 1b67 8e3d f45d 6c3e
000000e0: 0722 2a3e 95bc 3a3e a6fc 313d 4991 933d
000000f0: a9ea 713e 44fd 23be 1e6c 5bbd 861e 533e
00000100: 15eb 483e 3df4 663e 9fa9 0a3d 8a99 433e
00000110: e26e ef3d 57c6 d03d 6d24 62bd 35dd 253e
00000120: 2477 54bd 6182 763e 9351 373e 2737 08bd
00000130: 3b84 6cbc 7d4c 7bbd 68f9 403a 6421 303e
00000140: 8028 84bc 5a58 f43d 5bae 13bd 1c5d 77bd
00000150: 029a 863d 5026 173e 9506 d2bc 1653 363d
00000160: f263 4e3e 8f49 4f3e 00c6 95bd 3f13 a53d
00000170: 893b ce3d 995b f1bd ec54 113d a4e7 003e
00000180: 3cb3 9ebe c853 363e b766 d8bc e8b1 34be
00000190: 5f0c 273d 73ba 56be 78b8 dcbd eeb9 4abe
000001a0: 4e5c 4abe d1f7 28be b271 6a3e 0062 48be
000001b0: 1405 92bd 7157 d5bd 12ed f4bd 1599 273e
000001c0: 10a9 f33c 2d49 bbbc 3c80 d5bd 8649 16be
000001d0: 7424 e3ba cd71 e8bd d9cc 5cbe 1b1f 063e
000001e0: 1dba 4b3d 9be5 3fbc db8a 09be 8aa9 73be
000001f0: 5a63 7ebd 0de8 f73c 721d 5f3e efc0 33be
00000200: dd5b edbc 3a80 53be 2c40 d2ba 2e54 093d
00000210: 8dfe 2dbd 4e96 c53d c49d 8cbd 3bf4 0abe
00000220: 2e07 30be 306e 5d3e 5e29 8ebd a489 0cbe
00000230: 0b0c eb3c b86c 313e 40c7 573d 7775 b9bd
00000240: 3c78 cf3d 302d 64be 6f4f a7bd c6a1 0d3e
00000250: 7fae ac3c 7bb4 fbbc 23d4 013e 1072 cc3d
00000260: d00c 023d 8f7a 25b9 9245 e5bd 8cff 2cbc
00000270: 5b86 12bd 9b6b a63d 059e 40bb f422 04be
00000280: 106e 253e 309c 2b3e 0f4f 913d 9370 55bc
00000290: d7a5 353e ed0f 093e da63 b3bd 0532 433e
000002a0: d66d 053e 45be 753d 5d3f 913d 8f6c 7cbd
000002b0: 6f92 1cbe efeb 443d 7de9 673d 20aa 453d
000002c0: 3e46 443d e9b5 803d 67d8 123e 13ab 323d
000002d0: 244d 0f3e d019 0bbd 1ad9 b63d b46b 9e3d
000002e0: 405a 5b3e 2ddb 5fbd dea5 3dbd 46a3 9c3d
000002f0: 85b0 6e3c a5dc 513c f091 2a3d 52a0 373e
00000300: 0f8b 0e3e 8cf7 b9bd 124c d23d ae33 c53d
00000310: 2658 6b3e e5dc 3d3e 2482 f53d 30d1 f13d

lstm.bias_hh_l1 f4 [200]
0.07386176 0.0726176 -0.018741893 -0.013961906 0.10255487 0.19367287 0.111129396 -0.040182427
0.13779719 -0.009515756 0.016694361 0.05086284 0.15930292 -0.02842788 0.20478064 0.018944649
-0.010777354 0.19225682 0.14745583 0.1619645 0.0974435 0.14914267 -0.18393685 0.12705545
-0.011045776 -0.07027258 0.03961283 0.18944205 0.00037039092 0.082219385 0.11297379 0.09164972
0.009887914 0.09327887 0.033868894 0.020727642 0.004549134 0.14587067 0.12149108 0.05214627
0.19223158 0.15514322 -0.022885459 -0.12907436 0.1484356 0.1680903 0.12816297 0.08435017
0.07459189 0.2374578 -0.00080160785 0.0099411085 0.19164054 -0.0067077843 0.21973386 0.21092372
0.19395378 0.17398538 0.02226464 0.09989293 0.16577478 -0.15995228 0.2091536 0.15007399
0.15601088 -0.012730176 -0.056710415 0.07473289 0.014953829 0.055833273 -0.061386585 0.0621344
-0.0022685938 -0.014813941 -0.070193864 0.15688738 0.08845267 0.16206004 -0.20425352 0.09587617
0.04491672 0.1261989 0.1070002 0.13772106 0.1471563 0.049733315 0.018211111 0.13883366
0.12947473 -0.022830367 0.02011763 0.077678405 0.21194337 -0.065620966 0.09053146 0.15656929
-0.067336455 0.03095288 0.1533797 -0.08954631 0.19449152 -0.22689204 -0.19389819 -0.07473622
-0.019729659 -0.14456713 0.0030497396 -0.12549283 0.100810796 -0.02896671 -0.1840768 -0.071695566
0.168907 -0.22207901 -0.031517394 -0.08698975 -0.17100374 -0.10530988 0.014637434 0.14560586
0.102442965 -0.2064967 -0.093864135 -0.17808296 0.13466267 -0.08741701 0.19291468 -0.19311087
0.061313342 -0.23488016 0.21435049 0.17169322 -0.20799796 0.110488765 -0.17692533 -0.12944181
-0.15187983 0.23182938 -0.15040085 -0.14989747 -0.14076053 0.13917771 0.19498579 -0.14830747
0.1399281 -0.07303645 0.0010918299 0.24081348 -0.09646561 0.07654608 -0.002159416 0.14444119
0.040143695 0.082733914 -0.013711408 0.085396215 0.15655643 0.06984002 -0.049338676 0.039669074
0.20853156 -0.0347166 0.10996029 -0.03811649 -0.030941365 0.017435197 0.022203168 0.13413616
-0.050723016 -0.008529318 -0.01827186 0.14725667 -0.021736462 -0.02993983 -0.045921937 0.046220616
0.00059204176 -0.020948188 0.08862016 0.17923145 0.056627102 0.013313688 -0.019339712 -0.07550778
0.09907362 0.13553385 0.032960907 0.026643908 0.045516156 -0.01258197 -0.092966005 0.035077173
0.23518625 -0.18906781 0.12609322 0.08018053 0.26909074 0.23658249 0.024004512 0.19476816
00000000: d644 973d 89b8 943d 9988 99bc 7ac0 64bc
00000010: 4a08 d23d 2e52 463e cf97 e33d 5496 24bd
00000020: b51a 0d3e f9e7 1bbc 9dc2 883c 8e55 503d
00000030: 4e20 233e 96e1 e8bc 04b2 513e cf31 9b3c
00000040: 8093 30bc f9de 443e a9fe 163e 06da 253e
00000050: 7590 c73d dbb8 183e f159 3cbe d31a 023e
00000060: 58f9 34bc 12eb 8fbd 1041 223d 19fd 413e
00000070: 0731 c239 a362 a83d cd5e e73d d9b2 bb3d
00000080: eb00 223c fe08 bf3d 1cba 0a3d 04cd a93c
00000090: e710 953b 1f5f 153e 51d0 f83d 5497 553d
000000a0: 5bd8 443e dddd 1e3e 497a bbbc 122c 04be
000000b0: 80ff 173e dd1f 2c3e 273d 033e c8bf ac3d
000000c0: a2c3 983d 2328 733e fe22 52ba 08e0 223c
000000d0: 6b3d 443e f9cc dbbb ea01 613e 63fc 573e
000000e0: d29b 463e 3929 323e 5664 b63c aa94 cc3d
000000f0: ddc0 293e 88ca 23be 5c2c 563e ffac 193e
00000100: 51c1 1f3e 3a92 50bc 2e49 68bd 8f0d 993d
00000110: e800 753c 6eb1 643d 8070 7bbd a480 7e3d
00000120: b0ac 14bb 2cb6 72bc cdc1 8fbd 16a7 203e
00000130: ac26 b53d 11f3 253e d627 51be ba5a c43d
00000140: 98fa 373d 493a 013e ec22 db3d c006 0d3e
00000150: 24b0 163e 29b5 4b3d 782f 953c 692a 0e3e
00000160: 0695 043e c006 bbbc bacd a43c db15 9f3d
00000170: af07 593e 4964 86bd 8f68 b93d b353 203e
00000180: b2e7 89bd e590 fd3c 910f 1d3e 0e64 b7bd
00000190: c928 473e 6356 68be 3f8d 46be 4e0f 99bd
000001a0: 18a0 a1bc 6809 14be 24de 473b 3181 00be
000001b0: e475 ce3d 984b edbc a17e 3cbe 20d5 92bd
000001c0: f5f5 2c3e ae68 63be 6218 01bd af27 b2bd
000001d0: 9b1b 2fbe b5ac d7bd d9d1 6f3c b419 153e
000001e0: 9ecd d13d df73 53be d73b c0bd 615b 36be
000001f0: 03e5 093e b007 b3bd 6d8b 453e dbbe 45be
00000200: b323 7b3d 6d84 70be b27e 5b3e 59d0 2f3e
00000210: 6bfd 54be ef47 e23d ea2b 35be 658c 04be
00000220: 6386 1bbe ae64 6d3e ae02 1abe b97e 19be
00000230: 8723 10be 9a84 0e3e 5baa 473e eadd 17be
00000240: 5049 0f3e 2294 95bd bb1b 8f3a cf97 763e
00000250: c38f c5bd 31c4 9c3d fd84 0dbb 64e8 133e
00000260: b76d 243d 6670 a93d d0a5 60bc 36e4 ae3d
00000270: 5450 203e 4908 8f3d 5a17 4abd 0a7c 223d
00000280: 4c89 553e fe32 0ebd dc32 e13d 0920 1cbd
00000290: bf78 fdbc 42d4 8e3c 6be3 b53c fd5a 093e
000002a0: f0c2 4fbd 8dbe 0bbc deae 95bc 74ca 163e
000002b0: aa10 b2bc 6044 f5bc a418 3cbd d451 3d3d
000002c0: 4033 1b3a 899b abbc 7d7e b53d 7388 373e
000002d0: d2f1 673d a821 5a3c 516e 9ebc d3a3 9abd
000002e0: 1ce7 ca3d 63c9 0a3e 0402 073d 5344 da3c
000002f0: 266f 3a3d 9b24 4ebc f664 bebd 15ad 0f3d
00000300: aad4 703e fe9a 41be 951e 013e b135 a43d
00000310: 43c6 893e ae42 723e 1ca5 c43c 4e71 473e
