NEURAL_MODELS/LSTM/misty-monkey-50_epoch10.pth (torch, 815279 bytes, 42 tensors)

lstm.weight_ih_l0 f4 [200, 63]
0	0x3eeaff15	0.45897737
1	0x3edd85b4	0.4326607
2	0x3f5eadd8	0.86984015
3	0xbeeda6ca	-0.46416312
4	0x3f9ea4cc	1.2394042
5	0x3f31fda2	0.6952764
6	0xc0355865	-2.8335202
7	0x3f624eb4	0.8840134
8	0x3f8f38bb	1.1189188
9	0xbe230186	-0.1591855
10	0x3f914126	1.1348007
11	0x3ffc39b8	1.9705114
12	0xbfa13af8	-1.2596121
13	0x40035a53	2.052388
14	0xbf09689b	-0.5367524
15	0x3eeeaebd	0.4661769
16	0x3f89a61b	1.0753816
17	0xbf015be8	-0.5053086
18	0x3f984bda	1.1898148
19	0x3da277e1	0.07933021
20	0xbdbf7e7b	-0.09350296
21	0x3fc86eea	1.5658848
22	0x3f529bb7	0.8226885
23	0x4060e285	3.5138257
24	0x3e9c20fb	0.30493912
25	0x3f8e4a87	1.1116494
26	0x40056c68	2.0847416
27	0xbd0df715	-0.034659464
28	0xbf62949b	-0.88508004
29	0xbfc3827a	-1.5274193
30	0xbfbfd950	-1.4988194
31	0xbee9a526	-0.4563381
32	0xbec40011	-0.382813
33	0xbe00c363	-0.12574534
34	0xbd29c1b3	-0.04144449
35	0x3f2567ac	0.64611316
36	0xbfb0ffea	-1.3828099
37	0x3f963337	1.173438
38	0xbfecb842	-1.8493731
39	0xc055ab27	-3.3385713
40	0x3ff39673	1.9030288
41	0x402c96e7	2.6967103
42	0xc06da6be	-3.7133021
43	0x3e31332c	0.17304677
44	0x3ea193e3	0.3155814
45	0x3f71e223	0.9448568
46	0x3f9fb262	1.2476313
47	0x40d08a0b	6.516851
48	0x3fab1641	1.3366166
49	0xc03018c9	-2.7515128
50	0x3f61ed96	0.8825315
51	0x3faae838	1.3352118
52	0x4045d15f	3.090904
53	0x3fcb7818	1.5896025
54	0x3edaeafe	0.4275741
55	0x3eac4522	0.33646494
56	0x3f2744a8	0.65339136
57	0x402ab5da	2.6673493
58	0xbfa50be4	-1.2894254
59	0x3f429d3d	0.76021177
60	0xc006418e	-2.0977511
61	0x3f210ba2	0.62908375
62	0xbdc95fc7	-0.09832721
63	0xbfb524c2	-1.4151843
64	0x3f594090	0.8486414
65	0xbf564f49	-0.8371473
66	0xbdea0368	-0.11426431
67	0xbf2ce796	-0.6754087
68	0xbfa608a1	-1.2971383
69	0x3ff60e9b	1.9223207
70	0x3feab57a	1.8336632
71	0x3fa301df	1.2734946
72	0x3e9763a6	0.29568213
73	0x3dd50d86	0.1040297
74	0xbf36e175	-0.7143777
75	0xbf30b3eb	-0.69024533
76	0xbf0e55d0	-0.5559969
77	0x3d04f8bf	0.032463785
78	0xbf911d73	-1.1337112
79	0xc0212e04	-2.5184336
80	0xbe854506	-0.26029223
81	0x4017b9d4	2.370717
82	0xbdd32e22	-0.103115335
83	0xbfcfcdf3	-1.6234726
84	0x3ead2c6a	0.33822948
85	0xbf8bfc39	-1.0936347
86	0xbf3c1cdc	-0.73481536
87	0x3e757610	0.23970819
88	0xbf2eedc2	-0.6833154
89	0xbc8fa57a	-0.01753496
90	0x3ed50541	0.4160557
91	0xc0185b99	-2.3805907
92	0xc05b72a1	-3.4288714
93	0xbfdd89f4	-1.7307725
94	0x3f3e5907	0.74354595
95	0xbfc97b81	-1.5740815
96	0xbea5c535	-0.3237702
97	0xbef45be7	-0.47726366
98	0x3febfaf8	1.8435965
99	0xbede20d7	-0.4338443
100	0x3d04f849	0.032463346
101	0x400ec241	2.2306063
102	0xc05dcbad	-3.4655564
103	0x3f319883	0.6937334
104	0x405ee3c2	3.4826512
105	0x3f4ddf4f	0.80418867
106	0x3f8ab33c	1.0835948
107	0x3e98b369	0.2982438
108	0xbfaeef5d	-1.3666798
109	0xbf7819db	-0.9691445
110	0x407c967a	3.9466844
111	0x3f9bfad9	1.2185928
112	0x3e8a6801	0.27032474
113	0xbf4fecf8	-0.8122096
114	0xbfa61c75	-1.2977434
115	0x3c86a825	0.0164376
116	0xbff9123e	-1.9458692
117	0x3f1009a1	0.5626469
118	0x3ec7e221	0.3903971
119	0xbda75ad0	-0.08171618
120	0xbf00eaa6	-0.50358045
121	0x3f8d77b2	1.1052153
122	0x3fddc614	1.7326074
123	0x40549725	3.3217251
124	0x3e1a4018	0.15063512
125	0xbed159ef	-0.40888926
126	0xc01c6eed	-2.4442704
127	0x3f43ed36	0.7653383
128	0x3f74d4ad	0.9563702
129	0xbe6611d0	-0.22467732
130	0xbe3ee87c	-0.18643373
131	0xc0125591	-2.2864726
132	0x3fa998f9	1.3249809
133	0xbf197f92	-0.5996028
134	0x3f6c110d	0.9221352
135	0x3f45d72a	0.7728144
136	0x3f02207d	0.50830823
137	0xbeac2f46	-0.33629817
138	0x3f97421e	1.1817052
139	0x3f51ef70	0.8200598
140	0xbea33033	-0.3187271
141	0xbfa5cbaa	-1.2952778
142	0x4027e4ba	2.6233354
143	0x3eb0317c	0.34412754
144	0x4030366a	2.7533212
145	0xbf412928	-0.75453424
146	0xbe1f9f1b	-0.15588038
147	0xbe424283	-0.18970685
148	0x3ee3a2e8	0.44460225
149	0x408f4149	4.4767194
150	0xbf5b35cb	-0.85628957
151	0xbf82c7ad	-1.0217186
152	0xbe93db04	-0.28878033
153	0x3f4ab6a7	0.79184955
154	0xbfca8cdc	-1.5824237
155	0xc06dcb9b	-3.715552
156	0xbfbaac5e	-1.4583852
157	0x3fc55446	1.5416343
158	0xbe6da794	-0.23208457
159	0x3ffa9061	1.9575311
160	0x403b8966	2.9302611
161	0x3e03bdc6	0.12865362
162	0xbea222da	-0.31667215
163	0x3eac7a76	0.3368718
164	0x3f9a0506	1.2032783
165	0xbe5a9393	-0.21345358
166	0x3f2485f7	0.64266914
167	0x40121f2e	2.283153
168	0xbfcfaf65	-1.6225401
169	0x3df026f2	0.11726178
170	0x3f736c54	0.9508717
171	0x3fd825c8	1.688653
172	0xbd862d54	-0.065516144
173	0x40361db5	2.8455632
174	0x3f9f08ad	1.2424523
175	0x3faa9c0b	1.332887
176	0xbe88add2	-0.26695114
177	0xbf27b8b1	-0.6551619
178	0xbf0c03de	-0.546934
179	0x3fd45e12	1.6591208
180	0x3efea28b	0.49733385
181	0x3e82d07e	0.25549692
182	0x3f3fe558	0.74959326
183	0xbe50faf4	-0.20408231
184	0xbfee28b6	-1.8606174
185	0x3e1fb981	0.15598108
186	0xbf95afb9	-1.1694251
187	0x3e8a9fe8	0.27075124
188	0x3f04d184	0.51882195
189	0x3f0c115d	0.54713994
190	0xc0014835	-2.0200322
191	0x3f55beb0	0.8349409
192	0xbfbadf3a	-1.4599373
193	0xbfccff79	-1.6015464
194	0xbfcf4b3d	-1.6194836
195	0x40875efb	4.2303443
196	0xbeb97511	-0.36222127
197	0xbff5b4c1	-1.9195787
198	0x3f84f01c	1.0385776
199	0xbf977323	-1.1832012
200	0xbf75aea5	-0.9596961
201	0xc0721a5d	-3.782859
202	0x3d3b5605	0.04573633
203	0xc00165b6	-2.021833
204	0xbfbc41be	-1.4707563
205	0xbf5ff553	-0.8748371
206	0x3f03e88d	0.5152672
207	0x3f9daaf4	1.2317796
208	0xbfc4e30a	-1.5381787
209	0x3e1accc7	0.15117179
210	0xbfc01335	-1.5005862
211	0xbebf63a4	-0.37380707
212	0x3d485b8d	0.048915435
213	0xbf470343	-0.7773935
214	0xbe876140	-0.26441383
215	0x3f268c2a	0.65057623
216	0x3efa13fb	0.4884337
217	0xbfb98265	-1.4492918
218	0x40495262	3.1456532
219	0x400974e9	2.1477606
220	0xbfd795af	-1.6842555
221	0x3d273a10	0.040826857
222	0xbf693ece	-0.9111146
223	0xc04df508	-3.2180805
224	0x3edb13a8	0.42788434
225	0x4094ecd5	4.65391
226	0xbfff9c8d	-1.996965
227	0x40dfe180	6.996277
228	0x3f87162d	1.0553643
229	0x3f8b8d76	1.0902545
230	0x40a3d208	5.1193886
231	0xbf1bff89	-0.6093679
232	0xbfb9374f	-1.4470004
233	0x3e1fe598	0.15614927
234	0xbf952dd3	-1.165461
235	0xbe99bad1	-0.30025342
236	0x3faf08f4	1.3674607
237	0x3e84200e	0.25805706
238	0x3f1eafda	0.6198708
239	0x3f12e05d	0.573736
240	0xbfcf2efd	-1.6186215
241	0x408486b7	4.1414447
242	0xbfc197cc	-1.512445
243	0xbba9028d	-0.005157775
244	0x403322c0	2.798996
245	0x405cc3b3	3.4494445
246	0xc026eeb9	-2.6083205
247	0x3f9e6934	1.2375855
248	0x3f8c25a1	1.0948983
249	0x4001b470	2.026638
250	0xbeebadc3	-0.46031007
251	0x406f58df	3.7397993
252	0xbf30b55c	-0.6902673
253	0xbff19529	-1.8873645
254	0x3f3df628	0.7420373
255	0x3ecfe23c	0.4060229

lstm.weight_hh_l0 f4 [200, 50]
0	0x3e8e2b03	0.2776719
1	0x3fff1ea6	1.9931228
2	0x3fdcd493	1.7252373
3	0x3eee1a75	0.4650456
4	0xc00f4720	-2.2387161
5	0xbf259c97	-0.6469206
6	0xc02b405c	-2.6758032
7	0x3ef42eb7	0.4769189
8	0x3fe03f80	1.7519379
9	0x3ef0a859	0.4700344
10	0x4011e1f4	2.279416
11	0x3e076955	0.13223775
12	0x3d4d1127	0.050065186
13	0xbf8c1921	-1.0945169
14	0xbf8d5fbc	-1.1044841
15	0xc01b6edb	-2.428641
16	0xbf73ab20	-0.9518299
17	0x3ef12cfc	0.47104633
18	0xbfe05bf7	-1.7528065
19	0xbde1c95c	-0.110247344
20	0x3ffc0721	1.9689676
21	0xc010c42e	-2.2619739
22	0x3f9e1f0e	1.2353227
23	0x3f9934fd	1.1969296
24	0x3fea8583	1.8321995
25	0xbfa13aed	-1.2596108
26	0xbf5e0bd9	-0.8673683
27	0xbd06fd98	-0.03295669
28	0xbf071b3e	-0.52775943
29	0xbf8c22f2	-1.0948164
30	0xbf73542d	-0.9505032
31	0xbe6df44a	-0.2323772
32	0x3f9f1bad	1.2430321
33	0xbf7fba48	-0.9989362
34	0x3fc722b2	1.5557463
35	0x3f981df8	1.1884146
36	0xbf21b447	-0.63165706
37	0xbecc3d94	-0.3989073
38	0xbfadd784	-1.3581395
39	0x3fc7643a	1.5577462
40	0x3fa1ba89	1.2635051
41	0xbea5a6fd	-0.32353964
42	0xbfea6eb5	-1.8315035
43	0x3f0cdc02	0.55023205
44	0x3f93804e	1.152353
45	0xbe9687bf	-0.2940044
46	0xbe151816	-0.1455997
47	0xbfba5a05	-1.4558722
48	0xbf584e13	-0.8449413
49	0x3f2760d5	0.6538213
50	0x3e673bb9	0.22581376
51	0x3f11e3f7	0.5698847
52	0x3eee6744	0.4656316
53	0xbf680171	-0.906272
54	0x3f56d0eb	0.83912534
55	0xbf348938	-0.7052188
56	0xbf7b72c1	-0.98221976
57	0x3ed66257	0.41871902
58	0x3e3eca4c	0.18631858
59	0x3f33008b	0.69922704
60	0x3eaedb00	0.3415146
61	0xbe82908c	-0.25500906
62	0x3e057899	0.13034286
63	0xbf7a894a	-0.97865736
64	0xbdf23fcb	-0.11828574
65	0x3f3c94cc	0.73664546
66	0x3f98c4fa	1.1935112
67	0x3f51291a	0.8170334
68	0x3db7ada4	0.08968666
69	0x3e7687cb	0.24075238
70	0x3df886c0	0.121350765
71	0x3f46a883	0.7760088
72	0xbf0d2646	-0.55136526
73	0x3e4c8b00	0.199749
74	0xbf45032b	-0.7695796
75	0xbea7b819	-0.32757643
76	0x3f12c422	0.57330525
77	0xbf370479	-0.714912
78	0x3f42af77	0.7604899
79	0x3e776e95	0.24163277
80	0xbecaaa4e	-0.39583057
81	0x3f745c89	0.954537
82	0x3e845d2a	0.2585233
83	0xbe23c770	-0.15994048
84	0xbf0d685a	-0.5523735
85	0x3f641417	0.89093155
86	0xbeb61b03	-0.35567483
87	0x3e82799e	0.25483412
88	0x3ecff964	0.40619957
89	0xbea27ba8	-0.31734967
90	0x3ef00471	0.4687839
91	0xbf502901	-0.81312567
92	0xbe139684	-0.14412886
93	0x3f27a227	0.654818
94	0xbf3f26d2	-0.7466861
95	0x3db52775	0.088454165
96	0xbfdf7f78	-1.7460775
97	0xbe90eeaf	-0.283071
98	0x3f09d9a3	0.5384771
99	0xbed48fe1	-0.4151602
100	0x3fb27eff	1.3945006
101	0x402b1462	2.673119
102	0x3f5a8b69	0.85368973
103	0xbef80f00	-0.48448944
104	0xbf94220d	-1.1572891
105	0x3e55c29e	0.20875022
106	0xbf1734f1	-0.5906516
107	0x3fb4bcb2	1.4120085
108	0xbfd46717	-1.659396
109	0x3f1fb7c7	0.62389797
110	0xc01f4ca5	-2.489053
111	0xbfce6899	-1.6125671
112	0x3fe87b29	1.8162585
113	0xbd5abca8	-0.053402573
114	0xbe70e9f7	-0.2352675
115	0x4027b3dd	2.620353
116	0x3fd28ef1	1.6449872
117	0x3f174150	0.59084034
118	0x40017d2b	2.0232646
119	0xbf96afae	-1.1772363
120	0x3f5fb3de	0.8738383
121	0x405815c4	3.3763285
122	0x3d0a4740	0.033759356
123	0x3eb79ca8	0.35861707
124	0xc00fc291	-2.2462504
125	0xbd7908ee	-0.06079953
126	0xbf4ccab5	-0.79996806
127	0xbfdf2d3d	-1.7435681
128	0x402bc54c	2.683917
129	0xbf12b595	-0.5730832
130	0x3ea4dc9a	0.32199556
131	0xbf7797dd	-0.967161
132	0xbf9471f5	-1.1597277
133	0xbfd13f0a	-1.6347363
134	0xbf25dbae	-0.6478833
135	0x3fc1d76d	1.5143868
136	0xbf996817	-1.1984891
137	0xbfb60aec	-1.4222083
138	0xbf3db7e3	-0.74108714
139	0xbf62a45d	-0.8853205
140	0x3e9ca1f8	0.30592322
141	0xbfcf23d0	-1.6182804
142	0xbfb5abaf	-1.4193019
143	0x3fa3eb07	1.28061
144	0x3fe33116	1.7749355
145	0x3e7d5736	0.247403
146	0xc03f58c0	-2.9897919
147	0xbe174c88	-0.14775288
148	0xbfffe1c4	-1.9990773
149	0xbfd82859	-1.6887313
150	0xbf8728a2	-1.0559275
151	0xbeb3ae4d	-0.35093918
152	0x3f8e8992	1.1135733
153	0x3eeac02d	0.45849743
154	0xbf946839	-1.1594306
155	0xbfcb0485	-1.5860754
156	0xbe9c286a	-0.30499583
157	0x3eb0ac2c	0.34506357
158	0x3f19c015	0.6005872
159	0xbb71b39d	-0.003688074
160	0x3f2806c4	0.65635324
161	0xbf6b17ca	-0.91833174
162	0x3f4790ee	0.7795552
163	0x3fb302a4	1.3985181
164	0x3fd14aff	1.6351012
165	0x401a2748	2.4086475
166	0x4000d419	2.0129454
167	0xbfeabf04	-1.8339543
168	0xbf8c7c99	-1.0975524
169	0xbe783893	-0.24240331
170	0x3f6a2e24	0.91476655
171	0x40657655	3.5853474
172	0xbdeaf64c	-0.11472759
173	0xbee3bdc5	-0.4448072
174	0x402f93a7	2.743387
175	0xbfd9ff05	-1.7030951
176	0x3f8c9156	1.0981853
177	0xbe8b00e0	-0.27149105
178	0xbfa52db6	-1.2904575
179	0x3fbc25f1	1.4699079
180	0x3f9c5745	1.2214133
181	0x3f189c5a	0.59613574
182	0x3f7a46f1	0.977645
183	0x3f9c685f	1.2219352
184	0xbf8d714e	-1.1050203
185	0x3f6cadfb	0.92452973
186	0xc0587012	-3.3818402
187	0xbe8b3c29	-0.27194336
188	0x3fbd2221	1.477604
189	0x3e1c7021	0.15277149
190	0xbe148b93	-0.14506368
191	0xbf770881	-0.9649735
192	0xbf8df86d	-1.1091439
193	0x3ed276c1	0.41106227
194	0xbfcc8816	-1.597903
195	0xbff0f24b	-1.8823942
196	0xbe00ffcc	-0.12597579
197	0xbfca97bf	-1.5827559
198	0x3ec6e5f5	0.38847318
199	0xbe8df062	-0.2772246
200	0x3e4e10d4	0.20123607
201	0xbfbb1691	-1.4616262
202	0xbee1a06c	-0.44067705
203	0x3fd81519	1.6881438
204	0xbfc40415	-1.5313746
205	0x3ea56bdd	0.32308856
206	0xbf8460ca	-1.0342038
207	0xbd206e15	-0.039167482
208	0x3cd2d3b8	0.025735721
209	0xbee5a36e	-0.4485125
210	0x3f41ea94	0.7574856
211	0xbdc7d315	-0.097570576
212	0xbf32211e	-0.6958178
213	0xbf7e40c1	-0.99317557
214	0x3d2e7da7	0.0426003
215	0xc006f386	-2.1086135
216	0xbf7db16c	-0.9909885
217	0x3f400409	0.7500616
218	0xbfb4c422	-1.4122355
219	0xbf157cc2	-0.5839349
220	0x3d095fb2	0.033538528
221	0xbeb9c317	-0.36281654
222	0x3fb5e321	1.4209939
223	0x3dd22c4c	0.10262355
224	0x401251eb	2.2862499
225	0xbf93ae07	-1.1537484
226	0x3df79d40	0.1209054
227	0x3e0e8cdd	0.13920923
228	0x3e90856e	0.282268
229	0xbfa75df7	-1.3075551
230	0xbf4651fe	-0.7746886
231	0x3f2e6118	0.68116903
232	0x3d407ea9	0.046995793
233	0xbe154f4d	-0.14581032
234	0x3fba41d0	1.4551334
235	0x3f869329	1.051366
236	0xbf27d6b0	-0.6556196
237	0xbf564c30	-0.8371
238	0xbfaa617b	-1.3310999
239	0x3de5c428	0.112190545
240	0xbeca112b	-0.39466223
241	0x3fa5fa50	1.2967014
242	0xbf4f1c42	-0.80902493
243	0x3f98c194	1.1934075
244	0x3f0ad196	0.5422605
245	0xbf73543d	-0.9505041
246	0x3e24dfe5	0.16101034
247	0x3feadd48	1.834878
248	0xbff1d281	-1.8892366
249	0x3e6c259a	0.23061219
250	0xbe50e534	-0.20399934
251	0x408f1df0	4.4724045
252	0x3fc6112d	1.5473992
253	0xbf093230	-0.53592205
254	0x3e26c613	0.16286497
255	0xc03248ff	-2.7857053

lstm.bias_ih_l0 f4 [200]
0	0x3edf1c29	0.43576172
1	0x3edc603e	0.43042177
2	0x3ec67878	0.38763785
3	0xbed01f81	-0.40649036
4	0x3b9c50cb	0.0047703735
5	0x3d416b27	0.04722133
6	0xbf0a9066	-0.54126585
7	0x3cd09bb9	0.02546488
8	0x3e857aaa	0.26070148
9	0xbda46d49	-0.08028657
10	0x3e263a26	0.1623312
11	0xbe6fda2e	-0.23423073
12	0xbdc08a57	-0.09401386
13	0x3ead37c3	0.33831605
14	0x3e3e465d	0.18581529
15	0xbb3dba01	-0.0028949978
16	0x3ea50164	0.32227623
17	0x3d183cd2	0.037167378
18	0x3e9e250c	0.3088764
19	0xbe86f187	-0.26356146
20	0x3f2ed30e	0.68290794
21	0x3baef85c	0.0053396653
22	0x3e96c893	0.294499
23	0x3e9e41c6	0.30909556
24	0xbcc90f8e	-0.02454355
25	0x3e97a469	0.29617622
26	0x3e2c5bce	0.16831896
27	0x3f03f41c	0.51544356
28	0x3ef1070d	0.47075692
29	0x3cc62fbf	0.024192689
30	0x3f4aeedd	0.79270726
31	0x3e2358bc	0.15951818
32	0xbe508cc0	-0.20366192
33	0x3edaaf57	0.427119
34	0xbe0c16e0	-0.13680601
35	0x3e879a19	0.26484755
36	0x3f1af019	0.6052261
37	0x3eb861c9	0.36012104
38	0x3e64aac7	0.22330771
39	0x3ed388a5	0.4131519
40	0x3e911664	0.28337395
41	0x3f176da0	0.5915165
42	0x3ed2e7dc	0.4119252
43	0x3e9f07a0	0.31060505
44	0x3f07f975	0.53115016
45	0x3e07eecd	0.13274689
46	0x3d65551b	0.055989366
47	0xbb20e403	-0.0024549968
48	0x3e0292eb	0.12751357
49	0x3ed049e8	0.40681386
50	0xbcfe8ca5	-0.031072924
51	0x3e20cdc4	0.15703493
52	0xbec0c1e0	-0.37647915
53	0xbe501e32	-0.20324019
54	0x3e15a5c3	0.14614014
55	0xbca90a9c	-0.020634942
56	0x3e110a0d	0.1416399
57	0x3d3bd9d0	0.04586202
58	0xbe3e8022	-0.18603566
59	0x3e40c6bc	0.18825811
60	0x3d55c218	0.052187055
61	0xbe851815	-0.25994936
62	0xbe640104	-0.22266012
63	0xbedf8459	-0.4365566
64	0x3c24feda	0.010070527
65	0xbe1bd006	-0.15216073
66	0xbd5c688b	-0.053810637
67	0xbe19ec9b	-0.15031664
68	0x3ecc1b36	0.3986451
69	0xbf22e13a	-0.6362492
70	0xbd815de7	-0.063167386
71	0xbe810d08	-0.25205255
72	0xbe977149	-0.29578617
73	0x3e85b3ef	0.2611384
74	0xbef4a0dd	-0.4777898
75	0xbe08d2a3	-0.13361602
76	0x3e2257ee	0.15853855
77	0x3de2c400	0.1107254
78	0xbe99fabc	-0.30074108
79	0xbebac25b	-0.36476406
80	0xbd7b4e45	-0.06135394
81	0x3d85cc6d	0.06533132
82	0xbd69338e	-0.056933932
83	0x3d907b45	0.07054762
84	0xbf0189b2	-0.5060073
85	0xbe055ae6	-0.13022956
86	0xbe333394	-0.17500144
87	0x3ec2ed85	0.38071838
88	0x3d259b79	0.040431473
89	0x3eb832ba	0.359762
90	0x3e9080c4	0.2822324
91	0xbf2318c3	-0.6370966
92	0x3bc7a689	0.0060928506
93	0xbe1ed364	-0.15510327
94	0xbf0efa01	-0.55850226
95	0xbea7df75	-0.32787672
96	0xbe87c094	-0.26514113
97	0x3e3e51dd	0.18585916
98	0x3ea88b44	0.3291875
99	0x3e432062	0.19055322
100	0x3ead4f69	0.33849648
101	0x3c007180	0.0078395605
102	0xbe1dd56a	-0.15413442
103	0xbe201edb	-0.1563677
104	0xbd8dda05	-0.069263496
105	0xbe38c0f9	-0.18042363
106	0xbed9686f	-0.4246249
107	0xbe885732	-0.26629025
108	0x3e049b08	0.12949765
109	0x3e8f6a62	0.2801085
110	0xbe88d3e6	-0.26724166
111	0x3e6b9822	0.23007253
112	0x3eb3267e	0.34990305
113	0x3e318e83	0.1733952
114	0xbe6b93b6	-0.23005566
115	0xbe1fb1c2	-0.15595153
116	0x3e8cdf7c	0.27514255
117	0x3d1960dc	0.037445888
118	0xbe372df3	-0.17888622
119	0xbe558445	-0.20851238
120	0xbe4bbd28	-0.19896376
121	0x3d8649c0	0.065570354
122	0xbde9123c	-0.11380431
123	0xbe727a1e	-0.23679397
124	0x3e8029a8	0.2503178
125	0xbeb62a54	-0.3557917
126	0xbe3d4311	-0.18482615
127	0x3e4a4ad9	0.19755115
128	0xbd7d9f15	-0.06191929
129	0xbd0323be	-0.03201651
130	0xbe3d4494	-0.18483192
131	0x3e34cba1	0.17655803
132	0x3e41a863	0.1891189
133	0xbe4f420d	-0.2024004
134	0x3ec5113f	0.3848972
135	0x3e6704f1	0.22560479
136	0xbbf2b236	-0.0074064983
137	0x3eea90cc	0.45813596
138	0x3e6828ff	0.22671889
139	0xbe9ef4be	-0.31046098
140	0xbe55c843	-0.20877175
141	0x3e064687	0.13112842
142	0xbe671e53	-0.22570162
143	0xbe0b214c	-0.1358692
144	0xbdc23639	-0.094829984
145	0xbe3b4c01	-0.18290712
146	0xbdd0e174	-0.10199252
147	0x3f0c3d9c	0.5478151
148	0xbe81c12f	-0.253427
149	0xbeab9fc0	-0.33520317
150	0xbf1dfeb4	-0.6171677
151	0x3e17d0f2	0.148258
152	0xbe8c3454	-0.27383673
153	0xbf095b7e	-0.5365523
154	0xbf681d3a	-0.90669596
155	0xbf103362	-0.56328404
156	0xbe053b26	-0.13010845
157	0xbf2032cb	-0.62577504
158	0xbd16a04d	-0.03677397
159	0xbf33df09	-0.702622
160	0xbeea2186	-0.457287
161	0xbe852109	-0.26001766
162	0x3d58c841	0.052925352
163	0xbe1d86a6	-0.15383396
164	0xbf342f25	-0.70384437
165	0xbce5cfc2	-0.028053168
166	0xbe39142f	-0.18074106
167	0x3e509bd9	0.20371951
168	0xbf5a51c5	-0.8528102
169	0xbe7e5c94	-0.24840003
170	0xbe9a0898	-0.30084682
171	0xbb2ccbf7	-0.002636669
172	0xbeca3c41	-0.39499095
173	0xbe390f40	-0.18072224
174	0xbea84974	-0.3286854
175	0xbead6ab7	-0.3387048
176	0xbf4f19ec	-0.8089893
177	0x3d345ea6	0.044035576
178	0xbe9e1723	-0.30877027
179	0xbf2619ef	-0.6488332
180	0xbea262ef	-0.31716105
181	0xbc1a6f4d	-0.00942595
182	0xbf40da6b	-0.7533328
183	0xbeb66a35	-0.35627905
184	0xbe13919d	-0.14411016
185	0xbefb388d	-0.49066582
186	0xbf018833	-0.5059845
187	0xbf914853	-1.1350197
188	0xbef1deb1	-0.47240213
189	0xbf5d047d	-0.86334974
190	0xbefc81b0	-0.49317694
191	0xbe581c39	-0.21104516
192	0xbe076b1d	-0.13224454
193	0xbf32be36	-0.6982149
194	0x3e5973b2	0.2123554
195	0x3e6718ac	0.22568005
196	0xbef55a4a	-0.47920448
197	0x3d4e87c9	0.050422464
198	0xbea19b03	-0.31563577
199	0x3cc5d028	0.024147108

lstm.bias_hh_l0 f4 [200]
0	0x3e4462cf	0.19178317
1	0x3e94538a	0.28969985
2	0x3eb85d7b	0.3600882
3	0xbe93fec3	-0.28905305
4	0x3e5efd2b	0.21776263
5	0x3de0cfe3	0.10977151
6	0xbedef684	-0.43547451
7	0x3e46ac84	0.19401747
8	0x3e892196	0.26783437
9	0xbe98688f	-0.29767272
10	0x3e4a927b	0.1978244
11	0xbc3f8ca9	-0.011691251
12	0xbda9ec89	-0.082970686
13	0x3e8bb3b8	0.27285552
14	0x3e24a29b	0.16077654
15	0xbc988cb6	-0.018621784
16	0x3e37ee67	0.17962037
17	0xbc96be81	-0.018401386
18	0x3e6194e8	0.2202946
19	0xbe20be99	-0.15697707
20	0x3f0d562e	0.55209625
21	0x3d2c35f2	0.042043634
22	0x3f05b5b4	0.5223038
23	0x3e227824	0.15866143
24	0x3df0db82	0.11760618
25	0x3ebfaf4e	0.37438434
26	0x3e9abcb3	0.3022209
27	0x3ea436fd	0.32073203
28	0x3f08e340	0.53471756
29	0xbd270551	-0.040776554
30	0x3f1a67ac	0.6031444
31	0x3e9cb14c	0.30604017
32	0xbdf84c03	-0.12123873
33	0x3ee925b6	0.45536584
34	0xbd892ece	-0.066983804
35	0x3df890be	0.121369824
36	0x3f007483	0.5017778
37	0x3e71b793	0.23605184
38	0x3e4ea782	0.20181087
39	0x3f1ee3cf	0.6206636
40	0x3e1fbfb9	0.1560048
41	0x3ebd2003	0.36938486
42	0x3eb24212	0.34816033
43	0x3d80cb8c	0.062888235
44	0x3efcf3e3	0.4940482
45	0x3e8001f2	0.25001484
46	0x3dd5aff7	0.10433953
47	0xbe625507	-0.22102748
48	0x3e80e27d	0.25172797
49	0x3e8f8888	0.28033853
50	0xbda38d88	-0.07985979
51	0xbd724bad	-0.0591542
52	0xbea3bf9b	-0.3198212
53	0xbe594714	-0.2121852
54	0x3e4e9add	0.20176263
55	0xbe86e81a	-0.26348954
56	0x3d9305dc	0.07178852
57	0x3e2ea624	0.17055565
58	0xbd8314dc	-0.06400463
59	0x3d856787	0.06513887
60	0x3e5cc691	0.21560122
61	0xbecd10f8	-0.4005201
62	0xbe8ccb8d	-0.27499047
63	0xbe84bb0a	-0.2592395
64	0xbc87152d	-0.01648959
65	0xbe4f2fbb	-0.20233051
66	0xbb46581e	-0.0030264924
67	0xbdda8968	-0.106707394
68	0x3e27eee1	0.16399719
69	0xbf2c5412	-0.6731578
70	0xbe83dbfa	-0.25753766
71	0xbeb8d210	-0.36097765
72	0xbe4d7b94	-0.20066673
73	0x3de4315c	0.11142227
74	0xbed13d0d	-0.4086689
75	0x3cac674b	0.021045348
76	0x3e46fdde	0.1943278
77	0x3e4b1c2c	0.19834965
78	0xbef61a73	-0.48067054
79	0xbee94f02	-0.4556809
80	0x3c3efc92	0.011656897
81	0xbd88d568	-0.06681329
82	0x3cac2341	0.021012904
83	0x3d9e5f7e	0.077330574
84	0xbf2c9d7b	-0.67427796
85	0xbe84a6b3	-0.2590843
86	0xbd42411e	-0.04742538
87	0x3efe3b22	0.4965449
88	0x3dcfc903	0.10145762
89	0x3ef41831	0.47674707
90	0x3e9ac0a5	0.302251
91	0xbf038af4	-0.513839
92	0x3dcdacae	0.10042702
93	0xbd785041	-0.06062341
94	0xbf1c882f	-0.611453
95	0xbeb5cdfb	-0.35508713
96	0xbe2d88a4	-0.16946656
97	0x3e2bd32c	0.16779774
98	0x3e774d04	0.24150473
99	0x3e710cc8	0.23540032
100	0x3efb0070	0.4902377
101	0x3de4f49c	0.11179468
102	0xbd2a4359	-0.041568134
103	0xbe0eb969	-0.13937916
104	0xbe6a370c	-0.22872561
105	0xbea7efa4	-0.3280002
106	0xbeb22279	-0.34791926
107	0xbe4f86d7	-0.20266281
108	0x3e8dcb26	0.27694052
109	0x3e67214f	0.225713
110	0xbecae589	-0.39628246
111	0x3c83d7e8	0.016094163
112	0x3ed70ca7	0.4200184
113	0x3e95372c	0.29143655
114	0xbe861dff	-0.2619476
115	0xbe418342	-0.18897727
116	0x3e9dc6e0	0.30815792
117	0x3e706d48	0.23479187
118	0xbe5e1529	-0.2168776
119	0xbd38c0e1	-0.04510582
120	0xbebc6423	-0.36795148
121	0x3e711763	0.23544078
122	0x3de6b44f	0.1126486
123	0xbe2d17f6	-0.16903672
124	0x3e880480	0.26565933
125	0xbeba18f5	-0.36347166
126	0xbe999a3f	-0.30000493
127	0x3d5f4486	0.05450871
128	0x3bb78b94	0.005601356
129	0xbd43ee78	-0.047834843
130	0xbd0ca2c0	-0.034334898
131	0x3c9f46f4	0.019443013
132	0x3af60111	0.0018768628
133	0xbddb9d75	-0.10723392
134	0x3e8abe41	0.27098277
135	0x3e63d77e	0.22250172
136	0x3d811c8e	0.063042745
137	0x3ee9b5c4	0.4564649
138	0x3ec082bb	0.3759974
139	0xbeb91555	-0.36149088
140	0xbd731b6b	-0.05935232
141	0x3db9d092	0.09072985
142	0xbddb1b82	-0.10698606
143	0xbe699012	-0.22808865
144	0x3de7634b	0.112982355
145	0xbe433206	-0.19062051
146	0xbde427cc	-0.11140403
147	0x3eff612f	0.49878833
148	0xbe2dbd1b	-0.1696667
149	0xbe9c2c81	-0.30502704
150	0xbf368a97	-0.7130522
151	0x3e4b3214	0.19843322
152	0xbe9ba480	-0.3039894
153	0xbf395c2d	-0.72406274
154	0xbf5118e1	-0.8167859
155	0xbf12b256	-0.5730337
156	0x3c0bac83	0.008525017
157	0xbebcdc81	-0.3688698
158	0xbdd3bc07	-0.10338598
159	0xbf5dadd3	-0.8659336
160	0xbefd8fe1	-0.49523833
161	0xbe9e58e9	-0.30927208
162	0xbd6252bf	-0.055254694
163	0xbe966875	-0.2937657
164	0xbf21ef2f	-0.6325559
165	0xbe4c3faf	-0.19946168
166	0xbea18744	-0.31548512
167	0x3e78765b	0.24263899
168	0xbf3f5693	-0.74741477
169	0xbe56f575	-0.20992072
170	0xbe191c69	-0.14952244
171	0x3e2f54fd	0.17122264
172	0xbea9bd3c	-0.33152187
173	0xbe57fb48	-0.2109195
174	0xbe75949d	-0.23982473
175	0xbed42613	-0.41435298
176	0xbf1a167d	-0.60190564
177	0xbdb3e1c7	-0.08783298
178	0xbe87258a	-0.26395828
179	0xbf3b5dc2	-0.7318994
180	0xbda158f9	-0.07878298
181	0xbbea9137	-0.0071584242
182	0xbf4cdb11	-0.8002177
183	0xbf1cf761	-0.6131497
184	0xbe798194	-0.24365836
185	0xbf008f63	-0.5021879
186	0xbed72b43	-0.42025194
187	0xbf798743	-0.9747202
188	0xbf02ae47	-0.51047176
189	0xbf5643b0	-0.8369703
190	0xbf0c6843	-0.5484659
191	0xbe4b5cb0	-0.19859576
192	0xbe9688f3	-0.2940136
193	0xbf5f6fd1	-0.87279993
194	0x3d5d6f54	0.05406125
195	0x3e2f16af	0.17098497
196	0xbeec5f89	-0.46166638
197	0xbe358c40	-0.17729282
198	0xbe9a0360	-0.300807
199	0x3d40304e	0.046921067

lstm.weight_ih_l1 f4 [200, 50]
0	0x3e57b5e4	0.2106548
1	0xbdca9ce2	-0.09893204
2	0xbe316d74	-0.1732691
3	0xbe80be52	-0.25145203
4	0xbebd21d3	-0.36939868
5	0xbcabf64a	-0.020991463
6	0xbe5ee7d7	-0.21768127
7	0x3f06decc	0.5268371
8	0xbe96ddd4	-0.29466116
9	0xbf84251d	-1.0323826
10	0x3ed04406	0.40676898
11	0xbefcd2e0	-0.49379635
12	0xbf1c0019	-0.6093765
13	0xbeeb4e31	-0.45958093
14	0xbee04146	-0.437998
15	0x3e901c5d	0.2814664
16	0xbe127ab9	-0.14304627
17	0x3f1da9cb	0.6158721
18	0xbf9691b8	-1.176322
19	0x3cf5a212	0.029984508
20	0x3f83d7a1	1.030018
21	0x3dc13d15	0.094354786
22	0xbf24bae5	-0.6434768
23	0x3f8fbb9d	1.122913
24	0x3fe44090	1.7832203
25	0x3bc7778e	0.00608725
26	0x3f426b74	0.7594521
27	0xbf99e817	-1.2023953
28	0x3f486ea3	0.7829382
29	0x3f26efa5	0.6520942
30	0xbf104b60	-0.56365013
31	0xbc9ff575	-0.019526223
32	0x3fb9382d	1.4470268
33	0xbebd087e	-0.36920542
34	0x3cf41ac7	0.029797925
35	0xbe2a4798	-0.16628873
36	0x384db64c	4.9045586e-05
37	0xbd0d6cb0	-0.03452748
38	0x3e8daae5	0.27669445
39	0xbfe2c858	-1.771739
40	0xbebf3de6	-0.37351912
41	0xbca63ca6	-0.020292591
42	0xbd63106d	-0.055435587
43	0xbdff1f0e	-0.12457095
44	0xbf708bd4	-0.9396336
45	0x3d555c51	0.052089993
46	0xbeff5a94	-0.49873793
47	0x3ef0d1d3	0.47035083
48	0xbe8a3d47	-0.26999876
49	0x3c097bbb	0.008391316
50	0x3c3a0e77	0.011355988
51	0xbbada782	-0.0052995095
52	0x3f811c8b	1.0086836
53	0xc048c103	-3.1367805
54	0xc028273b	-2.6273944
55	0xc04a4d6f	-3.1609762
56	0xc04df063	-3.217797
57	0xbed3cef9	-0.41368845
58	0x3e8a4934	0.27008975
59	0x3fcbf526	1.5934188
60	0x3ea88c92	0.32919747
61	0xc0137a60	-2.3043442
62	0x3efd1a77	0.49434254
63	0xbeda0b77	-0.42586872
64	0x3e6ef6ef	0.23336385
65	0xc0046819	-2.0688536
66	0x40381a2b	2.8765972
67	0x3fc2b599	1.5211669
68	0xc0273970	-2.6128807
69	0xbee11c5b	-0.43966946
70	0x3eec51be	0.46156114
71	0xbf3e065f	-0.7422847
72	0x3e62c988	0.2214719
73	0xbf85a688	-1.0441446
74	0x404aae70	3.1668968
75	0x3ecf2b1a	0.4046257
76	0x3f82db85	1.0223242
77	0xbdc803bf	-0.097663395
78	0x3f3ab315	0.7292951
79	0x3f9a8441	1.2071611
80	0xbe4b4278	-0.19849575
81	0x3e74b475	0.23896964
82	0x401b9c11	2.4314005
83	0xbd34248f	-0.043980177
84	0x3ead4d0e	0.3384785
85	0x3f6873f9	0.9080196
86	0x3f2eca6e	0.68277633
87	0x3eacf537	0.33780834
88	0x3f72f1b5	0.94900066
89	0xbe1817c4	-0.14852816
90	0x3e8a43de	0.27004904
91	0x3e934a1f	0.28767487
92	0x3ddd3396	0.10800855
93	0x3f89645b	1.0733751
94	0xbfa65bf5	-1.2996813
95	0xbfd8e0cd	-1.6943604
96	0xc029db85	-2.6540234
97	0xbd5d4207	-0.054018047
98	0xbe596c2a	-0.21232668
99	0xbd903bdc	-0.07042667
100	0x3f4d6517	0.80232376
101	0xbe9560dd	-0.29175463
102	0x3f50411e	0.8134936
103	0x3e6ad5ab	0.2293307
104	0xbf2a510b	-0.6652991
105	0xbea60d6c	-0.32432115
106	0xbf567164	-0.8376677
107	0x3f96a315	1.1768519
108	0x3f005640	0.5013161
109	0xbf87b23f	-1.0601271
110	0x3e9b0957	0.30280563
111	0xbef88522	-0.48539072
112	0xbeeba796	-0.46026295
113	0xbf3df530	-0.7420225
114	0x3dcf068e	0.10108672
115	0xbf009cb3	-0.50239104
116	0x3ea80e28	0.328233
117	0x3e3be9e9	0.18350948
118	0xbf562f4d	-0.83665925
119	0xbf795169	-0.9738985
120	0x3e506156	0.2034963
121	0x3daa9149	0.08328492
122	0xbfdbbb90	-1.7166615
123	0x3deea2d4	0.11652151
124	0xbedebc99	-0.43503264
125	0xbf007a14	-0.50186276
126	0x3e661730	0.22469783
127	0x3dbc9bb6	0.09209387
128	0x3b4317bc	0.0029768785
129	0x3e554d27	0.20830213
130	0x3f910893	1.1330742
131	0xbf317bd5	-0.6932958
132	0x3e494441	0.19654943
133	0xbdff2a78	-0.12459272
134	0x3eed34f7	0.4632947
135	0x3eb93cd1	0.36179212
136	0xbf13fb9d	-0.57805806
137	0xbd1ecae0	-0.038767695
138	0x3f8ce50f	1.1007403
139	0x3f09a075	0.53760463
140	0x3ea8187c	0.3283118
141	0x3fa8a0a5	1.3174025
142	0x3efed976	0.49775285
143	0xbd9f2ce3	-0.07772233
144	0x3f374242	0.71585476
145	0xbefdf4b5	-0.4960076
146	0xbfd479f0	-1.6599712
147	0xbe718e46	-0.2358943
148	0xbea601ca	-0.3242324
149	0x3f12f1c5	0.5740016
150	0x3f0f41df	0.55959886
151	0x3e077d34	0.13231355
152	0xbdfa1f4e	-0.12213002
153	0x3f626e82	0.8844987
154	0x3ec00ba5	0.37508884
155	0x3ef30ad1	0.4746919
156	0x3f13b808	0.57702684
157	0xbf17b1eb	-0.59255856
158	0xbdd9171b	-0.1060011
159	0x3f42e98c	0.76137614
160	0xbfac3fd9	-1.3456985
161	0xbf988939	-1.1916877
162	0x3db71434	0.089394
163	0xbee55dcf	-0.44798133
164	0xbe0e3090	-0.13885713
165	0xbf84c392	-1.0372183
166	0x3fe33942	1.7751849
167	0xbe788eef	-0.24273275
168	0x3e174d37	0.14775549
169	0x3ed4afe1	0.41540435
170	0xbfb11c01	-1.3836671
171	0xbf2eeebe	-0.6833304
172	0x3e82ff6c	0.25585496
173	0x3e106a48	0.14103043
174	0xbf17e756	-0.59337366
175	0x3edb2f34	0.4280945
176	0x3e4fc051	0.20288207
177	0x3e965588	0.2936213
178	0xbeda0520	-0.42582035
179	0x3e991ae1	0.2990332
180	0xbfa8b25d	-1.3179432
181	0x3edd7752	0.43255097
182	0xbf11e3b7	-0.5698809
183	0xbf9dc83b	-1.232673
184	0x3fcd06aa	1.6017659
185	0x3f14521a	0.5793778
186	0x3f47068f	0.7774438
187	0x3d989603	0.074504875
188	0xbf8108bd	-1.0080792
189	0x3f870661	1.0548822
190	0xbfb089a5	-1.3792006
191	0x3ffb6c1a	1.9642365
192	0x3d12e1a2	0.03585971
193	0xbead195e	-0.33808416
194	0x3f36b46b	0.71369046
195	0xbeaba088	-0.33520913
196	0xc001ce65	-2.0282223
197	0x3fa69657	1.301463
198	0xbe7ff3c4	-0.24995333
199	0xbf202b6a	-0.62566245
200	0x3f2852d9	0.65751415
201	0xbe010b71	-0.12602021
202	0xbdb48f7f	-0.08816432
203	0xbe85f43a	-0.26162893
204	0xbee28a9f	-0.44246385
205	0xbf9d4f34	-1.2289796
206	0x3e1db3d0	0.15400624
207	0x3e00411a	0.12524834
208	0x3f3e5b13	0.7435772
209	0xbef196f9	-0.47185495
210	0x3e78a788	0.24282658
211	0x3f804b55	1.002299
212	0xbc6f3eb3	-0.014602351
213	0xbd594a71	-0.05304951
214	0x3dd7740a	0.105201796
215	0xbed9face	-0.4257416
216	0x3fc0d597	1.5065182
217	0x3f5f6d49	0.8727613
218	0x3e5e854d	0.21730538
219	0x3e2fa528	0.17152846
220	0x3e4c9389	0.19978155
221	0xbfbc68dd	-1.4719502
222	0xbf2c9fff	-0.67431635
223	0x3df2f3eb	0.1186293
224	0x3cf0b1ce	0.029381659
225	0xbf5a4148	-0.8525586
226	0xbe738f67	-0.23785172
227	0x3ee75551	0.4518228
228	0xbf03be1a	-0.51461947
229	0xbdfb6aa8	-0.122762024
230	0x3f843164	1.0327573
231	0xbf0b9d1c	-0.54536605
232	0x3f6b2f72	0.9186927
233	0x3f375d0d	0.7162636
234	0x3fc00407	1.5001229
235	0xbf009b04	-0.50236535
236	0xbfa42190	-1.2822742
237	0xbf84b3c8	-1.0367365
238	0x3f0fa549	0.5611158
239	0x3dd9ae70	0.106289744
240	0x3e1b463c	0.15163511
241	0x401cecc1	2.4519503
242	0x3f23a68f	0.63926023
243	0x3ede5fab	0.43432364
244	0xbea794dc	-0.32730758
245	0x3d10d97f	0.03536367
246	0xc07043b6	-3.7541327
247	0xbf6f6190	-0.93508244
248	0xbe63c7a9	-0.22244133
249	0x3f13d868	0.57752085
250	0xbf6cf675	-0.92563564
251	0x3eca42ed	0.39504185
252	0xbd90366e	-0.07041632
253	0xbee0885e	-0.4385404
254	0x3ef06c64	0.46957695
255	0x3f00cb63	0.50310344

lstm.weight_hh_l1 f4 [200, 50]
0	0xbe09fe3c	-0.13475889
1	0xbeacaba3	-0.33724698
2	0xbfaaf3a5	-1.3355604
3	0x3fa5e446	1.2960289
4	0xbe24d513	-0.16096906
5	0xbf2732f3	-0.6531212
6	0xbfa08da5	-1.2543226
7	0xb9db597d	-0.0004183761
8	0xbd8dbd75	-0.06920902
9	0x3f5de233	0.8667328
10	0xbe34fb35	-0.17673953
11	0x402500f7	2.578184
12	0xbf0fe5e3	-0.56210154
13	0x3ec3b4db	0.3822392
14	0x3f95d215	1.1704737
15	0xbf79f097	-0.97632736
16	0x3f83d527	1.0299424
17	0xbf14a375	-0.58061916
18	0xbda6160d	-0.081096746
19	0x3ed1f541	0.41007426
20	0x3f76f7ff	0.9647216
21	0x3f987d14	1.1913171
22	0xc013dadf	-2.3102338
23	0xbe75cd66	-0.24004135
24	0xbf1a06fc	-0.6016691
25	0xc018c42c	-2.3869734
26	0x3e874eda	0.26427346
27	0x3f11a3f1	0.5689078
28	0xbf3f8737	-0.74815696
29	0x3e863e00	0.26219177
30	0x3f7be182	0.9839097
31	0x40040526	2.0628142
32	0x3e5dd61b	0.21663706
33	0xbf468030	-0.7753935
34	0x3e423adc	0.18967766
35	0xbeb6848b	-0.35647997
36	0x3fa9d20a	1.3267224
37	0x40181f75	2.37692
38	0xbea32bd3	-0.31869373
39	0xbde5f5d9	-0.11228532
40	0xbf7771cd	-0.9665802
41	0xbf015a9d	-0.5052889
42	0xbe49d2cb	-0.19709317
43	0xbdf6d92e	-0.120531425
44	0x3f8d3ae2	1.1033595
45	0xbf0ed182	-0.55788434
46	0x3e7e2af9	0.2482108
47	0x3fe42260	1.782299
48	0x3ea83318	0.3285148
49	0xbf687fef	-0.9082021
50	0x3fadf1bc	1.3589396
51	0xbee85ed0	-0.45384836
52	0xbe83bd55	-0.25730386
53	0xbf45947f	-0.7717971
54	0x3ea93796	0.3305022
55	0xbfd60c7c	-1.672256
56	0xbf1340cb	-0.5752074
57	0x3f236446	0.6382488
58	0x3f2e8911	0.68177897
59	0xbf1838e8	-0.5946183
60	0x3ed26d60	0.41099072
61	0xbea3d983	-0.32001886
62	0xbe56f335	-0.20991214
63	0x3f1ac701	0.60459906
64	0xbe8d3de7	-0.2758629
65	0xbf619264	-0.88114
66	0xbf7a86aa	-0.9786173
67	0x3f2c7ee2	0.6738111
68	0xbf5ac477	-0.8545603
69	0x3ec79d80	0.3898735
70	0x3d40ee18	0.047102064
71	0xbfda5f18	-1.706027
72	0xbe2fb5aa	-0.17159143
73	0x3f130dc2	0.5744287
74	0x3f7f857a	0.99813044
75	0xbea163bc	-0.31521404
76	0x3e9bd9a0	0.30439472
77	0xc0369f49	-2.853472
78	0x3f935c47	1.1512536
79	0xbe9b191b	-0.3029259
80	0xbf5d768b	-0.8650901
81	0x3ea714ea	0.32633144
82	0xbf4149b4	-0.7550309
83	0x3ebb76d6	0.36614102
84	0xbeb6016d	-0.35547963
85	0x3eed4051	0.46338132
86	0xbd3f9a5c	-0.046778068
87	0xbe1591f0	-0.14606452
88	0x3ee9a60a	0.4563449
89	0x3f09a8fd	0.5377348
90	0x3eb8ee30	0.36119223
91	0x3f1001a2	0.5625249
92	0xbf48741f	-0.78302187
93	0xbf2827d4	-0.6568577
94	0x3e0c86f6	0.13723359
95	0xbf0f991b	-0.56092995
96	0xbe714ba9	-0.23564018
97	0x3d4f279b	0.05057488
98	0xbf6bef85	-0.9216235
99	0x3eb4172b	0.35173926
100	0x3ff3f9d7	1.906062
101	0xbf9421ef	-1.1572856
102	0xbe3da25d	-0.18518968
103	0xbf55f44f	-0.8357591
104	0x3e3f8b35	0.18705447
105	0xbf968f26	-1.1762435
106	0x3f712ce6	0.94209135
107	0xbef2a5aa	-0.47392017
108	0xbf8762e3	-1.0577053
109	0xbfa45518	-1.2838469
110	0xbf89669b	-1.0734438
111	0xbee781d0	-0.45216227
112	0x3e980dc4	0.29698002
113	0x3f206b4b	0.62663716
114	0xbf0cc3b2	-0.5498611
115	0xbf610f9a	-0.8791443
116	0xbf17bb38	-0.5927005
117	0xbecc2980	-0.39875412
118	0x4010e71d	2.264106
119	0xbfdec5a5	-1.7404066
120	0xbf803c73	-1.0018448
121	0xbf9d6c28	-1.2298632
122	0xbf905391	-1.1275502
123	0xbecd8173	-0.40137824
124	0x3fd623d5	1.6729685
125	0xbf8e6754	-1.1125283
126	0xbe87b5a5	-0.2650577
127	0xbfefceef	-1.8735026
128	0x3f9cfad0	1.2264042
129	0xbf07a907	-0.5299229
130	0xbdc13f98	-0.09435958
131	0x3f069e75	0.52585536
132	0x3f458dbb	0.7716939
133	0x3eb80af2	0.3594585
134	0x3d876519	0.0661108
135	0xbeb8f542	-0.36124617
136	0xbe54ca66	-0.20780334
137	0xbf48d316	-0.7844709
138	0xbf7c9011	-0.9865733
139	0xbf35b823	-0.70984095
140	0x3d91e474	0.07123652
141	0x3f75e192	0.9604732
142	0x3f3e73cf	0.7439546
143	0x3f1e1483	0.6175005
144	0xbf1b9530	-0.6077452
145	0xbe8e0d95	-0.27744737
146	0x3f02dc30	0.5111723
147	0xbf45ee43	-0.77316684
148	0xbf8b05ac	-1.0861106
149	0x3fc97b76	1.5740802
150	0x3e39422f	0.18091653
151	0xbeaeb12f	-0.34119555
152	0x3ebdb1f2	0.37049824
153	0x3fa530c6	1.290551
154	0xbdceda89	-0.10100276
155	0xbca09879	-0.019603955
156	0xbe5996ae	-0.21248886
157	0x3e6e7b41	0.23289205
158	0xbbadda63	-0.0053055747
159	0xbe580222	-0.21094564
160	0x3d96608d	0.07342634
161	0xbefe0bc7	-0.4961836
162	0x3e646867	0.22305451
163	0xbe41f422	-0.18940786
164	0x3ed334a1	0.4125109
165	0x3cdb6ac3	0.026784306
166	0x3f083224	0.5320151
167	0xbcd7b835	-0.026332954
168	0xbee56c0f	-0.44809005
169	0xbe35b1aa	-0.17743555
170	0x3f819ae7	1.0125397
171	0x3e0ff016	0.1405643
172	0xbe012335	-0.12611087
173	0x3dece81a	0.11567707
174	0xbe36d763	-0.17855601
175	0xbe109edd	-0.14123102
176	0x3f35ae1e	0.70968807
177	0x3eb406dc	0.35161483
178	0xbfe3a9be	-1.7786176
179	0xbde5b463	-0.11216047
180	0x3cd286f6	0.02569912
181	0xbda4f513	-0.08054557
182	0xbf6bcbab	-0.9210765
183	0xbe098564	-0.1342979
184	0x3da37b27	0.07982474
185	0xbe3a87f7	-0.18215929
186	0x3eb36a05	0.35041824
187	0x3e8e9737	0.27849743
188	0xbe6e09ac	-0.23245877
189	0xbeacee02	-0.33775336
190	0x3e50874e	0.20364115
191	0xbeb50796	-0.3535735
192	0x3d1104e4	0.035405055
193	0x3f91e855	1.1399027
194	0x3e8fb0d4	0.28064597
195	0x3ee32c07	0.44369528
196	0x3e8afe39	0.27147081
197	0xbea7bbf1	-0.32760575
198	0x3ee67e16	0.4501807
199	0xbfd8138d	-1.6880966
200	0xbdd5193b	-0.10405203
201	0xbda6f534	-0.081522375
202	0xbdf2914e	-0.11844121
203	0x3f335394	0.70049405
204	0x3ec0f27c	0.37685
205	0x3f63c05b	0.88965386
206	0x3c6208c1	0.013796032
207	0x3e9141cc	0.28370512
208	0x3eeb0f6f	0.45910212
209	0xbed2a884	-0.41144192
210	0x3eb7cb47	0.35897276
211	0x3bae7ac9	0.0053246957
212	0xbda59518	-0.08085078
213	0x3d6140eb	0.05499355
214	0x3e8be363	0.2732192
215	0xbf29acfa	-0.66279566
216	0x3e98f1fb	0.29872116
217	0x3f564587	0.8369984
218	0xbf0e3afe	-0.55558765
219	0xbd475ad0	-0.04867059
220	0x3f6d2659	0.9263664
221	0xbe86cd8f	-0.26328704
222	0x3e1976ee	0.14986774
223	0xbda77ffc	-0.08178708
224	0x3dda4a4c	0.10658702
225	0xbdf3299d	-0.118731715
226	0xbf09d15f	-0.538351
227	0xbf6d1136	-0.92604387
228	0x3f5352a1	0.82547957
229	0x3f427864	0.7596495
230	0x3e874bf2	0.2642513
231	0x3f3be7aa	0.73400366
232	0xbeb38ac1	-0.35066798
233	0x3e55aa57	0.2086576
234	0xbe293cd2	-0.16527107
235	0x3da4ac9d	0.08040736
236	0xbeb99657	-0.36247513
237	0xbe8e27f3	-0.27764854
238	0x3d51e33f	0.05124211
239	0x3da0e8e5	0.07856921
240	0x3e30d16b	0.17267387
241	0xbeb2c18a	-0.34913284
242	0xbe109740	-0.14120197
243	0x3f3f9cef	0.74848837
244	0x3f598124	0.8496268
245	0x3dec0001	0.11523438
246	0x3d7afc71	0.061275903
247	0x3deff3cc	0.117164224
248	0xbe3d1558	-0.18465173
249	0xbee5ebcb	-0.44906458
250	0x3ffa9bbe	1.9578779
251	0xbf19db74	-0.60100484
252	0x3f1ceaa7	0.6129555
253	0x3f7eff6a	0.9960848
254	0xbf6c54ae	-0.9231671
255	0xbe8084d6	-0.25101346

lstm.bias_ih_l1 f4 [200]
0	0xbd0fe336	-0.035128795
1	0xbea1f22b	-0.31630072
2	0x3dad0468	0.08448106
3	0x3cab1734	0.020885088
4	0xbeae1f16	-0.34008092
5	0xbf21be3e	-0.6318091
6	0x3ed3add9	0.41343573
7	0xbe1f74e0	-0.15571928
8	0x3ec7b747	0.39007017
9	0x3dcc4bb4	0.09975377
10	0xbdd3e3fa	-0.103462175
11	0xbece3474	-0.40274394
12	0x3d070378	0.032962292
13	0xbe8f84bc	-0.28030956
14	0x3ec32b9c	0.3811921
15	0x3dca80ec	0.09887871
16	0xbf0bac49	-0.5455976
17	0x3d31fd6a	0.043454565
18	0x3e2776f1	0.16353966
19	0xbeae1b3a	-0.34005147
20	0x3ea50e04	0.32237256
21	0xbe889556	-0.26676434
22	0x3f1a9551	0.6038409
23	0x3e49cfcd	0.19708176
24	0xbcc84e94	-0.024451531
25	0x3ea746b3	0.32671127
26	0xbf0a08cd	-0.5391968
27	0x3e326da3	0.17424636
28	0x3e7c5327	0.24641095
29	0x3cdebc7d	0.027189488
30	0xbc94748e	-0.018121984
31	0x3cc8d5bc	0.024515979
32	0xbea37c97	-0.31930992
33	0xbdd85108	-0.105623305
34	0xbe5501b7	-0.20801435
35	0x3e792220	0.24329424
36	0xbc156648	-0.009118624
37	0x3db5f591	0.08884729
38	0xbe7619ad	-0.24033232
39	0xbd749d2c	-0.059720203
40	0x3d22f0a3	0.03978027
41	0xbece2fa0	-0.4027071
42	0x3c9a5157	0.018837614
43	0x3dc739f1	0.09727848
44	0x3f038922	0.51381123
45	0x3e97aae6	0.29622573
46	0xbee1d14a	-0.44104987
47	0xbed0913d	-0.40735808
48	0x3ed47f65	0.41503444
49	0x3df913a1	0.12161947
50	0xbeb48e05	-0.35264602
51	0xbf6c8e73	-0.9240486
52	0xbeaf3c43	-0.34225664
53	0xbf09348e	-0.5359582
54	0xbf16ef66	-0.58959043
55	0xbdca8d09	-0.098901816
56	0x3e133e9f	0.14379357
57	0xbed8de68	-0.42357183
58	0xbe7b19ef	-0.24521612
59	0x3df09af6	0.117483065
60	0xbdd6a154	-0.1047999
61	0xbe4fd46e	-0.20295879
62	0xbe02ff42	-0.12792686
63	0xbe5d08bf	-0.21585368
64	0x3ebcf8c0	0.3690853
65	0xbf878cee	-1.0589883
66	0xbec3667a	-0.3816412
67	0xbe911fab	-0.28344473
68	0xbe99d44c	-0.30044782
69	0xbeec74f3	-0.46182975
70	0xbf524a56	-0.8214468
71	0xbe54da6e	-0.2078645
72	0x3e79dea1	0.24401332
73	0x3e27c8fb	0.16385262
74	0x3edc5e63	0.4304076
75	0xbd5ffce1	-0.054684523
76	0xbf8308ef	-1.0237101
77	0xbf277650	-0.65414906
78	0xbf314ce5	-0.69257957
79	0x3c9a069c	0.01880198
80	0xbf0e6ff0	-0.55639553
81	0xbebc82b5	-0.36818472
82	0xbf44dce2	-0.7689954
83	0xbe168132	-0.14697722
84	0x3d618657	0.055059757
85	0x3d8e345e	0.06943582
86	0xbf95ba74	-1.1697526
87	0xbf085634	-0.53256536
88	0xbea3d9ef	-0.32002208
89	0xbe89162a	-0.26774722
90	0xbf7baa4f	-0.98306745
91	0xbe5bc9b1	-0.21463658
92	0xbf0c3dd9	-0.5478187
93	0xbf521f87	-0.82079357
94	0x3eff969b	0.4991959
95	0xbeefa67c	-0.46806705
96	0xbf64a715	-0.89317447
97	0xbe212785	-0.15737732
98	0xbea4fc9a	-0.3222397
99	0xbf71e71e	-0.9449328
100	0xbe010688	-0.12600148
101	0x3d9ffa24	0.078113824
102	0xbe0d63ce	-0.13807604
103	0xbe8df6d6	-0.27727383
104	0xbe7d0e2e	-0.2471244
105	0xbe0b5170	-0.13605285
106	0x3f0178be	0.5057486
107	0xbe6de85e	-0.23233172
108	0xbe1389ab	-0.14407985
109	0xbf23ba5b	-0.6395623
110	0xbe4b4a28	-0.19852507
111	0x3eb2b19b	0.34901127
112	0x3d893948	0.06700379
113	0x3dcd643b	0.10028883
114	0xbe3e527d	-0.18586154
115	0x3ed21406	0.41030902
116	0x3db47bf9	0.088127084
117	0xbc858e3f	-0.01630318
118	0x3db6e8b5	0.08931104
119	0x3ed73062	0.420291
120	0xbc14fbd9	-0.009093248
121	0xbd83e18b	-0.06439503
122	0xbe51c4f7	-0.20485292
123	0xbea0ff14	-0.3144461
124	0x3de91753	0.11381402
125	0xbe5e5bae	-0.2171466
126	0x3e475369	0.19465412
127	0x3c50c442	0.012742104
128	0xbc29eaa8	-0.010370888
129	0xbe6ac234	-0.22925645
130	0x3da1d809	0.079025336
131	0xbc43c268	-0.0119482055
132	0x3ef67a65	0.48140255
133	0x3e82c3fb	0.25540146
134	0xbe85a7dd	-0.26104632
135	0xbe8ce73c	-0.27520168
136	0xbc2ab744	-0.0104196705
137	0xbe8e76df	-0.27825066
138	0x3d252127	0.04031482
139	0xbcec2c24	-0.028829642
140	0xbe15fe89	-0.14647879
141	0xbe7ca06b	-0.2467057
142	0x3c9fe359	0.019517587
143	0x3cc4a566	0.02400465
144	0x3d354dcf	0.044263657
145	0xbedc623c	-0.43043697
146	0x3e2bb2c4	0.16767412
147	0x3e336e19	0.17522468
148	0x3deef56a	0.11667903
149	0xbd44be75	-0.048033196
150	0xbec01fdf	-0.37524316
151	0xbf5c85a8	-0.86141443
152	0xbe0e8da3	-0.13921218
153	0xbf3fee3f	-0.7497291
154	0xbf4a05d0	-0.7891512
155	0xbfdeb80e	-1.7399919
156	0xbfd36931	-1.6516477
157	0xbfc29a14	-1.5203271
158	0xbef2ec1c	-0.47445762
159	0xbf7ad86c	-0.97986484
160	0xbfbbe864	-1.4680295
161	0x3eac2233	0.33619842
162	0xbf373816	-0.71569955
163	0xbf580e9a	-0.8439728
164	0xbf867e76	-1.0507343
165	0xbf685400	-0.90753174
166	0xbe7b01be	-0.24512383
167	0xbe8225e0	-0.2541952
168	0xbf1ae844	-0.6051066
169	0xbf741235	-0.9534028
170	0xbec69667	-0.38786623
171	0xbe8c4330	-0.2739501
172	0xbf52bdfc	-0.82321143
173	0xbe90f34f	-0.2831063
174	0xbf1a729a	-0.6033112
175	0xbf8d3b4e	-1.1033723
176	0xbfda315e	-1.7046316
177	0xbf945026	-1.1586959
178	0xbefcd5e4	-0.49381936
179	0xbf31c0d4	-0.6943486
180	0xbfc92c62	-1.571667
181	0xbf1fc3cf	-0.62408155
182	0xbb66e8ca	-0.0035233968
183	0xbe2fd159	-0.17169704
184	0xbf06ece4	-0.52705216
185	0xbf7f5d56	-0.99751794
186	0xbfa249a9	-1.2678729
187	0xbf4d6529	-0.80232483
188	0xbfa843da	-1.3145707
189	0xbf53eb93	-0.8278133
190	0xbe9097ba	-0.28240758
191	0xbee6fcb7	-0.4511468
192	0xbf3e0f7b	-0.7424237
193	0xbef81252	-0.48451477
194	0xbf0e9545	-0.5569652
195	0xbf2f9f9f	-0.6860294
196	0xbedb4c2b	-0.4283155
197	0xbf646bdd	-0.89227086
198	0xbea8c0e2	-0.32959658
199	0xbf06b4c1	-0.5261956

lstm.bias_hh_l1 f4 [200]
0	0x3d1d3cd5	0.038388092
1	0xbe84d13f	-0.25940892
2	0xbda270e8	-0.079316914
3	0x3d9e0a30	0.07716787
4	0xbe86ed32	-0.2635284
5	0xbf137815	-0.57605106
6	0x3eb793bd	0.35854903
7	0xbe2db812	-0.16964749
8	0x3f08f9f4	0.535064
9	0x3d756e71	0.05991978
10	0xbe022056	-0.12707648
11	0xbee449ac	-0.44587457
12	0x3e169528	0.14705336
13	0xbebf5b8d	-0.37374535
14	0x3ef86d4c	0.48520887
15	0xbd7c3b4f	-0.06158
16	0xbf42bfcb	-0.760739
17	0x3dec48fe	0.1153736
18	0x3e3a8e2f	0.18218301
19	0xbed2541b	-0.41079792
20	0x3e883f94	0.26611006
21	0xbe46f4d7	-0.19429336
22	0x3f09a680	0.53769684
23	0x3e952dfc	0.29136646
24	0x3b996ac1	0.0046819155
25	0x3e2a1880	0.16610909
26	0xbef5717d	-0.47938147
27	0x3ecf4a07	0.40486166
28	0x3e9e4d1d	0.30918208
29	0x3cdffb05	0.027341375
30	0x3d5b2d0c	0.053509757
31	0x3cd906b4	0.026492454
32	0xbeff9fd8	-0.4992664
33	0xbe461af2	-0.19346216
34	0xbe27ef11	-0.1639979
35	0x3e47219c	0.19446415
36	0xbe46604b	-0.1937267
37	0x3df0e8ff	0.117631905
38	0xbe5e8dfe	-0.21733853
39	0xbe506b1b	-0.20353357
40	0x3e271849	0.16317858
41	0xbeef4f11	-0.4674001
42	0xbcd7ee76	-0.026358824
43	0xbca50094	-0.020141877
44	0x3f11ec95	0.5700162
45	0x3e8f69a2	0.2801028
46	0xbe8fee02	-0.28111273
47	0xbece67ed	-0.40313664
48	0x3e992380	0.29909897
49	0x3e91a1dc	0.284438
50	0xbf08b5c0	-0.5340233
51	0xbf8abf19	-1.0839568
52	0xbe2d90ab	-0.16949718
53	0xbf289801	-0.6585694
54	0xbee0f783	-0.43938836
55	0xbdf35031	-0.1188053
56	0x3e2fb85e	0.17160174
57	0xbedd2816	-0.43194646
58	0xbe886645	-0.26640525
59	0x3e14cf33	0.14532165
60	0xbe337a6c	-0.17527169
61	0xbe4fa1b2	-0.20276526
62	0x3e0a080b	0.1347963
63	0xbe8b3d1b	-0.27195057
64	0x3ea863e6	0.32888716
65	0xbfa60ca8	-1.2972612
66	0xbef1c4d1	-0.47220472
67	0xbecca901	-0.3997269
68	0xbece07f6	-0.4024045
69	0xbf02082b	-0.50793713
70	0xbf53df19	-0.82762295
71	0xbe9d8bb8	-0.3077066
72	0x3e9654d5	0.29361597
73	0xbdbbc9bf	-0.091693394
74	0x3e398a60	0.18119192
75	0x3e0ab59e	0.13545844
76	0xbf6bbaee	-0.9208211
77	0xbedc8997	-0.43073723
78	0xbf65c706	-0.8975681
79	0xbd6acce5	-0.05732431
80	0xbefd9e03	-0.49534616
81	0xbeb8fba6	-0.36129493
82	0xbf203d9f	-0.62594026
83	0x3d5173d9	0.05113587
84	0x3e0bc4a7	0.13649236
85	0xbce8f69c	-0.028437905
86	0xbf901da7	-1.1259049
87	0xbee06191	-0.43824437
88	0xbec8c163	-0.39210042
89	0xbefc6b5a	-0.49300653
90	0xbf63cb1d	-0.889818
91	0xbe5ec861	-0.21756126
92	0xbedf86cc	-0.4365753
93	0xbf44c09b	-0.7685639
94	0x3f0de30b	0.55424565
95	0xbedff07a	-0.43738157
96	0xbf268a6d	-0.6505497
97	0xbe9be48e	-0.3044781
98	0xbe11dcc8	-0.14244378
99	0xbf5ba72a	-0.8580195
100	0x3ce2fa04	0.027707107
101	0x3d79847b	0.06091736
102	0xbe6594b8	-0.22420013
103	0xbe1dbb4e	-0.15403482
104	0xbd8dcbc2	-0.06923629
105	0xbdecc5ff	-0.11561202
106	0x3e8f4860	0.27984905
107	0xbe26079f	-0.16213845
108	0x3ce59e96	0.028029721
109	0xbf1079c3	-0.56435794
110	0xbe86a920	-0.26300907
111	0x3de8bedf	0.11364531
112	0x3e531d7d	0.20616718
113	0xbdca9b07	-0.0989285
114	0xbde7b105	-0.11313061
115	0x3ef0aed9	0.47008398
116	0xbda62ea1	-0.081143625
117	0xbc04f3cc	-0.008114766
118	0x3ea39f2b	0.31957373
119	0x3edeadb0	0.43491888
120	0x3d32a24e	0.043611817
121	0xbe84b338	-0.25917983
122	0xbe285807	-0.1643983
123	0xbe8257fb	-0.2545775
124	0x3e9f04c6	0.3105833
125	0xbeab6e3d	-0.33482543
126	0x3e2dc16a	0.16968313
127	0xbb9e3642	-0.0048282454
128	0x3da3ab79	0.0799169
129	0xbe83e339	-0.25759295
130	0x3e9707a4	0.29498017
131	0x3e013f16	0.12621722
132	0x3ea1bb7e	0.31588358
133	0x3e89f062	0.2694121
134	0xbebd1655	-0.369311
135	0xbe89b357	-0.26894638
136	0x3c1d5557	0.009602866
137	0xbe867ba1	-0.26266196
138	0xbd269692	-0.04067094
139	0xbd29ea52	-0.04148323
140	0xbea1c1bb	-0.31593117
141	0xbe8fc441	-0.28079417
142	0x3e25b502	0.1618233
143	0xbd0a3a19	-0.033746812
144	0x3da9c137	0.08288806
145	0xbe8fb0ab	-0.28064474
146	0x3e803c5d	0.25046054
147	0x3e8e3212	0.27772576
148	0xba630b2f	-0.0008661029
149	0x3d72a454	0.059238747
150	0xbf011288	-0.504189
151	0xbf5119d2	-0.81680024
152	0xbe05f569	-0.13081898
153	0xbf2ab5da	-0.66683733
154	0xbf30dfb9	-0.69091374
155	0xbfd26fcc	-1.6440368
156	0xbfbacaea	-1.4593174
157	0xbfc4104b	-1.5317472
158	0xbf0556f2	-0.52085793
159	0xbf4fa7ee	-0.81115615
160	0xbfb5e4fe	-1.4210508
161	0x3e091b8c	0.13389415
162	0xbf2d3ba0	-0.67669106
163	0xbf5e7ad7	-0.8690619
164	0xbfa1291e	-1.2590673
165	0xbf8310b4	-1.0239472
166	0xbe0a933c	-0.13532728
167	0xbe9f1157	-0.31067917
168	0xbf493feb	-0.78613156
169	0xbf82ce8d	-1.0219284
170	0xbef4412f	-0.4770598
171	0xbd854195	-0.065066494
172	0xbf3129e7	-0.6920456
173	0xbeb8e506	-0.3611223
174	0xbf34b2c7	-0.7058529
175	0xbf8d7e10	-1.1054096
176	0xbfe04025	-1.7519575
177	0xbf9f09ed	-1.2424904
178	0xbf0c7141	-0.5486031
179	0xbf0f0968	-0.5587373
180	0xbfd3d676	-1.6549823
181	0xbf13a9ac	-0.57680774
182	0xbde5abdc	-0.1121442
183	0xbea62c98	-0.32455897
184	0xbf24668a	-0.6421896
185	0xbf4ead59	-0.8073326
186	0xbf98246c	-1.1886115
187	0xbf5a2771	-0.8521643
188	0xbfa44dc0	-1.2836227
189	0xbf5a6b9a	-0.85320437
190	0xbed58321	-0.41701606
191	0xbf186b92	-0.5953914
192	0xbf257d16	-0.6464399
193	0xbf1530fe	-0.5827788
194	0xbf08971b	-0.5335557
195	0xbf33bf64	-0.70213914
196	0xbec731ee	-0.3890528
197	0xbf575269	-0.8411012
198	0xbed9d724	-0.42546952
199	0xbee62527	-0.4495022
