NEURAL_MODELS/LSTM/misty-monkey-50_epoch30.pth (torch, 815279 bytes, 42 tensors)

lstm.weight_ih_l0 f4 [200, 63]
00000000: d1aa 02be 5297 fc3f 1d9d 963f 31a6 cdbf
00000010: 7afb 963f 6ed5 0240 5dfb a1c0 1353 993c
00000020: 2a1a 1e3f b9b5 50bf 002d 1440 cdbc d03f
00000030: 9ae4 10c0 7e2d bd3f 06fa 4abf eded 47bf
00000040: 6370 3f40 8bd1 dfbf 8f9c babc 9118 c9be
00000050: 17ae e9bd f9a7 8f40 53b9 a33f d464 8140
00000060: ae1c 313f 9503 c53f 598c 913f 737d 0a40
00000070: 9e09 033e e8a6 4d3f 963c 32bf c452 c2bf
00000080: 96f5 27bf 152e 5d3f ad24 033f b31f 713f
00000090: 38cb 55c0 5d6c 3a40 2462 18c0 943d 36c0
000000a0: df6f 6440 3d63 c540 b7d9 5bc0 9ddc acbe
000000b0: 5674 dc3f 820d 233e 440c c23f 44b5 fd40
000000c0: ea11 703f 1d9b e4bd aa65 263f 2218 8e3f
000000d0: a13c 0e3f 4e41 4540 9220 e03f 5d48 ad3f
000000e0: bfe8 c73f d869 8240 8a50 eabf 644f fd3f
000000f0: e766 47c0 ece4 653f 1764 12c0 4cd7 0cc0
00000100: f3be d93e 810c 78bf 6a2b d6be ef26 c1bf
00000110: 1835 fbbf cb05 2440 07ef 1940 edeb 1b3d
00000120: 7ad5 a5be d482 5e3d 22ae 483f 8fb7 b4bf
00000130: 6ea4 d13e 7c0f 603f b771 1cbf 10f7 57c0
00000140: e276 afbd cd82 9340 4740 d43f 4083 eebf
00000150: 16d5 5e3f 9bf7 82bf f04d 6dbf 630b 33bf
00000160: 3204 8bbf e913 28bf b2ed 08bf 3505 41c0
00000170: eb60 88c0 a585 9abf 7f22 1740 439f 12c0
00000180: bfd4 85bf a2fb b73e a00c 3640 dd48 9cbf
00000190: 79ea b83e 48da 4540 96a4 92c0 0534 473f
000001a0: a288 9c40 b433 c83f d9b2 22bf 4968 133f
000001b0: 780c 59c0 05c6 0fc0 29e1 d040 8cfb 3540
000001c0: d3e7 8ebe f4da 70bf a1d1 d7bf ed75 063f
000001d0: 9a9e 13c0 f174 a0be ee8e e03f d705 7140
000001e0: 5a54 08c0 0efa c03f 90a7 1340 a308 c140
000001f0: 54c3 e8bf 326c dabd 50ec debf bfcf 4840
00000200: 857d 8f3f 0878 0cbe 881f e2bf e0d3 56c0
00000210: 8d5c de3f c3c5 abbf 4cad ca3f a88f 2440
00000220: 8625 33bf ba6a dbbe 302f 393f c872 2140
00000230: 3ec7 3340 10ae 88bf 9216 9040 bba5 0c40
00000240: 1007 a23f bee8 f0bf a472 833e 89eb 66bf
00000250: 2a8f 293c 825d df40 4284 8abf fff9 d5bf
00000260: 65af c0bd d247 b13f f437 cb3f bd81 80c0
00000270: db4c 2ec0 24cf f53f 970c 6dbe dc1e 4340
00000280: d6da 9a40 56e1 9c3e 915b 18bf 5ef4 c83f
00000290: 924d 40bf cb75 02c0 b4fb 4e40 b5ee 8640
000002a0: 02d6 d4bf 8ed8 b23e 662d f23f 2482 b93f
000002b0: fe2e d3bf c935 5e40 cdce 3840 6cb9 983f
000002c0: 3c97 bc3e 0252 3ac0 7144 38bd 4d00 0440
000002d0: 1f27 b03f 3855 cd3f 513e 4a3d 216c 093d
000002e0: f7b0 7fbf dd69 48be 2309 1dbf 34c5 37bf
000002f0: ccbb 83bf ae96 c73f 6b1a 2fc0 1480 0d40
00000300: b6e8 efbe 9e8a ecbf 7d20 22bf 37bf 8d40
00000310: add4 5fc0 4237 70c0 03e8 94be a1ea b1bf
00000320: eabd 86bf 1af5 cbc0 a6d6 80bf 4fd0 67c0
00000330: 7d26 05c0 f388 20bf 7d3d aa3f c511 ea3f
00000340: e454 9cbe c874 4d3b 82f0 c5bf 4e2d c23c
00000350: c325 3bc0 bed3 83be c244 08bf ba7e 6840
00000360: 2bcc ae3f be57 1dc0 1a3e bb40 107f 8640
00000370: 7f8b 88c0 78a5 64be 9251 42bf 7866 21c0
00000380: 38d6 0c40 04e5 dc40 8c44 87bf 9f64 0f41
00000390: a4b2 1540 a633 febd 74fe 2441 318d 3ebf
000003a0: f36c 6bbf c78b 62bf c816 40c0 4788 42bf
000003b0: d029 973f 18ec 9b3f 67a4 073f 777b 05be
000003c0: 52b6 dcbe 9cc1 e740 df8b 463d 1173 4ebe
000003d0: ac61 8640 2462 1341 4696 dcbf 5c2d b33f
000003e0: a2d9 8a3f ba10 5f40 dede 09c0 de4a 9340
000003f0: 05cd 1fbf 39fb 87c0 50a0 b43f 76a2 1b3f
-0.12760474 1.9733679 1.1766697 -1.6066343 1.1795495 2.0442767 -5.061934 0.01871637
0.61758673 -0.81527287 2.3152466 1.6307617 -2.2639527 1.4779508 -0.79287755 -0.7809742
2.9912345 -1.7485822 -0.022779731 -0.39276555 -0.11410158 4.4892545 1.2790931 4.043558
0.69184387 1.5391718 1.1370956 2.1639068 0.12796637 0.80332804 -0.69623697 -1.5181508
-0.6560911 0.8639844 0.5122784 0.94188994 -3.3405285 2.912864 -2.38099 -2.8475084
3.569328 6.168364 -3.4351633 -0.33762065 1.7223003 0.15923122 1.5159993 7.928377
0.93777335 -0.11162398 0.6499888 1.1101115 0.5556126 3.082111 1.750994 1.3537709
1.5617903 4.0754204 -1.8305829 1.9789853 -3.1156557 0.8980243 -2.287359 -2.2006407
0.42528495 -0.9689408 -0.41829997 -1.5090007 -1.9625578 2.5628536 2.405214 0.038066793
-0.32389432 0.054323986 0.78390706 -1.4118518 0.40945762 0.8752363 -0.61111015 -3.3744545
-0.08567597 4.609717 1.6582116 -1.8633804 0.87043893 -1.0231813 -0.9269705 -0.6993925
-1.0860655 -0.6565538 -0.53487694 -3.0159428 -4.261831 -1.2072035 2.3614805 -2.2909706
-1.045555 0.35934168 2.8445206 -1.2209736 0.36116388 3.0914478 -4.582591 0.7781375
4.891679 1.5640779 -0.6355415 0.57581 -3.391386 -2.2464612 6.5274854 2.8434782
-0.27911243 -0.94084096 -1.6860849 0.5252369 -2.3065553 -0.3133922 1.7543619 3.7659814
-2.1301484 1.5076311 2.3071022 6.0323043 -1.818461 -0.10665168 -1.7415867 3.1376798
1.121018 -0.13717663 -1.7665873 -3.3566818 1.7371994 -1.3419727 1.5834136 2.571268
-0.6997913 -0.42854863 0.7233763 2.5226307 2.8090358 -1.067812 4.502755 2.1976154
1.2658405 -1.8821027 0.256734 -0.9020315 0.010349074 6.9801645 -1.0821612 -1.6716918
-0.09408454 1.3850043 1.587645 -4.015837 -2.723441 1.9203839 -0.23149334 3.0487585
4.8392134 0.30640668 -0.5951472 1.5699575 -0.7511836 -2.0384395 3.2341127 4.216639
-1.662781 0.34930843 1.8920105 1.4492841 -1.6498716 3.4720328 2.887622 1.1931586
0.36834133 -2.9112554 -0.044987146 2.0625184 1.3761939 1.6041632 0.049375836 0.033550385
-0.998794 -0.19571634 -0.61342067 -0.71785283 -1.0291686 1.5592859 -2.7359874 2.2109423
-0.46857232 -1.8479803 -0.63330823 4.4295917 -3.4973557 -3.7533727 -0.2908326 -1.3899728
-1.0526707 -6.3736696 -1.0065506 -3.6220891 -2.0804741 -0.6270897 1.3300015 1.8286673
-0.30533516 0.0031350125 -1.5464022 0.023703244 -2.9241798 -0.25747484 -0.53229916 3.6327348
1.3656057 -2.4584804 5.8513308 4.2030106 -4.2670283 -0.22328746 -0.75905716 -2.5218792
2.2005749 6.902956 -1.0567794 8.962066 2.3390284 -0.12412195 10.312122 -0.7443419
-0.9196312 -0.88494533 -3.0013905 -0.7598919 1.1809635 1.2181425 0.52985233 -0.1303538
-0.4310785 7.242384 0.048473235 -0.20161082 4.199423 9.21146 -1.723336 1.3998218
1.0847666 3.485396 -2.1542277 4.602889 -0.6242221 -4.249417 1.4111423 0.6079477

lstm.weight_hh_l0 f4 [200, 50]
00000000: 43e3 ebbe 5dab 6940 ee79 b7be 1443 3740
00000010: 2af5 05c0 4ea2 ed3e 4cfc 83c0 a343 893f
00000020: 881b 8b3f d523 babf 9ae7 2640 657b 76bf
00000030: 47e7 afbf 2a34 0dbf c35d 27bf a412 4cc0
00000040: 911c 80bf 96ae 3f3f 99e7 4bbe 66fe 223f
00000050: bc1a 6240 ded3 88c0 8c24 cd3f 218a c13f
00000060: e100 a43f f2b5 bfbf 7515 5fbf 772c 553d
00000070: dc0b 11bf ac8f 1fbf 7c4a 81bf ed07 be3f
00000080: f6a9 843f fd9e 8fbf 7dc6 e63c c738 5040
00000090: 1ea3 be3d b1b9 29bf bced 10c0 860a fe3f
000000a0: b26a b53e 6839 563f 3158 76c0 68be 0f3f
000000b0: cc69 6b3f dc68 5c3c 2b5c 14c0 d793 abbf
000000c0: e42f aebf eaf9 b13f 7b76 6f3f b218 5c3f
000000d0: 2ad2 7d3e 908b 6dbe 01df 1e40 c941 acbf
000000e0: 6b32 9fbf b2f6 ab3e a7d9 1abf 1b69 973e
000000f0: b2ff fe3e 4e52 2dbe 89bf 513f d02d 98bf
00000100: 358b 763e 057d 383f 53d6 a63f d76b 5f3f
00000110: 1b09 8d3d b37f 613f 0d91 cb3e 7383 a83f
00000120: 9fd7 4dbe c68e b03e b2bd 9fbf 7c14 b0be
00000130: 7678 31be 40f0 b1bf 4fcc 1a3e f5c9 4e3f
00000140: 4963 403e 27ef 833f 4913 8b3f 2831 2ebe
00000150: ce20 8dbf d408 b93e 3469 5e3e 73dc 17bd
00000160: 1ed7 b83e f1b9 c0bf c160 1b3f 617d 9abf
00000170: 0597 783e 7ad1 fe3f 84eb 4cbf cfd8 fdbd
00000180: 41e7 70c0 1790 0f3f 8480 323f dfb3 c6be
00000190: 2ffb 0140 6770 3440 b79e 183f 4ff7 553f
000001a0: 5a52 8dbf 3007 87bf c54f 9dbf 11b5 5740
000001b0: 6993 1fc0 1738 aa3f 633c 55c0 dd6b 02c0
000001c0: d993 6a3f cda6 ba3e de31 bd3f a833 5c40
000001d0: a685 1640 0a64 aa3f 0bbf 3f40 908b c8bf
000001e0: 7375 cf3f e051 2b40 6527 583f 5419 a8be
000001f0: b0b5 a7bf 0810 1ebc a7ff 2abf 1866 31c0
00000200: bf34 5640 57ac c1bf a7ee 42bf 49b2 0dc0
00000210: fa03 c4bf 5042 21c0 89e2 58bf 770f 2f40
00000220: 5fb3 20c0 2f27 f5bf 0cf6 6dbf 6197 903f
00000230: e5f4 053e 252e 54c0 2f93 9abf 9012 453f
00000240: d848 ef3e ad25 7d3e 2df7 1ec0 0a9c d6bd
00000250: 96a1 80c0 2d94 1bc0 1320 6bbf 1986 0dbf
00000260: 69ae cb3f f230 613f fe60 b63e 098f 5abf
00000270: f855 a8bd 8d18 143f 7af3 9c3e 9237 05bd
00000280: 68d8 f23f 248e 88bf 358f 99be 6858 ce3f
00000290: c8a9 0d40 15b6 b53f 2918 1240 1223 18bf
000002a0: ff34 dbbf b2a9 7fbe 6563 c53f 9a9a 2940
000002b0: 38f4 ccbe 308a 87bf c9bc a33f e11e fbbf
000002c0: 6abe 4d40 310d 78bf 51a1 debf 1abe bf3f
000002d0: 9ffe 1d40 5b32 913e 33e5 423e 9685 983f
000002e0: c639 22bf 1682 773f a912 6ec0 e5af debe
000002f0: 8590 20be bcb6 e8be 892e 0fbf ff3b 08c0
00000300: 54e5 33c0 8aa0 733e c9f3 c4bf 4529 cfbf
00000310: c21d 11bf 470e abbf 1cd2 32bc 6d10 a7be
00000320: 3f81 773f effe 0fc0 2320 8c3e 73e2 d53f
00000330: 0053 d6bf 2429 cbbe c5d7 bfbd 6090 af3e
00000340: 4aef 46bf 6655 6b3f ce8d b63e 726f 62bf
00000350: f182 18bf 053b b0bf 417f 54bf 02eb 48c0
00000360: bf0c 15c0 1a59 99be 4afd 35c0 a6ac 48be
00000370: 3275 0c3f ba17 d4bf e4c3 0d40 299b 9e3f
00000380: d774 e03f 23b8 22c0 e3c9 553e c527 bfbe
00000390: af1c 273f 4177 86bf 7ccf d7bf 44c0 8d3f
000003a0: fa36 92be d8fb 113e 7490 7840 9492 c93e
000003b0: 5a96 fdbe 41c9 c2bf 212d 45c0 fe38 d6be
000003c0: 42f0 96bf 6c68 d63f 0808 eebf c81e 1040
000003d0: d0e5 dc3e dc3b 88bf f08e f1bd 4a18 a93f
000003e0: 6f1f efbf a88e 75bf e4c2 b9be a3a0 bd40
000003f0: 2cb8 473f 4d22 23bf 7965 183f 18fd 5ec0
-0.46071824 3.6510842 -0.35835212 2.8634691 -2.0930886 0.4641289 -4.124548 1.0723766
1.0867777 -1.4542185 2.6078858 -0.96282035 -1.3742455 -0.5515772 -0.65377444 -3.1886377
-1.0008718 0.7487577 -0.19912566 0.6366943 3.5328817 -4.2758627 1.6026778 1.5120279
1.2812768 -1.49774 -0.87142116 0.052044358 -0.5665872 -0.623286 -1.0100856 1.4846169
1.0364368 -1.1220394 0.028170818 3.2534654 0.09308456 -0.6629897 -2.2645102 1.9846961
0.35432965 0.83681345 -3.8491328 0.5614991 0.9195831 0.013452735 -2.3181255 -1.3404492
-1.3608365 1.3904393 0.9354016 0.8597518 0.24787202 -0.2319777 2.482361 -1.3457576
-1.2437261 0.3358665 -0.6048836 0.29572377 0.49804455 -0.16925928 0.81932884 -1.1888981
0.24076541 0.72065765 1.3034157 0.87273926 0.06886502 0.8808548 0.39759102 1.3165115
-0.20101784 0.34483927 -1.2479765 -0.34390628 -0.17331108 -1.3901443 0.15117 0.8077691
0.18787874 1.0307359 1.086526 -0.17010939 -1.1025636 0.36139548 0.2171982 -0.03707547
0.3610162 -1.5056745 0.6069451 -1.2069513 0.2427636 1.9907677 -0.8004687 -0.123948686
-3.7641146 0.5607924 0.6972735 -0.38809106 2.030956 2.8193605 0.5961718 0.8358049
-1.1040757 -1.0549068 -1.2289969 3.3704264 -2.4933722 1.3298367 -3.3318107 -2.0378335
0.9163185 0.36455384 1.4780843 3.4406528 2.3519073 1.331178 2.9960353 -1.5667591
1.6207718 2.6768723 0.8443511 -0.32831824 -1.3102322 -0.009647377 -0.66796345 -2.7718563
3.3469694 -1.5130719 -0.76145405 -2.2140067 -1.5313714 -2.5196724 -0.84720665 2.735319
-2.510948 -1.9152583 -0.9295356 1.1296197 0.13081701 -3.3153164 -1.2076167 0.7698145
0.46735263 0.24721403 -2.4838364 -0.10478981 -4.019725 -2.430919 -0.91845816 -0.5528274
1.5912601 0.8796531 0.35620874 -0.85374504 -0.08219522 0.5784996 0.30654508 -0.0325237
1.8972292 -1.0668378 -0.2999207 1.612073 2.2134876 1.4196192 2.2827246 -0.59428513
-1.7125548 -0.24967077 1.5420958 2.6500611 -0.40030074 -1.0589046 1.2791988 -1.9618798
3.214747 -0.9689513 -1.739298 1.4979889 2.4686658 0.2835873 0.19032745 1.1915767
-0.63369405 0.9668287 -3.719889 -0.43493572 -0.1568013 -0.45451915 -0.5593038 -2.1286619
-2.810872 0.2379171 -1.5386897 -1.618447 -0.5668603 -1.3363732 -0.010914352 -0.3262972
0.9668159 -2.249935 0.27368268 1.6709732 -1.674408 -0.39679825 -0.09367327 0.34289837
-0.77708876 0.9192718 0.35655063 -0.884513 -0.595748 -1.3768011 -0.83006674 -3.1393437
-2.328903 -0.29950792 -2.8435845 -0.1959711 0.54866326 -1.6569741 2.2150812 1.2391101
1.7535657 -2.5424888 0.20877795 -0.3733503 0.6527814 -1.0505143 -1.6860194 1.10743
-0.2855757 0.14256227 3.8838167 0.39369643 -0.49528772 -1.5217668 -3.0808794 -0.41840357
-1.1792071 1.6750617 -1.8596201 2.2518787 0.43144083 -1.0643268 -0.11794841 1.3210537
-1.8681468 -0.959208 -0.36281502 5.925859 0.780154 -0.63724214 0.59529835 -3.4841976

lstm.bias_ih_l0 f4 [200]
00000000: c2dc 383f 2b0d 2c3f 4183 0f3f 856b c6be
00000010: 740d 013d 8dee fb3e 66e3 fdbe b873 ebbd
00000020: b1cc 023e fad5 e6be b635 94be 226f bbbd
00000030: e018 843d 31d2 4a3e 059f b33e dc3c d63d
00000040: 5ec0 003f d800 dcbc 517d 663f e9c8 a2be
00000050: c836 4b3f 6f03 cdbc 3c81 0d3e f2e5 6e3e
00000060: 24ed 803c b1ee f33e 4b06 a43e dd35 043f
00000070: dd45 b13e 4fac 6fbe 7a46 953f 57ca af3c
00000080: 89c7 12bf 4cdc da3e ac09 35be a2e8 213e
00000090: 7578 ac3e 9ef2 a43e 5333 ac3e 431e 7a3e
000000a0: 6393 97bd dac8 c73e ff4f 183f faf7 783c
000000b0: 4598 473f 82e3 2a3e f11c e7bd d3ed 9dbe
000000c0: 22f4 463f 7f87 363f 9b46 c0be f6c0 c03e
000000d0: b74d 21bf 4582 99be 404d a83d 22f1 25be
000000e0: a2fe a3be e92e bbbd 1131 9cbe b789 b73e
000000f0: c384 9dbd a5a6 7ebe f8ab 04bf cd5d 31bf
00000100: e9af 39bd 4c03 10be 41f9 cebd 1e63 71be
00000110: 1472 0c3f 385c 39bf 25be 90be 1f30 7abf
00000120: 26b3 4bbe 66b1 3b3f b9af 24bf 778b 02bf
00000130: af17 af3d d96e f53d 930a e5be 34be 23bf
00000140: 5758 86be f1a1 023e d44a 373e 3da3 213e
00000150: 378d 48bf 7e4d 0bbf 698e d2be ea81 c63e
00000160: aa52 803e 0016 4b3f a236 273f 3e7c 78bf
00000170: c747 1abe 0da2 a6be 1f13 56bf 3816 d3be
00000180: c7bc fbbe dcb4 8d3c 4928 9a3e 567c 123e
00000190: a768 9f3e 6c42 81bd 3b83 a2be 729f aabe
000001a0: 29c7 8cbd 4168 e1be 37a0 f7be 58e8 72be
000001b0: 0af3 803e 99af f83e 0632 6dbe 4c1e db3d
000001c0: 42f3 e43e 1ec1 403e 1764 8cbe a14d 2ebe
000001d0: 4202 363e 1a38 dd3c 2d62 1bbf 795e 27be
000001e0: 3b72 6abe 4a91 e23d 11ef 82bd 9cd7 acbe
000001f0: dd28 0d3f b800 e0be 919b 05bf 8d1e a53e
00000200: b318 0e3d 0465 3dbe fb98 85be 8c01 f73d
00000210: e0a5 bf3e c3de 16be 444e ec3e 498c b43e
00000220: 74fa 51be cbb4 2c3f 0324 fd3e 856d efbe
00000230: 805c 52be 407a fa3d 79a8 24bf ae8a 42bf
00000240: 9804 1fbd 3557 40be 5716 c6be 1cc4 123f
00000250: 6aca bbbe ff16 11bf 0dda 21bf 4852 cc3d
00000260: 35df dabe 4878 2fbf 07c7 84bf d8c2 e5be
00000270: 7059 24be 51be 64bf fcd9 493d 3f3d 3abf
00000280: bc6f 77bd d908 cfbd 4184 11bd c7e2 14bd
00000290: b12e 73bf 10d6 e33c 0f4a b0be bfe7 933c
000002a0: 97a8 9ebf 6baf 28be 41af 4abe 41a2 a83d
000002b0: 3436 b4be eba2 0ebe 9637 f0bd f101 8bbe
000002c0: 3370 81bf dcd4 003e d81a d3be c43d 48bf
000002d0: 6ff1 c4be 54f6 c6bc 5899 55bf 561d 18bf
000002e0: bce5 8abe c489 01bf 08c5 c8be 3f3d babf
000002f0: 36c8 f8be 8977 95bf 3947 f1be bff6 dfbe
00000300: 7712 d2be 8357 98bf 835c ce3d 7c53 f73e
00000310: 64cf d3be 4c44 b73e a955 96be abf4 313d
0.7221185 0.6720759 0.5605965 -0.38753906 0.03150697 0.49205437 -0.49587554 -0.11496681
0.12773396 -0.45085126 -0.28947228 -0.09152056 0.06450057 0.19806744 0.3508226 0.10460827
0.5029353 -0.026855871 0.9003497 -0.31793907 0.79380465 -0.025026051 0.1381883 0.23329905
0.015738077 0.47643045 0.3203605 0.5164469 0.34623614 -0.23405574 1.1662133 0.021458788
-0.57335716 0.42746198 -0.17679471 0.15811399 0.3368565 0.32216352 0.33632907 0.24425606
-0.07401159 0.39020425 0.59497064 0.015195841 0.7796672 0.1668835 -0.11284817 -0.30845508
0.7771627 0.713005 -0.37553868 0.37647218 -0.6300921 -0.299822 0.08217859 -0.16205266
-0.32030207 -0.09139807 -0.30506185 0.35847256 -0.07691338 -0.24868257 -0.51824903 -0.69283754
-0.045333777 -0.14063758 -0.10106135 -0.23572966 0.5486157 -0.7240634 -0.2827007 -0.97729677
-0.19892558 0.73317564 -0.6433063 -0.50994056 0.08549439 0.11984033 -0.4473463 -0.639621
-0.26239273 0.12757088 0.17899638 0.15784927 -0.78340477 -0.5441512 -0.41124275 0.38770992
0.25063068 0.79330444 0.6531774 -0.9706458 -0.15066443 -0.3254551 -0.83622926 -0.4122789
-0.49167463 0.017298155 0.3010886 0.14305243 0.3113453 -0.06311497 -0.31740746 -0.33324772
-0.06873924 -0.44024852 -0.48364422 -0.23721445 0.25185424 0.4857147 -0.23163614 0.10699138
0.4471684 0.18823668 -0.27420112 -0.170218 0.17774299 0.02700429 -0.6069668 -0.16344632
-0.22895138 0.11062868 -0.063932545 -0.33758247 0.5514048 -0.43750548 -0.521905 0.3224987
0.034691524 -0.18495566 -0.26093277 0.12060842 0.3743124 -0.14733414 0.46153462 0.3526328
-0.20505697 0.6746337 0.49441537 -0.46763244 -0.20543098 0.122303486 -0.6431957 -0.7599286
-0.03882274 -0.18783267 -0.3868892 0.5733049 -0.36677867 -0.56675714 -0.63223344 0.099766314
-0.42748418 -0.6854291 -1.0373238 -0.44875216 -0.16049743 -0.893529 0.04928015 -0.72749704
-0.060409293 -0.101091094 -0.035526518 -0.036349084 -0.9499312 0.027812034 -0.34431502 0.018054841
-1.23952 -0.16473167 -0.19793417 0.082340725 -0.35197604 -0.13929336 -0.11729352 -0.2714992
-1.0112365 0.125812 -0.41231418 -0.78219247 -0.3846545 -0.02428738 -0.8343711 -0.59419763
-0.27128398 -0.5060084 -0.39212823 -1.4549941 -0.4859025 -1.1677104 -0.4712465 -0.4374294
-0.41029713 -1.1901706 0.10076239 0.4830588 -0.41369164 0.35794294 -0.2936223 0.043446224

lstm.bias_hh_l0 f4 [200]
00000000: 84ce f43e b706 083f d375 083f e54a 8abe
00000010: d95d 7a3e 80fa 0d3f 58b9 c7be f27c 5b3d
00000020: 881a 0a3e a311 2bbf 9009 82be e429 063e
00000030: b0b6 9a3d 19ca 073e 20cd a63e 7507 b63d
00000040: 7d76 b83e 2bce a8bd 07d0 4f3f 9f6d 58be
00000050: e6b9 293f 3454 3f3c 9c63 bb3e d4b4 a93d
00000060: 3ead 213e d6fc 0d3f 3495 e83e c1ba a43e
00000070: 7705 d23e d519 99be 8e05 7a3f 0303 2c3e
00000080: af5b fbbe b152 e93e 4614 dbbd 92cc 6f3c
00000090: 7e02 6f3e 94d9 4a3e bd31 a13e 2b4e e73e
000000a0: b136 4ebe 561b 2c3e 1ffd 073f c319 6ebe
000000b0: c018 3e3f 387c 913e 6c17 84bd 45eb 06bf
000000c0: a2c0 663f c426 163f 4d41 d9be 4721 243e
000000d0: 94cc 12bf b916 9ebe c21b 0d3e d24f cfbe
000000e0: 42c2 c7be ff60 083d 496c 3bbe 9b00 713e
000000f0: 3227 b13d 384c c7be 8311 12bf 27f9 03bf
00000100: 183d 93bd 1463 43be 2eef 4dbd 3cbb 44be
00000110: 4ec0 a03e 10cf 42bf 9042 f4be 4b09 8bbf
00000120: cb97 d4bd 895d 153f cffd 12bf 23e7 b5be
00000130: a463 f83d a671 543e 1395 20bf 9004 3bbf
00000140: 64ed 41be 2add 95bb 198e 833e 5195 283e
00000150: 01a1 73bf 0c4a 2cbf e93c 91be cce7 003f
00000160: 7591 9f3e c808 693f 9a56 2c3f 6dee 58bf
00000170: 50ba 66bd e684 6cbe 4da1 63bf be04 e1be
00000180: 7ac0 cabe 5b17 48ba d286 5a3e ab68 403e
00000190: 9419 ed3e e147 273d 48c2 51be b7ec a1be
000001a0: a2ad 69be a37b 16bf 415a d0be ecc0 31be
000001b0: a870 cc3e e4d5 dc3e a8aa b8be 2f1c dbbd
000001c0: b46c 043f 83d0 9c3e 3fb8 9cbe 211f 50be
000001d0: 1ad1 573e 10bc 653e ff1b 25bf bd3c 27b8
000001e0: b1be cbbe 8d9d 8f3e c06b 263e 9a26 8abe
000001f0: 3d16 113f 59ef e3be e917 23bf 20c3 373e
00000200: 9a54 d13d b397 4dbe e22b e2bd 7987 15bd
00000210: b78f 3f3e 13ae 55bd 40fb b13e 8ef5 b23e
00000220: b5d6 09be 4547 2c3f 0cc9 243f 08c7 04bf
00000230: d16b 65bd b9bd a73d 5744 06bf 6e26 5abf
00000240: bc0b 2d3e 3a3d 48be f0e7 cabe 1e37 063f
00000250: d4e7 90be 5e5d 09bf f065 3abf 518a 193e
00000260: 614f eabe f778 5fbf a489 72bf b7c0 eabe
00000270: 4a1b b3bc caf9 22bf 80fb 8dbc 090c 64bf
00000280: 3c71 c9bd 45f4 19be c527 13be b682 34be
00000290: bbee 60bf f00a 13be 3847 f5be 005e 693d
000002a0: f92a 91bf 4a48 01be 8ee9 3ebd b62c 833e
000002b0: 2fb7 93be fa8e 2dbe 0beb e8bc 4bbd b1be
000002c0: 01dd 4dbf 6a79 c6bb 4129 bcbe 9781 5dbf
000002d0: 99c9 15be 1863 b4bc fe99 61bf 9edf 59bf
000002e0: a4dd bdbe e07c 04bf dbdf 9cbe 8cb8 a5bf
000002f0: 0b23 06bf 2517 92bf ffca 06bf f996 d9be
00000300: 0473 12bf 53b0 aebf 8ba6 6bbd 8b52 db3e
00000310: d3d4 cabe 585a 053e 04be 8ebe 7d9e 873d
0.4781381 0.53135246 0.53304785 -0.27010265 0.24449863 0.5546036 -0.39008594 0.053585954
0.13486683 -0.66823786 -0.2539792 0.13101918 0.07554376 0.13260688 0.32578373 0.08888141
0.360279 -0.082424484 0.811768 -0.21135567 0.66299284 0.01167779 0.36599433 0.08286443
0.15788743 0.5546392 0.45426333 0.32173732 0.41019794 -0.2990252 0.97664726 0.16798024
-0.49093387 0.455709 -0.10697226 0.014636176 0.23340794 0.19809562 0.3148326 0.45176825
-0.2013805 0.16807303 0.5312061 -0.23252015 0.74256516 0.28415084 -0.0644978 -0.5270274
0.90137684 0.586529 -0.42432633 0.1602832 -0.5734341 -0.3087671 0.1378012 -0.40490586
-0.39015394 0.033295628 -0.18303026 0.23535387 0.08650054 -0.38925338 -0.5705797 -0.5155205
-0.07189387 -0.19080764 -0.050276928 -0.19212049 0.31396717 -0.760972 -0.47707033 -1.0862211
-0.10380515 0.5834585 -0.5741853 -0.35527906 0.1212838 0.20746478 -0.6272747 -0.73053837
-0.18938214 -0.004573484 0.2569435 0.1646321 -0.9516755 -0.67300487 -0.28366783 0.50353694
0.31165662 0.91029024 0.67319643 -0.8473881 -0.056330025 -0.23097572 -0.88918 -0.4394893
-0.39599973 -0.0007632875 0.21340492 0.18789928 0.46308577 0.040840033 -0.20484269 -0.31625912
-0.22820142 -0.58782405 -0.40693858 -0.1735875 0.399297 0.43131936 -0.360677 -0.10698735
0.5172837 0.30627832 -0.3060932 -0.20324375 0.2107586 0.22435021 -0.64495844 -3.987247e-05
-0.39793923 0.2804989 0.16252041 -0.26982576 0.5667456 -0.44518545 -0.6370836 0.17945528
0.102212146 -0.200774 -0.11043526 -0.03650615 0.18707167 -0.052167963 0.34762 0.34952968
-0.1346081 0.6729625 0.64369273 -0.518662 -0.056011025 0.081904836 -0.5244803 -0.8521489
0.16899008 -0.19554606 -0.3963008 0.5242785 -0.2830187 -0.5365809 -0.72811794 0.1499417
-0.45763686 -0.8729395 -0.9474127 -0.45850155 -0.021863598 -0.636624 -0.017331839 -0.89080864
-0.09836051 -0.15034588 -0.1437064 -0.17627987 -0.87864274 -0.14359641 -0.47905898 0.05697441
-1.1341239 -0.12625232 -0.046609454 0.2562005 -0.28850695 -0.16949072 -0.02843239 -0.34714732
-0.8041535 -0.006056954 -0.36750224 -0.86525863 -0.14627685 -0.022019908 -0.881256 -0.8510684
-0.3708316 -0.51753044 -0.30639538 -1.2946944 -0.5239722 -1.1413313 -0.526535 -0.42497995
-0.5720675 -1.364756 -0.057531875 0.42836413 -0.39615497 0.13022745 -0.27879345 0.06622026

lstm.weight_ih_l1 f4 [200, 50]
00000000: 6e64 863e 90f2 16be 0e06 9f3e b321 1dbe
00000010: f78f 6abd b1f8 e53e 3b45 07bd 95f7 e2bd
00000020: fb5f 1bbf 27de 0dc0 4c05 923e 45e7 1ebe
00000030: d2d7 163d c0a1 88be 3474 213f ec33 d33e
00000040: ec1e b2bd ca6e 9e3e 14af a4bf 220a 893e
00000050: 9a0e 8abe a6e0 343d 2d38 4cbe 8e95 ea3e
00000060: 3f93 3340 3789 29be 8895 28be 232f 0cbf
00000070: 7d35 ed3e cb4d abbe e2ef 15c0 2544 eabd
00000080: 92b4 9c3f 1358 babf b1ed fdbd 9d34 44bf
00000090: c195 34be 7c87 ddbe f776 e33d 10d7 f83e
000000a0: 9c9b 01be 9356 bebe 5178 2cbe 667a 1abf
000000b0: ce0e 02bf 5c27 293d ae68 82be f834 0d40
000000c0: 69a5 c2bd fbdf 683d aac3 44be 4cc6 45bd
000000d0: 9795 a33f dbbf ffc0 a3fb 7cc0 2059 f8c0
000000e0: 1992 8cc0 a92f 0cbe 884b a23e 447c 673e
000000f0: b36f 5c3e 1395 92bf f69b 8f3e dbe7 843e
00000100: 1f39 8abb 5fcb 59be 8904 b540 1b65 da3e
00000110: 04b4 c1c0 95cc 073f 82ed ce3e 4e65 08be
00000120: 125d 633e f52e 59bf 2e0f f940 16ce 503e
00000130: edfa eebd aa1f 3dbd 27d7 2e3e 5fe5 d53e
00000140: 8e92 213e bc86 1abc 5547 e140 8665 c63e
00000150: 25e5 d83e 889c f83f f3e9 713e fa03 b43e
00000160: 83c0 b23f 3021 8fbf f81f 363e 0a9d 8abf
00000170: fbce b73d e617 c93e 73ce 99bf 3460 82bf
00000180: 9a32 30c0 7567 bfbd 9883 433e 6a83 5dbe
00000190: 4ada 163f 05a6 003f dfe3 533d f90b d03f
000001a0: b106 e9be 03d0 82be d0cb e3be 4058 c13e
000001b0: 3273 eb3e f887 9ec0 1910 1240 9151 8abd
000001c0: ba94 863e e30f 2bbe 2495 55be 1416 67be
000001d0: 329d b8bd f09e b2bf 0759 c5bf 578f 633f
000001e0: 317c 4340 812c 123f 8ec2 3ec0 71c5 65be
000001f0: f7c9 b2bf 9515 ddbd 1332 b4be bde6 41be
00000200: 2128 49be 33ee 953e a335 9d3e e123 3e3f
00000210: 5e4a f0bd 2f52 53bf 4ac3 6cbe 6b31 abbe
00000220: e94b 173d f6da 7c3d 34f4 293e e958 13bf
00000230: d1a8 513e e5ed 86bc c0df 0bc0 a8af 97be
00000240: 4db6 003f 76ee 34be b120 01bf 98f2 e03f
00000250: ac3b 2dbf 77eb b4be ecb3 1140 7f3c 133e
00000260: a35a 3c3e 5c9c 5e3e 489d 37bf 5aec 42bf
00000270: 191a e5be 40d3 23bf 085e d33d fcd1 103f
00000280: c740 32c0 cd82 5cbe 9fe3 28bf ee28 3abf
00000290: ed65 493d ee76 8abe 2a40 af3f f493 023d
000002a0: b8b9 a7be 7da9 5dbe a4c3 0dc0 cc24 04bf
000002b0: 4593 91be 01e9 27bf 41df a03e 437d 263f
000002c0: b432 b13e 270c 603e b514 553e 18ab 41bd
000002d0: b954 32c0 b191 2f3e 74f6 ab3f 1afd 2ec0
000002e0: 8b9a 9f3f a060 4240 6894 e3bd 9051 a0be
000002f0: d86b 733f a09d 353f 1a05 d1be 6845 1040
00000300: 715d 79be 88f2 44be 1320 d2be 3f54 e03e
00000310: 9f5c 9abf 4fca 4740 ebe0 4fbd 089b 3dbe
00000320: ea62 42be b9b3 d4be 4c91 753e 5c40 753d
00000330: c41f bbbe 429f d9be 0621 fe3d ed23 c83d
00000340: b271 f83d 91a0 79be 97b2 3fbe e1c3 8e3f
00000350: 1436 b6be 6abc 81bd 2aa3 e73e 2384 98be
00000360: 10b2 3e3f 2e00 2c3f 3fa2 6bbc aba1 b5bf
00000370: 574f f83e b5dd d2bf cb36 79bf 2eac 813e
00000380: 74de a93d ba0a 88be aa5e 843e 3dca edbd
00000390: 5ff6 02bf 4b5e 52bf 1923 233f e749 e4bd
000003a0: ced9 323e dcee 833f a9ac 983f fb9d bd3e
000003b0: 40ac 81bf 59f4 bfbe fcba 783d 9f4b 123e
000003c0: d07c 623d f4eb c03f b86d 4b3f f0b9 86bf
000003d0: 16d2 a03d 110c 163e 5207 19c0 6344 88be
000003e0: 21bb ef3d a1a3 b53d f13f 9d3e 4ceb 82bd
000003f0: 0357 9bbe 5e32 b9be 5f76 1a3f 7a70 843e
0.26248497 -0.14740968 0.31059307 -0.15344886 -0.0572662 0.449163 -0.033025008 -0.11082379
-0.6069333 -2.216684 0.28519666 -0.1551791 0.036826916 -0.26685905 0.63067937 0.4125055
-0.08697304 0.309439 -1.286593 0.26765543 -0.26964265 0.044159554 -0.19943304 0.45817226
2.8058622 -0.1655625 -0.16463292 -0.54759425 0.4632987 -0.3345779 -2.3427663 -0.11438779
1.2242606 -1.4558128 -0.12398852 -0.7664278 -0.17635252 -0.4326743 0.11106675 0.4860158
-0.12657017 -0.37175426 -0.16842772 -0.60343015 -0.5080384 0.0412973 -0.2547049 2.206358
-0.09504206 0.05685423 -0.19215265 -0.048284814 1.2780026 -7.99217 -3.9528587 -7.7608795
-4.392834 -0.13690056 0.3169825 0.22605997 0.21526985 -1.1451744 0.28048676 0.25958142
-0.004218235 -0.21268986 5.6568036 0.42655262 -6.0532246 0.5304654 0.4041558 -0.13319895
0.22203472 -0.84837276 7.783103 0.20391116 -0.11668954 -0.046172775 0.17074262 0.4177656
0.15778562 -0.009431537 7.0399575 0.3874933 0.42362323 1.942277 0.23624401 0.35159284
1.3965 -1.1182003 0.17785633 -1.0829175 0.08975025 0.39276046 -1.2016128 -1.0185609
-2.7530885 -0.09345905 0.19093168 -0.21632162 0.5892683 0.50253326 0.051730987 1.6253654
-0.45512918 -0.25549325 -0.44491434 0.37762642 0.45986325 -4.9540977 2.2822325 -0.06753839
0.26285344 -0.16705279 -0.20857674 -0.22567016 -0.090143576 -1.3954754 -1.5417794 0.88890594
3.054455 0.5709916 -2.9806247 -0.22438599 -1.3967885 -0.10795132 -0.35194454 -0.18935676
-0.19644214 0.29283294 0.30704984 0.74273497 -0.117329344 -0.8254728 -0.23121372 -0.3343614
0.036937628 0.061732255 0.16597062 -0.5755754 0.20474555 -0.016470859 -2.1855316 -0.29626203
0.5027817 -0.1766909 -0.5044051 1.7574034 -0.6766918 -0.35335895 2.2766066 0.14378546
0.1839395 0.21739334 -0.7172437 -0.76141894 -0.44746473 -0.63994217 0.103206694 0.5657041
-2.7852037 -0.21534272 -0.6597232 -0.72718704 0.04916947 -0.2704386 1.3691456 0.03187938
-0.3275888 -0.21646686 -2.215066 -0.5161865 -0.2843267 -0.6558991 0.3142033 0.65034884
0.34608996 0.21879636 0.2080868 -0.04728231 -2.786421 0.1714542 1.3434587 -2.734198
1.2469038 3.0371475 -0.111122906 -0.31312227 0.9508643 0.7094364 -0.40824205 2.2542362
-0.24352051 -0.19233143 -0.41040096 0.43814275 -1.2059516 3.121723 -0.050751608 -0.18516171
-0.18983045 -0.41543368 0.23981208 0.05987583 -0.36547673 -0.42504317 0.124086425 0.09772477
0.12131061 -0.24377657 -0.1872047 1.1153527 -0.35588133 -0.06334765 0.45241672 -0.29788312
0.7449045 0.67187774 -0.014381944 -1.4189962 0.48498031 -1.647391 -0.9734923 0.25326675
0.08294383 -0.26570684 0.25853473 -0.116108395 -0.5115718 -0.8217513 0.6372543 -0.11146908
0.17465898 1.0307269 1.1927692 0.37034592 -1.0130692 -0.3749111 0.060725197 0.1428666
0.05529481 1.5072007 0.7946429 -1.0525494 0.07852571 0.1465304 -2.3910718 -0.26614675
0.11705614 0.088691 0.30712846 -0.063925356 -0.30339822 -0.3617124 0.6033687 0.25867063

lstm.weight_hh_l1 f4 [200, 50]
00000000: bf2e 02bf fa1b 813e b46d c5bf ab74 2240
00000010: cb2a 87be 7bcc 893c fb96 0fbf 9fe6 cfbd
00000020: 1edb 493f 0367 ecbd e2ee 38be f262 0840
00000030: 6d87 bdbf 365d d73f 0d5e 1640 4d72 95bf
00000040: 540d f63f 4f1f a7bf 4cfb 843f 1fdf 813f
00000050: cb5d e83e 5d09 423f 98d1 67c0 e3fc 99bf
00000060: 5256 04be 3024 4dc0 3d81 afbe 4afc 383f
00000070: e3ca abbf 126a 2ebf 5bd3 b5be 0464 6940
00000080: 5f16 013f 94fd 85bf 26f1 2abf 50fb de3e
00000090: 7710 133e cb9b 9b3e 520f 173e 2f79 443d
000000a0: ab94 e0bf 7825 00be 011f acbd c5d5 c03d
000000b0: 930c d7bd dc85 d33b e95a c0be cc9b 193f
000000c0: 0deb f03d 4e1b 2f3f 2612 a43e 0ad3 183f
000000d0: 1dec 803e ecfd ab3f 6c4a 9a3f d6ea 94c0
000000e0: b21f 03bf 65cb bc3f f9d8 e23f fdc1 2abf
000000f0: 85ef 12bf e6a5 90bf dc8f 773f 9d85 b03f
00000100: 4ad3 bf3f a44c 0bc0 f1b9 6dbf ccbb 533f
00000110: 6eb7 47be 6af5 afbf 783c 1cbe 0ff8 08c0
00000120: 597c adbe b814 b43e 5e79 6c3f e70c e7be
00000130: f038 db3e 7dd6 babf 3071 bb3f 074f abbf
00000140: d551 873e d34c dc3e e8d9 90bf e02b debe
00000150: 040a 15bf 828c 693f 8b9f ff3e 550a 813f
00000160: c717 bd3f d2b2 303f d736 69be 9beb 6a3f
00000170: b68d 80bf 7508 06c0 df42 60bf cd34 99be
00000180: d8c6 3c3f 9be7 24c0 862d 97bf 220c e93e
00000190: 8962 343f 4a75 1bbf 42a1 4bc0 ee0f bfbf
000001a0: be45 203f 4ced 73c0 5292 c23f 4824 4f3f
000001b0: 76df 273f 3f12 05c0 6762 ccbd eb10 dfbf
000001c0: 58b2 683f 6789 8940 fcb5 83bf 51a3 69bc
000001d0: 5c49 82be 9cd8 ac3f 9a5f 3740 0e35 06c0
000001e0: 4a35 a9bf 26f8 a0bf 1574 77c0 be29 b73f
000001f0: 4dd7 093f 8587 78c0 4c65 b63e 81b6 8fbf
00000200: c990 123f 7b20 bfbe c552 71bd 96e2 cc3f
00000210: 23bf 4e3f f869 253f fe36 d6be be88 c83c
00000220: 584c 68bf 56bd 9cbf a064 86bf 988b 8ebf
00000230: e7dd 9b3f aeb1 7b3f e90b bdbf 41f6 eabd
00000240: 04c4 afbf 704c 1d3f 6acb a83f 4ac1 11bf
00000250: e8c5 82bf f606 023f b749 113e 432b d93e
00000260: 2256 4b3f 0cdb 0c40 10a1 403e 617c 033f
00000270: 7a5b 833f 1ae1 66bf 16c1 bc3e 2225 12be
00000280: 285c 66bf b220 92bf 7b9e 26bd 3462 04bf
00000290: 1e1a 973e a93a 8b3f 1ba0 143f 8625 413f
000002a0: 7ccb 11bf 5373 5bbe b600 163e c5cd c13e
000002b0: 4b32 5ebf 9805 1cbe 81cd d4bd ba49 3dbf
000002c0: fa86 103f cb84 ef3f d912 34bf 47af d93c
000002d0: 7637 c7bf 764b 753f bc69 aabf db8e bb3e
000002e0: 5dfd f53f 337c cfbf 0acf bf3e fc17 453f
000002f0: f7dc 4ebf e330 01bf 045e 413f 515a fbbf
00000300: 5b83 2b3f 4751 ba3e f1fa 183e 10a6 95be
00000310: 457a a1bf 240f 03bf fd55 993e 5e99 013f
00000320: 9ee0 9dbd 71aa b63e 7c35 95bd 0bd7 f4be
00000330: db32 ae3f 6349 f03e f9a5 2c3f 947b 41bd
00000340: 7907 09be 32c5 31be 43d1 6d3f ce1b e9be
00000350: 7ed4 d13d 1976 c23f b95e 98bc 85bd 34be
00000360: 2865 df3e 1d54 0f3f 29d7 72be f710 27be
00000370: 8def cebd 9b1f b1be d528 75bf 0e71 f1be
00000380: e0e4 77be f264 65bf 09d7 84bf 8df4 e4bf
00000390: a8ff 043f cff7 813e 19c2 f4bc 4c1b b43f
000003a0: 0568 a8bd 0869 eb3e ca04 4a3f 8a15 0a3f
000003b0: 911b a3be 1b89 08bf bf71 a13b b33f 21bf
000003c0: c269 64bf efc0 acbd fb69 91be 70bf a13e
000003d0: d4f5 c33d f104 d33e a844 37bf fb00 013f
000003e0: 69fc 0a3e ecb1 233e 7fd5 b43e 3af5 1cbe
000003f0: e861 a43e 531d 9e3e 337e 19bf ee10 893d
-0.5085258 0.25216657 -1.5424104 2.5383708 -0.26399836 0.016821137 -0.5608975 -0.10151409
0.7884997 -0.115430854 -0.18059877 2.1310391 -1.4806954 1.6825321 2.3494904 -1.1675507
1.9222817 -1.305643 1.038919 1.0146216 0.45384058 0.7579554 -3.6221676 -1.20303
-0.12923554 -3.2053337 -0.34278288 0.7225996 -1.3421291 -0.681306 -0.35512814 3.6467295
0.5042476 -1.0468011 -0.66774213 0.4355111 0.1436175 0.30392298 0.14751938 0.047967132
-1.754537 -0.12514293 -0.08404351 0.09415773 -0.10500445 0.0064551663 -0.3756936 0.6000335
0.117635824 0.6840104 0.32045096 0.5969702 0.2518014 1.3436866 1.2053962 -4.6536665
-0.5122024 1.4749571 1.7722465 -0.6670225 -0.5739673 -1.1300628 0.96703887 1.3790776
1.4986355 -2.1765528 -0.9286185 0.8270843 -0.19503567 -1.374677 -0.15257442 -2.1401403
-0.33883932 0.35172057 0.9237269 -0.4512703 0.42816877 -1.4596707 1.4643917 -1.3383492
0.2642962 0.43027362 -1.13165 -0.4339285 -0.5821841 0.9123002 0.4992641 1.0081278
1.4772881 0.6902286 -0.22774826 0.91765755 -1.0043247 -2.0942662 -0.8760204 -0.29923096
0.7374091 -2.576636 -1.1810768 0.4551707 0.7046285 -0.60725844 -3.1817174 -1.4926736
0.6260642 -3.8113585 1.5200903 0.80914736 0.6557535 -2.0792387 -0.09979706 -1.7427038
0.9089713 4.2980227 -1.0289912 -0.014260129 -0.25446594 1.3503604 2.86521 -2.0969882
-1.3219388 -1.2575729 -3.86646 1.4309614 0.5384415 -3.8832715 0.35624158 -1.1227571
0.57252175 -0.37329468 -0.058916826 1.6006649 0.807604 0.6461482 -0.4183883 0.024479266
-0.9074149 -1.2245281 -1.0499458 -1.1136351 1.2177094 0.9831799 -1.476926 -0.114727505
-1.3731694 0.6144476 1.3187077 -0.5693556 -1.0216646 0.5079187 0.14188276 0.4241582
0.79428303 2.2008696 0.1881144 0.5136166 1.0262291 -0.9018723 0.36866063 -0.14271978
-0.8998437 -1.1416228 -0.040678483 -0.51712346 0.29512113 1.0877277 0.580568 0.7544788
-0.5695112 -0.21430711 0.14648709 0.37852302 -0.8679549 -0.15236509 -0.10390759 -0.7394062
0.5645596 1.87124 -0.7034126 0.026572837 -1.55638 0.9581827 -1.3313518 0.36632428
1.9217945 -1.6209778 0.37462646 0.7698972 -0.80805916 -0.5046522 0.7553408 -1.9636937
0.6699731 0.36390135 0.14939477 -0.29228258 -1.2615439 -0.5119498 0.29948416 0.50624645
-0.07708858 0.3567691 -0.07285592 -0.47820315 1.360927 0.4693099 0.67440754 -0.047236994
-0.13381757 -0.1736038 0.92897433 -0.45529026 0.10245608 1.519229 -0.018599855 -0.17650421
0.43631864 0.5598772 -0.2371489 -0.16315065 -0.101042844 -0.34594426 -0.9576543 -0.47156566
-0.24208403 -0.89607155 -1.0378124 -1.7887131 0.519526 0.25384375 -0.02987771 1.407083
-0.08222965 0.4597857 0.7891356 0.53939116 -0.3185697 -0.53334206 0.0049268897 -0.6298782
-0.89223874 -0.08435237 -0.2840117 0.31591368 0.09568372 0.41214707 -0.71589136 0.5039212
0.1357285 0.1598584 0.35319135 -0.15327922 0.32105947 0.30881748 -0.5995819 0.06692682

lstm.bias_ih_l1 f4 [200]
00000000: 6d9e a2be 9000 b7be c657 e2be 0326 f0be
00000010: d407 5bbf 7d8c 91bf d599 db3d 9116 c7be
00000020: b0ad 213f 25d4 2b3f fc56 57bf d4a2 4dbf
00000030: f8d5 933e e585 90bf 044d e13d bcca 813d
00000040: b07f 73bf a90f a53d cd65 37be 850b 31bf
00000050: ba3a 073f 30f8 30bf b676 1b3f 591a 90bd
00000060: fa28 78be 5242 bd3e 271f adbf b00f ff3d
00000070: b27b c5bd 177e 08bf 1f7d 3dbf 5fae 32bf
00000080: fec9 40bf a5fc 42bf 35a8 59be 03a2 61be
00000090: c8e7 14bf 3767 39bf 120e 6a3e 6db5 2bbf
000000a0: 2d23 87be d53b dcbe 8f9a 5dbe 88b7 16be
000000b0: 23a1 823f dc87 82be 7f0e 67be f174 b6bf
000000c0: e9d0 a33c fcc6 33bf 2875 58bf 5a6e 08c0
000000d0: 1a7d 78bf 484a d6bf 4d60 33bf 24df dcbe
000000e0: 3d3f 103d 6668 34bf a7d5 86bf 421d ebbe
000000f0: 97fb 51bf 1b8d 8cbe 2fa0 6abe 0e34 63bf
00000100: bf35 05bd bdc6 96bf 5435 dabe 3d8b 2dbf
00000110: 7386 f1bd c590 ccbf 5abc b5bf 695e 90bf
00000120: 32a2 813e e4e4 cd3d 5cc8 3fbf 0fae 1bbf
00000130: ed3f 27c0 7922 c1bf ceb4 97bf d048 42bf
00000140: 3002 f7bf 7564 9fbf eae4 9abf 474a 8ebf
00000150: 07ff 8ebe 0ea1 f33d ca0f f9bf 5607 88bf
00000160: ebda 81bf e3db 8ebf 35b3 dbbf 0a7c 0abf
00000170: c8c0 a0bf 8753 17bf e906 223f e7e3 4fbf
00000180: 825c c7bf c622 a9bf 3f58 94bf cc2a c7bf
00000190: 0b99 1a3d cd20 a83e 1ae2 73be c2d1 38be
000001a0: 075a 73be cd1d 903d 42f4 e13e 6d42 08bf
000001b0: e260 f2be 7de4 86bf 1fc9 34bf 58c5 9b3d
000001c0: f5ad d13e 978d 343d af65 57bf 6bef 643e
000001d0: 1ae1 0d3d 70c2 bbbd 1a0f 9fbe df8e 833e
000001e0: af2b 943d 217c b4be 94fc 91be 5de5 8bbe
000001f0: 5685 e43e 64c5 bdbe 3286 103e 5999 3ebd
00000200: 5d3f 4cbc 6867 6c3e 0c98 193e 99e0 de3c
00000210: bc6a 093f 045c c63e a5a0 63bf d332 fbbe
00000220: d93f db3d 0e3b 1fbf c3fe e8bc 999a c6bd
00000230: e2e7 1bbd a264 63be 8250 aa3e 4aeb 66bd
00000240: de62 ab3e ccb2 c1be c6de a23e ed75 10be
00000250: 87a1 8dbd a6d9 b9bd 7697 36bf c2c1 c9bf
00000260: e0ba 7dbe 0809 6ebf e5c1 f3be 78c5 dcbf
00000270: e89e 17c0 51c3 11c0 c467 3dbf ed2f a8bf
00000280: 7d98 0dc0 da03 9d3e 78ed 87bf c191 68bf
00000290: a001 bfbf 85e7 b1bf da63 bfbe 81d2 d7be
000002a0: 4201 cabe b9fa 92bf d4a9 26bf 5ee3 e1bc
000002b0: b4c2 aabf 2327 17bf 8715 02bf aa4c dbbf
000002c0: 4148 03c0 4914 cfbf e4c9 2fbf 44fb 14bf
000002d0: 36f6 cdbf dae0 0cbf db8e ab3e 3079 5abe
000002e0: 2266 2dbf 1f97 81bf 297b b8bf 98d1 61bf
000002f0: 1655 dbbf c027 24bf 4efe e8be 86a2 aabd
00000300: 014b 4ebf 4121 80bf ac0e 84bf c876 84bf
00000310: 85e3 13bf a871 22bf 9300 23bd beb0 8ebe
-0.31761494 -0.35742617 -0.4420759 -0.46904 -0.8555882 -1.1370999 0.107227005 -0.38884404
0.6315565 0.6712058 -0.841171 -0.8032658 0.28874183 -1.1290861 0.11001018 0.06337497
-0.9511671 0.080596276 -0.17909928 -0.691582 0.52823985 -0.69128704 0.60728014 -0.070362754
-0.24234381 0.3696466 -1.3525132 0.12454164 -0.09642734 -0.533174 -0.74019045 -0.6979732
-0.75308216 -0.76166755 -0.21255572 -0.22034459 -0.5816617 -0.7242312 0.2285693 -0.6707371
-0.26394024 -0.43014398 -0.2164099 -0.14718449 1.0205425 -0.25494277 -0.22564124 -1.4254438
0.019997077 -0.702255 -0.84553766 -2.1317353 -0.9706589 -1.6741419 -0.7006882 -0.43138993
0.03521656 -0.704718 -1.0533952 -0.4592076 -0.8202452 -0.27451405 -0.22912668 -0.88751304
-0.03252196 -1.17794 -0.4261881 -0.67790586 -0.11793222 -1.598168 -1.4198105 -1.1278812
0.25319058 0.10053423 -0.749151 -0.6081247 -2.6132767 -1.5088645 -1.1852052 -0.75892353
-1.9297543 -1.2452532 -1.2101109 -1.1116418 -0.27928945 0.11895953 -1.9457943 -1.0627239
-1.0144933 -1.1160854 -1.7164065 -0.5409552 -1.2558832 -0.5911183 0.63291794 -0.81207126
-1.5575106 -1.3213737 -1.158943 -1.5559936 0.03774361 0.32837525 -0.2381672 -0.18048766
-0.23764811 0.07036934 0.44131666 -0.5322636 -0.4733954 -1.0538479 -0.70619386 0.07606
0.4095303 0.044080343 -0.8413953 0.22356956 0.0346385 -0.091679454 -0.3106621 0.2569494
0.072348945 -0.35250953 -0.28513014 -0.27323428 0.44632977 -0.3706466 0.14113691 -0.046532962
-0.012466279 0.23086321 0.14999408 0.027206706 0.5367849 0.38742077 -0.88917 -0.49062213
0.10705537 -0.62199485 -0.028441792 -0.09697456 -0.038062938 -0.22206357 0.33264548 -0.056376733
0.33473867 -0.37831724 0.31810588 -0.14107485 -0.069155745 -0.09074716 -0.7132486 -1.5762255
-0.24778318 -0.9298253 -0.47608867 -1.7247763 -2.3690739 -2.2775462 -0.7398646 -1.3139626
-2.2124321 0.30667 -1.0619345 -0.908474 -1.4922371 -1.3898779 -0.37380868 -0.4215279
-0.39454085 -1.1482764 -0.6510289 -0.027574237 -1.3340669 -0.5904409 -0.508141 -1.7132771
-2.051285 -1.6178066 -0.68667436 -0.581959 -1.6090763 -0.55030596 0.33507428 -0.21335292
-0.6773397 -1.0124243 -1.4412585 -0.8821044 -1.7135341 -0.64123154 -0.4550652 -0.0833178
-0.80583197 -1.0010148 -1.0316978 -1.0348749 -0.5776904 -0.63454676 -0.03979547 -0.2786922

lstm.bias_hh_l1 f4 [200]
00000000: e5f4 79be 9bdf 99be 861a 1bbf e054 d3be
00000010: e86e 47bf 6069 8abf 0262 563d 2838 cebe
00000020: 03cc 463f 90a1 213f 9662 5dbf 75ad 58bf
00000030: 2440 ce3e ad7b 9cbf 0e2a 5b3e b2d3 c6bd
00000040: 9749 95bf f12c 1c3e 924e 24be f727 43bf
00000050: 13a7 f13e ad6a 1ebf e787 0a3f 33f7 c33c
00000060: c253 5abe ac0f 563e 2777 a5bf 0ad7 b53e
00000070: 7cdb 09bd 2474 08bf ab26 2bbf d42c 32bf
00000080: a8db 6ebf 4579 59bf 8795 2cbe 27d1 89be
00000090: 442a 44bf d008 32bf e3cc 803e 5b86 50bf
000000a0: 40ea 0fbe 065b fdbe 38f1 85be 4e7a 87be
000000b0: c7d2 893f 22c9 8abe eb8f 86bd 9eea b5bf
000000c0: 437b c4bd 8918 0abf ef71 83bf 54aa 12c0
000000d0: 1943 4cbf 01fc e5bf 9cec 0cbf e40f e7be
000000e0: 1d13 813d 3e8d 36bf f88b 89bf 65dc dcbe
000000f0: 0906 64bf be73 8cbe 539c 093d 7090 71bf
00000100: c0ee 94bd 7746 b5bf d649 04bf e54f 4bbf
00000110: 5d2a 61be 9d77 d2bf bb86 b6bf f225 9dbf
00000120: b107 9b3e 95bb 1ebe 0295 7fbf ae01 d6be
00000130: 38aa 20c0 c189 a4bf e6f1 b1bf e6c5 55bf
00000140: b631 efbf af82 9ebf 4895 88bf eedc 69bf
00000150: 0f9b 4abe bdbc ac3c fe72 f3bf 2ee9 77bf
00000160: c214 8bbf 41b1 abbf 9ac3 cfbf b63b 0bbf
00000170: 8a83 92bf 9bf4 09bf a91e 303f f208 48bf
00000180: 304e a8bf f9f6 bbbf 79a9 7abf db0a bcbf
00000190: 220c 443e d452 9f3e 6c09 a6be c47d 6abd
000001a0: 4ec7 74bd 9afa b93d 2496 5c3e 8994 ecbe
000001b0: 3c42 9abe 5f88 7abf 224b 45bf dd20 23be
000001c0: 3777 0c3f 37dc 1ebe 34c7 44bf 8e12 913e
000001d0: eddc 09be 67fd aabd 98a8 a4bd 2a0c 8b3e
000001e0: 2f0e 003e 7d1b 0cbf 528c 7abe 7a7c 5abe
000001f0: 32a2 243f 0106 fabe 6ce8 ed3d ab48 83bd
00000200: ea60 9f3d 2363 4f3e c15d bb3e 6657 293e
00000210: 9416 be3e 6288 cd3e dc57 7fbf e5fe f7be
00000220: bb20 023e 713d 1bbf 861b e0bd a984 e0bd
00000230: ce7e 54be 5a26 83be c22c f33e 05bc e9bd
00000240: 8929 bf3e 4d02 6abe c741 cd3e 77ff 1dbd
00000250: 8a2e 3fbe 855e 873c 189a 57bf d80b c4bf
00000260: 9f22 75be a3d0 58bf e075 c1be 367d d0bf
00000270: cb4f 0bc0 717e 12c0 a848 49bf be97 92bf
00000280: c496 0ac0 b3bd d53d 33ef 82bf f2fd 6ebf
00000290: 48ac d9bf 4ace c0bf 842c 87be f8bd f4be
000002a0: 4558 13bf 2cc0 9bbf 407f 3dbf 17a9 393e
000002b0: b6f8 99bf ff1f 2bbf b455 1cbf 6c8f dbbf
000002c0: a74f 06c0 10ce d9bf 4fd0 3dbf ac87 e4be
000002d0: 4aa0 d8bf bec6 00bf 3be3 673e 7880 bbbe
000002e0: c8df 4abf 027e 52bf ec55 aebf d093 6ebf
000002f0: fc5e d7bf c7a7 2abf d8f4 16bf 3106 69be
00000300: 9cb8 35bf 2ab5 8cbf 930f 81bf ae86 86bf
00000310: 63d6 09bf 3458 15bf 9aec 0abe e7d8 4ebe
-0.24409826 -0.3005341 -0.60587347 -0.41275692 -0.77903605 -1.0813408 0.05233956 -0.4027722
0.7765505 0.6313715 -0.86478555 -0.84639674 0.4028331 -1.2225243 0.21402761 -0.097083464
-1.1663083 0.15251519 -0.16045597 -0.76232857 0.4719778 -0.61881524 0.5411362 0.023921585
-0.21321014 0.20904416 -1.2926987 0.35515624 -0.033656582 -0.53302217 -0.6685588 -0.6959965
-0.9330392 -0.8495067 -0.16853915 -0.26917383 -0.7662699 -0.69544697 0.25156316 -0.8145501
-0.14054203 -0.49483508 -0.26160598 -0.264605 1.0767449 -0.27106577 -0.06570419 -1.4212224
-0.09593823 -0.5394369 -1.0269145 -2.291646 -0.7978988 -1.796753 -0.5504854 -0.4512931
0.06302474 -0.7130927 -1.074584 -0.43136898 -0.8907171 -0.27432054 0.033596348 -0.9436102
-0.072721004 -1.4162129 -0.51675165 -0.79418784 -0.21988817 -1.6442753 -1.4259866 -1.2277205
0.30279306 -0.15501244 -0.9983674 -0.41798156 -2.5103893 -1.2854539 -1.3901947 -0.83505094
-1.8687046 -1.2383631 -1.0670557 -0.91352737 -0.19785713 0.021086091 -1.9019468 -0.9684018
-1.086571 -1.3413469 -1.6231568 -0.54387987 -1.1446393 -0.53888863 0.68796784 -0.7813865
-1.3148861 -1.4684745 -0.97914845 -1.4690813 0.19145253 0.3111788 -0.32429063 -0.057248846
-0.059760384 0.090810016 0.21541649 -0.46207073 -0.30128658 -0.97864336 -0.7706777 -0.15930505
0.5486941 -0.15513693 -0.7686646 0.2833447 -0.13463183 -0.08349114 -0.08039969 0.27157718
0.1250541 -0.54729444 -0.2446759 -0.21336547 0.6430999 -0.48832706 0.116165966 -0.06410345
0.07782157 0.20252661 0.36594966 0.16537246 0.371266 0.40143114 -0.9974344 -0.48436657
0.12707798 -0.6064063 -0.1094275 -0.10962803 -0.20751497 -0.25615197 0.47495085 -0.11412815
0.37336376 -0.2285244 0.40089247 -0.03857371 -0.18670097 0.016524563 -0.84219503 -1.5316114
-0.23938988 -0.84693354 -0.37785244 -1.6288211 -2.1767452 -2.2889674 -0.7862649 -1.1452558
-2.165452 0.10436573 -1.0229248 -0.9335624 -1.7005701 -1.5062954 -0.2640115 -0.47801185
-0.57556564 -1.2168021 -0.74022293 0.18130909 -1.2029026 -0.668457 -0.6106827 -1.7153144
-2.0986116 -1.701601 -0.7414598 -0.4463476 -1.6923916 -0.50303257 0.22645275 -0.3662145
-0.79247713 -0.8222352 -1.3619971 -0.93194294 -1.6825862 -0.6666226 -0.5896735 -0.22756268
-0.70984817 -1.0992787 -1.0082878 -1.0509851 -0.53842753 -0.5833771 -0.13566819 -0.20199929

lstm.weight_ih_l2 f4 [200, 50]
00000000: afcc bf3e 7255 c9bd cd1f c2bd 1064 e53d
00000010: be06 b4bc d56e 3cbf 26d5 96bd 1f92 b43d
00000020: e233 2d3e 8f38 963d 4fbe c0bd 91a2 86bf
00000030: c37e a63d 2df2 8c3d ed9f 283e c308 01be
00000040: 3bf9 c53d d6f8 d5be f7da eabd d36c a43d
00000050: a2e7 5ebe 8518 313e 1c68 ca3f 1c5e c33e
00000060: 3dec 0bbe 2cc9 b23f ae91 843e 1ad6 dcbe
00000070: fae5 593d f90e f6bb 7f37 983e 1e49 543f
00000080: d86b 543d dc67 64be fe22 cdbd c9a0 26bf
00000090: 6b87 90bd c71c 8abe 3db6 38be 1e7b 1cbe
000000a0: d7b9 903e 5fe8 be3e 2143 22bd b534 773e
000000b0: 2ce2 20bf 2965 0c3e cd84 473e 2b46 aabd
000000c0: e131 833e 1350 ce3d d6f7 c8bd c665 c03c
000000d0: a9d8 1cbe ee39 113f d19f d43d d2c3 fbbc
000000e0: 7596 75be 26df 513e c19e debe 9366 14bf
000000f0: b1f9 e83d 46b6 643f 4b06 4abe 1d30 f9bc
00000100: 770f 1b3f e03a abbe c99a 99be 846c 0c3e
00000110: 18df 783e a2f3 70bd 629b eabd 67ea 12be
00000120: 1ab2 9fbf 2356 78bf 0e0f 653c de15 f8bf
00000130: d61f 8c3c 016c a53e e624 a03b 9ef7 273c
00000140: 048d 943e 7d2a 70be 3e2e 093e 0466 11be
00000150: 607e 863d efad fc3d d921 86bc 634a 553e
00000160: 1e2c 4d3e 92f0 363e 7e71 1bbf 351e 843d
00000170: e4db 12be 76f8 543e 61e5 2c3f 0f68 61bd
00000180: 110d 133d e996 ae3d 25c3 c73c 8e40 363e
00000190: 7ce3 18be 77c2 043e 9935 1c3f cbdb 6e3f
000001a0: 0c6e 5b3d 3c21 eb3e 797e eebd b54c 4e3e
000001b0: 10d6 363f 5daa 633f b164 433e afba a7bf
000001c0: ac95 0ebe 2296 afbc 8b93 5d3e c906 e43d
000001d0: 57e1 fa3e b131 7fbe c531 35bd 01b8 3b3f
000001e0: e141 0e3e 67a2 d93e eeb1 323f 83aa ba3f
000001f0: 8a24 02bf bf1d 5f3f 2d45 0640 88bf 253f
00000200: 8805 36be fae0 4a3d 42d7 da3f 5449 503f
00000210: a2ac 53bf 6604 82bf 4b88 d0bc f4bf b53d
00000220: 089d b0bd 965f 063d 784e 6e3f 1bf7 b53d
00000230: 2d03 3c3f 0c6f 0d3d f3dc f6bd e64b 81be
00000240: 19c9 06bf 9be9 9a3e fe9c e93d c6b7 c63f
00000250: 0195 0e3f 181b 04be 9e58 4ebd fa20 853e
00000260: 6297 313e c7fa c53d ed32 5fbe 0238 c1bd
00000270: 27db 94bd 7373 933c 6dbd 91be 21e3 f0be
00000280: db05 5fbb c6ed 283e 5e96 75be 561e c73e
00000290: 48b3 773d 287c 383e f903 95bc 9331 2a3e
000002a0: 06e0 04bd b319 d6bd 9d15 3abe c532 47bd
000002b0: d6a2 f9be 6252 7f3e 6e77 ec3d 180c 77be
000002c0: fec0 c7bf ee25 933d 626d 00be 836d 1dbe
000002d0: d9d2 33c0 d3ed 5ebe 4021 783d f62e a83e
000002e0: 40a1 09be f3ad a13e 29e5 d9be 6dd5 c53d
000002f0: 403c 183e bc6c 3dbe 287a 9fbe cfae b6bd
00000300: 433a 4b3e 8c19 d7bd c669 ddbd 60ea 093d
00000310: 4336 973d bda8 043f dcd7 3ebe 6a60 563c
00000320: 7dbf a6bf ee4d 4b3e 8f45 4b40 efc9 c5bf
00000330: e138 7cbe e7bc 00c0 7502 6a3d a1dc 3cbe
00000340: 4e56 88be e5d8 9fbe 11ec 03be b054 debe
00000350: dd4e a63e a1d2 2a3e 020f 95bf 33a3 fd3e
00000360: bbbf 97be 45de b63f 9804 e73e b4b7 ce3f
00000370: 42ab 88bd d71d 073e 6304 4fbd acbc ccbd
00000380: e628 de3e e75a 073d df82 a73f de0c cabf
00000390: 04bb 3dbe d9ec 64be 9d73 eb3f 795b 7d3f
000003a0: d9aa 3f3d e6b1 f83e ca4d f13e a964 0d3e
000003b0: 9e9f 9dbe e148 70be dd1b 1ec0 8446 a0be
000003c0: 4e10 e13e a8ad 033f 090b df3d 11dc ccbe
000003d0: 784c a8be b32f 34be db04 50bd b797 19bf
000003e0: f189 9bbe b8ef 8bbd 2b35 9b3e 8a9b ba3d
000003f0: 9566 a0bf 033d 2b40 c951 ecbf 6dce a33f
0.3746085 -0.098307505 -0.09478722 0.11200726 -0.021975871 -0.73606616 -0.073648736 0.08816933
0.16914323 0.073350064 -0.094112985 -1.0518361 0.08129647 0.06882129 0.16467257 -0.12600999
0.096666776 -0.4179141 -0.114675455 0.08028569 -0.21768048 0.1729451 1.5813022 0.38157737
-0.13664337 1.3967643 0.25892395 -0.43132097 0.05319784 -0.007509109 0.2972984 0.8292407
0.05186066 -0.22305244 -0.1001644 -0.6508909 -0.07057079 -0.2697508 -0.18038268 -0.1528134
0.28266785 0.3728666 -0.0396148 0.241412 -0.6284511 0.13710465 0.19484253 -0.08314165
0.25623992 0.10073867 -0.09812896 0.02348603 -0.15317024 0.5672902 0.10382045 -0.030733023
-0.23983176 0.2049528 -0.43480495 -0.57969016 0.1137575 0.8934063 -0.19728963 -0.03041845
0.6057047 -0.33443356 -0.30000904 0.1371327 0.24303854 -0.058826096 -0.11455418 -0.1434723
-1.2476227 -0.97006434 0.01398064 -1.9381673 0.017105024 0.32308963 0.004887211 0.010251908
0.29013836 -0.23453708 0.13396546 -0.14199072 0.06567073 0.12337863 -0.016373562 0.20829158
0.2003636 0.17865208 -0.6072005 0.06451074 -0.14341694 0.20797905 0.67537504 -0.05503088
0.035901133 0.085248776 0.024385044 0.17798063 -0.14930528 0.12964807 0.61019284 0.9330413
0.053571746 0.45923793 -0.116452165 0.20146449 0.71420383 0.8893183 0.1908138 -1.3103846
-0.13924283 -0.021433894 0.21638314 0.11134107 0.49000046 -0.249213 -0.044236917 0.7332764
0.13892318 0.42506716 0.6980275 1.4583286 -0.50837004 0.87154764 2.0979722 0.6474538
-0.17775548 0.04953096 1.7096941 0.8136189 -0.8268529 -1.0157592 -0.025455615 0.08874503
-0.08623701 0.032806 0.93088484 0.08885022 0.73442346 0.03452973 -0.120538615 -0.25253218
-0.526506 0.30256352 0.11406897 1.5524833 0.5569611 -0.1290096 -0.05037748 0.26001722
0.17342904 0.096669726 -0.2179677 -0.09434511 -0.072683625 0.017999386 -0.28464833 -0.47048286
-0.003403059 0.16496953 -0.23983142 0.38890332 0.06047371 0.18016112 -0.01819037 0.16620474
-0.032440208 -0.104541205 -0.18172307 -0.048632402 -0.48757046 0.2493377 0.11546217 -0.24125707
-1.5605772 0.07184969 -0.12541726 -0.15373807 -2.8097441 -0.2177041 0.060578585 0.32848328
-0.13440418 0.31578025 -0.42557648 0.09659848 0.14866734 -0.1849851 -0.31147885 -0.08920061
0.19846444 -0.105029196 -0.1081119 0.033670783 0.073833965 0.51819974 -0.18637031 0.01308451
-1.3027188 0.19853947 3.1761205 -1.545225 -0.24631073 -2.0115297 0.05713125 -0.18443538
-0.26628345 -0.31220165 -0.12883021 -0.43423986 0.32482043 0.16681911 -1.1645205 0.49538574
-0.29638466 1.4286581 0.45120692 1.6149812 -0.0667329 0.13194977 -0.050541293 -0.09996924
0.43390578 0.033045676 1.3086814 -1.5785177 -0.18528372 -0.22355975 1.8394657 0.989677
0.046793792 0.48573226 0.4712966 0.1380793 -0.3078584 -0.23465301 -2.4704506 -0.313038
0.43957752 0.51436853 0.10890777 -0.40011647 -0.3287084 -0.17596321 -0.05078588 -0.59997123
-0.30378678 -0.06832832 0.30314 0.09111698 -1.2531306 2.6755989 -1.8462459 1.2797371
