NEURAL_MODELS/LSTM/misty-monkey-50_epoch50.pth (torch, 814951 bytes, 42 tensors)

lstm.weight_ih_l0 f4 [200, 63]
00000000: 8d02 babe 68cb b23f 94aa 953f 28ba 15c0
00000010: e0fd 003f f472 f73f 9591 c6c0 3fc3 b6be
00000020: e656 6f3e 7bf4 9bbf 4b1a 8440 925c 563f
00000030: 3073 47c0 0591 1d3f d519 33bf f353 06bf
00000040: b820 4640 4235 45c0 adf8 713f 9023 54bf
00000050: ebf2 cd3e 693e 8940 937d 343f 5ac7 8840
00000060: 0474 9d3f b116 d73f 2c96 c23f 816f 0440
00000070: c5d4 9e3f 1946 eb3f 86f1 88bf 095d 17c0
00000080: 34e0 e53c 832e 6d40 3efe eb3e 1294 2b3e
00000090: 4690 82c0 4714 2f40 ef4a 54c0 5e0b 33c0
000000a0: 8c9a 9e40 80a2 e740 b74f 7fc0 0447 6cbf
000000b0: 2c76 a53f 47fc e6bf cf08 8f3f 7b83 1e41
000000c0: 735a b03f 8d32 8e3e dc10 bc3e 4114 a53f
000000d0: ddef cb3e 8a7b 8e40 42c8 5c40 c869 2940
000000e0: 6290 0d40 ba72 6340 2d14 0bc0 7cee 3140
000000f0: 9403 18c0 1dd2 903f 643e 1fc0 8b3d 54c0
00000100: 59b2 8fbe 6e92 febf 767b 15bf d3b2 1bc0
00000110: c996 19c0 13a2 4540 dffd c13f f764 5a3f
00000120: 9ac0 5b3e 6897 673f 2e33 6ebe c693 d7bd
00000130: 57a1 1340 0c93 5340 a6db 53bf 4d7e 4ec0
00000140: fb28 84bf 3b57 e840 dd79 0940 543e 40c0
00000150: 0b96 32bf 58d7 9cbf 35af 04bf 6c34 83bf
00000160: 4d5a e6bf e888 8cbf 7d6d 19bf 1c5f 63c0
00000170: e816 9cc0 027b 30bf b387 5e40 d928 30c0
00000180: 1341 95bf 8087 eb3e 1449 7240 8d3e a3bf
00000190: 7cb9 8e3e 2cde 9240 8502 a2c0 c11f 3e3f
000001a0: 7827 c740 b8f5 b03f c3ba 53bf 1367 693f
000001b0: 1d69 74c0 bcb3 43c0 fac4 ba40 1255 0340
000001c0: 12e9 04bf 03e0 9dbf dda6 02c0 66a2 2e3f
000001d0: bbf5 f3bf 611b 7bbf e949 fd3f b06c ba40
000001e0: d974 0ec0 19a5 e73f c63e 4440 569c 0441
000001f0: b49b 41c0 0d44 babd 9ea1 3ac0 b248 9440
00000200: dd8d ac3f 8f6f be3e bb40 1dc0 d8dd 6ac0
00000210: 7d27 4b40 ca33 0cc0 a2a0 bf3f 008c 1340
00000220: c230 f6bf 73a9 273f 19f4 f83e b8b3 5d40
00000230: 2fda 9740 b9cd c2bf 7938 a540 2198 5640
00000240: 33c6 b93f bde8 0ec0 1713 e3bc 7aff 8dbf
00000250: 935f 78be 4b62 1141 ec7c f2be 56a2 acbf
00000260: 48c8 103f 2c20 173f f0de 4f40 7ad1 bfc0
00000270: 3944 49c0 7f00 8840 933d 573d 3ba2 8940
00000280: a927 b240 a05d 723e 9b9b e2be 1636 0840
00000290: 9551 b8bf bf23 15c0 7dc6 c040 5aa4 a540
000002a0: 3812 bdbf 6781 6a3e d5db 6340 8d79 4040
000002b0: f11a f9bf a4c0 ab40 44b2 7940 6e03 edbe
000002c0: c54b 1dbe bbb8 82c0 e370 ce3e 7f5d 743f
000002d0: 9b9d 2b40 6b2d be3f caa8 9f3f 51c0 d03e
000002e0: 6ccf aebf 3681 c9bf 4d2e e2bd 892b 10be
000002f0: a02d 7ec0 7472 4a40 cb52 30c0 c094 ee3f
00000300: ffac 27be 7e19 bdbf 8561 d9bf 0675 9540
00000310: 632e bfc0 4830 a0c0 a52f bcbe 8fd6 68be
00000320: 4076 99be 016b f4c0 8b6a e4bf fb7a 35c0
00000330: 6709 2fc0 ad8d 10bf 0e5a 4e40 810a 0440
00000340: 7658 653f 731c bebe e2aa a7bf 75ed 81be
00000350: 34c7 38c0 e4c7 5f3d 94cd fcbe f470 1840
00000360: 63d9 0640 7093 33c0 dd7e 0b41 85c8 5e40
00000370: fbb7 84c0 c38b 5dbf f84a f53e 0dbf 2ac0
00000380: 798f 4c40 b54d 2a41 4e84 a53e 239e 2e41
00000390: 03b4 1b40 0f1e 0cc0 b8c5 4d41 449f 44bf
000003a0: b421 64bf 081d e3bf 11dd 51c0 068f 4abf
000003b0: 4b0d 64bf f775 ccbf f6a7 0f3f 8bde 92be
000003c0: e74f 633f 5cd9 f440 22d5 f0bf 317b 54bf
000003d0: 6973 8840 1207 3f41 ffb5 fbbf 2624 fbbe
000003e0: 1ffb 18bf 20c6 7340 704c 1ec0 20cf 9b40
000003f0: 932b 7cbf c702 49c0 a528 0b40 58a5 8c3d
-0.3633007 1.3968325 1.1692681 -2.339487 0.5038738 1.9331956 -6.2052712 -0.35695836
0.23372993 -1.2183985 4.1282096 0.83735 -3.1164055 0.6154941 -0.6996129 -0.52471846
3.095747 -3.0813756 0.94520074 -0.82866764 0.40224394 4.2888684 0.7050411 4.274335
1.230103 1.68038 1.5202079 2.0693057 1.2408682 1.8380767 -1.0698707 -2.3650534
0.02806101 3.7059639 0.4609241 0.16755703 -4.0801115 2.7356126 -3.3170736 -2.7975688
4.9563656 7.2385864 -3.9892404 -0.9229586 1.2926688 -1.8045739 1.1174563 9.9071
1.3777603 0.27772942 0.36731613 1.2896806 0.3983144 4.4525805 3.4497228 2.6470814
2.2119374 3.5538774 -2.1731064 2.780181 -2.3752184 1.1314121 -2.488183 -3.3162563
-0.28065756 -1.9888437 -0.5839151 -2.4327896 -2.3998282 3.0880172 1.51556 0.8531031
0.2146019 0.904654 -0.23261711 -0.105262324 2.3067224 3.30585 -0.8275703 -3.2264588
-1.0325006 7.2606483 2.148063 -3.0038042 -0.697602 -1.2253218 -0.51829845 -1.0250373
-1.7996308 -1.097928 -0.5993269 -3.55268 -4.877796 -0.68937695 3.4770324 -2.7524931
-1.1660484 0.46001816 3.7857103 -1.2753464 0.27875888 4.5896206 -5.0628076 0.742672
6.223568 1.3824987 -0.8270685 0.91172904 -3.8189156 -3.057845 5.836545 2.0520673
-0.5191814 -1.2333988 -2.0414345 0.6821655 -1.9059366 -0.9808865 1.978818 5.8257675
-2.2258818 1.8097259 3.0663314 8.288168 -3.0251284 -0.09095011 -2.9161143 4.633874
1.3480793 0.37194487 -2.4570758 -3.6697903 3.1742852 -2.190661 1.4970896 2.30542
-1.923363 0.65492934 0.48623732 3.4640942 4.7453837 -1.5219032 5.1631436 3.3530352
1.4513611 -2.2329552 -0.027719064 -1.109359 -0.24255209 9.086497 -0.47360933 -1.3487041
0.56555605 0.59033465 3.247982 -5.994321 -3.144789 4.2500606 0.052548956 4.3010535
5.5673413 0.23668528 -0.44259343 2.1283011 -1.4399897 -2.3303068 6.0242295 5.1763124
-1.4771185 0.22900926 3.5602925 3.0074189 -1.9461347 5.3672657 3.9015055 -0.4629168
-0.15360935 -4.08505 0.403205 0.95455164 2.6814945 1.485761 1.2473385 0.40771726
-1.365705 -1.5742557 -0.110439874 -0.14079107 -3.9715347 3.1632357 -2.7550533 1.8639145
-0.16374587 -1.4773405 -1.6982886 4.670535 -5.9744124 -5.0058937 -0.367551 -0.22738098
-0.2997303 -7.638062 -1.7845014 -2.8356311 -2.7349489 -0.5646618 3.2242465 2.063141
0.89588106 -0.3713108 -1.3099024 -0.25376478 -2.8871584 0.05463399 -0.49375594 2.381894
2.1070182 -2.8058739 8.7184725 3.4809887 -4.1474586 -0.86541384 0.4790876 -2.6679108
3.1962569 10.643971 0.32327503 10.913608 2.432862 -2.1893346 12.860771 -0.7680552
-0.89113927 -1.7743235 -3.2791178 -0.79124486 -0.89082783 -1.59735 0.56115663 -0.28685412
0.88793796 7.651533 -1.8815043 -0.83000475 4.264088 11.939226 -1.9664916 -0.49051017
-0.5975818 3.8089676 -2.4734154 4.869034 -0.9850399 -3.1407945 2.1743557 0.06867474

lstm.weight_hh_l0 f4 [200, 50]
00000000: a95f 3bbf fe60 8740 245c b7be 8dba 5c40
00000010: b3a3 e7bf 3874 793f 5c09 89c0 3da8 813f
00000020: 1232 a03f 6ce4 debf 83df 2040 415e 5fbf
00000030: b0f2 c4bf c35f 27bf 312e 47bf 8f1f 73c0
00000040: 56b6 94bf bbe4 123f fd47 903e f7bd 123f
00000050: acdd 8040 0b39 a3c0 a355 d73f 9898 a73f
00000060: 8210 963f d79b cebf 3604 82bf 0c1e 56be
00000070: eb37 8f3d c003 963e 08dc efbe 1555 e53f
00000080: c10c ba3f 7dcc ebbf 24c4 16bf 9293 6840
00000090: af0e 97be c325 8ebf 277d 0bc0 257c 1240
000000a0: e042 c93e 1581 2c3f 008b 82c0 7d70 5d3d
000000b0: 9bb0 553f 8d3d 96be 3b1e 2bc0 0dba c4bf
000000c0: 522c f4bf fb61 b33f 4a96 603f d38a 5b3f
000000d0: 4a44 d83e 8e30 9b3d c77d 6740 7463 f2bf
000000e0: b33e e0bf cdb3 da3e 21e3 12bf 6edb 09bf
000000f0: 9c43 f73e d38b d0be 9342 a63f f81a 9cbf
00000100: 8801 5d3f 3aba 703f be66 a93f 4a2c 8b3f
00000110: e6fd bcbd 7f09 773f e72e 3d3f 65af aa3f
00000120: 0c9e 1abf 56a3 d83e e167 b2bf 0f6b a6be
00000130: a49e 7cbf 46c3 b9bf 7d89 a7bd 5db6 9f3f
00000140: 39da bb3e c894 653f 0f6a bb3f 66e8 d5be
00000150: 8d29 b1bf 1ed5 6d3e b416 8d3d 0ccc 16bf
00000160: f5d8 003f b8ce 09c0 9123 763f c353 aabf
00000170: 2e63 2b3f 1957 2f40 44de 77be 3a8b 61bb
00000180: 7261 7bc0 6122 6c3f eef7 213f 608e 78bd
00000190: a8a8 2340 ebdf 3340 6b36 81be 571b 853f
000001a0: 1c83 75bf 9307 9cbf 18b1 80bf cc3a 7740
000001b0: f671 3dc0 b443 a93f 84f9 4dc0 371d 2cc0
000001c0: e0e4 10be 3e2a 0c3f 833f cc3f 1d89 4c40
000001d0: 2d87 ec3f 3ac0 d23f 9293 3a40 7107 b2bf
000001e0: 750c 5b40 63e5 0b40 0ec6 1c3f 0c43 b7be
000001f0: edbc 65bf e58d 58be 509d 82bf 6050 64c0
00000200: 9bf2 6040 a66d ecbf 5e4f 74bf 0eb0 20c0
00000210: bb0e 08c0 e9c5 01c0 2ff8 23be 2554 3140
00000220: 3981 42c0 db7e 75bf 18f7 aebe cd4d a73f
00000230: a0ff a83d fb9e 6fc0 bf37 86be fcca 413e
00000240: a6ac 623f c3ed 523e 00da e9bf 026a 403f
00000250: 9f24 aac0 fe41 5ac0 4156 2ebe e6e2 1a3e
00000260: 26fa dc3f 6a4a 3c3f 6ade 543f 33b2 b8bf
00000270: 12cc ec3e 9217 423f bdff 4b3f 0d32 adbe
00000280: b199 1940 0246 69bf 7b78 98bd 82ac c83f
00000290: a773 0e40 7e72 8a3f 6e39 ec3f 313b 80be
000002a0: 52ab 3fbf e3b7 0d3d 048d af3f 9a5a 6a40
000002b0: 8047 a8be b40b babf 3386 9c3f b4dd fdbf
000002c0: 21d9 7540 ac2b 85bf b3f3 e4bf 0a86 0340
000002d0: ba58 2d40 ccef febd 8846 eb3e 1f43 893f
000002e0: 5a6c 0ebe 2eef ce3f 55d3 49c0 36cb 3dbf
000002f0: 3b29 03bf 8b69 40bd 0f3d 56bf c627 1ec0
00000300: 8942 54c0 0afa 513e 7388 e1bf f1dc cfbf
00000310: d094 adbf d234 6fbf 81a7 babe c2d5 96be
00000320: 819b 123f a51c 24c0 bfca 71be e10b b53f
00000330: 0513 9dbf d31f 87bf acc2 f93e 27ad ec3d
00000340: 4f6a 95be f419 353f 79a7 e7be d59c 08bf
00000350: d438 acbe 0e4e 0ec0 c6b4 96bf 0f1a 56c0
00000360: 4525 31c0 8e57 0bbf 37b9 92c0 bca2 70be
00000370: 23e7 0f3f 6ef2 08c0 b4f9 3240 1e9c fa3f
00000380: 776c 523e 9d1d 30c0 2d7b ab3e b378 1bbe
00000390: a1af 683f 7181 6abf ab36 12c0 863f cd3f
000003a0: 49e2 f93b f86b 22be 869b 9240 1acb 64be
000003b0: 43d1 34be fa9a e1bf 1e7a 68c0 ea6c 3cbf
000003c0: 6be4 a6bf 75b6 a43f 737b e2bf 23e4 2640
000003d0: 47b2 343f 89fc 06bf b9e2 f5be b82e d03e
000003e0: 388a 0ac0 5467 a9bf 7b54 b63f 919d ba40
000003f0: 1c5a 8e3f 7221 2dbe 3ce5 1840 b70c 4bc0
-0.7319284 4.23059 -0.35812485 3.4488862 -1.8096832 0.9744296 -4.2823925 1.0129467
1.251528 -1.7413459 2.513642 -0.87253195 -1.5386562 -0.65380496 -0.7780486 -3.7988012
-1.1618145 0.57380265 0.28179923 0.57321113 4.0270596 -5.1007133 1.6823009 1.3093443
1.1723788 -1.6141309 -1.0157535 -0.209099 0.069930874 0.29299736 -0.46847558 1.791659
1.4535142 -1.842178 -0.58893037 3.634007 -0.2950339 -1.1105274 -2.1795137 2.2888272
0.39308834 0.67384464 -4.079468 0.054062355 0.83472604 -0.29343835 -2.6737201 -1.5369278
-1.9076025 1.4014276 0.8772932 0.85758704 0.422396 0.075776204 3.6170518 -1.8936601
-1.7519134 0.42715302 -0.5737782 -0.5385045 0.4829377 -0.40731677 1.2989067 -1.219573
0.8633046 0.9403416 1.323448 1.0872891 -0.09228115 0.96498865 0.7389969 1.3334776
-0.6039741 0.42312115 -1.3937951 -0.32503554 -0.98679566 -1.4512718 -0.08180521 1.2477528
0.36689928 0.8968015 1.4641742 -0.41778868 -1.3840805 0.23225829 0.06889096 -0.589051
0.5033105 -2.153242 0.9614802 -1.3306812 0.6694821 2.739691 -0.24205881 -0.003441526
-3.9278226 0.9223996 0.63268936 -0.060682654 2.557169 2.8105419 -0.2523683 1.0398968
-0.9590318 -1.2189811 -1.0054045 3.8629637 -2.9600806 1.3223786 -3.2183542 -2.6892831
-0.14149809 0.54751956 1.5956882 3.1958687 1.8478752 1.6464913 2.915257 -1.3908521
3.4226353 2.1858757 0.6123971 -0.3579334 -0.897414 -0.21147878 -1.0204258 -3.5674057
3.5148075 -1.8470962 -0.95433605 -2.5107455 -2.125899 -2.0277045 -0.16012643 2.7707608
-3.0391371 -0.9589669 -0.34172893 1.3070618 0.082518816 -3.7440784 -0.26214406 0.18925089
0.8854469 0.20598511 -1.8269653 0.75161755 -5.3169703 -3.4102778 -0.17025091 0.15125617
1.7263839 0.73551047 0.83151877 -1.4429382 0.46249443 0.75817215 0.796871 -0.33827248
2.4000056 -0.9112245 -0.07444855 1.5677645 2.2258089 1.081619 1.8455026 -0.2504516
-0.7487079 0.034599196 1.371491 3.6617799 -0.3286705 -1.4534822 1.2228454 -1.9833283
3.8413775 -1.0403953 -1.7886871 2.055056 2.7085404 -0.124480814 0.4595225 1.0723609
-0.1390852 1.6166742 -3.1535237 -0.741382 -0.5123479 -0.046975654 -0.8368692 -2.4711776
-3.316561 0.20505539 -1.7619766 -1.6239301 -1.3561039 -0.9343997 -0.3645592 -0.2945996
0.5726853 -2.5642483 -0.23612498 1.414425 -1.2271429 -1.0556587 0.48781335 0.11556464
-0.2918267 0.70742726 -0.4524496 -0.53364307 -0.33637106 -2.223514 -1.1773918 -3.3453405
-2.7678998 -0.5443047 -4.585109 -0.23499578 0.5621206 -2.1397967 2.7964907 1.9578893
0.20549189 -2.7518075 0.33492413 -0.15182762 0.9089299 -0.9160376 -2.2845867 1.6035011
0.0076258522 -0.158615 4.581485 -0.22343102 -0.17657952 -1.762542 -3.6324534 -0.7360369
-1.3038458 1.2868181 -1.7693924 2.6076744 0.7058453 -0.5272909 -0.48024538 0.40660644
-2.1646862 -1.3234658 1.4244531 5.831734 1.1121249 -0.1690729 2.3889914 -3.172651

lstm.bias_ih_l0 f4 [200]
00000000: 9d9c 183f 7f03 3b3f 0ae7 323f 73b7 0fbf
00000010: ef6c 213e 2629 393f 2401 19bf 068d b5bd
00000020: 04b1 6fbd 7714 5abf 3f7a 90be 3161 1ebe
00000030: 9359 a23d c688 a53e eb64 c63e b30c 283e
00000040: 697e 113f 92d7 58bd f955 b83d f817 a3be
00000050: a8a3 6f3f 6753 b2bd fe7c f13c a741 b13d
00000060: a556 e53c eea9 283f d04f 9f3e b26d fc3e
00000070: 18c3 5d3e 65ec 98be d8d0 a63f 650c 17be
00000080: d057 e3be 079a 063e 68b2 1cbe 482a 563e
00000090: fb70 d13e c7d9 7d3e c429 eb3e 362a be3c
000000a0: 9b0d 21be e8d8 823e dcd3 f43e 483c d83c
000000b0: 9413 843f 4787 6f3e 5225 fabd 8cf8 7ebe
000000c0: de34 873f 6228 4f3f a7f8 a2be ce01 fe3e
000000d0: bfc1 1fbf d059 0fbf 0564 3c3e edfa 2ebe
000000e0: 4807 10bf 0e73 33be 09fc 55be e8fc 903e
000000f0: adf5 72be d37b adbe 686d 32bf 6f5d 3dbf
00000100: d7a0 eabc 563c d83c 5738 b2bc 486e ebbe
00000110: 6e98 9d3e 0604 3bbf 421f e0be cdd0 9abf
00000120: cc6c debd a04b 7c3f 4998 4bbf 0074 39bf
00000130: 2560 263e fa91 af3d 2bcc adbe 3426 2ebf
00000140: caa3 e5be ce79 e53c e5b0 4d3e a3b9 1d3d
00000150: 5653 7fbf 9e1a 06bf b6fe e6be 6cd7 d53e
00000160: 392b df3e 7ec4 823f 93cb 0e3f dcca aabf
00000170: e6f9 67be 020b 1ebf ac78 5cbf 9342 81be
00000180: bff4 2abf 29e0 f7bc 031d ea3d 5e66 793e
00000190: dd5d cf3e c59a 90bd 8e5f 6bbe 6719 c6be
000001a0: 8f03 0dbe 2197 0bbf c1b1 0ebf d93a 95be
000001b0: d816 303e 814d 163f 0a7a 94be 5687 5e3d
000001c0: 7eb0 fe3e 086f f13d d52f 8fbe 7a65 32be
000001d0: d2c6 3a3e 1d4f 213d a21a 24bf c638 36be
000001e0: e1a4 d9bd 0dfc 3f3e bd9d ccbd 69fd b8be
000001f0: fc9e 193f 6899 d7be e392 10bf db58 df3e
00000200: beb9 0d3e efbb 8fbe fa6c 88be bc74 373e
00000210: 87c6 c93e 596d d6bb 7f01 143f d3e1 d43e
00000220: af07 b8be e4b9 503f 5ac6 2f3f 1922 09bf
00000230: 943e abbe 09ed 263e 5e04 4bbf 9ef1 7cbf
00000240: 959e b9bb e1e6 41be 6115 d2be 0d2a 1c3f
00000250: e46c d4be e137 23bf b7f1 3fbf 930a 34bd
00000260: 663c 01bf 7650 2ebf d905 8fbf 77b0 a9be
00000270: 15e9 21be 1d16 67bf ab14 753d 1d3e 1bbf
00000280: 95d1 d13c 733b b0bd a179 51bd 19b6 07bd
00000290: def7 8cbf d1c0 d73b 9dc8 0abf 789a 8dbd
000002a0: 9aa8 9ebf 8af1 aabe cfe8 0cbe 4776 0b3d
000002b0: 432e abbe 5343 97be 4e22 d6bd dcf3 6cbe
000002c0: a3f4 9abf 3c69 1c3e 5bd5 cebe 8318 71bf
000002d0: 6b24 dbbe 7f6e 013b 809f 65bf d0a1 1bbf
000002e0: c8c4 66be 7178 f4be c9c9 ecbe 2943 cbbf
000002f0: b052 18bf 2511 a2bf e5f7 debe 31c7 08bf
00000300: ecf3 10bf 7b5b 9cbf 8472 173e 0ba6 173f
00000310: 98c0 a6be ea42 013f c60a 81be b8d9 9fbd
0.5961397 0.7305221 0.6988379 -0.56139296 0.15764211 0.7232841 -0.59767365 -0.08864789
-0.058518425 -0.85187477 -0.28218266 -0.15466763 0.07927241 0.32330912 0.3874887 0.16411094
0.5683351 -0.05293996 0.09000773 -0.31854224 0.93609095 -0.08707314 0.029478546 0.086551
0.027995417 0.6588429 0.3111558 0.4930244 0.21656454 -0.29867855 1.3032484 -0.14750822
-0.44402933 0.13144694 -0.15302432 0.20914567 0.4090651 0.24790107 0.45930302 0.023213487
-0.15727846 0.2555611 0.47817886 0.026395932 1.0318475 0.23391448 -0.122141495 -0.248995
1.0563009 0.80920994 -0.31830332 0.49610752 -0.6240501 -0.5599642 0.1839753 -0.17087908
-0.5626111 -0.17524359 -0.20896925 0.28317952 -0.2372653 -0.33883533 -0.6969819 -0.73970693
-0.028641148 0.026395958 -0.02175538 -0.45982575 0.30780357 -0.73053014 -0.43773848 -1.2094971
-0.10860595 0.98552895 -0.79529244 -0.72442627 0.16247614 0.08572765 -0.3394483 -0.68027043
-0.44851524 0.028012183 0.20087011 0.038507115 -0.99736536 -0.52384365 -0.45116204 0.41765916
0.43587664 1.0216215 0.5577938 -1.3343158 -0.22653922 -0.61735547 -0.8612163 -0.25246105
-0.667797 -0.030258255 0.11431315 0.24355456 0.405013 -0.0706077 -0.2298567 -0.38691255
-0.13770889 -0.5452748 -0.5573998 -0.2914646 0.17196214 0.5871201 -0.28999358 0.054328285
0.49744028 0.11788756 -0.2796618 -0.17421523 0.18239906 0.03938209 -0.6410314 -0.17795095
-0.10627151 0.18748493 -0.09991024 -0.36130837 0.60008216 -0.42109227 -0.5647413 0.4362248
0.13840386 -0.2807307 -0.26645643 0.17915624 0.39409277 -0.006543797 0.5781478 0.4157854
-0.35943362 0.81533647 0.68662035 -0.53567654 -0.3344618 0.16301359 -0.7930354 -0.9880618
-0.0056646564 -0.1893573 -0.41031936 0.61001664 -0.41489327 -0.6375714 -0.749782 -0.043955397
-0.50482786 -0.68091524 -1.117366 -0.33142444 -0.1581157 -0.9026812 0.059834164 -0.6064165
0.025612632 -0.08605089 -0.051141385 -0.033132646 -1.1013143 0.006584265 -0.5421236 -0.06914228
-1.2395203 -0.33387405 -0.13760684 0.034048345 -0.33433732 -0.29543552 -0.10455762 -0.231399
-1.2105907 0.15274519 -0.40397152 -0.94178027 -0.42801222 0.0019749699 -0.896965 -0.6079378
-0.22536004 -0.4774814 -0.462477 -1.5879871 -0.5950117 -1.2661482 -0.43548504 -0.5342894
-0.56622195 -1.2215418 0.14789778 0.59237736 -0.32568812 0.5049273 -0.25203532 -0.078051984

lstm.bias_hh_l0 f4 [200]
00000000: 5c4e b43e 09fd 163f a4d9 2b3f 794e e3be
00000010: 9dc3 bd3e 642c 493f 11d8 fbbe 00a5 a33d
00000020: b179 52bd 98dd 88bf 2f9c 7cbe 6400 8b3d
00000030: 6df7 b83d ba04 843e 0693 b93e fdf1 173e
00000040: 70f2 d93e c639 debd c9ed ba3a 9d0b 59be
00000050: c626 4e3f d34f 4ebd c8ba 833e 2dd5 82bd
00000060: 6b3a 2e3e 6eaf 3c3f b2de e33e abbc 983e
00000070: 2ba1 8f3e 1130 babe 1f8d 8e3f ff5e 81ba
00000080: 4324 b9be dc86 233e 8b65 aabd 157d 863d
00000090: ce79 9c3e f99b fd3d 2d28 e03e 8743 6c3e
000000a0: 2dbd 91be a8ed 083d e82d d43e b9a1 62be
000000b0: a7a7 7e3f 20ce b33e e81f 97bd c364 efbe
000000c0: 121b 973f a7c7 2e3f 59f3 bbbe a451 8f3e
000000d0: 9a40 11bf 05a4 11bf 1759 753e d4d4 d3be
000000e0: 10e9 21bf ed0d 4fbd 330c b2bd 7fe7 233e
000000f0: 3b3f 97bd ad74 f5be f2d2 3fbf b5f8 0fbf
00000100: b91a 62bd a5c1 c2bc b7cd ed3c 5d1a d5be
00000110: 87d2 953d de76 44bf bed1 21bf 09c2 a8bf
00000120: 57f3 5cbc bff7 553f 5fe6 39bf f8db 11bf
00000130: 1e06 4b3e 3783 313e e4f5 04bf 906c 45bf
00000140: 3742 c0be 2043 d5bd 39c1 8e3e e381 393d
00000150: 9033 95bf 2717 27bf 2cad a5be 8792 083f
00000160: d969 fe3e fbbd 913f 86eb 133f ea03 9bbf
00000170: a860 07be 41db 05bf db06 6abf 1531 8fbe
00000180: b076 12bf e0ea 45bd f326 da3c 71a9 933e
00000190: 5e87 0e3f 1397 083d 9036 f0bd aa66 bdbe
000001a0: e326 98be 995e 31bf 731d f6be 5e4e 69be
000001b0: 0b89 a33e a260 083f a98b d6be 767b 23be
000001c0: 674b 113f 4597 713e 0084 9fbe fa36 54be
000001d0: bb95 5c3e ea68 723e 71d4 2dbf c449 6ebc
000001e0: dfee 8cbe 4af7 b63e 5894 013e 744c 96be
000001f0: 578c 1d3f 0988 dbbe 320f 2ebf a81b 963e
00000200: eadd 523e 44d5 97be 387b edbd 7290 b43c
00000210: dfd0 533e 947f b53d d6af ed3e 184b d33e
00000220: bdf5 93be 5e4c 503f 65fd 553f 5332 16bf
00000230: 827b 3dbe 641d fb3d 3ca0 2cbf c146 8abf
00000240: d4ff 4e3e e6cc 49be fae6 d6be 0f9d 0f3f
00000250: 4b8a a9be 407e 1bbf 9a7d 58bf 2bd2 cb3b
00000260: 97f4 08bf 2551 5ebf a983 83bf 56ae aebe
00000270: be98 9fbc 9651 25bf 8817 debb e70c 45bf
00000280: 7c27 4abc 958d 0abe 3925 23be ae37 31be
00000290: f4d7 83bf b4c7 28be 1d47 2dbf de95 f7bc
000002a0: fc2a 91bf e93d 97be 82c0 603c c7e5 543e
000002b0: 44af 8abe 5fb9 a6be f895 80bc 4e35 9dbe
000002c0: dd72 80bf c604 ab3c c4e3 b7be 252e 83bf
000002d0: 1f2f 42be 3804 8b3b 26a0 71bf 1864 5dbf
000002e0: 5e5a a6be aa5e fabe 9fe4 c0be 76be b6bf
000002f0: ac11 22bf c1b0 9ebf b446 fbbe 4f97 05bf
00000300: a95d 3abf 4bb4 b2bf c754 2abc 7ba5 093f
00000310: 07c6 9dbe b4ee 8d3e 28e6 72be 1e6b 62bd
0.35216033 0.5897985 0.6712897 -0.44395807 0.37063304 0.7858336 -0.49188283 0.079904556
-0.051385585 -1.0692625 -0.24668954 0.06787184 0.09031568 0.25784856 0.36244982 0.14838405
0.42567778 -0.10850863 0.0014261539 -0.21195836 0.80527914 -0.050369095 0.2572844 -0.06388316
0.17014472 0.73705184 0.4450584 0.29831442 0.2805265 -0.36364797 1.1136817 -0.000987023
-0.36160478 0.15969414 -0.08320149 0.06566826 0.3056168 0.12383265 0.43780652 0.23072635
-0.28464642 0.03342977 0.41441274 -0.22132005 0.9947457 0.35118198 -0.073791325 -0.46756563
1.1805136 0.68273395 -0.36709097 0.27991974 -0.567392 -0.568909 0.23959766 -0.41373312
-0.6324625 -0.05055039 -0.08693733 0.16006278 -0.07385107 -0.4794058 -0.7493125 -0.5623887
-0.055201266 -0.023773978 0.029028757 -0.41621676 0.073155455 -0.76743877 -0.63210666 -1.3184215
-0.013485751 0.83581156 -0.72617143 -0.5697627 0.19826552 0.1733521 -0.519377 -0.7711878
-0.37550518 -0.10413194 0.27881792 0.045289885 -1.1656361 -0.652697 -0.32358682 0.53348583
0.4969013 1.1386102 0.57781255 -1.211057 -0.13220465 -0.5228768 -0.9141671 -0.27967134
-0.5721235 -0.048319697 0.0266299 0.2884021 0.55675304 0.0333472 -0.11729157 -0.3699239
-0.29717168 -0.6928497 -0.48069343 -0.22783801 0.31940493 0.5327245 -0.41903427 -0.15965065
0.5675568 0.23592861 -0.31155396 -0.20724097 0.21541493 0.23672834 -0.67902285 -0.014543954
-0.27525994 0.35735542 0.12654245 -0.29355204 0.61542267 -0.42877224 -0.67991936 0.29317975
0.20592466 -0.29654896 -0.11595768 0.022041533 0.20685147 0.08862224 0.46423215 0.4126823
-0.2889842 0.8136653 0.83589774 -0.5867054 -0.18504146 0.12261465 -0.67432 -1.0802842
0.20214778 -0.19707069 -0.41973096 0.5609903 -0.33113322 -0.6073952 -0.8456665 0.0062201223
-0.53498214 -0.86842567 -1.0274554 -0.34117383 -0.019482013 -0.64577615 -0.0067777075 -0.7697281
-0.012338515 -0.13530572 -0.15932168 -0.17306396 -1.0300279 -0.1648243 -0.67686635 -0.03022283
-1.1341243 -0.2953942 0.013717772 0.20790778 -0.27086842 -0.32563302 -0.01569651 -0.3070473
-1.0035053 0.0208763 -0.3591596 -1.0248457 -0.18963288 0.0042424463 -0.9438499 -0.86480856
-0.3249082 -0.48900348 -0.37674424 -1.4276874 -0.63308215 -1.2397691 -0.4907738 -0.52184004
-0.72799164 -1.3961271 -0.010396189 0.5376813 -0.30815145 0.2772118 -0.2372061 -0.055277936

lstm.weight_ih_l1 f4 [200, 50]
00000000: 8c6e fd3e 2003 9cbe f88c a73d a43f b7bf
00000010: 005d 47bd d976 aa3e 50be 85be fd9f 6d3e
00000020: ea6e 5fbe 41bd 33c0 3608 f8be de04 72be
00000030: ee0d a53d 402a 0cbf b1d6 a0be b212 103e
00000040: 2973 8bbd 69c5 cd3d 1234 90bf 3768 913e
00000050: 7ca5 bd3c ee7f 42be b3c1 bcbe 8baf 923e
00000060: d47d be3f 2080 a63c 125d 08bf 77ce 35bf
00000070: 0ad0 3c3e 34c0 8b3d d387 24c0 c3a0 b4bd
00000080: 5b6b 8c3f 4e7b e4bf c2c1 85be 2186 a0be
00000090: 08cb afbe 0b5d 0cbf 7e28 52bc c8d9 073f
000000a0: 75fe 89be cf88 0abf ac46 81be 18f7 60bf
000000b0: 3a4e 04bf c3cb 79bd 36d0 72be 9b43 e63f
000000c0: cd47 aabb d721 4e3d 465a b6bd 5b0d 193e
000000d0: b028 363f 1d89 03c1 409c 68c0 698b 0dc1
000000e0: 4688 85c0 bdbe 783d 972b 6f3e b863 ed3e
000000f0: 2666 af3d d263 5fbf 644b 623e 0d19 ae3e
00000100: 8773 953d 295a 8a3e 1230 7040 02bb 403f
00000110: 17c7 10c1 04a7 8c3e 33fa d13e 8185 533d
00000120: 2db4 633d 75f9 16bf 07e3 0141 e639 7e3e
00000130: c2e9 533e a643 e43d 2b9d 67bd 31c5 353f
00000140: 1fe2 2a3d c738 973d 1ca2 5441 db22 8a3e
00000150: 5cc7 3d3f 374b 533f d75e 4f3e bfcc bc3e
00000160: 8c9f 7e3f 92fb d6bf c8f8 a83d b756 f6be
00000170: f143 ba3d e7cb 983e 4203 47bf 0427 52bf
00000180: e42e 5ac0 d8f7 35be 3b37 cebd 40d0 14be
00000190: 9450 d83d 62c9 153f 68fd 483e d8dd b23f
000001a0: d360 e4be 5637 dbbd 3e03 8ebf 6196 6c3f
000001b0: 9771 9c3e 1da1 a8c0 4f44 9e3e 301e 81bd
000001c0: fbf7 433e 86e4 9e3e be7c 61bc b9cf 9cbd
000001d0: 606a efbd ed3c a0bf 5175 c3bf 431b 6d3f
000001e0: 414a fa3f 9f91 8a3f 6dae 62c0 46cd 0dbe
000001f0: 85e5 eebf fd69 0abd 2af1 263c cfb7 843c
00000200: ee3b a6be 9b51 df3e 8caf f2bf 935b ac3f
00000210: 7673 b63e 87e6 60be 4d8c 18be 8ff6 dcbe
00000220: 5f90 bcbf 595b bd3c 466a f83e e6ef 14be
00000230: 6e46 083e 21df 0b3f d513 2cc0 d2a1 48be
00000240: 2127 533f db5f 70bd c126 083f 139a 613f
00000250: 8d42 c2bf c319 863d 8837 2d40 5dfc 9f3d
00000260: 0063 103f 1c63 c73f f769 bebf 8b2c 8abf
00000270: e81f 65bf 7df6 45bf 663c ed3d 79a9 10be
00000280: e2fb 60c0 b189 fdbd c468 d4be 1efa 2ebf
00000290: 4793 78bc e1a2 513c 1838 943f 6b5f d53c
000002a0: cea2 bbbf a902 d9be 4733 2dc0 efce 54bd
000002b0: dc92 c03d d48e 97be 9556 403f 3e3d 1e3f
000002c0: 104d 983e 86e2 9d3e 040b 133d 1bff cdbc
000002d0: 63fa 2fc0 4e0d 1dbd b9e2 cc3f a6b7 49c0
000002e0: 300a 2e3f 4fe1 833f fe76 84be 5ffd acbe
000002f0: 3801 f53e 1da3 433f e097 a1bd bb65 0340
00000300: 3304 e6be c303 403d 67ff b5be b4b7 053e
00000310: e92a b3bf 1153 6f40 deb7 d7be 6401 e7be
00000320: 4cb1 7dbe 56e3 bcbe df99 9b3e 58c1 4a3d
00000330: 3854 98be 14ce 74be 2dfa 343b 32fc 813e
00000340: e432 a9ba 9d8f 49be 2491 e63d 90d9 d93f
00000350: 491a 7bbe 9f25 a7bd 7fcc 443f e18c 68be
00000360: a978 a63e a23d f03e 76d9 84bd 3b11 2fc0
00000370: d63f a33e 8072 dbbf 5d15 16bf a9cd 393e
00000380: 48a0 8b3e ef4b 123f 57de 1d3f 825a cebe
00000390: fa2a c2bd a769 d1bf 2ac6 583f f0b9 ffbe
000003a0: d8ae 6b3e ab55 9b3f 7618 2e3f 9b18 e53e
000003b0: 5433 5bbf cf0a 17bf 2794 613d a285 50bd
000003c0: 7cce 49bc ea94 0940 1507 883f 8c2b 97be
000003d0: 232c 10be 63fa ac3d 904c f9bf e6d7 bdbe
000003e0: e78e 2f3f 2c57 e13d 5d8c dc3e cd4a ca3a
000003f0: 9c93 b2be 638a 95be 2892 f13e 62dd 443e
0.49498403 -0.30471134 0.081811845 -1.4316297 -0.048672676 0.332938 -0.2612176 0.23205562
-0.21819654 -2.8084261 -0.48443764 -0.23634669 0.080592975 -0.5475197 -0.31413797 0.14069632
-0.068090744 0.100474186 -1.1265891 0.28399822 0.023150198 -0.18994114 -0.3686653 0.28649554
1.488215 0.020324767 -0.53267014 -0.71018165 0.18438736 0.06823769 -2.57079 -0.08819725
1.0970262 -1.785013 -0.26124388 -0.31352332 -0.34334588 -0.5482947 -0.012827037 0.5306668
-0.26951948 -0.54115003 -0.2524923 -0.87877035 -0.51681864 -0.060985338 -0.23712239 1.7989382
-0.0051965476 0.05032524 -0.08903937 0.14946501 0.71155834 -8.220975 -3.6345367 -8.846536
-4.172885 0.060728777 0.23356472 0.46365142 0.08564405 -0.8726169 0.22099072 0.34003487
0.07297426 0.27021912 3.752934 0.7528535 -9.048606 0.27471173 0.410112 0.05164099
0.05559175 -0.5897439 8.117927 0.24826774 0.2069464 0.111457154 -0.05654637 0.71004015
0.041719552 0.07383876 13.2895775 0.26979718 0.74132323 0.82536644 0.20251022 0.3687496
0.994622 -1.6795523 0.08250576 -0.48113033 0.0909499 0.29843065 -0.77739346 -0.82090783
-3.409112 -0.17770326 -0.10069128 -0.14532566 0.10562244 0.5851041 0.19627917 1.3973951
-0.4460512 -0.10703914 -1.109474 0.9241696 0.30555412 -5.269667 0.3091149 -0.06304586
0.19137566 0.31033725 -0.013762651 -0.076568075 -0.11690211 -1.2518593 -1.5270177 0.92619723
1.955391 1.082569 -3.541896 -0.13847837 -1.8663794 -0.033792485 0.010189334 0.016200928
-0.32467598 0.43616948 -1.8959823 1.3465446 0.35634965 -0.21962939 -0.1489727 -0.4315686
-1.4731559 0.023114847 0.4851858 -0.14544639 0.13308117 0.5463734 -2.6887105 -0.1959298
0.8248158 -0.058685165 0.53184134 0.88125724 -1.517656 0.065478824 2.7065144 0.07811806
0.5640106 1.5577121 -1.4876088 -1.0794843 -0.8950181 -0.77329236 0.11583786 -0.14127149
-3.5153737 -0.12379778 -0.4148618 -0.683504 -0.015171832 0.012795181 1.1579618 0.026046475
-1.4659059 -0.42384842 -2.7062547 -0.05195516 0.09403011 -0.29601157 0.75132114 0.618122
0.29746294 0.30836886 0.035899177 -0.025146058 -2.7496574 -0.038342766 1.600669 -3.151834
0.67984295 1.0303134 -0.25872034 -0.33787057 0.47852492 0.76420766 -0.07890296 2.0530841
-0.4492508 0.046878587 -0.3554642 0.13058358 -1.399747 3.739445 -0.42132467 -0.45118248
-0.24774665 -0.36892194 0.30390832 0.049500793 -0.29751754 -0.23906738 0.0027614937 0.25387722
-0.0012908843 -0.1968369 0.11258152 1.701952 -0.24521746 -0.081614725 0.76874536 -0.22709991
0.3251393 0.46922022 -0.0648679 -2.7354267 0.3188464 -1.7144318 -0.5862635 0.1814486
0.27270722 0.57147115 0.6166739 -0.40303427 -0.094808534 -1.6360368 0.84677374 -0.49946547
0.23015916 1.2135519 0.68006074 0.44745335 -0.85625196 -0.5900087 0.05507293 -0.050908692
-0.012317296 2.149714 1.0627161 -0.2952541 -0.14079337 0.08446195 -1.947649 -0.3707878
0.68577427 0.11002955 0.4307584 0.0015433669 -0.34878242 -0.29207143 0.4718182 0.19225076

lstm.weight_hh_l1 f4 [200, 50]
00000000: c24e d5be 5a0e ff3d 6e90 29c0 916d ea3f
00000010: fd94 4a3f 0552 dfbd fc4b 65bf a0de febe
00000020: bb55 5d3f a06d 85bf 17ea e73d 8e96 fd3f
00000030: 7bfd 02c0 6b26 f93f a952 0040 29c8 70bf
00000040: 515b 0440 0add 82bf 8f33 183f b74e 903f
00000050: 613c f33e 4f7e b43e b4c3 42c0 9aec dcbe
00000060: 5685 103f 5a7d 75c0 f951 48be d3c4 653f
00000070: 6896 a5bf 55bc 83bf f20f 90be 32f6 9240
00000080: 2bcb 8e3f 5116 adbf 3d3d 82bf 5e4c e53e
00000090: ba45 87bf ca57 a03f a44f 6c3f 8ff0 50be
000000a0: ea7b bfbf 8249 97be 4973 dbbe 3d25 223f
000000b0: 7e5e 75bf d0e1 1ebf 436d 5bbe fc0b 523f
000000c0: 1fe1 593f a42f 4e3f f786 89bd 2cc9 063f
000000d0: d11e 7dbe a97b 34be ffdb 693f 6d11 5dc0
000000e0: f1ee 753e 7d10 0640 3ceb b03f 2656 06bf
000000f0: fdba 4cbf 65f7 b4bf 52d5 0740 56c4 a83f
00000100: e885 1040 42dc dcbf a4e3 62bf 0c7d 0240
00000110: 0cd2 333f 74c5 ffbf 8dd1 263e 3c8e 09c0
00000120: 108d 8a3d 0b2b cc3e f13b f63e f593 94be
00000130: 9831 06bf e90d 803f f579 a73f f50a 90bf
00000140: 6de5 343d b485 b83f 0a93 aabf 1527 8cbf
00000150: cdc1 963d f0ab b53f 63fa 0cbf 2561 9e3f
00000160: 09f3 2abf a0c9 663f c90a 30bf d8f3 0040
00000170: 0f24 c8bf 9247 d5bf 75fa 33bf 2e55 293f
00000180: 52a7 2a3f 70f2 45c0 d9c2 2fbf 458c d13e
00000190: 0f6d e0bd 12a3 80be 8e13 64c0 246b 2a3e
000001a0: 34bd a13f 8581 3dc0 74d2 433f f2c5 823f
000001b0: ac16 dfbe 0bff 54c0 3998 acbd 38ca abbf
000001c0: cc41 8b3f 3fad 5040 f21d eebb 337a 90be
000001d0: f5d8 c33e 12b4 cb3f 8a6a 4640 801c 94bf
000001e0: 4ab6 debd 9975 a3bf d685 83c0 0ebc ce3f
000001f0: 4708 ba3e ef18 76c0 c839 403e 20e3 a5bf
00000200: a468 413f 701c 06bf f43d b33f 45d9 3140
00000210: 072e 333f d0d8 bf3f 1263 12bf 4a73 383f
00000220: 98e6 b2be b5c5 86be e37a 7ebc e86c 6abf
00000230: 23e2 db3f 8158 193f 2b9b 2ec0 d9ed ec3c
00000240: e930 62bf 5e17 76be 6c52 343f 98df 61bf
00000250: 51e6 4bbf decd 8ebf 5557 dfbe f4da cf3e
00000260: d1b1 1ebf 5e78 b33f 81c6 abbe f6d5 7a3e
00000270: 3f8f 203f a375 cdbe 222f 0a3f c816 82be
00000280: 69ea e1be 1f5c a7bf 4039 d6be 904c 263f
00000290: 71b3 e33e 6a85 c7be 3d39 4c3f 1134 d6be
000002a0: 4397 04bf f257 b4be c72c ccbe 96c3 3dbd
000002b0: 65c4 6ebf 60c5 bcbe b2ef 0c3d 08a0 3abf
000002c0: 55eb e53e b72c 0d40 1316 84bf 5eac 743e
000002d0: 5813 fabf ea5a 333f 5386 9bbf 04f9 003f
000002e0: 683d 2740 f129 afbf de8e 073d 614d 3e3f
000002f0: 81e0 b2bf ae92 503e 568c 293f 2535 8ebf
00000300: 5754 873f 21af 223e 4225 d4bd 4274 24bd
00000310: f3a2 7cbf d7d9 94be 5a96 02be 9845 133f
00000320: b34a 953e 2099 05bf 62a1 183f 2348 60be
00000330: 5089 883f 46c9 ee3e 4ec5 5e3f 20e7 c7bd
00000340: f8d3 a13e 8fd6 42be 7ba0 0a3f 5367 63bf
00000350: be4a b9bd f71f d13f 8c25 37be 6876 1c3e
00000360: 2390 543e 77e6 803e 7c51 87be 111d 8f3e
00000370: 0614 e73e b773 f8be 7ba5 98bf 1530 12bf
00000380: b6b0 14be 0946 21bf e7a8 75bf 8d71 a1bf
00000390: d5f8 c83e e821 763e 11b0 a4be 5609 e93e
000003a0: 26cd babe 687b 7b3f 5b1b ea3f 065d 51bd
000003b0: e956 82be dcd1 25bf 323d 783e 8894 64bf
000003c0: b5e9 f3be 5944 3c3e e687 b33d 46f9 433e
000003d0: cec5 2fbd c3cf 173f 5098 47bf 9ba9 2b3f
000003e0: 165b 2f3d 4296 293d b684 05bf a167 d73e
000003f0: f487 1c3f 2323 af3e cd0c 52bd 469a 803e
-0.4166165 0.12453909 -2.6494403 1.8314687 0.7913359 -0.10904316 -0.8956907 -0.49779224
0.8645894 -1.042408 0.11323946 1.9811571 -2.0467212 1.9464849 2.0050452 -0.9405542
2.0680735 -1.0223706 0.5945367 1.1274022 0.47507003 0.35252616 -3.0431948 -0.43149263
0.56453454 -3.8357759 -0.1956252 0.89753455 -1.2936525 -1.0291849 -0.28137165 4.592553
1.1155752 -1.3522435 -1.0174938 0.44784826 -1.0568154 1.2526791 0.9230902 -0.20404266
-1.495969 -0.2954827 -0.42861393 0.6333807 -0.9584731 -0.6206331 -0.21428399 0.82049537
0.8510913 0.80541444 -0.067151956 0.52650714 -0.24718787 -0.17625298 0.9135131 -3.4541886
0.2401693 2.0947564 1.3821788 -0.524752 -0.7997282 -1.4137999 2.122395 1.3184917
2.258173 -1.7254717 -0.886286 2.0388823 0.7024238 -1.9982133 0.16290875 -2.1493063
0.06765187 0.3987659 0.48092607 -0.29019132 -0.52419424 1.0004245 1.3084093 -1.1253344
0.04416411 1.4415803 -1.3326123 -1.0949427 0.07361183 1.4193096 -0.5506956 1.2373396
-0.6677709 0.90151405 -0.68766457 2.014883 -1.5636004 -1.6662467 -0.7030404 0.661456
0.6666156 -3.0929222 -0.6865669 0.4092733 -0.10958301 -0.25124413 -3.5636935 0.16642433
1.2635865 -2.9610302 0.76493 1.0216658 -0.43571985 -3.3280666 -0.08427472 -1.3421087
1.0879455 3.260574 -0.0072667534 -0.2821823 0.38251463 1.5914328 3.1002526 -1.1571198
-0.10874613 -1.2770263 -4.1100874 1.615114 0.3633444 -3.8452718 0.18772042 -1.2959938
0.75550294 -0.5238714 1.4003282 2.778886 0.6999211 1.4988041 -0.5718242 0.7205092
-0.34941554 -0.26322713 -0.015532228 -0.9157243 1.7178386 0.5990067 -2.7282207 0.028922008
-0.8835588 -0.24032351 0.70438266 -0.882318 -0.7964831 -1.1156576 -0.43621317 0.40596735
-0.61990076 1.4021108 -0.33549884 0.24495682 0.62718576 -0.40128812 0.5397817 -0.25408006
-0.44124153 -1.3074988 -0.41840553 0.64960575 0.4447284 -0.38968974 0.7977484 -0.418366
-0.5179331 -0.35223347 -0.39877912 -0.046329103 -0.93268424 -0.36869335 0.03440828 -0.7290044
0.44906107 2.2058542 -1.0319237 0.23893878 -1.9537153 0.700606 -1.2150367 0.5037997
2.613123 -1.3684675 0.033095233 0.7433682 -1.3974763 0.20368454 0.6622976 -1.1109968
1.0572613 0.15887119 -0.10358669 -0.040149935 -0.9868614 -0.2907245 -0.12752667 0.57528067
0.29158553 -0.52186775 0.5962125 -0.21902518 1.0666904 0.46637934 0.87019813 -0.097608805
0.31607032 -0.1902716 0.54151124 -0.88829535 -0.09047459 1.633788 -0.17885417 0.15279543
0.20758109 0.2517583 -0.26429355 0.27951863 0.45132464 -0.48525783 -1.1925501 -0.5710462
-0.14520535 -0.6299749 -0.9596085 -1.2612778 0.39252344 0.24036372 -0.32165578 0.45514935
-0.3648464 0.9823518 1.8289598 -0.051114105 -0.25456932 -0.64773345 0.24242094 -0.8928914
-0.47639242 0.18385448 0.08766155 0.19138059 -0.04291325 0.59301394 -0.77966785 0.6705567
0.042811476 0.041403063 -0.52155626 0.4207125 0.6114495 0.34206495 -0.05128174 0.251177

lstm.bias_ih_l1 f4 [200]
00000000: 3e95 22bf b5be 09bf e33c 29bf 51e5 6dbf
00000010: 45f1 9cbf 438a 6bbf 5d6b c9bd 3417 00bf
00000020: 82af 193e d7c1 c63e f733 8abf eee9 74bf
00000030: 62ef e63d 744d 96bf de2d bebe 2226 afbd
00000040: 2836 a1bf 1614 0e3e 2bd6 b3be 090e 11bf
00000050: e3b3 cb3e 1ebe 22bf bcef 0c3f bf37 a9be
00000060: 99fe 4dbf c593 843e e5af aebf 854a e9bd
00000070: 76f0 cfbe 9a2f 36bf 2878 62bf fe88 6ebf
00000080: 190a 57bf c612 76bf d581 303e 1268 cbbe
00000090: ac8e 51bf eae0 35bf beb0 c63e ed0f 4bbf
000000a0: 2087 12bf 3fb9 94be 82d3 c9be e118 19be
000000b0: b4f2 513f 7d05 32bf c5d3 80be 9b14 bdbf
000000c0: 6855 4e3d fc9c 7ebf 4aa9 56bf d448 20c0
000000d0: 23e1 92bf 48e7 24c0 fda0 10bf cdcc 4cbf
000000e0: 58e3 0e3e b858 52bf 0c9a ccbf bb77 62bf
000000f0: a63d 63bf 135e 23be 3257 6bbf 7717 83bf
00000100: f161 2fbf 3ca4 9fbf 62a4 67bf 19f4 7fbf
00000110: e485 92be 1482 cebf 4af4 e0bf df45 a6bf
00000120: 53ae 583e 8576 b83d 54a7 a7bf 06b7 65bf
00000130: 8822 5fc0 a131 e6bf c4a3 cfbf dd53 85bf
00000140: cf53 45c0 d773 88bf 03eb ccbf 5de5 06c0
00000150: 18e5 d6be 007d 1b3d 0ccd 19c0 d12e 69bf
00000160: e642 b8bf 694d 96bf 0763 d3bf 82cb 87bf
00000170: 5307 b1bf e657 c7be 315f 5b3e 19ea 81bf
00000180: 8096 00c0 2e8a dbbf 33aa abbf 6878 b1bf
00000190: 96a8 d8ba 98b6 e43e 0d5e 90be 1f69 5ebe
000001a0: 9ce2 23be 042e dc3e 3630 e73e 10b5 1ebf
000001b0: f2cc f6be cd8d 83bf cfa4 84bf 1027 103e
000001c0: 31da ff3e 0dd1 e53b 19b0 2bbf c63c e03d
000001d0: 1dd1 653d ed47 3cbd 54cc c7be d70d aa3d
000001e0: 7d74 d63d c1db c7be 5b59 04bf a98a 4bbe
000001f0: 9085 413f 3a24 eabe 370b e23d 4b12 ccbd
00000200: 6629 11bd 3e68 5e3e 4705 bcbd 7e62 113e
00000210: 5c4e 193f 387e 323f 5064 9fbf 484e d4be
00000220: b5fc 7e3d 5762 17bf 6819 98bc f74e cdbe
00000230: d1ae a8bd 6391 e8bd 4b1b ae3e f229 16bd
00000240: 2f49 4d3f ff2f 6abe 8fdc a23e 5363 a9be
00000250: 78b2 ecbd 369e 98bd 307e 46bf 6cbe efbf
00000260: d1a3 64be 7ab3 5cbf 5cbd 5cbe cd84 9abf
00000270: fb96 1ec0 0d38 16c0 2383 2cbf d1e4 a9bf
00000280: 2f32 1bc0 3587 023f ffee 8bbf cfb7 80bf
00000290: 0ba2 98bf 893e cabf 8b8a 98be 03be f5be
000002a0: a407 323e c9d1 85bf eeea 1abf 81d7 7c3d
000002b0: 462e dfbf 3ae8 2abf 97e3 f8be cc51 edbf
000002c0: 05d6 ffbf 5ef3 e5bf 4bc0 6bbf 0600 26bf
000002d0: 2dc7 b0bf 0a98 3dbf d60d be3e 347a 91be
000002e0: 44b1 41bf 9e06 55bf 0aca bebf 0beb aebe
000002f0: b9e9 e3bf 1bbd 20bf a4f5 05bf 314c 8dbd
00000300: be79 59bf ef5c 75bf 2dac 96bf 882c 72bf
00000310: 1dbe 19bf bf28 25bf 5e1d 97bd b70b 8abe
-0.63508976 -0.5380662 -0.6610853 -0.92928034 -1.226113 -0.92007846 -0.09834931 -0.50035405
0.15008357 0.38819763 -1.0797108 -0.9566945 0.112761274 -1.1742387 -0.3714437 -0.08552195
-1.2594652 0.1387485 -0.35124335 -0.5666204 0.3978568 -0.63571346 0.55053306 -0.33050343
-0.8046661 0.2589399 -1.3647429 -0.113911666 -0.40613145 -0.71166384 -0.88464594 -0.93177783
-0.8399978 -0.96122396 0.17237027 -0.39727837 -0.81858325 -0.71046317 0.3880672 -0.79321176
-0.57237434 -0.29047582 -0.3941918 -0.14950897 0.8201096 -0.69539624 -0.25161567 -1.4771913
0.05037442 -0.9945829 -0.83852065 -2.504445 -1.1474956 -2.5766163 -0.5649565 -0.8
0.13953912 -0.82166624 -1.5984511 -0.88463944 -0.88765943 -0.15953855 -0.91929924 -1.0241536
-0.6850882 -1.2471995 -0.90485203 -0.9998184 -0.28617775 -1.6133447 -1.7574551 -1.2990073
0.2116025 0.09006981 -1.309794 -0.89732397 -3.4864826 -1.7983896 -1.6221852 -1.0416218
-3.0832403 -1.0660352 -1.600922 -2.1077492 -0.4197166 0.037961006 -2.40314 -0.9108706
-1.4395416 -1.1742374 -1.6514596 -1.0608981 -1.383036 -0.3893425 0.21423031 -1.0149566
-2.0091858 -1.7151544 -1.3411316 -1.386487 -0.0016529735 0.44670558 -0.28196755 -0.21719788
-0.16004413 0.43003857 0.4515397 -0.6199503 -0.48203236 -1.0277649 -1.0362796 0.14077401
0.49971154 0.007013446 -0.6706558 0.109490916 0.05610763 -0.04596703 -0.39023077 0.08303421
0.10471437 -0.39034846 -0.51698846 -0.19877113 0.75594425 -0.45730764 0.11037295 -0.099644266
-0.03543987 0.21719453 -0.09180694 0.14197728 0.5988519 0.69723845 -1.2452488 -0.41465974
0.06225272 -0.5913443 -0.018566802 -0.40099308 -0.082364686 -0.11355855 0.34005198 -0.036661096
0.80189794 -0.22869872 0.31808898 -0.3308359 -0.11557478 -0.07452051 -0.77536297 -1.8729987
-0.22328116 -0.8621136 -0.2155661 -1.2071778 -2.477965 -2.347171 -0.673876 -1.3272954
-2.424938 0.5098756 -1.0932311 -1.0056094 -1.1924452 -1.5800334 -0.297932 -0.4799653
0.17385727 -1.0454646 -0.60514724 0.061728958 -1.7435997 -0.667606 -0.48611137 -1.8540587
-1.9987189 -1.7964895 -0.9209029 -0.64843786 -1.3810784 -0.7406012 0.3711993 -0.28413546
-0.7566111 -0.8321322 -1.4905407 -0.341637 -1.7805701 -0.6278855 -0.5232794 -0.06899298
-0.8495139 -0.9584493 -1.1771294 -0.945992 -0.60055715 -0.645153 -0.07378648 -0.26962063

lstm.bias_hh_l1 f4 [200]
00000000: 27c3 0fbf 795c f6be 842b 53bf c27c 5fbf
00000010: c824 93bf 1844 5dbf 0fea 1cbe ffa7 03bf
00000020: 5b14 973e bf5c b23e c339 8dbf b1f4 7fbf
00000030: 274c 683e 3c43 a2bf 1aec 88be 51e2 7bbe
00000040: e9bf bcbf 30b9 573e 824a aabe 7b2a 23bf
00000050: aae5 ae3e 9c30 10bf e301 f83e 83e3 71be
00000060: 4889 46bf 8465 c93d e507 a7bf 0f02 ef3d
00000070: eecc afbe a725 36bf b421 50bf 7307 6ebf
00000080: df8d 82bf bf47 86bf 8e94 5d3e 2f68 e4be
00000090: 9568 80bf 8382 2ebf 9d76 d23e dbe0 6fbf
000000a0: 32e0 e5be 84d8 b5be 73f7 e0be 1cab 88be
000000b0: f755 603f 1d26 36bf 63c2 bbbd 488a bcbf
000000c0: a844 86bd 89ee 54bf 168c 82bf ce84 2ac0
000000d0: 3988 79bf 1cc0 2cc0 aa5a d4be 33e5 51bf
000000e0: 1b5d 2b3e 907d 54bf 5950 cfbf 4a57 5bbf
000000f0: 1948 75bf 512b 23be 7615 28bf a245 8abf
00000100: 7aac 39bf f623 bebf 8bd3 7ebf 5adc 8ebf
00000110: 9eb9 c6be ec68 d4bf abbe e1bf 680d b3bf
00000120: adbc 853e f172 29be a68d c7bf c409 35bf
00000130: d38c 58c0 e998 c9bf dce0 e9bf 5a12 8fbf
00000140: 926b 41c0 1192 87bf 619b babf ff6e f4bf
00000150: 9e33 adbe c566 75bd a3fe 16c0 3309 51bf
00000160: c57c c1bf cb22 b3bf 6c73 c7bf 552b 88bf
00000170: 15ca a2bf 069a acbe 29df 893e 39f9 7bbf
00000180: b11e e2bf 615e eebf b4a6 94bf 7758 a6bf
00000190: 8ab4 1b3e a7e8 db3e 7076 bcbe 796d c0bd
000001a0: 382e 923c 37a5 e63e a00d 673e ddbc 0cbf
000001b0: 45ae 9ebe 20db 73bf d5e5 8cbf 06b9 c1bd
000001c0: 548d 233f 10d1 44be 9011 19bf 0b54 2d3e
000001d0: f0c1 e7bd d6bd 1abd 8bce 23be fb02 c83d
000001e0: a132 213e 13cb 15bf 37fc f3be 5e3c 0ebe
000001f0: 1be5 733f 6b32 13bf 43e7 ae3d 4c0e f0bd
00000200: 16a8 603d f263 413e c841 fe3d ed6e 8f3e
00000210: acdd dd3e 6d14 363f f53f adbf 691a d1be
00000220: f97f a83d ba64 13bf 16e2 cbbd 7fc9 d3be
00000230: 1fee 80be 9d30 17be 30f7 f63e 4c5b c1bd
00000240: 8c2c 573f 3a99 a1bd 903f cd3e 9ed0 69be
00000250: 1cb7 6ebe f825 063d d280 67bf 8208 eabf
00000260: 990b 5cbe 147b 47bf 484a f0bd 8b3c 8ebf
00000270: de47 12c0 2df3 16c0 0764 38bf a24c 94bf
00000280: 7630 18c0 157a 9d3e baf0 86bf e7ed 83bf
00000290: b34c b3bf 4e25 d9bf 48a6 40be bd54 09bf
000002a0: b2d8 eabb 3c97 8ebf 5ac0 31bf a48d 8a3e
000002b0: 4864 cebf 16e1 3ebf 08b2 16bf 8e94 edbf
000002c0: 57f2 02c0 25ad f0bf b7c6 79bf c048 03bf
000002d0: 4171 bbbf eb7d 31bf 9170 863e f7bd dfbe
000002e0: ea2a 5fbf 5556 24bf cda4 b4bf 6a6f c8be
000002f0: 9ff3 dfbf 223d 27bf 526b 28bf f35a 5abe
00000300: 59e7 40bf 7842 87bf 13ad 93bf 5a4c 76bf
00000310: fcb0 0fbf 4b0f 18bf 28bb 2dbe cf8e 45be
-0.56157154 -0.48117426 -0.82488275 -0.8729974 -1.14956 -0.8643203 -0.15323661 -0.51428217
0.29507717 0.34836385 -1.1033252 -0.99982744 0.226853 -1.2676768 -0.2674263 -0.24598052
-1.4746066 0.21066737 -0.3325997 -0.63736695 0.34159595 -0.5632417 0.4843894 -0.23621945
-0.77553225 0.09833816 -1.3049284 0.116703145 -0.34336036 -0.711512 -0.81301427 -0.92980117
-1.0199546 -1.0490645 0.216387 -0.44610736 -1.0031916 -0.68167895 0.4110612 -0.9370248
-0.4489761 -0.3551675 -0.4393879 -0.26693046 0.8763117 -0.71151906 -0.09167936 -1.47297
-0.06556064 -0.83176476 -1.0199001 -2.6643558 -0.97473484 -2.6992254 -0.4147542 -0.81990355
0.16734736 -0.83004093 -1.6196395 -0.8568007 -0.9581314 -0.15934493 -0.65657747 -1.08025
-0.72528803 -1.4854724 -0.9954154 -1.1160996 -0.3881349 -1.659452 -1.7636312 -1.3988466
0.2612051 -0.16547753 -1.5590103 -0.70718026 -3.3835952 -1.574979 -1.8271747 -1.1177475
-3.0221906 -1.0591451 -1.4578668 -1.9096373 -0.33828443 -0.05991246 -2.3592918 -0.8165466
-1.5116202 -1.3994993 -1.5582099 -1.0638224 -1.271792 -0.3371126 0.2692807 -0.9842716
-1.7665616 -1.8622552 -1.1613374 -1.2995747 0.15205589 0.42950937 -0.3680911 -0.0939588
0.017844304 0.45047924 0.22563791 -0.5497568 -0.30992332 -0.95256233 -1.1007639 -0.094591185
0.63887525 -0.19220376 -0.59792423 0.16926591 -0.113162875 -0.037778698 -0.15996759 0.097661935
0.1574197 -0.5851299 -0.47653362 -0.13890216 0.9527146 -0.57498807 0.085402034 -0.11721477
0.0548478 0.18885782 0.124148905 0.28014317 0.43333185 0.7112492 -1.3535143 -0.40840462
0.08227534 -0.5757557 -0.09955232 -0.41364667 -0.25181672 -0.14764638 0.48235464 -0.094412416
0.8405235 -0.07890554 0.40087557 -0.22833487 -0.23312038 0.032751054 -0.9043094 -1.8283846
-0.21488799 -0.7792218 -0.11732918 -1.1112226 -2.2856364 -2.3585923 -0.7202763 -1.1585886
-2.3779578 0.30757204 -1.0542214 -1.0306977 -1.4007782 -1.696451 -0.18813431 -0.53644925
-0.0071669454 -1.1139903 -0.6943413 0.27061188 -1.6124353 -0.74562204 -0.58865404 -1.856096
-2.0460413 -1.880284 -0.9756884 -0.5128288 -1.4643937 -0.6933276 0.26257756 -0.4369962
-0.87174857 -0.6419423 -1.4112793 -0.39147502 -1.7496222 -0.65327656 -0.6578876 -0.21323757
-0.7535301 -1.056716 -1.1537193 -0.96210253 -0.5612943 -0.59398335 -0.16965926 -0.19292758

lstm.weight_ih_l2 f4 [200, 50]
00000000: bca7 8a3e 4718 65bd 8bec 74bd 6056 e83d
00000010: d9b0 48bd 6214 77bf 72cd c3bd 4efe 863d
00000020: 0921 4c3e 20f5 cf3d af02 65bd 8d70 a8bf
00000030: 6eb6 2e3e fd19 68bc 89a6 a13e d7c0 02be
00000040: 7b07 403e 724e 02bf 5e1e 68bd 9d13 6d3d
00000050: 6354 8bbe 457c 123e d070 1240 f3c7 083f
00000060: 3dde 6abe 1fa7 cc3f 92f1 893e 0c23 18bf
00000070: 448a f93d ee1c e9bd 6496 793e 4d2e 423f
00000080: 0455 e53d 565f 5dbe fe21 26bd d2fa 86be
00000090: 9bed efbc c954 9fbe 8cc7 8bbe e040 fbbd
000000a0: 3d13 5a3e 1f6d fc3e 6b40 e13d d962 2b3e
000000b0: 3730 1bbf 88c4 053e 8010 293e 78df a73d
000000c0: db5f 8f3e 7a8d 203e a027 f1be 6e62 dbbc
000000d0: 4218 6fbe a126 ec3e 8ff1 463e 276c 3ebd
000000e0: b9a9 51be dedc 873e 9874 bcbe 807f aabe
000000f0: 6df5 d43d 2de1 b93f 4d5e acbe 8f30 87be
00000100: 88b8 973e b015 35be 5c38 46bd b241 1d3e
00000110: 7aef 923e a487 28be 25d9 613d 4343 fcbd
00000120: 4b9b d3bf 0cf9 2bbf 3c92 0fbe 166d 9ebf
00000130: 66c3 d13d 08a6 853f 638d 513c 42e3 633d
00000140: e32f df3e f0be 7dbf f8ca 42bd 6679 24be
00000150: c587 9a3d 6fe1 2d3d c79e 0fbe abbc 6f3e
00000160: 4535 993e ba6c b93d 51bf b3be c53f c0be
00000170: 1d4c c1bd 28fa 023e 5d07 323f 9706 4ebd
00000180: ae93 77bd 8812 173e 9509 9b3d 784a 5d3e
00000190: f3e7 dfbd 9688 903d ec7a 0f3f b801 913f
000001a0: d2dd 6d3d 3797 a6be 362e 23be d26a f63d
000001b0: 5c9d 0c3f 2ebd 333f c9c4 423d 4237 3fbf
000001c0: bf2a 3c3d 7b90 253d 03c9 453e 3d07 123e
000001d0: fc7d c13e 276a f23d a451 3b3e 57e4 03bd
000001e0: 2146 df3d ead3 e53e e02e 2c3f 7412 a83f
000001f0: 4920 593e 2b27 4f3f 73ed 4240 1dd8 173f
00000200: c0c1 81bd 636a 4c3c dcc0 1e40 3a99 e93f
00000210: 0e1d fdbe 7261 00bf e13f 92bc aac2 aeba
00000220: 68fa d0be c6b7 a7be 5dc5 fd3e add7 8e3b
00000230: 19a8 023f d082 62be d587 6f3b 0660 5bbe
00000240: 18a6 b6be f855 263d 9ca7 683c c449 933f
00000250: 1efc bb3e 1d15 8abe 738f 733e 1777 113e
00000260: c600 e53d 140b 5e3e b2e2 83be c1cb 013e
00000270: 52f6 cebd 76aa 5f3c a5aa 69be a352 a3be
00000280: 4490 ce3d a617 2ebe 797a a2be 0d6b be3e
00000290: 58ae 683d 9a2c ba3d ffd1 81bd e275 a3bc
000002a0: aaea 12be 4f1d d8bd b3c5 3fbe aabc 4cbd
000002b0: 78c3 ecbe 8a9a b63e f9b2 c03d 7766 e2be
000002c0: 5434 99bf 28f3 093d 0722 70bc 33cb 3dbe
000002d0: cd51 67bf 21b7 0ebd fc68 c93d 3528 8f3e
000002e0: bb9e e43d a45f 133f a76f f6be aea7 b43c
000002f0: bb96 4a3e 3364 13be d7df 1fbe 0a55 1a3c
00000300: cca6 5f3e 347d a8bb 74fe eebd e67d 743e
00000310: 8411 d0bc 0aa6 373f d3cb 1ebe 2adb a23c
00000320: 521a 0cc0 a7ff 8f3e e18b 6740 b542 d8bf
00000330: fd18 22be 5e21 8fc0 63ff 8d3e b663 a8be
00000340: b3bd e0be 3e60 acbe 0de7 a7bd 3727 123e
00000350: e9fc 523e 3975 623f c109 b4bf 6291 b33e
00000360: e2e7 a8be 9bdf 1e3f 7efb 833f ff93 cd3f
00000370: 3dd0 ab3e 2b0b 5abd fa2c 4cbf d53a dabe
00000380: 21de 463f b984 39be 1f53 043f 2cdc 00c0
00000390: 8d22 75be 2c9b ddbe 2f79 603f 5997 853f
000003a0: c07c 523e 4680 9d3f 4761 9c3d 7f3d 69bf
000003b0: 8aa1 8cbe d62b b23c acc1 69c0 6e44 96be
000003c0: c784 0a3f 97bf 323f a374 613e 77eb 07bf
000003d0: f0d7 28bf 2c86 19be 2bc4 9fbe 6463 0abf
000003e0: 6f3a a1be bf58 cabe da1f 263f 4565 5b3d
000003f0: 143c dcbf 5ec4 5e40 bdcf babf e073 5640
0.27081096 -0.055931356 -0.059795897 0.113446 -0.04899678 -0.96515477 -0.0956067 0.065914735
0.19934477 0.10154176 -0.055910762 -1.3159348 0.17061779 -0.014166352 0.3157237 -0.12768875
0.18752854 -0.5090095 -0.056669585 0.057880033 -0.2721282 0.14305218 2.2881355 0.534301
-0.2293634 1.5988501 0.26942116 -0.5942848 0.12184575 -0.11382471 0.24373776 0.758519
0.11197856 -0.21618399 -0.04055976 -0.26363236 -0.029288104 -0.31119373 -0.2730068 -0.12268233
0.21296401 0.49302003 0.10998615 0.16736926 -0.60620445 0.13063252 0.165102 0.0819692
0.2800282 0.15678969 -0.47100544 -0.026780333 -0.23349097 0.46123222 0.19428085 -0.04648986
-0.204749 0.26535696 -0.36807704 -0.333004 0.10398374 1.4521843 -0.33665696 -0.26404235
0.29632974 -0.17684054 -0.048393592 0.15357092 0.2869833 -0.16457993 0.055138726 -0.12317517
-1.6531767 -0.6717689 -0.14020628 -1.237704 0.102423474 1.0441294 0.012790057 0.05563665
0.43591222 -0.9911947 -0.047556847 -0.16061935 0.07545427 0.04245132 -0.14025412 0.23411815
0.29923454 0.09053941 -0.351069 -0.37548652 -0.094383456 0.1279074 0.69542485 -0.050299253
-0.060443573 0.14753163 0.07570187 0.21610439 -0.10932913 0.07057302 0.5604694 1.132865
0.058072872 -0.32537243 -0.15935597 0.12032093 0.5492761 0.7021054 0.04755095 -0.7469369
0.045939203 0.04042099 0.19314961 0.14260574 0.3779143 0.11836653 0.18292862 -0.032200184
0.10902048 0.4488824 0.67259026 1.3130631 0.21203722 0.8091914 3.0457428 0.5931414
-0.06335783 0.012476536 2.4805212 1.8249886 -0.4943623 -0.5014869 -0.017852725 -0.0013333161
-0.40816045 -0.32757396 0.4956464 0.0043592067 0.51037747 -0.22120214 0.0036549468 -0.21423349
-0.35673594 0.04060933 0.014200117 1.1506886 0.36715788 -0.26969233 0.2378519 0.14205585
0.11181788 0.21683913 -0.25758892 0.12675382 -0.101055756 0.013651481 -0.22819002 -0.31898984
0.1008611 -0.17001209 -0.31734064 0.37191048 0.056806892 0.09090538 -0.06338882 -0.019953672
-0.1434733 -0.10552465 -0.1872776 -0.04998461 -0.4624288 0.3566478 0.09409136 -0.442188
-1.1969094 0.033679157 -0.01465655 -0.18534546 -0.90359193 -0.034842614 0.09834477 0.27960363
0.11163088 0.5756781 -0.4813206 0.022052612 0.19784062 -0.14393692 -0.15612732 0.009419689
0.21840972 -0.0051418785 -0.11669627 0.23876151 -0.025398977 0.7173773 -0.1550744 0.019879896
-2.1891065 0.28124735 3.6179125 -1.6895357 -0.15829845 -4.472823 0.27733907 -0.32888573
-0.4389473 -0.33667177 -0.08198366 0.14272772 0.2060429 0.8846012 -1.4065477 0.35071856
-0.32989413 0.62059945 1.0311124 1.606079 0.3355731 -0.053233307 -0.7975613 -0.4262301
0.7768269 -0.18117036 0.5168933 -2.0134382 -0.23938961 -0.4328245 0.8768491 1.0436813
0.20555401 1.2304771 0.07635742 -0.9110946 -0.27466995 0.021749418 -3.6524458 -0.29349083
0.5410885 0.6982359 0.2201715 -0.53093666 -0.65954494 -0.14992589 -0.31204352 -0.5405791
-0.31489894 -0.39520833 0.6489235 0.053563375 -1.7205834 3.4807353 -1.4594647 3.3508224
