NEURAL_MODELS/LSTM/vital-dream-33.pth (torch, 302023 bytes, 14 tensors)

weight_ih_l0 f4 [200, 90]
00000000: 935b 5f3f d6a6 2040 7910 6dbf 6c2d 64be
00000010: 17fb d73e edf0 d43e ea85 ce3f c924 8bbf
00000020: 0b33 6f3f 3aae d5bf 0b19 2b3f 64dd 353f
00000030: b609 cebe fd70 b23f 5f55 e5be 5b49 debf
00000040: f2c9 c43f 8e8c 04c0 6b75 2fc0 9cc1 babd
00000050: debd e83f 63cc 6940 e578 09be 35a1 20bf
00000060: f0bc bcbe 81df 1bbf 0a82 e8be fe46 8a3f
00000070: 54e0 a2bf e598 b43e dcff ac3f 4919 a63f
00000080: 40d7 f7bb e1e9 3e40 5812 573f 9eec a6bf
00000090: 190c 6cbe 7a72 783f 7d97 b0bf 92bf 21c0
000000a0: bbb6 15c0 9eff 8abf 650b 06bf e796 16bf
000000b0: 281c ca3f 4ac0 4cbf 479e 5cc0 d298 12bf
000000c0: 455e 673f fa62 f43e b7a5 0ec0 f72a 27be
000000d0: d313 85bf 932b cf3f a290 863f c9f3 0bc0
000000e0: 8c1b 843f c0b6 2ec0 f9a0 3e40 4154 a03e
000000f0: b5c3 1c3e 1ded b63f dea0 84be 7f5f e33e
00000100: a3ed ea3f fd61 57bf 406a bbbf b1b9 39c0
00000110: fa4e 2040 5413 a33f a010 1740 c34f 623f
00000120: cb2a cebe 540e 51bf 1c06 483f c78a 90bf
00000130: 3cfc 0b40 48c7 783f 60e5 fcbb 60ef 863f
00000140: 227b 33bf 1651 193e e509 0a3d 0a8b ab3f
00000150: c316 1abf 99e3 c23f 7f80 933e 09c4 69bf
00000160: 2183 043f 53a5 613e 15fb 31bf 9eb4 8bbf
00000170: 940a 0fbf 3f11 1fbf 8c7c 0d3e 590f 0540
00000180: f876 1040 ff43 c83e 6b73 92bf d74b 973f
00000190: 4755 bcbf b083 ee3e bdfa d83f 233e 013f
000001a0: 49b3 7c3f 9e70 eabe ea6c 43bf cf32 9c3f
000001b0: 4bfa 61bf 0c1e 063f 6c6e 7e3d db4f d4bf
000001c0: a460 8fbd e6fc 1c3f f672 923d d58a f3be
000001d0: 4688 abbf 1acb c13f c7fb 60be 276d 0040
000001e0: b672 6cbf be59 79bf f26b ef3d 3f65 143f
000001f0: 54ee 54bf d145 b33d bd3d 0040 a97b 1ebd
00000200: 7c91 a9be 6641 a83e c375 f53d fa1e 6b3f
00000210: 50be 283d c650 223f c809 ec3f 8ce2 9ebf
00000220: 722f ed3f aad4 2a3f d878 bd3f c53e aebe
00000230: 48ea ae3c 221e 2b3f b221 293f dfe3 563f
00000240: a730 abbe 72ab f73f 99d4 a33f 45c0 973f
00000250: 3cc5 a3bf 370d d23e c540 143f f65f 7a3f
00000260: 76a0 05bf 44ad f73e d32f b4bf fe49 0e3f
00000270: 0629 9e3e fb89 c0bd 5dfe 9b3f d1bf 71be
00000280: 3950 94bf e8ad bcbe 1ba0 af3f 1359 483f
00000290: 23f3 ba3e 48da da3d e15f 4b3f 6bf5 afbe
000002a0: 12e1 963d 0c83 963e a740 1040 7739 80bf
000002b0: 0e71 5f3f 2dc1 563e a6e0 25bf 6950 4e3f
000002c0: af43 ae3f af83 a03f f909 3d3e fb2a aabf
000002d0: da26 0abf 133d 6040 6778 09c0 cbcd 963f
000002e0: a51a 1a3d 4f5e 8dbe c888 7fbf dd1c 0440
000002f0: 5b85 8440 f9ef 1240 0e5e e8bf 9b90 47bf
00000300: f946 8e3d db37 df3e 4722 693d 77c3 0240
00000310: b212 d33f 87aa c53f 2e95 853f a167 253f
00000320: 8466 e8bf e8a7 8a3f c0bf 2ebc f997 573f
00000330: a3bc 8ebe 5482 403c b099 dd3f aa29 2e40
00000340: 6c95 c4bf a128 6e3d 4bbd 893e a1d0 893f
00000350: 70d5 88bc 3deb bfbf b073 0ec0 4de7 9e3f
00000360: 608a 50bf e43a 69be 7ce3 1740 5848 cbbe
00000370: 499a 12bf f1e0 75be f396 08be af70 15bf
00000380: 9f02 8e3c 3374 0bbe c895 81bf 8021 b9bf
00000390: 2fa2 883c d008 dabe 1ba5 9abf 652e 0bbf
000003a0: e3d4 7c3f 679d cdbf 49b1 4e3f f2a0 1540
000003b0: 1f10 bfbf 3960 d73f faed 5240 4069 133e
000003c0: ef7d 4240 5169 e93f 586a 713f cd10 983d
000003d0: 9704 cc3e bf85 ab3f 024e 3cbf 92ec 5dbf
000003e0: d219 5440 6496 183e b2f3 303f b013 f13f
000003f0: 5708 0dbe 1e7b 763f e613 283e 5f7d 2f40
0.87249106 2.5101829 -0.9260326 -0.22282952 0.42183754 0.41590062 1.6134617 -1.0870601
0.9343726 -1.6693795 0.6683509 0.7104094 -0.40241784 1.3940731 -0.44791695 -1.7366136
1.5374129 -2.0710788 -2.7415416 -0.09118959 1.8182943 3.6530998 -0.13425024 -0.6274598
-0.36862898 -0.60887915 -0.45411712 1.0802915 -1.272471 0.352729 1.3515582 1.2976466
-0.0075635016 2.9830248 0.84012365 -1.304096 -0.2305149 0.9704968 -1.379623 -2.5273175
-2.339278 -1.0859258 -0.52361137 -0.5882401 1.5789843 -0.7998091 -3.4471605 -0.57264435
0.9037822 0.47731763 -2.2288644 -0.16324984 -1.0396675 1.6185173 1.0512888 -2.1867545
1.0320907 -2.7299042 2.978575 0.3131428 0.15309031 1.4291111 -0.25903982 0.44408795
1.8353771 -0.84133893 -1.46418 -2.9019587 2.5048203 1.2740273 2.3603897 0.88402957
-0.40267023 -0.8166249 0.7813432 -1.1292351 2.1872702 0.9717908 -0.0077177733 1.0541801
-0.7010976 0.14972338 0.033700842 1.3401806 -0.6019098 1.5225707 0.28808972 -0.9131475
0.51762587 0.22035722 -0.69523746 -1.0914495 -0.55875516 -0.6213569 0.13817042 2.0790617
2.2572613 0.39114377 -1.1441473 1.182002 -1.4713525 0.46584845 1.6951519 0.5048544
0.9871107 -0.45789045 -0.76338065 1.2203006 -0.8827254 0.523896 0.062117025 -1.658687
-0.070008546 0.6132339 0.07150833 -0.47566858 -1.3400962 1.5140107 -0.21971045 2.0066621
-0.92362535 -0.9740256 0.11690511 0.5796699 -0.8317616 0.08753551 2.0037682 -0.03869215
-0.33118808 0.32862395 0.11985352 0.9184414 0.04119712 0.634045 1.8440485 -1.2412887
1.8530104 0.6673075 1.4802504 -0.34032264 0.021351948 0.66842854 0.6606704 0.83941454
-0.33435556 1.9349196 1.2799255 1.1855551 -1.2794566 0.41025707 0.5791133 0.97802675
-0.5219797 0.4837438 -1.4077095 0.55581653 0.30890673 -0.09401318 1.2187 -0.23608328
-1.1586982 -0.3685143 1.3720735 0.78260916 0.36513624 0.10686165 0.79443175 -0.34366927
0.073671475 0.29396856 2.253946 -1.0017537 0.8728188 0.20972128 -0.6479591 0.80591446
1.3614405 1.2540187 0.18460836 -1.3294367 -0.5396553 3.5037277 -2.1479738 1.1781553
0.037623066 -0.27611014 -0.99818087 2.0642617 4.1412787 2.2958968 -1.8153703 -0.77955025
0.06947131 0.43597302 0.056917455 2.0431802 1.649008 1.5442666 1.0436151 0.6461125
-1.8156285 1.0832491 -0.010665834 0.84216267 -0.27878293 0.011749823 1.7312527 2.721293
-1.53581 0.058144215 0.26902232 1.0766793 -0.016703337 -1.4993664 -2.225811 1.2414337
-0.81461143 -0.22776371 2.3732595 -0.3970363 -0.5726667 -0.2401159 -0.13338833 -0.58375067
0.017335234 -0.13618545 -1.0123835 -1.4463348 0.016678898 -0.42584848 -1.2081636 -0.5436767
0.9876234 -1.606366 0.80739266 2.3379483 -1.4926795 1.682624 3.295775 0.14395618
3.0389364 1.8235265 0.9430289 0.074250795 0.39847252 1.3400191 -0.7355653 -0.866891
3.314076 0.1490112 0.6912185 1.8834133 -0.13772713 0.9628161 0.1641384 2.742027

weight_hh_l0 f4 [200, 50]
00000000: 51a7 0f40 9b84 a1bf 2298 46bf 77a5 ccbc
00000010: fd2b 813d a767 abbd f48e febd e29b 663d
00000020: d376 703e 6701 d13e 8860 ac3e 9350 693f
00000030: b9c2 f1be 5a18 403f e03d 653f dc60 bd3e
00000040: 3dc9 ac3d c109 b9bf b3d7 cd3e 4c46 1c3f
00000050: 4a30 ad3d be1f e5bd 407b 0a3f 81b8 ffbe
00000060: 3d63 80be e614 183f 36f3 af3e 9542 cfbf
00000070: d5d2 4bbf 4c06 debe 6867 263f f4a8 583e
00000080: 84ad 47be 45ad 593f b63b 953e 121e 8abe
00000090: cc1d 9f3f d722 2340 7878 1ebf 8a4d dd3e
000000a0: 16eb 423f c101 8c3f 155a bcbf 1a8d 563f
000000b0: df8a 08bf de7d 043f aed9 ed3d e282 83be
000000c0: 9a3d b9bd a1d5 a03f 0f70 5cbe d8e7 d5be
000000d0: 48db 4ebf 301a 9bbe 78fe 8a3f f069 213e
000000e0: 01d7 b83d a338 a0be 2239 763f 502c b9bf
000000f0: 1211 6b3f 9cee 533e 0dbb 623f c32d 51be
00000100: ae0a dc3d d52f 443d 6916 ddbd 2388 59bd
00000110: 5386 85be bcc2 eebe c5a5 9a3e 0f06 46bb
00000120: 4d14 af3e 144e 04bf 243e 613f 335a 9bbe
00000130: 595a 89bd 4d02 503f cd00 0a3f f954 2a3f
00000140: 57de 083f c32a a03e 61dc 9abd 3fc7 66bf
00000150: 58e2 44bf c941 003e e98a 3ebf 9fad 053f
00000160: ae5b 413e a442 19bf ed0f 5a3f 5efd 69be
00000170: 10ff 063e e830 53be 411a 82bf 417f 9b3d
00000180: 9488 eabe bdbe d2bd d209 d9bd 4f63 4d3e
00000190: d3d9 c0bd 71c7 123f cc8c 80bf c61d 473f
000001a0: 3cde b23e 2a05 143f cc6f bd3f e37c 7ebe
000001b0: ac36 bb3f ea19 633e 4a97 a1be cbaa 06bf
000001c0: 291d dfbe 3e12 813f 5b8f a1bf 05eb 81bf
000001d0: abea 81be 1546 46bf 4a3a 833f 347d a13f
000001e0: b6f9 20bf f445 8fbf b0c5 39bf b74d 5dbe
000001f0: 247d 64bf 7583 2bbf becd f8bf 97dc 923f
00000200: 6566 743e 2f1e 24bf 5238 0c3f 938f 5d3f
00000210: 354a ce3d 77ce 62be 6398 fcbc 2c74 a7bf
00000220: 18f1 12bf b26e f23e c2c2 5c3f b2e8 b53d
00000230: c39b 38bf 9be1 4a3e b889 52bf 11c8 2f3f
00000240: 4442 6fbf 50f2 73be 0ada 1a3f 4870 e3be
00000250: 7205 90be e5b7 923e 4ece 8c3f 4a74 b3be
00000260: 903d 37bf 9a6b 4ebf a030 713f 6cfa 0ebf
00000270: 3631 e6be 577e 943e e8a9 45bf a5b3 d6be
00000280: 10aa 873f 328a 0740 c38b 6cbe d479 28bf
00000290: 115e 133f af7e 2bbe 6fad 8e3e ec27 5cbf
000002a0: af1c f1bd d4c0 133f 5df0 053f 6c50 223f
000002b0: a044 37bd accb ba3e 21ee 06bd 0f88 603e
000002c0: 4558 263f 7d0b 0ebe b461 c6bf cbaa 393f
000002d0: c49a cfbe 042b 8abf 1e45 17bf 0e5b 7d3e
000002e0: 5681 f13e 1a58 5c3f 2a98 7e3f c56f 4840
000002f0: 54bf babe b1c3 d5bd 0484 60be 22a4 003f
00000300: 6a1a 8abf 6200 dd3f 4f4d 0abe 9ef2 78bf
00000310: 5c56 5abe 3188 86be ae50 953f 889d 8d3e
00000320: 5705 40bf 1184 35bf f9e9 66bf bf58 bf3e
00000330: 3378 1c3e 9097 1d3e b9f8 f43e 402b f53e
00000340: e4de b33e 043c 4ebf 76e7 7f3e d110 053e
00000350: ff9b d33e 218f b9be 96cf 67bd 667a 8d3e
00000360: dcfc f93e 2bce 423b 82e2 543f 7f4e 383e
00000370: 3cc6 c1bd 7f42 b0be 6242 593f 760d 183d
00000380: 3e30 8e3c e3e6 533f 3dbe d13e 5232 913f
00000390: d07f 083f 93db ebbc e9f3 a83e 80e0 83bf
000003a0: 4368 4abf 2c92 ccbe 03c5 3e3f b56b b5be
000003b0: f682 72be 51b3 fbbe adb1 60bd 1fa1 b4be
000003c0: 38a5 183f 5215 243f b4bf a8bb e89c bf3e
000003d0: 105a 933e af42 a2bd ef32 bbbd 0647 343f
000003e0: 6a74 e2be b6bf 0e3e e3ea 7d3e f214 5abf
000003f0: 9817 47bf f07d c3be 4fc9 9f3c d83d 913f
2.2445872 -1.2618593 -0.77575886 -0.024981244 0.06307218 -0.083693795 -0.1242961 0.056301005
0.23482828 0.40821382 0.33667397 0.9113857 -0.47218874 0.7503716 0.8954754 0.3698796
0.08436821 -1.4456102 0.40203628 0.61044765 0.08456476 -0.11187695 0.54094315 -0.49945453
-0.25075713 0.5940689 0.34365243 -1.6192194 -0.7961858 -0.4336418 0.65001535 0.211582
-0.19499785 0.85030013 0.29147118 -0.26976067 1.2430968 2.5490015 -0.6190257 0.4322322
0.7613996 1.0938035 -1.4714991 0.83809054 -0.533369 0.5175456 0.11613785 -0.25685793
-0.09044953 1.2565194 -0.21527122 -0.41778445 -0.80803347 -0.30293417 1.0858908 0.15763068
0.09025384 -0.3129321 0.9618093 -1.4466648 0.9182292 0.20696491 0.88566667 -0.20427613
0.107442245 0.04789718 -0.1079529 -0.053108346 -0.26079044 -0.46632946 0.30204597 -0.0030216014
0.34195176 -0.5168164 0.87985444 -0.30342254 -0.067066856 0.8125351 0.5390747 0.6653591
0.53464264 0.31282625 -0.07561565 -0.90147775 -0.76907873 0.12525095 -0.7443071 0.5221805
0.1888263 -0.5986731 0.8518055 -0.22850558 0.13183236 -0.20624125 -1.0164262 0.07592631
-0.45807326 -0.10290287 -0.10597576 0.20057414 -0.09416547 0.57335573 -1.0042968 0.77779806
0.34935176 0.5782038 1.4799743 -0.24852328 1.462606 0.22177854 -0.31560737 -0.5260436
-0.43576935 1.0083692 -1.2621874 -1.0149847 -0.2537435 -0.77450687 1.0252163 1.2616334
-0.6288103 -1.1193223 -0.7256727 -0.21611677 -0.8925345 -0.6699746 -1.9437788 1.1473569
0.23867185 -0.64108557 0.5477344 0.865472 0.100727476 -0.22149073 -0.030834382 -1.3082328
-0.5739913 0.4735008 0.86234677 0.08882274 -0.72112674 0.19812624 -0.8224139 0.6866465
-0.9346049 -0.23822904 0.6048895 -0.444216 -0.28129154 0.28655925 1.1000459 -0.3504966
-0.7157831 -0.80632937 0.9421482 -0.55850863 -0.4495942 0.2900264 -0.7721238 -0.41933933
1.0598774 2.1178098 -0.2310019 -0.65810895 0.5756541 -0.16747545 0.27866694 -0.85998416
-0.11773049 0.5771611 0.5231989 0.63403964 -0.04474318 0.36483514 -0.03294194 0.21926902
0.6497844 -0.1387157 -1.5498567 0.72526234 -0.40547764 -1.0794377 -0.5908984 0.24741766
0.47168988 0.8607193 0.99450934 3.1318219 -0.36474097 -0.10437716 -0.2192536 0.50250447
-1.0789311 1.7265742 -0.13506053 -0.97245204 -0.21322006 -0.2627578 1.1665246 0.2765925
-0.7500815 -0.7090464 -0.90200764 0.37372395 0.15280227 0.15389848 0.4784601 0.4788456
0.3513099 -0.80560327 0.24990639 0.12994696 0.41329953 -0.3624201 -0.056594454 0.27632445
0.4882573 0.0029724936 0.83158123 0.17998694 -0.09461638 -0.34425732 0.8486692 0.037122212
0.017356988 0.8277418 0.40965453 1.1343482 0.53320026 -0.028791225 0.3299859 -1.0302887
-0.7906534 -0.3995527 0.74519366 -0.35433736 -0.2368277 -0.49160245 -0.054856945 -0.35279176
0.59627104 0.6409503 -0.005149806 0.37424397 0.2877965 -0.07922875 -0.09140574 0.70420873
-0.44229442 0.1394032 0.24796633 -0.8518821 -0.77770376 -0.3818202 0.019505171 1.1346998

bias_ih_l0 f4 [200]
00000000: 6279 78bc 4109 073f 4fca df3e db89 db3e
00000010: 46b6 db3e b5d6 083f 7bba 973e e58b be3e
00000020: 1270 29bd 7080 3abc 2fdb b53e 95db 113f
00000030: 4c13 e93d cde2 263f b43c b93e 304b d83e
00000040: f2ca c43d a6e3 d73e 3eb2 d9bb 7cd5 5d3d
00000050: 2b6b 683e c23f 853d 3465 e03e 3823 083f
00000060: c38a e03e 0c6f bd3e be48 bcbd df68 593e
00000070: a8fb e03c 5296 d93d 91d0 df3e 6870 903d
00000080: db51 933e 6085 a53e 5a40 a13d 20cb b03e
00000090: 0c28 fa3e 64ca ee3d f6e7 193e 4ad9 e93d
000000a0: 06ff 0f3f 43e2 b13e ca1d 133f 78d3 513e
000000b0: 86c8 2b3f 89a2 203e 2102 463e bb2f c73d
000000c0: 0036 343e 59d3 ba3d 4ec5 f3be c5f4 553c
000000d0: b938 e4bd 2838 7dbe 42dc 6d3d 11bc 173e
000000e0: 208c 3a3e dd63 403e ec8a 213c c92d aebe
000000f0: 4487 aebc 83f7 dfbe b795 d4bd 948d 41bf
00000100: df4c 4d3e 759f 55be 5a6e 63be 56f2 42be
00000110: 6084 2f3e da96 bfbd 94af a4bd a6f2 1e3c
00000120: 0b2b aabd c38a 443e 5515 8dbe 4abf 2abe
00000130: df79 37be 183e 2abe 4825 f5be 06cf 8cbd
00000140: 350d ac3d 1c0b 5b3d 80d1 333e 586d 0bbe
00000150: aa8d 1a3f 8c9c 4a3e e98c 283e 04c3 e6bc
00000160: 4bf4 263e 8a14 18be 0ded 44be 45cd 35be
00000170: cee4 40bd 26fd 7c3e 3772 1abe 7a20 e7bd
00000180: 93ff 8a3d 1bc0 bdbd f0d2 863e 1db6 b83d
00000190: ed7a 37be 72ac d7bc 6301 abbe c051 d63e
000001a0: 0e57 833e dcf9 ae3e e01d e83d 767d 843e
000001b0: c8d9 863e 2f5c 57bd 0bae 3b3e a17a 393e
000001c0: 86b6 783d 08f3 2cbd 097d 8b3e aa59 753e
000001d0: 4a21 56be fc6e 6fbe 51dc b43d 62b8 a53c
000001e0: ab88 62be 6fff d0bd 35a7 943e 74e0 ddbe
000001f0: 8e1f 9e3d 55db 543e c9e1 973e 7fdb cd3d
00000200: a932 c93c 06c6 ee3d a34c 503e 0eb3 503e
00000210: 26d6 333c ad7e a6bd 53e5 143e 076a b5be
00000220: 06c4 81bc 40b0 df3d 84b8 90be b758 6ebd
00000230: dddd ca3d f25c a83e ef4a cd3d 5fc7 5f3e
00000240: d294 ad3e 809e 843e 4ed4 133d 7182 b53d
00000250: ff22 4bbe b76a ad3e 656d dbbe d4db 49bd
00000260: 7435 893e 9395 00bf 51fa 6cbf 572d e8bd
00000270: 3db6 e0be 583f bbbe 4dba 6e3d 029b 573c
00000280: 8dda 22be eb2a f1bc d52d 10be 4d38 ad3d
00000290: 8f32 42be bc42 5c3e 833c 15be d350 3ebe
000002a0: 990a 10bf 5730 1abb 1500 13bd 8edb 23bf
000002b0: 05ec 1cbd 08c9 68be c79b b43d bd37 87bd
000002c0: b6e3 8dbe c68c 183e 7da5 46be 307d d9bd
000002d0: bf4f c4bd 2459 113e f3ed eabe c427 0dbf
000002e0: d884 71be e284 87be eb0b 83bc 31dd 9abe
000002f0: 9a5d 4abf 3bca 8ebc d49b a5bd ccf1 18bf
00000300: bb5a 273f 322e 01bf b30a 8fbe 95cc 56bf
00000310: b398 10bf e593 423d 783c 22be e949 24bf
-0.015165659 0.52748495 0.43709037 0.42878613 0.429125 0.53452617 0.2963446 0.37216106
-0.041366644 -0.011383161 0.35518786 0.5697568 0.11380634 0.6518982 0.36179125 0.42244864
0.09609021 0.4216587 -0.0066435626 0.054158673 0.22697131 0.065063015 0.43827212 0.5317874
0.43855867 0.36998785 -0.09193562 0.21231411 0.027463749 0.106243744 0.4371381 0.0705269
0.28773388 0.3232832 0.07873602 0.34529972 0.48858678 0.11659697 0.15029892 0.11418398
0.5624851 0.34742936 0.5746733 0.20490825 0.6710285 0.15687002 0.1933675 0.09725901
0.17598724 0.091223426 -0.4761147 0.013058846 -0.111436315 -0.24728453 0.058071382 0.14817835
0.18217516 0.18788095 0.009859782 -0.34019306 -0.021304734 -0.43743524 -0.10380118 -0.75606656
0.20048855 -0.2086161 -0.22210065 -0.19037756 0.17140341 -0.093549445 -0.08041301 0.009701407
-0.08308991 0.19193558 -0.27555338 -0.16674533 -0.17917584 -0.1662525 -0.47880006 -0.06875424
0.084009565 0.05347739 0.17560387 -0.1361593 0.6037241 0.1978628 0.16460003 -0.028169163
0.16304128 -0.14851585 -0.19231053 -0.17754085 -0.047093205 0.24705943 -0.15082632 -0.11285491
0.06787028 -0.09265157 0.26332808 0.0901911 -0.17917986 -0.026327346 -0.33399495 0.41859245
0.25652355 0.34175003 0.11333823 0.2587697 0.2633803 -0.052578148 0.18328111 0.18113185
0.060720943 -0.04222396 0.27243832 0.23959985 -0.20911136 -0.23382181 0.088310845 0.020229522
-0.22122447 -0.1020497 0.2903382 -0.43335307 0.07720862 0.20786794 0.29664448 0.10051631
0.02456029 0.11658864 0.20341735 0.20380804 0.01097635 -0.0812963 0.14540605 -0.35432455
-0.015840542 0.10922289 -0.28265774 -0.058190074 0.09905598 0.32883412 0.10024058 0.21853398
0.33902603 0.25902176 0.03609114 0.0886277 -0.19837569 0.3387048 -0.428569 -0.04928191
0.26798594 -0.5022823 -0.9256945 -0.11336773 -0.43889037 -0.36571765 0.05828314 0.013159515
-0.15903683 -0.02943941 -0.14079984 0.08458004 -0.18964599 0.21509832 -0.14573865 -0.1858552
-0.5626617 -0.0023527348 -0.03588875 -0.6400689 -0.038311023 -0.22732937 0.08818775 -0.06602428
-0.27712792 0.14897451 -0.19399066 -0.10619581 -0.09585523 0.1419416 -0.45884666 -0.551388
-0.23585832 -0.2646857 -0.015996894 -0.3024688 -0.79049075 -0.017430415 -0.080863625 -0.5974395
0.6537282 -0.50461113 -0.2793785 -0.8390592 -0.56483 0.047504324 -0.1584338 -0.6417528

bias_hh_l0 f4 [200]
00000000: 613f 43be 8fba 113f b71a 003f c6b2 d23e
00000010: 8560 923e 6912 1a3f 2cff 843d 9805 5c3e
00000020: 9b4e a83d 49f4 a13d ca48 7e3e c152 253f
00000030: dbd2 b33d 8d7d 083f 9f2a bd3e e485 1a3f
00000040: b2d7 313e aa34 df3e fbca 2c3d 1094 083e
00000050: 3b2e a43e b42c 8a3e 0f0e f33e eb3f d83e
00000060: f77a cb3e 3867 0e3f 8049 a3bd a0e5 623d
00000070: b511 283e 275e 2e3d e083 c03e 9c63 82bc
00000080: f857 0a3f 81d1 af3e d0fb 643e d3b0 0d3e
00000090: e336 e23e 7181 c23d 03de b83e e008 783e
000000a0: 20a2 b73e ea4e d03e 929f 0b3f 62c0 9d3e
000000b0: 40d2 033f 1075 303e c896 dc3e a2ec bbbc
000000c0: 3260 b23e b94c 4f3e 1672 c8be 8d4e 633d
000000d0: 308c d3bd 3780 a4be 1679 073e aa66 ae3d
000000e0: 1b2b 36bd 3225 e73d 5a2c 36be 2112 febe
000000f0: f427 44be 8291 91be 4ef1 8fbe 90d6 44bf
00000100: 43af 0c3d e1ed 8cbe c95d 67be 4674 4abe
00000110: e55e 783e 9441 eb3b 6050 eabd c7fd 83bd
00000120: fd16 63be 0413 8d3d 950d 8bbe ad8a 8dbd
00000130: f88d 553b a2ec 87be a906 a4be 0ca0 cfbb
00000140: 2719 abbd 0e29 883d acd6 013e ac2b 17bd
00000150: e02d 063f 4b0f 633e 222f f53d b77d 58bc
00000160: 28e2 503d f58d a7be 979e 6fbe 3367 f33b
00000170: 240f 32be 1ee5 793e 98ab 43be cfe1 29be
00000180: c7e6 db3d 9bcf 3ebe 0c14 363e c649 1e3d
00000190: 6a4c 18be 3708 0fbe 4484 3abe ba44 c13e
000001a0: 5b32 7b3e 47e9 c13e b299 673d 772a 793e
000001b0: 685d fd3d cf72 12be 49ad 973d 2ae8 bb3d
000001c0: 3963 8ebd b8b1 d13d 0ba6 c73e a790 343e
000001d0: 378c 0bbe a713 3abe a644 8ebd 0154 c33d
000001e0: 71b4 4bbe d038 fcbd 50d7 103e 2ff3 9bbe
000001f0: 4129 8f3d b78b 6a3e 0573 3e3e 0c32 d3bc
00000200: d74b 043a 4ba3 063e a693 443e 1447 ac3d
00000210: 0896 0dbe abce 03be 7799 993e 17db 57be
00000220: 4226 cebd 4e8a e23d d8f2 99be 2f1e 21be
00000230: 85b8 093e 517b 9a3e eba3 213e db66 d43d
00000240: c350 8a3e d6b1 833e 69d1 22bd 9582 e23d
00000250: 71c1 56be 4323 583e 2d07 1bbf 6633 69bd
00000260: 4021 4d3e 7d7b 11bf 79e3 5abf c969 23be
00000270: 1764 b7be 5530 d2be 668d 883e 1c29 a8bc
00000280: c7b3 6dbe 848f 213d 335d 17be f6a7 8d3d
00000290: 326b 92be 6e91 d43e 9714 4b3d 3efe 49be
000002a0: c1d7 f7be 4842 38bc c485 edbd a0f1 e8be
000002b0: d7e5 d3bd 1b3c 3dbe 8ae0 a1bd cfa1 30be
000002c0: e178 2bbe df06 e13d 1aab 4dbe 82f3 5dbe
000002d0: 4afd bcbd 7b2b 9c3e acce 6fbe 63db cebe
000002e0: 41f4 f3be f6a9 8bbd dd24 683e 2fdd debe
000002f0: de46 32bf 7bc1 58be 5db8 32bd b70d 26bf
00000300: f4ff 043f a860 08bf 32d8 14be 6290 35bf
00000310: 4bde 11bf 4f24 afbc db68 20be fd12 32bf
-0.19067146 0.5692529 0.50040764 0.41152018 0.28589264 0.6018434 0.06493983 0.21486509
0.08218118 0.07907922 0.24832454 0.645794 0.08780452 0.53316575 0.3694658 0.6036055
0.17367437 0.43594867 0.042185765 0.13337731 0.3206652 0.2698723 0.47471663 0.42236266
0.39742252 0.5562625 -0.079730034 0.05539477 0.16413005 0.04257026 0.37600613 -0.015916638
0.5404048 0.34339526 0.22361684 0.13836984 0.441825 0.09497345 0.36106881 0.24222136
0.3586588 0.40685207 0.5454036 0.3081084 0.5149269 0.17232156 0.43083787 -0.022939984
0.34839016 0.20244111 -0.3914954 0.055494834 -0.10329473 -0.3212907 0.13229784 0.08515675
-0.044474702 0.11286391 -0.17790356 -0.49623206 -0.19155866 -0.28431326 -0.28113788 -0.76889896
0.03434683 -0.27525237 -0.2259437 -0.19770917 0.2425495 0.0071794484 -0.114411116 -0.064448886
-0.22176738 0.068883926 -0.271588 -0.06911216 0.003258584 -0.26547724 -0.3203633 -0.0063362177
-0.08354407 0.066484556 0.12679547 -0.036906883 0.5241375 0.22173803 0.119718805 -0.0132135665
0.05099693 -0.32725492 -0.23400341 0.007428074 -0.17388588 0.24403808 -0.19108427 -0.16590045
0.10737377 -0.18633883 0.17781085 0.038644575 -0.148729 -0.13967977 -0.18214518 0.37747747
0.24530928 0.3787329 0.05654306 0.24332605 0.123713315 -0.14301609 0.074060984 0.09175141
-0.06952519 0.10238975 0.38993868 0.17633305 -0.13627706 -0.1817156 -0.069466874 0.09537507
-0.19893052 -0.123155236 0.14144635 -0.30458972 0.069902904 0.2290486 0.18598564 -0.0257807
0.00050467014 0.13148229 0.19196948 0.084119946 -0.13826764 -0.12871806 0.29999897 -0.2107967
-0.10065891 0.11061536 -0.30068088 -0.1573417 0.13449295 0.30172208 0.15785186 0.103711806
0.2701474 0.25721616 -0.03975049 0.11060063 -0.2097223 0.21107201 -0.60557824 -0.056933783
0.20032215 -0.56829053 -0.85503346 -0.15958323 -0.3581855 -0.410525 0.26670378 -0.020527415
-0.23213111 0.039443508 -0.14781646 0.06916802 -0.2859741 0.41517204 0.049580183 -0.19725892
-0.48406795 -0.011246271 -0.115977794 -0.45496845 -0.10346573 -0.1847996 -0.079041556 -0.17249225
-0.1674533 0.10987639 -0.20084801 -0.21674922 -0.092279986 0.30501923 -0.23418683 -0.40401754
-0.47647288 -0.06819527 0.22670312 -0.43528125 -0.69639385 -0.21167557 -0.043632854 -0.6486468
0.51953053 -0.53272486 -0.14535597 -0.70923436 -0.5697982 -0.021379618 -0.15664999 -0.69560224

weight_ih_l1 f4 [200, 50]
00000000: 0019 babe 43cb 263c 4771 3e3d d8c4 743e
00000010: 23ca 6abc b469 1e3e e434 063e 9663 4b3e
00000020: 815b d03d dd5f 853e ea3d ca3c 0f3b 9dbe
00000030: ce54 573e a670 e13e 8ebb 643e f450 3cbd
00000040: 41b3 e03d 3cd5 1ebf 518f 2c3e 2440 3c3e
00000050: a9fb c4bd 0646 50be 4483 83bd 1a12 bebd
00000060: f67b 063e 43b2 d53d 9388 6bbd 3698 a7be
00000070: 64fa cebe 3192 da3d 86ce a53e dfdc 113e
00000080: 9574 7ebd 5578 6ebe 2c03 7d3e 51fc f13d
00000090: a29e 1f3e c162 383e bc39 80be 696c 03be
000000a0: 56e0 0a3d 7b0f a9bb 612b c0be f73f 523e
000000b0: 1dda 403d 4c78 913d 3cb0 3cbe 9585 863e
000000c0: ddf9 76bd 0a03 2ebd 175f b7be 7200 ffbc
000000d0: 7bf5 b1be 57f8 513e 91f7 313e c8bb 913d
000000e0: a593 c43e 771a d6b9 7fb7 253f 36bb 243c
000000f0: c4ac b23e b8c2 4f3f 4ee9 253e 6e2e 853e
00000100: dc38 94bc 23d2 8fbd 2c2d 51bf 8a0d ebbe
00000110: 4003 223e cec2 823e 507b 8cbc 82ad 9abd
00000120: f3bb d8bd cf93 1fbf 1e50 b03c 8934 1c3e
00000130: 9d6e 5a3f c0ba f13e dda3 2ebe f257 763d
00000140: 1b81 9c3e 5230 3fbe bd29 1dbf c580 51be
00000150: 1fc9 4d3d 8af8 b7be ff85 8ebe 8ab8 0b3d
00000160: 215b 4fbe 4b1c 6cbe 0685 813e 312d 80bd
00000170: 2034 e83c 026e e43d cba8 8d3e 91dd 8d3d
00000180: 3ed0 3bbe d8e9 613e 3448 41be 974b 723e
00000190: 5949 0a3d 89fa ae3d a8c4 2fbe 3ebe 9abc
000001a0: 0c6e 0bbd 9bae 983d a3f9 d03d 38fc 413e
000001b0: ec1c f7bc d223 273f 3472 853e b1f5 40be
000001c0: 5b83 dabc b039 443e 437f 713d 9845 c2bd
000001d0: a239 ef3c 6d14 abbd c09b e63d 21cd 8f3e
000001e0: e9eb 68be 019d 963d dd2b 94be e6d5 23bd
000001f0: 554e 3b3e 1ca8 593e bd72 133e 8140 81be
00000200: 8efd efbe 50a6 aebd 6cab 67bc 9ab7 f6bd
00000210: 87ec 5bbe 7431 503c aac1 b63c 84bf 8bbd
00000220: bbfb 4dbd c66f d93d 141e aebc 9a9c 46bb
00000230: 4afd 583d 985c 063e 515d b0be 291a 823e
00000240: 39c3 ea3d 2041 4d3e 293c 35be 12a7 0e3d
00000250: b743 8abe 4099 803e e644 09bf 07dc 15be
00000260: 9841 0f3e 71d4 2d3f 9225 26be 4ab0 373e
00000270: 3c0e 733e 59ed fb3d 94a4 9e3d 4188 6dbe
00000280: c3af 89bd 9b5e ddbd b58e 02bd db24 953e
00000290: 8a73 ddbd 0b27 003e 803e d63e 9c69 62be
000002a0: 7c14 243e 86af d53c be54 56be b1f3 cabd
000002b0: 3bd4 09bf e317 783e a27d 7d3e b2e7 59bd
000002c0: ef26 043e f18d 023f 78d7 e63e a5b2 80bc
000002d0: ac2a 1d3e e60b 0d3f 9672 1fbe 0c23 24bc
000002e0: e0ef 193d f3b1 e33d f650 cfbd 5ef1 a6bc
000002f0: c8d1 033e 1390 63be 688a 8a3d d9a8 9b3e
00000300: e29e 7dbf b8c4 65be 93cd 09bd fdc7 a93e
00000310: 5527 07be ad83 01bd 2a92 d7bd 599e 5d3e
00000320: 8839 48bf 4d2d b43f 5958 153e e040 6f3f
00000330: 4d76 1440 1b11 d2bf e53f cbbf ee6b 24c0
00000340: 88af 82be fea7 0b3f 303b 4fbe 0e44 ce3c
00000350: 7477 dfbe 806e 14bd eb80 6fbf f9fe eabe
00000360: dd18 483e 1844 183e bcca e3be 79e4 11c0
00000370: 8a95 3a40 d125 43c0 efb6 02be a649 0dbf
00000380: 42a6 19bf 0d67 07be 5761 43bf 774c 2ec0
00000390: c360 3fc0 ec84 843f 7d46 a9be d253 3d40
000003a0: ea51 4540 49ce d0be 22fd 2fc0 d728 7e3e
000003b0: d3e5 0f3f d1e9 be3f 0769 22bf 510c adbf
000003c0: 2cef 08be f8ca 6b3f d008 b1be daba 1d40
000003d0: 844b 4dc0 2e08 933f 5348 8ebf 6f14 9bbf
000003e0: 7836 b63f 70ac 0f3f 6964 d8bc 69bd 8b3c
000003f0: eb7b b03d a763 87bd 2f7e 293e 70ec 1d3d
-0.36347198 0.010180297 0.04649475 0.23903215 -0.01433042 0.1547001 0.13106114 0.19862208
0.10173703 0.260497 0.024687726 -0.3070912 0.21028444 0.44031256 0.22337171 -0.04597564
0.1097169 -0.6204412 0.16851546 0.18383843 -0.09618313 -0.20339212 -0.06421521 -0.09280796
0.13133225 0.10434391 -0.057503294 -0.32733315 -0.40425408 0.10672415 0.32384127 0.14244412
-0.0621229 -0.2328809 0.24708241 0.11815704 0.15587857 0.18006422 -0.25044048 -0.12834324
0.03390535 -0.005159316 -0.37533095 0.20532213 0.04708301 0.07103023 -0.18426603 0.2627379
-0.060296882 -0.042483367 -0.35814735 -0.031128142 -0.347576 0.2050489 0.17379595 0.071158946
0.38393894 -0.0004083698 0.6473312 0.0100544 0.34897435 0.8115649 0.1620228 0.26011986
-0.018093519 -0.07022502 -0.8170955 -0.45908767 0.15821552 0.2553925 -0.017148644 -0.07552625
-0.105827235 -0.62334913 0.021522578 0.15254416 0.8532503 0.4721279 -0.17054696 0.060142465
0.3056725 -0.18670776 -0.6139181 -0.20459278 0.050240632 -0.35931808 -0.27836606 0.034111537
-0.20249607 -0.23057668 0.252968 -0.062586196 0.028345168 0.11153795 0.2766784 0.06927026
-0.18341157 0.2206186 -0.188752 0.23661648 0.033761356 0.085438795 -0.17164862 -0.018889543
-0.034040496 0.07455178 0.102038644 0.1894387 -0.030165158 0.6528903 0.26063693 -0.18843724
-0.026673963 0.19162631 0.058959257 -0.0948593 0.029202286 -0.08353505 0.11260176 0.28086188
-0.22746243 0.07354165 -0.28939715 -0.03999891 0.182916 0.21255535 0.14399238 -0.25244525
-0.46873134 -0.08527815 -0.014139991 -0.12046738 -0.21476947 0.012707103 0.022309143 -0.06823638
-0.050288897 0.10617022 -0.021254577 -0.0030305744 0.05297593 0.13121259 -0.34446195 0.25410584
0.11463017 0.20044374 -0.1769873 0.0348273 -0.27004787 0.2511692 -0.53620756 -0.14634715
0.13989866 0.67902285 -0.1622527 0.17938343 0.23735899 0.1230113 0.077462345 -0.23196508
-0.06722977 -0.1080906 -0.031874377 0.2912968 -0.10813053 0.12514894 0.4184456 -0.221106
0.16023439 0.026084673 -0.20930764 -0.09909762 -0.53839463 0.24227862 0.24754956 -0.053199477
0.12905477 0.50997835 0.45086265 -0.015710184 0.1534831 0.5509628 -0.15571055 -0.010018121
0.03758228 0.111179255 -0.10122864 -0.020378765 0.12872994 -0.22222929 0.0676468 0.30402258
-0.9907056 -0.22438323 -0.033643316 0.3316039 -0.13198598 -0.031619716 -0.105259255 0.21642436
-0.78212786 1.4076325 0.14584483 0.93458366 2.3197205 -1.641147 -1.5878874 -2.5690875
-0.25524545 0.5455321 -0.20237422 0.025178935 -0.43645823 -0.036238194 -0.9355609 -0.45897654
0.19540735 0.14869726 -0.44490612 -2.2795699 2.9153771 -3.0491831 -0.12765096 -0.55190504
-0.60019314 -0.13222905 -0.76320404 -2.723417 -2.9902809 1.0353065 -0.3306159 2.958241
3.0831246 -0.40782383 -2.749825 0.24820267 0.5621006 1.4915105 -0.6344151 -1.3519384
-0.13372487 0.9210658 -0.34577036 2.4645295 -3.207734 1.1486871 -1.1115822 -1.2115611
1.4235373 0.56122494 -0.026415067 0.017058091 0.086173855 -0.06610804 0.16552041 0.038555562

weight_hh_l1 f4 [200, 50]
00000000: 05ef 2bbe 5081 88bc 9b7a 63be 396e 9abd
00000010: 67ba b6be bb27 c73d a67d 91be caf8 7ebe
00000020: cdf3 913d cbf5 2bbe 5eec 01be 1134 70be
00000030: 0a19 823e 51f4 0fbe 9386 8ebb f5bb bd3c
00000040: ab88 4cbc 0d65 24be 9374 373e 3980 523e
00000050: a2f0 36be 0a42 323d a834 3cbe 1816 5dbe
00000060: 2119 5f3e a3e8 c03e 6640 04be e1ef 60be
00000070: 8468 523e 712c f03d b970 34be efde c43d
00000080: e29b 213d 54b5 9f3d d065 9e3b 9508 d63c
00000090: d7c7 763c 9af9 5abe 2845 3e3d f149 9a3d
000000a0: 0d69 f0bd 789c 8b3d b944 52be 0890 4f3e
000000b0: cbb0 81be 61bb 103e a692 013e c4d9 3e3e
000000c0: c80f 2abe f6ca a43d 7b12 123d d706 13bc
000000d0: 4c0d 64bd d3f9 f7bd 4475 cc3e 796d 7c3d
000000e0: 0c19 9ebe a9f5 b4bd b8eb 793d 3891 b6bd
000000f0: 000c 80be bc62 e0bc 0d57 e2be 5bdd 0fbe
00000100: b56c 8fbe 290b 603e 4185 42be 7265 fe3e
00000110: db92 f33d a30e 043e 61d5 3abe d4d5 583e
00000120: 2720 9fbe e2f9 03be e063 cc3d b2bd d5bd
00000130: 7dab 863e 3405 0a3e cd12 4ebc aae8 72bd
00000140: f787 debd e365 be3e 6685 293e 2a99 3e3e
00000150: 8102 abbd 2db3 253d 1d07 c6bc 8ab6 83be
00000160: 4a16 2dbd 3256 d5be cc2a 56bd ba92 40be
00000170: 68c7 04be 0e8a 553d 2300 84b8 384f 1fbe
00000180: 0f43 353e 2287 9dbe 82fd 5cbe c82e e0bd
00000190: 29fe 91bd cd05 933c a93f 3abc 9f45 79bd
000001a0: 497b 5f3e a68f 95ba a9d2 dbbd 12bb 0bbe
000001b0: 61fd 653d 2844 a2be a6e3 24be 5479 8abe
000001c0: 8cb6 9d3d f0ce f8bd 41d1 6abe 2c42 0d3e
000001d0: 7a03 8dbe cdd3 963e 056a 983d fda9 573e
000001e0: 0544 5abe 880b 273e 0a3a 85be fbfd ebbd
000001f0: 47c3 673e d419 fdbd 891c f73d 3ee4 2f3d
00000200: fb10 113c f2ae 053e 2cc5 94be 17f6 d13d
00000210: 744b 36bf 0a9c 683e 0a3e d13d 488c 583e
00000220: 4643 38be a1c7 5cbe df8d 833e 22a3 9dbe
00000230: 8904 2f3d 1ea0 e5be 0561 7cbe 3112 1f3f
00000240: ee5c d0bc 84f9 773e ed5b 963d 9678 06be
00000250: bc20 65be 4d4f a13c 976c 93bd cc8e c4bc
00000260: 784c a53c 14fa 01be a72e 11be 9067 4abd
00000270: 00e8 cb3d fb33 8b3d 007c 003e e435 14be
00000280: 059f 57bd 2485 a2bc 5783 583d 7e74 fabd
00000290: 2e82 b3bd 1c45 383e d8e6 27bd 6593 46be
000002a0: b81e 523b ce4b 0a3e 400d 27be 075b 823e
000002b0: a47a 81be 9544 42be e748 0a3e c1b5 debe
000002c0: d4b5 293e fd6e a1bd 52c0 a23d 7b85 1bbd
000002d0: eb4a 08be 5804 4ebe 9367 67bf 750c 8d3c
000002e0: c3f1 cb3d 5375 67bd 8256 5f3a da7d 17be
000002f0: 99d7 fb3d 2f44 e9bc 599e 36be 74e7 3ebd
00000300: d3f1 213d f074 063f 423c 1ebb 9a32 663e
00000310: 4c21 69bd 9ba1 11bf c9dc 31bd 5fb8 4f3e
00000320: 1ea2 4e3f d290 56be 82cb 713e a1fc 863e
00000330: 7cd6 2f3f bc17 403e 4c71 fbbe a0f5 4e3e
00000340: 1c23 923e faa4 e03e 178e a1be aead c73e
00000350: 8f6c 1dbd 3508 bebe 66dd 37be cc27 d9bd
00000360: 07dc d33e 5d8d 003e 2a41 5f3e 08a2 d73d
00000370: 69f8 b7be 9707 cc3e c148 0abe 3cf9 dc3d
00000380: 3e45 0a3f fc45 733d 7917 29bd cb04 eebe
00000390: 7278 ba3d c134 cb3d f834 113e c790 cfbf
000003a0: 2bb5 a33f 07fa 0a3e 1c48 933f 5e24 bebd
000003b0: 30a7 5c3f be37 be3e f804 42bd 3e6b 1b3c
000003c0: e5bb 223e a682 8b3f 3507 1ebe a214 f93d
000003d0: 0c3d d9bd 7784 9a3f 0517 c3be d99f 413e
000003e0: ff49 d0bd 5c60 933e 91cf 86bd 0824 683e
000003f0: 6756 77be 78cd 1ebe b587 443d 0b62 cabc
-0.16790397 -0.016663224 -0.22214739 -0.075405546 -0.3568909 0.09724375 -0.28416175 -0.24899593
0.071265794 -0.16792981 -0.12687823 -0.23457362 0.25409728 -0.14058043 -0.0043495386 0.023160914
-0.012483756 -0.16054173 0.17915563 0.20556726 -0.17865232 0.04352001 -0.18379462 -0.2159046
0.2178693 0.37677488 -0.12915191 -0.21966507 0.20547682 0.117272265 -0.17621125 0.09612834
0.039455302 0.077982575 0.0048339143 0.02612714 0.015062294 -0.21384278 0.04645267 0.075336345
-0.11738787 0.068169534 -0.20534028 0.20269787 -0.25330195 0.1413398 0.12653598 0.18637758
-0.16607583 0.08046524 0.035662156 -0.008973799 -0.055676743 -0.12108197 0.39933217 0.06162784
-0.30878484 -0.088359185 0.061015815 -0.08914417 -0.25009155 -0.02739083 -0.4420704 -0.14049284
-0.28012624 0.21879257 -0.18996145 0.49686772 0.11893245 0.12896208 -0.1824546 0.21175319
-0.31079218 -0.12888291 0.09979987 -0.10436572 0.2630271 0.13478547 -0.012577725 -0.059303917
-0.10865777 0.37187108 0.16554794 0.18613115 -0.08350087 0.04045408 -0.024173314 -0.25725204
-0.042257585 -0.41667324 -0.052286908 -0.18805972 -0.12966692 0.052133612 -6.294276e-05 -0.15557563
0.17701362 -0.3076716 -0.2158108 -0.10946423 -0.07128555 0.017947102 -0.011367717 -0.06085741
0.21824373 -0.0011410608 -0.107335396 -0.1364558 0.056149844 -0.31692624 -0.16102466 -0.2704569
0.07700834 -0.12148845 -0.22931387 0.13794774 -0.27541715 0.29458466 0.074420966 0.21060939
-0.2131501 0.16312993 -0.26020843 -0.11523052 0.22633086 -0.12358442 0.120659895 0.042942278
0.008854146 0.13055018 -0.2905668 0.10252016 -0.7120888 0.22715774 0.10216911 0.21147263
-0.17994413 -0.21560527 0.25694177 -0.30788523 0.042728934 -0.44848722 -0.24646385 0.6213713
-0.025434937 0.24216276 0.07341752 -0.13131937 -0.22375768 0.019691134 -0.07198446 -0.023993872
0.020178065 -0.12693053 -0.14177953 -0.04941517 0.0995636 0.06797024 0.12547302 -0.14473683
-0.052641887 -0.019838877 0.05285963 -0.1222925 -0.08765064 0.17995113 -0.040991634 -0.19392164
0.0032061767 0.1350548 -0.16313648 0.25460073 -0.2528888 -0.18971474 0.13504373 -0.43498042
0.16573268 -0.078824975 0.079468384 -0.037969094 -0.13309829 -0.20118845 -0.90392417 0.017217854
0.09958222 -0.056508373 0.00085196656 -0.14794102 0.12296981 -0.028474895 -0.17833842 -0.04660745
0.039537262 0.5252218 -0.0024144803 0.2248024 -0.05691652 -0.56887215 -0.043423448 0.20285176
0.8071612 -0.20953682 0.23612788 0.26364616 0.6868665 0.18759054 -0.49109876 0.20210886
0.2854241 0.43875867 -0.31553718 0.38999695 -0.038433608 -0.37115636 -0.1795555 -0.10603294
0.41378805 0.12553926 0.21802202 0.10528952 -0.3593171 0.3984954 -0.13504316 0.10789725
0.54011905 0.059392914 -0.04128215 -0.46488032 0.09105004 0.099221714 0.14180362 -1.6216058
1.2789663 0.1357194 1.1506381 -0.0928428 0.8619261 0.37151903 -0.04736802 0.009486018
0.15891989 1.0899246 -0.15432437 0.121621385 -0.10607347 1.2071675 -0.381035 0.18908633
-0.10170364 0.28784454 -0.06582559 0.22669995 -0.24154054 -0.15508068 0.047980983 -0.024704954

bias_ih_l1 f4 [200]
00000000: 018d 2c3d 3f28 303d f296 0f3e 9ba7 15bd
00000010: 367e 5dbd 1bf7 09ba c039 923e d505 b33d
00000020: 664a 85bc dd1b f03d 2cee be3d 0311 823c
00000030: c237 31be 060a e33c 3601 093e 2f22 9b3d
00000040: 9612 433d 11e5 bfbe 21c4 0d3e ecce c33d
00000050: f2e3 cf3d 75c6 0a3e 2fa3 703e b826 d83d
00000060: 4cc9 a5bd 60f0 5a3e 038c ad3e 94b0 803e
00000070: 7201 843e acd0 08bd 432b 533d eee6 ddbd
00000080: 1bea 53bf 45e3 973d 5c84 86bc 782b 2ebe
00000090: a872 4a3e 2c70 673e 8709 8d3d 4207 203e
000000a0: 8a1e 833e e9ca 26bf 7772 b03d e513 5ebe
000000b0: 6f26 e03d bcf5 8c3c 276d ee3d 4c00 c13e
000000c0: 3bad 463e 3ccb 843c 40b8 de3d 044b 3d3d
000000d0: d3c4 613e e733 9cbc ce44 5abf ed07 323e
000000e0: 7fd7 993e fc77 173e 7a3a 943b 24da b63e
000000f0: 9a47 093e 0d5a 22bd 6c97 e1be 7421 c5bd
00000100: 9e44 1e3e 65f6 52be 3ad6 1b3e 7b0d 78be
00000110: fa1b 913e e8cf 89bc bcef cbbc d66f 7b3e
00000120: e4e6 3f3d 0f32 203e 20f9 9bbe 6ab2 22bf
00000130: a43e d3be b631 ed3d 3d4d 71bd 62cd bdbd
00000140: 354d 173e ccbe 033e 2352 55bf 578a 413e
00000150: 4dea d33d 2a09 6abe 0b25 063e c740 153d
00000160: 73d1 2fbb 6501 7cbd b9f6 bd3d 6676 06bf
00000170: 5c7f c3bc c98b 70be f074 663e fdf5 243d
00000180: 466d 4a3d ee4b c4be f098 433d edd1 0a3d
00000190: 7502 20be 8427 1c3e 250d bcbd 231e 3fbe
000001a0: 9e66 873d a62f 2a3e 13f7 66be 430f 12be
000001b0: 9c16 123e 4ab9 d9bd e88d 54be 36d6 82bc
000001c0: 313a 03bd b9e0 83be 5cb6 18be cff4 333d
000001d0: 04b8 50be 0534 293e 65c7 ca3d 1075 3b3d
000001e0: b514 85be 12af 4d3d 8f58 80be 99fe c4bd
000001f0: 3c33 52be 6fde 9dbd 2980 fbbd 7249 5dbb
00000200: 6349 4e3e 4320 553e d240 ddbd 7412 843e
00000210: 4dca 8bbe 86db a23d 978c 353e dad0 5a3d
00000220: 47eb 3fbe e3c8 35be 27c8 1d3d 72c1 07be
00000230: 97a4 4abe 0b85 ccbe 8943 31be e16a 843e
00000240: 4d6b 2bbe 49f4 823d 29d1 b83d 9038 843e
00000250: 4ac4 69bc cdd3 393e 2e86 e4be f541 b1be
00000260: 9c9b 4dbf 1fd8 e9be 390b 30be 2053 01bf
00000270: abe7 c6be 2da3 67bf 2270 8dbf 219f 0abf
00000280: 51a3 25bf 211a 21bf ee42 23be 2bb9 0bbe
00000290: 6096 7abf e0f5 b23d 8169 19bf 8e89 9b3e
000002a0: 2de7 3abf 3910 4cbf 2e0e 1abf 8982 fbbe
000002b0: aeff 07bf f2a9 94be 924c 68be 3bdd 293e
000002c0: be68 87bf a054 98bf 00c4 b7be bdcc 393e
000002d0: 6337 26bf 59a5 0bbf cbfd 1dbf 815d 3abf
000002e0: b043 82bf 0cdf 4fbe 7fae 66bf 7757 06bf
000002f0: cd9a 15bf 8b4f 1dbf 1a32 a1be 26a9 c2be
00000300: defa 14bf d73e f7be a600 e5be 1132 36be
00000310: ecdf 4bbe 94b5 5c3e 93d6 68bf b776 71bf
0.04212666 0.04300713 0.14022425 -0.036536794 -0.054075442 -0.0005262957 0.28559685 0.08741347
-0.016270828 0.117240645 0.093227714 0.015877252 -0.17306426 0.02771474 0.13379368 0.075748794
0.047625147 -0.3747945 0.13844348 0.095609516 0.10150899 0.13552268 0.2349975 0.1055426
-0.08095035 0.21380758 0.33895883 0.25134718 0.25782353 -0.03340213 0.05155493 -0.10835062
-0.8277909 0.07416395 -0.016420536 -0.1700877 0.197703 0.22601384 0.06886583 0.15627769
0.25609237 -0.65153366 0.086155824 -0.21687277 0.109448306 0.017207019 0.11641913 0.3769554
0.1940202 0.016210191 0.10874987 0.04621412 0.22047739 -0.019067718 -0.8526124 0.17385836
0.30047223 0.14791864 0.0045235725 0.35713303 0.1340622 -0.03963666 -0.44060838 -0.09625521
0.15455863 -0.20601805 0.1521844 -0.24223892 0.28341657 -0.01682277 -0.024894588 0.24554381
0.046851054 0.15644096 -0.30463505 -0.6355349 -0.41258729 0.11581747 -0.05891155 -0.09267689
0.14775546 0.12865752 -0.83328456 0.18900429 0.10347424 -0.22855058 0.13100068 0.03643873
-0.0026827722 -0.061524767 0.09275574 -0.5252441 -0.02386444 -0.23490824 0.22505546 0.040273655
0.049420618 -0.3833918 0.047753274 0.033891607 -0.15625937 0.15249449 -0.091821946 -0.1866384
0.066113696 0.16619739 -0.22555189 -0.14263634 0.14266437 -0.10631044 -0.20757258 -0.015971284
-0.032037918 -0.25757387 -0.14913315 0.04393464 -0.20382696 0.1652375 0.09901313 0.045765936
-0.2599236 0.05021579 -0.25067565 -0.09618873 -0.20527357 -0.077084415 -0.12280304 -0.00337657
0.20145182 0.20813088 -0.10803379 0.2579533 -0.2730278 0.07952027 0.17729412 0.053421833
-0.18742095 -0.17752413 0.03852096 -0.13257387 -0.19789349 -0.39945254 -0.17310919 0.25862792
-0.16740151 0.0639425 0.09024269 0.25824404 -0.01426799 0.18147202 -0.4463362 -0.34620634
-0.80315566 -0.456727 -0.17191781 -0.50517464 -0.38848624 -0.9048336 -1.1049845 -0.5414906
-0.64702326 -0.62930495 -0.159435 -0.13644855 -0.97885704 0.08738303 -0.5992661 0.30378383
-0.73008996 -0.79712254 -0.60177886 -0.49123028 -0.5312451 -0.29035908 -0.2268546 0.16588299
-1.057884 -1.1900826 -0.35891724 0.18144508 -0.64928263 -0.54549176 -0.6171538 -0.72798926
-1.0176907 -0.2029993 -0.9011001 -0.5247721 -0.5843933 -0.614495 -0.31483537 -0.38019675
-0.5819529 -0.4829013 -0.44727057 -0.17792536 -0.19909638 0.21553642 -0.90952414 -0.9432177

bias_hh_l1 f4 [200]
00000000: 5813 b63d d329 7a3e 781d 583e a6bd 003e
00000010: a68b abbd b98f 1a3e ee1b d73e 5cc4 5d3e
00000020: 9d43 013e 9bbe dd3d 9743 f53c 8bbc acbd
00000030: 99cf 293d 2f25 343e 7475 4b3e 29c4 de3d
00000040: 5d4a a9bd 2d2c 92be 7e75 683e 8d31 023e
00000050: 4b98 803e 3c94 293e 0a94 b13e 7848 ac3d
00000060: cc27 0cbc d171 ce3d 352c e93d 5aaa 3d3e
00000070: e463 7c3d 9223 203d 45d4 743d 1116 3e3c
00000080: 0d8b 70bf d2ca 463e 05d4 78bd ea4f 90bc
00000090: fa18 46bd f926 273e a21b ec3d 68c2 2b3d
000000a0: 477a 813e 8244 0cbf d49b d43d 4c26 3ebe
000000b0: 80fc eabc 5f26 7f3e 7ca0 503e 6e68 be3e
000000c0: 8d86 653d 7f6c 17bd 592e 2f3e 3804 173d
000000d0: 5bbd d03d 8171 3a3e 25ef 60bf 9900 583e
000000e0: 8eba 0f3e e2b0 f03d 6017 083e ae1b 593e
000000f0: 4346 4f3d 89d0 babd c012 d2be 547f 78bd
00000100: 8a6a 05bd fb4f 7fbe ba68 1a3e 82ce 48be
00000110: 3c9b 833d da39 52bb f9fc 253e 0538 473e
00000120: 0315 a03e 7f76 1b3e 9b3e cdbe d9cd 00bf
00000130: 1512 8dbe a067 923d 25ac eb3d ea90 b53c
00000140: e602 e53d 0f64 f83b 5c66 47bf 7b8d 2e3e
00000150: 0c7b a03d 82ae 6cbe f73f 5b3d 0218 d73b
00000160: 9d5e 3d3e 1a4e 2cbe 9bf1 863d af40 e2be
00000170: 751a f0bd 8b8c 55bc c2b8 2a3e 5f68 9d3d
00000180: e505 093e e627 d1be 080b 143e 741d 313c
00000190: 5766 64be 82f6 1d3e 5ab1 2dbe 25a6 26be
000001a0: cc32 063e d7bc 2a3e 1eaa 46be 6b7c 62bd
000001b0: 1418 1b3e 5255 0bbe 80c5 61be 4daf 4fbd
000001c0: 912d c93d 27e9 5fbe a34c 1abe d6de 243e
000001d0: 29b9 2fbe 4f52 873e 4ffd d93d 4efc 393e
000001e0: 42cf 80be 3353 573e 4fe3 02be b2a3 69be
000001f0: 1944 32be d9ec 193e 9bd3 b93d e780 84bb
00000200: 25db 0a3e 5de6 da3d 4825 d13b abdb cf3c
00000210: f5d7 d3be af1e 453e aeae 323e f821 b63d
00000220: a642 c6bd a536 43be 5db2 bd3d b400 8ebe
00000230: 92c0 53be 83ca aabe 203e c4bd 6e66 713e
00000240: 5f29 32be 17a5 3d3e af34 0f3e 06b8 973e
00000250: a5c7 20be 8b15 e93d 6b4e b7be 3be7 70be
00000260: e7e9 5abf f5e4 f0be 9ca8 e6bd f65c f7be
00000270: 0785 d3be 5a14 6fbf 9a77 a0bf e74b 16bf
00000280: 3ee2 2ebf 7d3b 44bf d0ff 88be 6910 2dbe
00000290: 32f4 7abf 6a9f a13c 1a34 d6be 40c5 3e3e
000002a0: 8ce2 49bf 9dba 0ebf 78f4 04bf dd56 07bf
000002b0: 01d4 8fbe 9e86 18be 2b3a b6bd ef31 ec3c
000002c0: 3c58 52bf 2c2c b3bf ec67 d6be eab4 d83d
000002d0: 662e f7be 7dd4 ffbe 5fd1 0dbf 7ba9 3abf
000002e0: f056 90bf e6cc afbe 5815 77bf ed0d 0bbf
000002f0: 3606 13bf 98be d8be e6a1 bebe 8fb5 19be
00000300: 36fd 0ebf 1d07 e9be 0b0c 1abf fa81 b7be
00000310: ef9b d9be 1262 bf3d 21fd 2ebf eab5 62bf
0.08890408 0.24430017 0.21104991 0.12572345 -0.08376245 0.15093888 0.42013496 0.21656936
0.12623449 0.10827371 0.029939456 -0.08434399 0.041457746 0.1759231 0.19869024 0.10877258
-0.08266137 -0.28549328 0.2270107 0.12714215 0.2511619 0.16560453 0.34683257 0.0841226
-0.00855441 0.100803025 0.11385385 0.18522015 0.0616187 0.039096422 0.05977275 0.011601941
-0.93962175 0.19413307 -0.060749073 -0.017616231 -0.048363663 0.1632346 0.11528708 0.041933447
0.25288603 -0.54792035 0.10381284 -0.18569297 -0.028684855 0.24916981 0.2037372 0.3718905
0.05603652 -0.036968704 0.17107524 0.036869258 0.10192367 0.18207361 -0.87864906 0.21093978
0.14036009 0.11752488 0.13290167 0.21201965 0.050604116 -0.09121806 -0.4102993 -0.060668305
-0.032572307 -0.24932854 0.15079013 -0.19610026 0.06426093 -0.003207794 0.16209783 0.19454964
0.3126603 0.15181921 -0.40086827 -0.503141 -0.27552858 0.07148671 0.11507443 0.022163827
0.111821935 0.0075802873 -0.77890563 0.17046158 0.07835969 -0.23113444 0.0535278 0.0065641413
0.18493123 -0.16826668 0.06589051 -0.44189975 -0.11723796 -0.013033996 0.16672042 0.07685923
0.13381155 -0.40850753 0.14457333 0.010810245 -0.22304665 0.15426067 -0.16962186 -0.16274317
0.13105315 0.16673599 -0.19400832 -0.055294435 0.15145904 -0.13606766 -0.22047997 -0.05070429
0.09823144 -0.21866284 -0.15068297 0.1610063 -0.17160477 0.26429984 0.10644018 0.18162653
-0.25158125 0.21027832 -0.12782024 -0.22816351 -0.1740879 0.15031756 0.09073564 -0.0040436867
0.1356016 0.106884696 0.006382618 0.0253733 -0.413757 0.19249986 0.17449448 0.08893198
-0.09680681 -0.19063814 0.09262536 -0.2773491 -0.20678928 -0.3335763 -0.09582162 0.2357423
-0.17398594 0.18520008 0.13984941 0.29632586 -0.15701158 0.11381062 -0.35802016 -0.23525707
-0.85513157 -0.4704968 -0.112626284 -0.4831311 -0.4131243 -0.9339043 -1.25365 -0.5870957
-0.6831397 -0.7665327 -0.2675767 -0.16900791 -0.9802886 0.019729335 -0.41836625 0.18629932
-0.7886131 -0.557535 -0.5193553 -0.5286692 -0.28091434 -0.14895102 -0.088978134 0.028832404
-0.82165885 -1.3997855 -0.4187616 0.105813816 -0.48277587 -0.49966803 -0.553976 -0.72914857
-1.1276531 -0.34336013 -0.9651694 -0.54318124 -0.5743135 -0.42332911 -0.37232894 -0.15010665
-0.5585512 -0.4551324 -0.60174626 -0.35841352 -0.4250178 0.09344877 -0.68354994 -0.8855883

weight_ih_l2 f4 [200, 50]
00000000: 973c 1a3e ee3a eabd d06b dfbe a0dd 023d
00000010: c17a 3fbf b213 2fbe 2d1a aabd 934f f73c
00000020: 1c11 9fbd 1a37 e8bc 9491 c2bd b19d 2f3d
00000030: 09da 44bd 024c 91bf 10c1 febc d631 78bd
00000040: 3871 8c3d b026 debd 5b9b ddbd bec8 ab3e
00000050: 964e 273e 9ce9 b53d b301 f6be 7ad4 d43d
00000060: a469 1ebd 7e38 c4bc 0afc 1fbd 7366 053d
00000070: 92ab fc3c da39 793e 6c08 9a3d 47df a0be
00000080: 2aab eabe c24a 52bd c4bf 3cbf 9fe7 13bf
00000090: 74ae 53bf 98ad 943d 4922 a63a a952 f3bc
000000a0: 0ab0 90bc 9eac 76bd a3eb 483c 74bd cb3e
000000b0: 6650 e73d 8834 273d cc0d b4bd 54a6 51be
000000c0: 8f43 a4be bf62 a83e 96d3 29be c470 d73e
000000d0: 872e a23c 7fac 353e 73d9 28bf 5d6d 3f3e
000000e0: d5d8 5ebf 7a96 03bc bb8d 183e fc06 b13e
000000f0: 3372 49be 2cfa 973d 3334 973e d4ac a0bd
00000100: 4016 253e 2cc3 213d b4ae 7cbc 48a3 92be
00000110: 7402 443e c8ae 5ebc a237 30bd 4a9a 42be
00000120: 14e2 343d a6be 273c 04b3 4bbc 32df 6a3e
00000130: c67b c5be bbdf 763e d2cc 60bd acd6 493e
00000140: bc94 c33c 428c 73be 6f45 4b3e f2b9 4b3c
00000150: c007 0f3e 9a09 8a3e 8fdc 93be 5dcb 6fbd
00000160: 90be 013d 392c 353e e0eb da3c c8a6 b13e
00000170: 58e3 c03d eb79 9dbe b4d1 6cbe ce05 d73e
00000180: dc82 ddbd efca 543e 3251 0c3d 6aa4 013e
00000190: 7e70 7bbe be1b 1abe f06c 2440 9f74 fe3d
000001a0: 88c3 3e3d 2e43 593e ba30 0b40 9995 0440
000001b0: 5428 2ec0 c0d1 683d 112c a9bb ffab 4d3d
000001c0: 9166 aebf 4723 0e3d 3dd6 0bbe 5f3a b8bd
000001d0: 2c5b a2bd 6b00 7abf 55ce ff3d 10cc 893c
000001e0: 43de 84be d4f4 69ba 461a ebbc ad57 fe3e
000001f0: 21e6 593e a25d 6e3b 4dad 7fbd 08e2 2f40
00000200: 051a 3dbe 8b9d c3bf 332c ebbd b6e9 41bf
00000210: ec8b 67be b879 0cbc 3df5 7abf e399 873e
00000220: b659 8f3f 34b0 9e3f ba03 d3bd 27fc 753e
00000230: 9fa8 263e 371b 003d 7975 99bd 26c2 e23c
00000240: 99ae 823f 76fc 03bf cee7 34bd af0d cb3d
00000250: cf55 b23f 8a36 dabf d19f 21bd ec87 593e
00000260: 2e68 3dbe f6b6 87bd a03b 8e3e 801a 513e
00000270: e05e 12be 1001 1abe 74fd 8eba 0a0c f33d
00000280: 4941 efbc d0bc 763e 1aec b43e 24a8 ae3c
00000290: 3478 6abc 79ce e33c 4ae2 1cbe a302 883d
000002a0: f58f 323e ef3e 073d 6836 76be 211f bebd
000002b0: 9b9f a23d dcf7 5fbe 244b 0cbe 6d84 2d3f
000002c0: 49c7 9dbd b48e 35be 909d 133e 06f8 d6bd
000002d0: 04c6 243e 6734 133f 875d 173f 90f7 c93d
000002e0: 5c56 553e 8493 783e 9ee6 3fbe a44b a6bd
000002f0: efa6 d73c 795a 0fbe 49a8 6fbc 084e 903e
00000300: a57e 03bd 9f92 50bf bd70 0cbe f2a2 263e
00000310: 90d8 073e e831 3b3f 7246 e3bd 1529 223e
00000320: d56a f53e 3d60 2dbf a110 b6bd d365 1cbd
00000330: 9843 2b3e 2e12 553c 203e 4240 eec9 203d
00000340: 295e 9c3d dde4 33bd 4a71 35be a98d cfbd
00000350: 5b9d 72c0 1071 3c3e 91ba 19bd b36a c1be
00000360: e7e7 813c 2ef1 b1be 64da e63d b9a0 893e
00000370: de41 41be c2e3 8e3c fac1 2b3e d519 543d
00000380: 4dbd 663d 20f5 573c 17fc 3bbe 128d 27be
00000390: cfe6 52bd 83b9 a1bf 5e89 273d 40cd 0dc0
000003a0: c397 683d 29be 053d 8941 4d3d a5c9 0ebf
000003b0: b5cc 59bf 321c d33f 814e e73c a9d7 66be
000003c0: 717d 073e 577e 7b3d c03c 23bc 8e9b b6bd
000003d0: af60 2740 e19c 55c0 682a 393d cd46 c43d
000003e0: b959 4ebe 08f8 10c0 2086 103c 5752 adbc
000003f0: 22d2 afbe e8b0 203d ecab 4e3e 77fd cc3d
0.15062176 -0.11437021 -0.43636942 0.03194964 -0.7479668 -0.17097357 -0.08305774 0.030189311
-0.07766935 -0.028346587 -0.09500423 0.042874996 -0.048059497 -1.1351321 -0.031097919 -0.060594402
0.06857532 -0.10847223 -0.10820647 0.33551592 0.16338572 0.08882448 -0.4804817 0.10392089
-0.038674966 -0.023952719 -0.039058723 0.032568406 0.03084353 0.24338475 0.075211376 -0.31420347
-0.45833713 -0.051340826 -0.7373011 -0.577753 -0.8268807 0.07259673 0.0012675013 -0.029702501
-0.017662067 -0.060223214 0.012263211 0.3979298 0.11294632 0.040821582 -0.08791694 -0.20473605
-0.32082793 0.32887837 -0.1658462 0.4207822 0.019797577 0.17741583 -0.659568 0.18694063
-0.8704961 -0.008031482 0.14897816 0.3457564 -0.1967247 0.074207634 0.29532012 -0.07845464
0.16121769 0.03949277 -0.015422512 -0.286402 0.19141561 -0.013591476 -0.043021806 -0.19004169
0.044160917 0.010238325 -0.012432817 0.22936705 -0.38570994 0.24108784 -0.054882832 0.19710797
0.023874633 -0.23783973 0.19850706 0.01243447 0.139678 0.2696045 -0.2887921 -0.05854355
0.031675875 0.17692651 0.026723802 0.34697556 0.094183624 -0.3075708 -0.2312687 0.41996616
-0.10815975 0.20780538 0.03425712 0.12660375 -0.24554631 -0.15049645 2.569149 0.124245875
0.046573192 0.21217033 2.174849 2.0716307 -2.7212114 0.05684066 -0.005162724 0.050212856
-1.3625051 0.03470161 -0.13655944 -0.089955084 -0.07927546 -0.9765689 0.124905266 0.016820937
-0.25950822 -0.0008924727 -0.028699052 0.49676266 0.21279193 0.0036371727 -0.062421132 2.7481709
-0.18466957 -1.5282453 -0.1148304 -0.7574724 -0.2261197 -0.008573942 -0.98030454 0.26484594
1.1199253 1.2397523 -0.10303445 0.2402197 0.16275261 0.031275954 -0.07493109 0.027680468
1.0209533 -0.515571 -0.04416638 0.09914719 1.3932437 -1.7047894 -0.039459053 0.21243256
-0.18496773 -0.06626694 0.27779865 0.20420265 -0.14294004 -0.15039468 -0.0010909275 0.11867531
-0.029205935 0.24095464 0.3533638 0.02132041 -0.014310885 0.027808415 -0.15320697 0.06641128
0.17437728 0.033019003 -0.24044192 -0.09283281 0.079405986 -0.21871895 -0.13700539 0.6778019
-0.07704026 -0.17730218 0.14415574 -0.104965255 0.16091162 0.57501835 0.59127086 0.09861672
0.20833725 0.24275023 -0.18740317 -0.08119896 0.026324717 -0.13999356 -0.014627525 0.28184533
-0.0321032 -0.81473726 -0.13714881 0.16273096 0.13266206 0.73123026 -0.11097421 0.15835984
0.4793307 -0.6772497 -0.088898905 -0.038183045 0.16725004 0.013004823 3.0350418 0.039255075
0.07635147 -0.043919433 -0.17718998 -0.101344414 -3.7908542 0.18402505 -0.03753144 -0.37776718
0.01585765 -0.34754318 0.112721235 0.26880434 -0.18872783 0.017442588 0.16773215 0.051782448
0.056332875 0.013181001 -0.18357883 -0.16362408 -0.051489647 -1.2634739 0.040902488 -2.2156525
0.056785356 0.032652054 0.050111327 -0.55776435 -0.85077983 1.649298 0.028235676 -0.22543205
0.13231446 0.061399784 -0.009963214 -0.089163885 2.615276 -3.3377001 0.045206457 0.09583817
-0.20151414 -2.2651386 0.00882104 -0.021157427 -0.34340006 0.03923121 0.2018277 0.10009282
