ANN_MODELS/N_GRAM_ANN/balmy-forest-1.pth (torch, 483095 bytes, 5 tensors)

embeddings.weight f4 [101, 300]
0	0xbf1a1c24	-0.6019919
1	0xbdf972c3	-0.12180092
2	0xbedd88f9	-0.43268564
3	0x3ff10e22	1.8832438
4	0xbf3773f6	-0.7166132
5	0x3b443fbe	0.002994522
6	0x3e5321e0	0.20618391
7	0x3f0fc799	0.56163937
8	0x3e8f3252	0.2796808
9	0xbf8b7920	-1.089634
10	0x3d794b73	0.06086297
11	0x3f68936d	0.90849954
12	0xbed408f3	-0.41413078
13	0xbe46cf70	-0.19415069
14	0xc00bb75b	-2.1830661
15	0x3f38249a	0.7193085
16	0xbfba7889	-1.4568034
17	0xbf7d3b39	-0.9891849
18	0x3f87086e	1.0549448
19	0x3f4741e9	0.77834946
20	0x3f88c204	1.0684209
21	0x3dec1609	0.1152764
22	0xbf0eb775	-0.55748683
23	0x3e9cb27c	0.30604923
24	0xbf1ff5a1	-0.62484175
25	0xbe2f10a6	-0.17096195
26	0x3f6b58b8	0.9193225
27	0x3f0f800e	0.5605477
28	0x3fe2e382	1.772568
29	0xbf766f25	-0.96263343
30	0x3d7c3c5d	0.061581004
31	0xbf6808ac	-0.9063823
32	0xbf6c5c82	-0.92328656
33	0x3ec5ce8d	0.38634148
34	0xbf886645	-1.065621
35	0xbe77d4ee	-0.2420232
36	0xbf97ff80	-1.1874847
37	0x3f5b1f6f	0.8559484
38	0xbee05b09	-0.43819454
39	0xbf04e37c	-0.51909614
40	0x3ec0fcd1	0.37692884
41	0xbf4d88e2	-0.8028699
42	0xbf08ca8f	-0.5343408
43	0xbf635835	-0.8880647
44	0x3f3bd11c	0.7336595
45	0xbf79ed4e	-0.97627723
46	0x3fc3abea	1.5286839
47	0xbf0cc6d5	-0.54990894
48	0x3fc12263	1.5088619
49	0x3f84131f	1.0318335
50	0xbd7f2f28	-0.06230083
51	0xbda79956	-0.081835434
52	0x3dba079a	0.09083481
53	0xbf69a79f	-0.91271394
54	0x3e921935	0.28534856
55	0x3e28c1ac	0.1648013
56	0x3fa762ef	1.3077067
57	0xbe95bf16	-0.2924735
58	0xbfa0bc58	-1.2557478
59	0x3f4b8d7e	0.79512775
60	0xbf531391	-0.8245173
61	0xbe90c553	-0.28275546
62	0xbf0a29bb	-0.53969926
63	0x3eb2594d	0.34833756
64	0xbf177716	-0.59166086
65	0x3f7a825f	0.9785518
66	0xbf84a857	-1.0363873
67	0x3d9034a2	0.07041289
68	0x3e91adcb	0.28452906
69	0x3f4f4da2	0.80977833
70	0x3fc34760	1.5256157
71	0x3f4a7dc2	0.7909814
72	0x3e0529fa	0.13004294
73	0xbf2fd2d8	-0.686811
74	0xbeb0ee47	-0.3455679
75	0xbd024ccb	-0.031811517
76	0xc015242d	-2.330333
77	0xbf2c0220	-0.6719074
78	0x400a4e1d	2.1610177
79	0xbf0d0ffa	-0.55102503
80	0x3f9460de	1.1592062
81	0x3db98623	0.09058788
82	0xbf5ae3b5	-0.85503703
83	0x3fd69168	1.6763124
84	0x3f3a48a9	0.7276712
85	0xbe879a0b	-0.26484713
86	0x40181736	2.3764167
87	0xbf0346c6	-0.51279867
88	0xbfd34f44	-1.6508565
89	0xbee3ec57	-0.4451625
90	0xbe8459a9	-0.25849655
91	0x3f3415c1	0.70345694
92	0x3f8e5116	1.1118495
93	0xbf646356	-0.89214075
94	0x3f7844e7	0.96980137
95	0x3efc9599	0.49332884
96	0x3f79fab3	0.9764816
97	0x3edb765e	0.42863744
98	0xbf6412fa	-0.89091456
99	0xbda8f218	-0.08249301
100	0xbc3acae7	-0.011400915
101	0xbe1e1832	-0.15438917
102	0x3f169624	0.58822846
103	0xbf22b1d3	-0.6355259
104	0x3f4df0fd	0.80445844
105	0xbfcfad9c	-1.6224856
106	0x3fd688ed	1.6760536
107	0x3df2a82a	0.11848481
108	0x3f43d8bb	0.7650258
109	0xbf8b7dc0	-1.0897751
110	0xbf86a4d5	-1.0519053
111	0xbf9e8c12	-1.2386496
112	0x3bbb9d74	0.005725557
113	0x3f89d437	1.0767888
114	0xbef0163c	-0.46891963
115	0xbe86449f	-0.2622423
116	0x3f9a9839	1.2077705
117	0x3ea73999	0.3266113
118	0xbf9ad178	-1.2095175
119	0x3f80370a	1.0016797
120	0x3e7b1351	0.24519087
121	0x3f7f8d51	0.99825007
122	0xbf43b998	-0.7645507
123	0x3fb84b7d	1.4398037
124	0x3db2e6e9	0.08735449
125	0x3dff9dde	0.12481283
126	0x3f424098	0.7587981
127	0xbd4cd8b6	-0.05001136
128	0x3e8967f8	0.26837134
129	0xbf7ca5a9	-0.9869028
130	0x3d09909d	0.03358518
131	0x3f8a2979	1.0793906
132	0x3ed9f032	0.42566067
133	0xbfab2cfd	-1.3373104
134	0xbec93567	-0.39298555
135	0x3f24779a	0.64245
136	0x3e1b3d2a	0.15160051
137	0xbc9590cf	-0.018257527
138	0x3f0fb677	0.56137794
139	0xbf2b0eef	-0.6681966
140	0xbe2bee60	-0.16790152
141	0x3f8166ff	1.0109557
142	0xbe73d842	-0.23812965
143	0x3ecf9174	0.4054066
144	0x3fe97353	1.8238319
145	0x3ef96b78	0.48714805
146	0xbfa98449	-1.3243495
147	0xbed01129	-0.40638092
148	0xbe9f7871	-0.31146577
149	0x3eeec00c	0.46630895
150	0x3fa0c966	1.2561462
151	0x3f5a0eae	0.8517865
152	0xbf3604a9	-0.7110086
153	0xbeabd919	-0.3356407
154	0xbf445055	-0.76685077
155	0xc020fc3f	-2.5153959
156	0xbe981f5d	-0.29711428
157	0x3f82443c	1.0177073
158	0x3c5dc3e8	0.013535477
159	0xbf5d05d7	-0.86337036
160	0xbf2cda0b	-0.6752021
161	0x3e0b6f99	0.1361679
162	0x3fedf6a7	1.8590897
163	0xbfb08d4d	-1.3793122
164	0xc010b85f	-2.261253
165	0xbef84cb3	-0.48496017
166	0xbdfdbf41	-0.123899944
167	0xbea60cbe	-0.32431597
168	0xbfe463af	-1.7842921
169	0x3f0a05fc	0.5391538
170	0x3fb40343	1.4063495
171	0xbe8663d5	-0.2624804
172	0xbf38bb8e	-0.72161186
173	0x3f105dc0	0.5639305
174	0x3f26f3c6	0.6521572
175	0x3f001720	0.50035286
176	0xbf65afa5	-0.8972114
177	0x3f2702ca	0.6523863
178	0x3cadd649	0.021220343
179	0xbcfcdd66	-0.03086729
180	0xbf6a3e67	-0.9150147
181	0xbebb1de1	-0.36546233
182	0xbf58ccee	-0.846877
183	0xbf10cad6	-0.56559503
184	0x3c9685d4	0.018374361
185	0x3ee046aa	0.43803912
186	0xbf84c15d	-1.037151
187	0x3f3ca6dc	0.7369211
188	0x3f42602c	0.75927997
189	0xbf0bebb8	-0.54656553
190	0xbf2f68b7	-0.6851916
191	0xbf431498	-0.762033
192	0x3ee75925	0.451852
193	0x3dd6dc78	0.1049127
194	0xbeb3136c	-0.34975755
195	0x3f55fd48	0.835896
196	0xbff5c516	-1.9200771
197	0x3daafd2c	0.0834907
198	0xbfc44071	-1.5332166
199	0x3f0e5ca3	0.556101
200	0xbf95d282	-1.1704867
201	0x3fbf0243	1.4922565
202	0xbf209566	-0.62727964
203	0x3f0695f1	0.5257254
204	0xbf6f37e8	-0.9344468
205	0x3ebd26dd	0.36943713
206	0x3fa9aef2	1.3256514
207	0xbdf106d6	-0.11768882
208	0xbdbad295	-0.091221966
209	0xbf775902	-0.9662019
210	0x3ffd8354	1.9805703
211	0x3eaca1d1	0.33717206
212	0x3ed91e44	0.42405903
213	0xbf15afb6	-0.5847124
214	0x3eef5209	0.46742275
215	0x3fb0ef64	1.3823056
216	0xbe41a522	-0.1891065
217	0xbef6f26d	-0.4823183
218	0xbed4a6b7	-0.41533443
219	0x4007c511	2.121403
220	0xbfc259ab	-1.5183614
221	0xbfc30106	-1.5234687
222	0xbe087f62	-0.13329843
223	0xbf7958c7	-0.9740109
224	0x3f8691fb	1.05133
225	0xbf74289d	-0.9537447
226	0x3f57c32a	0.8428217
227	0x3e8651ce	0.26234287
228	0xbe12341f	-0.14277695
229	0xbfc659a3	-1.5496105
230	0x3f9967c6	1.1984794
231	0xbf94b393	-1.1617302
232	0x3ea3f8f4	0.32025874
233	0xbef917a9	-0.48650864
234	0xbf3ba4a1	-0.7329808
235	0xbf62dc48	-0.8861737
236	0xbf2fddd3	-0.6869785
237	0xc0018a60	-2.0240707
238	0x3eb48b66	0.35262603
239	0x3f69d5f2	0.9134208
240	0x3f01b650	0.5066881
241	0x3f974583	1.1818088
242	0xbe822799	-0.25420836
243	0x3f39529b	0.7239167
244	0xbf3410f3	-0.7033836
245	0x3ff5bc14	1.9198022
246	0xbdb8eea0	-0.09029889
247	0x3e3e0dab	0.18559901
248	0xbf0f750c	-0.56037974
249	0x3fb7fe55	1.4374491
250	0x3f828d1c	1.0199313
251	0xbea6a33b	-0.3254641
252	0x3f39b87e	0.7254714
253	0xbf3bfbae	-0.7343091
254	0x3f767cd8	0.96284246
255	0xbf28f494	-0.65998197

linear1.weight f4 [128, 600]
0	0x3a9ccf3e	0.0011963618
1	0xb94d7e9a	-0.00019597486
2	0x3d0cf016	0.03440865
3	0xbd70515f	-0.05867135
4	0xbd04ca33	-0.032419395
5	0x3c58685a	0.013208473
6	0xbcf093af	-0.029367296
7	0x3cb44ded	0.022009814
8	0x3b893013	0.004186639
9	0xbd88a187	-0.06671434
10	0xbd8a1955	-0.06743113
11	0x3bad6385	0.0052914047
12	0xbd47b867	-0.048759844
13	0xbcc47386	-0.023980867
14	0xbae03b1f	-0.0017107463
15	0xbd144cc2	-0.036206014
16	0xbcc8c406	-0.024507534
17	0x3c5c5d98	0.013450049
18	0xbc30b43b	-0.010785158
19	0xbbb68a91	-0.0055707176
20	0x3d2f0c4f	0.042736348
21	0x3cd9592f	0.026531784
22	0xbd5c2fff	-0.05375671
23	0xbcbd63fb	-0.023118963
24	0x3c495886	0.012289172
25	0x3c26ec5e	0.01018819
26	0xbcd5d1ae	-0.02610096
27	0xbd00645f	-0.03134572
28	0xbd8312cb	-0.06400069
29	0x3c61599b	0.013754274
30	0x3cb20359	0.021730112
31	0xbd415fb4	-0.04721041
32	0x3d354e35	0.044264037
33	0x3d4c5633	0.049886893
34	0x3c901235	0.017586807
35	0xbcbdac8c	-0.023153566
36	0xbd560e4d	-0.052259732
37	0xbd0d2dd8	-0.034467548
38	0xbc66070b	-0.014039765
39	0x3af05c23	0.0018338006
40	0xbc0d1255	-0.008610328
41	0x3d0a27b6	0.033729278
42	0x3c02a7e3	0.007974598
43	0xbd22f231	-0.039781753
44	0xbc7998a8	-0.01523415
45	0xbc35510a	-0.0110666845
46	0x3b73cc2d	0.0037200556
47	0x3da9e35d	0.08295319
48	0xbd35c40c	-0.044376418
49	0x3c2b7e3b	0.010467107
50	0xbb5516b1	-0.0032514746
51	0xbbd5eca6	-0.006528455
52	0x3d519375	0.051166017
53	0x3cbfa6a7	0.023394896
54	0xbb7b7291	-0.0038367847
55	0xba4cef6f	-0.0007817661
56	0x3d6fbb1c	0.05852805
57	0x3d65e010	0.056121886
58	0x3d45b895	0.048271734
59	0x3d0160a6	0.03158631
60	0x3d226918	0.039651006
61	0x3c060781	0.0081805
62	0xbd4acdd0	-0.049512684
63	0x3b753a80	0.0037418902
64	0x3c939710	0.018016368
65	0x3dd5c032	0.10437049
66	0xbc5580f4	-0.013031233
67	0x3c6d4d23	0.014483723
68	0xbbcb4338	-0.0062030815
69	0xbb0206e1	-0.0019840526
70	0xbaa70c1c	-0.0012744698
71	0xbd28c386	-0.04120209
72	0xbce5d471	-0.028055402
73	0x3ce85f3e	0.028365728
74	0xbd057981	-0.03258658
75	0xbcf57592	-0.029963288
76	0x3cf7ee70	0.030265063
77	0xbc9f0ded	-0.01941582
78	0x3b0d8829	0.002159605
79	0x3b0b67c4	0.0021271566
80	0xbc15d436	-0.009144833
81	0x3cee9c05	0.02912713
82	0x3d710d26	0.05885043
83	0x3ca54fde	0.020179685
84	0xbbefd05a	-0.0073185386
85	0xbd5c52f6	-0.053790055
86	0xbcf1e2de	-0.029527124
87	0x3bee2004	0.007267
88	0xbd594e0a	-0.05305294
89	0x3c309655	0.010778029
90	0xbc91c2e0	-0.017793119
91	0x3c27db1b	0.01024511
92	0xbccd08d7	-0.02502863
93	0x3c6303ba	0.013855869
94	0xbca58620	-0.020205557
95	0xbcf3af9b	-0.029746821
96	0xbcc3cffd	-0.023902887
97	0xbd23fa47	-0.040033605
98	0x3cd854f1	0.02640769
99	0x3becb878	0.007224139
100	0x3d1782bc	0.036989912
101	0xbcd1972b	-0.025584778
102	0x3cdb74ad	0.026789034
103	0x3d89a7f3	0.06721487
104	0xbc9fc364	-0.01950235
105	0x3d543212	0.051805563
106	0xbd332f5a	-0.04374633
107	0x3c9f9905	0.019482145
108	0xbd3aa568	-0.0455679
109	0xbd350a6c	-0.044199392
110	0xbbae8543	-0.0053259446
111	0x3d4c1b22	0.049830563
112	0xbcb8c5cf	-0.02255526
113	0xbd038ebe	-0.03211855
114	0x3c1b3e8e	0.009475363
115	0xbbd4568e	-0.0064800447
116	0x3d44e161	0.0480665
117	0xbd237d99	-0.0399147
118	0xbc325e8b	-0.010886799
119	0xbb963f41	-0.004585177
120	0xbd085e42	-0.033293016
121	0x3d173ecc	0.036925122
122	0x3cccca43	0.02499879
123	0xbba0295e	-0.004887744
124	0x3bd0f03b	0.006376294
125	0xbc4607a0	-0.012086779
126	0x3c660852	0.01404007
127	0xbc21406e	-0.009842021
128	0x3d0f9244	0.0350516
129	0xbbf955d9	-0.007609111
130	0xbda1564d	-0.07877789
131	0xbd2795e6	-0.04091444
132	0xbc76cf6d	-0.015064103
133	0xbce6b9d7	-0.028164787
134	0x3cebe276	0.028794508
135	0xbd08a2e0	-0.033358455
136	0xbaa03abf	-0.0012224539
137	0x3d3e794a	0.04650239
138	0xbd19e0ea	-0.03756801
139	0xbd831206	-0.06399922
140	0x3b8129fd	0.003941773
141	0xbcf60dae	-0.03003582
142	0xbd76d329	-0.06025997
143	0x3cc12c2f	0.023580639
144	0xbd09fcab	-0.03368823
145	0xbd0991d2	-0.03358633
146	0x3d5ea761	0.054358844
147	0x3d553621	0.052053574
148	0x3be79103	0.0070668473
149	0xbc999719	-0.018748807
150	0xbd2e269c	-0.04251729
151	0x3cac7522	0.021051947
152	0xbd2b0b92	-0.04175908
153	0xbd2148b9	-0.039375994
154	0x3b94b05c	0.0045376252
155	0xbc9fdbe8	-0.01951404
156	0x3bd32f02	0.0064448128
157	0xbad7b733	-0.0016457796
158	0x3b0945ec	0.0020946218
159	0xbad61804	-0.0016334062
160	0x3cc13ac5	0.023587594
161	0xbc948022	-0.018127505
162	0xbd057269	-0.032579813
163	0xbdbcd6fc	-0.092206925
164	0xbd5b8290	-0.05359131
165	0xbc9d2536	-0.019182783
166	0x39bc821a	0.00035955088
167	0x3d6c0808	0.057624847
168	0x3cb1bb35	0.021695713
169	0xbd11b683	-0.035574447
170	0xbcb6fc2c	-0.022337042
171	0x399197f2	0.00027769763
172	0x3c694f88	0.014240153
173	0x3d24deb4	0.04025145
174	0xbd405375	-0.04695459
175	0xbca4d345	-0.020120272
176	0xbc42fcca	-0.01190109
177	0xbbbeb01f	-0.005819335
178	0xbcc9674d	-0.02458539
179	0x3c56790c	0.013090383
180	0xbca66143	-0.02031005
181	0xbd1c5486	-0.038166545
182	0xbc987229	-0.018609123
183	0x3d992305	0.074773826
184	0xbd08334a	-0.033252038
185	0xbc8f9af8	-0.01752995
186	0x3ce8f1cd	0.028435612
187	0xbcb37484	-0.021906145
188	0xbd1953c7	-0.037433412
189	0x3d825321	0.06363512
190	0xbd067016	-0.032821737
191	0x3d1f6c81	0.038921837
192	0x3c263f55	0.0101469355
193	0x3d70f5ba	0.058828093
194	0xbc0cc440	-0.0085917115
195	0x3c91673a	0.017749418
196	0x3cc37944	0.023861535
197	0x3c934295	0.017976085
198	0x3d223a32	0.03960628
199	0xbcb3abde	-0.021932539
200	0x3cc6abcb	0.02425184
201	0x3c24e8b7	0.010065249
202	0x3ce1738d	0.02752092
203	0xbcd23e44	-0.025664456
204	0xbc8a572e	-0.016887274
205	0x3c0dc953	0.008653956
206	0x3d01d01d	0.031692613
207	0xbd126988	-0.035745174
208	0x3cc0ef0d	0.023551488
209	0xbbc943be	-0.0061421087
210	0x3d1e9dc5	0.03872468
211	0x3d1ba30c	0.03799729
212	0x3b996cc0	0.0046821535
213	0xbcb509a4	-0.022099324
214	0x3cc902b7	0.024537427
215	0x3ca70390	0.02038744
216	0xbd1ef443	-0.038807165
217	0xbcd6fb8f	-0.026243
218	0x3c812d55	0.015768686
219	0x3ca77de3	0.02044577
220	0x3c6e1267	0.014530755
221	0xbc7a6130	-0.01528196
222	0xbbb25884	-0.005442681
223	0x3bbc2011	0.0057411273
224	0xbcb777ad	-0.022395933
225	0xbc93b3c0	-0.018030047
226	0x3c9d8ec5	0.019233117
227	0xbbef1282	-0.0072959075
228	0x3d395ba5	0.045253415
229	0xbc4f28f9	-0.012644046
230	0x3c901a38	0.017590627
231	0x3d0c09e9	0.03418914
232	0xbcb2580a	-0.021770496
233	0xbc2d4d7f	-0.010577559
234	0x3cdb3860	0.02676028
235	0xbcbefb51	-0.023313196
236	0xbbc9589d	-0.0061445967
237	0xbc480e0b	-0.012210379
238	0x3d34512d	0.044022728
239	0x3ce60388	0.028077856
240	0x3cda09b4	0.026615955
241	0xbb167620	-0.0022958592
242	0x3c9f3a40	0.019436955
243	0xbd104d22	-0.03522981
244	0x3cffb636	0.031214815
245	0xbd0b6066	-0.03402748
246	0x3b5abc9f	0.0033376587
247	0xbb984ef9	-0.004648086
248	0xbd47720f	-0.04869276
249	0xbcae9145	-0.021309504
250	0x3cafe31b	0.021470597
251	0xbc14689a	-0.009058142
252	0x3d0e2a67	0.034708407
253	0x3ca0804f	0.019592432
254	0xbc2344c9	-0.00996513
255	0x3d5bdfc3	0.053680193

linear1.bias f4 [128]
0	0xbb7c635f	-0.0038511378
1	0x3c1c7ada	0.0095507745
2	0xbabf4549	-0.0014592792
3	0x3d245342	0.040118463
4	0x3af34fef	0.0018563251
5	0x3d68909e	0.056778543
6	0x3da4e29e	0.08051036
7	0x3d80a071	0.06280602
8	0x3d9cef76	0.07662861
9	0x3d330095	0.043701727
10	0x3ce9eb44	0.028554566
11	0x3c00ec94	0.007868905
12	0x3d8d1062	0.068878904
13	0x3c924465	0.017854879
14	0x3d495e65	0.049162287
15	0x3d6cb4c0	0.057789564
16	0x3da2fa42	0.07957889
17	0x3d31502e	0.043289356
18	0x3d3f4207	0.046693828
19	0x3d0a8390	0.033816874
20	0x3d73463e	0.05939316
21	0x3d683176	0.056687795
22	0x3d24e1a3	0.040254246
23	0x3d0d7c6d	0.03454249
24	0x3c7998b4	0.015234161
25	0x3d80fe11	0.06298459
26	0x3d3b2e90	0.045698702
27	0x3d6be7ee	0.057594232
28	0x3d814433	0.06311836
29	0x3cf12a9f	0.029439269
30	0x3dace2cf	0.08441698
31	0x3de22e66	0.11044006
32	0x3d9dc153	0.07702889
33	0x3d171246	0.03688266
34	0x3a0683b5	0.000513132
35	0x3d65dbc3	0.056117784
36	0x3d9ff4c0	0.07810354
37	0x3db32228	0.08746749
38	0x3a708a66	0.00091758964
39	0x3da27175	0.079317965
40	0x3c5d3bb3	0.013503003
41	0x3dbbb9c1	0.09166289
42	0x3cc65adc	0.024213247
43	0x3c9c145e	0.01905268
44	0x3d2dcc35	0.042431075
45	0x3d16a290	0.036776125
46	0x3d066ada	0.032816745
47	0x3d4436e9	0.04790393
48	0x3d4e5cd8	0.05038151
49	0x3c50f0f5	0.012752761
50	0x3d235cbb	0.039883357
51	0x3bc45d4c	0.005992567
52	0x3cfe8c30	0.031072706
53	0x3d0eb284	0.034838215
54	0x3d33ab30	0.04386443
55	0x3b2f6945	0.0026765626
56	0x3d7389e2	0.059457667
57	0x3cc47f7a	0.023986567
58	0x3d9efc23	0.07762935
59	0x3da18d15	0.078882374
60	0x3d510bfb	0.051036816
61	0x3d88b353	0.066748284
62	0x3d343af6	0.044001542
63	0x3bae2207	0.005314115
64	0x3d748fbc	0.05970739
65	0x3cb1d908	0.021709934
66	0x3d0d5e40	0.034513712
67	0x3b77c138	0.0037804376
68	0x3da76f66	0.081755444
69	0x3dccee39	0.10006375
70	0x3d3576dd	0.04430281
71	0x3d8e9924	0.06962803
72	0x3da608f8	0.081071794
73	0xba8d234c	-0.0010767966
74	0x3da898c6	0.08232264
75	0x3d99bb85	0.0750647
76	0x3cdaf7f0	0.026729554
77	0x3da661f6	0.08124153
78	0x3cd4bb0d	0.025968099
79	0x3cfc8a1a	0.03082757
80	0x3d81fba1	0.063468225
81	0x3bca097c	0.0061656814
82	0x3cc9b503	0.024622446
83	0x3d18c70c	0.0372992
84	0x3cc89f45	0.024490008
85	0x3d5f9dc8	0.05459383
86	0x3d9d6e4a	0.076870516
87	0x3d13c372	0.036075063
88	0x3d97a5db	0.07404681
89	0x3ccbeb65	0.024892518
90	0x3dbf4699	0.09339637
91	0x3db9849c	0.09058496
92	0x3c09144f	0.008366658
93	0x3d216136	0.03939935
94	0x3db269af	0.08711564
95	0x3c792f72	0.015209066
96	0x3d3df935	0.04638024
97	0x3da5b39e	0.080909
98	0x3d66cb16	0.05634602
99	0x3d9ecc49	0.07753808
100	0x3cec2502	0.02882624
101	0x3d2958d2	0.04134447
102	0x3d1f8dfd	0.03895377
103	0x3dd6c8ae	0.10487495
104	0x3caf8ca9	0.021429377
105	0x3d775deb	0.0603923
106	0x3ca61e65	0.020278165
107	0x3d88e6a6	0.06684618
108	0x3d124317	0.035708513
109	0x3d8aa2b6	0.06769316
110	0x3d3b760f	0.045766886
111	0x3d816114	0.06317344
112	0x3ce4cffa	0.027931202
113	0x3d62ac93	0.05534036
114	0x3d053a29	0.03252617
115	0x3d4a0c9d	0.049328435
116	0x3d50d50e	0.050984435
117	0x3d11684b	0.035499852
118	0x3bdafc78	0.0066829287
119	0x3d55cb3c	0.052195773
120	0x3ba28743	0.004959972
121	0x3c00d1a2	0.00786248
122	0x3c8751af	0.016518442
123	0x3d0d10b9	0.034439776
124	0x3d964ec2	0.073392406
125	0x3d928ee5	0.07156161
126	0x3d99f8bd	0.07518146
127	0x3d085d08	0.033291847

linear2.weight f4 [101, 128]
0	0xbcc4a6df	-0.024005352
1	0x3e1142c1	0.14185621
2	0xbda27968	-0.07933313
3	0x3c04285f	0.008066266
4	0xbd6cd798	-0.057822794
5	0xbd4d2dc0	-0.05009246
6	0x3d964717	0.07337778
7	0x3ccf99b4	0.025341846
8	0xbcb35dce	-0.021895315
9	0x3bd9d5c6	0.006647798
10	0x3d88e410	0.066841245
11	0xbd7bd90a	-0.06148628
12	0xbbcda402	-0.006275655
13	0xbd8aaa97	-0.06770819
14	0xbc2d391f	-0.010572701
15	0xbcdb5876	-0.02677558
16	0xbd2be72e	-0.041968517
17	0xbbae3101	-0.0053159003
18	0x3bc09111	0.0058766683
19	0x3d6e7a10	0.058221877
20	0xbd5fb536	-0.054616176
21	0x3d66afc5	0.05631997
22	0x3c13cde5	0.009021257
23	0xbd10b8f6	-0.035332642
24	0xbd597a7e	-0.053095333
25	0x3dd5ddca	0.104426935
26	0x3dd6d35f	0.104895346
27	0xbda2f10d	-0.07956133
28	0x3defb76f	0.11704909
29	0x3ddf57a7	0.1090539
30	0xbd96684e	-0.07344113
31	0x3e1f18dc	0.15536827
32	0x3d0cd792	0.03438527
33	0xbd570963	-0.052499186
34	0xbdb68c3d	-0.08913467
35	0xbd91b913	-0.07115378
36	0xbd709663	-0.05873717
37	0xbdca698b	-0.09883412
38	0xbd61d145	-0.055131216
39	0xbd445494	-0.047932222
40	0xbdb7babb	-0.08971163
41	0x3c807955	0.015682856
42	0x3cc72990	0.02431181
43	0xbd320511	-0.043461863
44	0xbda0fe2a	-0.07860978
45	0x3da62f08	0.08114439
46	0xbdc2159c	-0.09476778
47	0xbd385235	-0.045000274
48	0xbd9485d3	-0.072520874
49	0x3d6aa578	0.05728671
50	0x3d904f86	0.07046418
51	0x3cab6f44	0.020927079
52	0x3cb0bf38	0.021575555
53	0xbdb9a970	-0.09065521
54	0x3cc6d5ce	0.024271872
55	0x3d43be7e	0.04778909
56	0xbd484ecf	-0.048903283
57	0x3d65860c	0.05603604
58	0x3daafd8e	0.08349143
59	0x3bc255be	0.0059306314
60	0x3d2e6929	0.042580757
61	0xbdd5f7e2	-0.104476705
62	0xbc6b52e1	-0.014363022
63	0xbdac8542	-0.084238544
64	0x3dfa321b	0.12216588
65	0x3dedd0f6	0.11612122
66	0x3af87a55	0.0018957356
67	0x3b815b18	0.003947627
68	0x3e1c9ee5	0.15294988
69	0xbcaaedf5	-0.02086542
70	0x3d490186	0.04907372
71	0x3dbbbe78	0.091671884
72	0xbd0c2910	-0.034218848
73	0x3db593d0	0.088660836
74	0xbdca915e	-0.09891008
75	0xbb852ed3	-0.00406442
76	0x3d6027a3	0.0547253
77	0xbd51e6a4	-0.051245347
78	0x3dd2cc55	0.102928795
79	0xbd450765	-0.048102755
80	0x3dc4bac5	0.09605936
81	0xbdb11983	-0.08647444
82	0x3cfa42cb	0.030549427
83	0x3d4c8377	0.049930062
84	0xbbb9e047	-0.005672488
85	0x3d83f118	0.06442469
86	0x3dcdd562	0.10050465
87	0xbd104f2b	-0.03523175
88	0xbd13f3f5	-0.036121327
89	0xbdb9da4c	-0.0907484
90	0x3d64b3c8	0.055835515
91	0x3dc6f8aa	0.09715398
92	0xbd2091b1	-0.039201442
93	0x3d08ba85	0.033381004
94	0x3dca831c	0.098882884
95	0xbd781a00	-0.06057167
96	0xbd2f702d	-0.04283159
97	0xbcb93782	-0.022609476
98	0xbdad4cd5	-0.0846192
99	0xbcf00881	-0.02930093
100	0xbd66dc9d	-0.056362737
101	0xbc82d792	-0.015971933
102	0x3d574bb6	0.052562438
103	0xbdb6300f	-0.08895885
104	0x38b10f5e	8.44288e-05
105	0x3cbaedd8	0.02281849
106	0xbd64d395	-0.055865843
107	0x3d93c110	0.07214558
108	0xbdb34c15	-0.08754746
109	0xbdca7e26	-0.09887342
110	0xbd85825d	-0.065190054
111	0x3dabd925	0.083910264
112	0x3dc56aea	0.09639533
113	0xbdd00cf1	-0.101587184
114	0x3d95b255	0.07309405
115	0xbcfba69a	-0.03071909
116	0x3d49ba61	0.04925001
117	0xbc28505b	-0.0102730645
118	0x3da55b7e	0.080740914
119	0xbdbeaeed	-0.09310708
120	0x3c6806e8	0.014161803
121	0xbdb36803	-0.08760073
122	0xbdb2e841	-0.08735705
123	0xbc4d1844	-0.012517992
124	0x3df68aac	0.12038168
125	0xbcdebf57	-0.027190847
126	0xbb3fe86b	-0.002928282
127	0x3d88dabe	0.06682347
128	0x3c239d6d	0.009986264
129	0xbbd6dd61	-0.006557152
130	0xbcf9d806	-0.030498516
131	0x3d833af2	0.06407727
132	0xbcca38ee	-0.02468535
133	0x3d0042a7	0.031313565
134	0xbcbee189	-0.023300903
135	0x3e11b9ee	0.14231083
136	0xbdaae7da	-0.083450034
137	0x3c32ba8c	0.010908734
138	0xbd07678f	-0.033057746
139	0x3d8e2440	0.06940508
140	0x3d1143c8	0.03546503
141	0xbd2b6efd	-0.041853894
142	0xbdd7c192	-0.105349675
143	0xbd2f41ac	-0.04278724
144	0x3d02bf5f	0.031920787
145	0xbd477a66	-0.048700713
146	0xbda5e327	-0.080999665
147	0x3cd56ee9	0.026053863
148	0x3c4271dd	0.011867967
149	0x3c17f684	0.0092750825
150	0x3d84ec43	0.06490376
151	0x3d43c108	0.04779151
152	0xbcc96def	-0.024588553
153	0x3bb1e140	0.005428463
154	0x3e0cfc0f	0.13768028
155	0x3d76ad7f	0.060224053
156	0xbde93d33	-0.11388626
157	0xbdb26786	-0.08711152
158	0x3c3e3bc4	0.011610929
159	0x3cf99411	0.030466111
160	0x3dd9ca63	0.10634305
161	0xbc79a2a8	-0.015236534
162	0xbd3fa014	-0.04678352
163	0xb9eb338f	-0.00044861107
164	0xbd2df7de	-0.042472713
165	0x3dd4374d	0.1036211
166	0x3c939838	0.01801692
167	0x3d235b69	0.039882097
168	0xbdc30436	-0.095222875
169	0x3c9e983b	0.019359699
170	0x3d03b76a	0.03215734
171	0x3dd1e1cb	0.10248145
172	0x3d9eb8ad	0.07750068
173	0xbcca4ba1	-0.024694266
174	0xbd4370d9	-0.04771504
175	0x3d3708f5	0.044686276
176	0xbcec3628	-0.028834417
177	0x3d10e816	0.035377584
178	0x3c6863b3	0.014183926
179	0x3cbbd670	0.0229294
180	0x3d7f5a56	0.06234201
181	0x3a6d508c	0.0009052835
182	0xbd374911	-0.044747416
183	0x3d3ed01d	0.04658519
184	0xbdbd7049	-0.09249932
185	0x3cdb0dee	0.02674004
186	0xbdb99477	-0.090615205
187	0x3d6c51f7	0.057695355
188	0x3bd6f82f	0.0065603475
189	0xbd56d9f4	-0.05245395
190	0xbcddde75	-0.027083615
191	0x3d7010c5	0.058609743
192	0xbd62ab5c	-0.055339202
193	0xbcadb73f	-0.021205543
194	0x3d8ecc96	0.069726154
195	0x3c8cb081	0.017174007
196	0xbdc50678	-0.096203744
197	0xbdc44674	-0.0958375
198	0xbd496cca	-0.049176015
199	0xbdc95401	-0.098304756
200	0xbdb6d26b	-0.08926853
201	0x3b85f267	0.0040877345
202	0x3e516e09	0.20452131
203	0xbd1c9517	-0.03822812
204	0x3d56ca9e	0.052439325
205	0x3d435a03	0.047693264
206	0x3e11b963	0.14230876
207	0xbcf49590	-0.029856473
208	0xbd9169d1	-0.07100261
209	0x3c76d210	0.015064731
210	0x3cc1b9ac	0.023648106
211	0xbdce7642	-0.1008115
212	0x3b2b5c63	0.0026147596
213	0xbdb5c119	-0.08874721
214	0xbc127436	-0.00893884
215	0xbc2a2471	-0.010384665
216	0xbc97d28a	-0.01853301
217	0xbda15e22	-0.078792825
218	0xbdb5225d	-0.08844445
219	0x3e0eeb64	0.13956982
220	0xbd628b70	-0.05530876
221	0xbbe231cd	-0.0069029094
222	0x3d6babd2	0.057536907
223	0xbdc37f6a	-0.09545787
224	0x3d27b02b	0.04093949
225	0xbd16615f	-0.036713954
226	0xbda68ff9	-0.08132929
227	0x3da907aa	0.08253415
228	0xba3d2a62	-0.00072160934
229	0xbdbb1ef2	-0.09136762
230	0xbd694e99	-0.056959722
231	0x3d043d26	0.03228488
232	0xbd8256ea	-0.06364234
233	0xbc84bc52	-0.01620308
234	0x3d5ca97d	0.053872574
235	0x3cea84a9	0.02862771
236	0x3d3a1893	0.045433592
237	0xbdb09095	-0.08621327
238	0xbd7e3376	-0.062060796
239	0xbdcdc30d	-0.100469686
240	0x3dd49b1d	0.10381148
241	0xbda3794e	-0.079821214
242	0xbcf48758	-0.029849693
243	0xbd6932b8	-0.056933135
244	0xbc626cc9	-0.013819882
245	0xbdc7fae6	-0.09764652
246	0x3dd15112	0.10220541
247	0x3cca1059	0.024665998
248	0x3e076235	0.13221057
249	0xbdaa06e2	-0.08302094
250	0xbdb96149	-0.09051759
251	0xbd85965f	-0.06522822
252	0x3dad6d33	0.08468094
253	0x3cce25a1	0.025164427
254	0x3d59f08d	0.053207923
255	0x3e143a1e	0.14475295

linear2.bias f4 [101]
0	0xbd95d7ed	-0.07316575
1	0xbcddc79f	-0.027072726
2	0xbcdf85e1	-0.027285518
3	0xbd273523	-0.04082216
4	0xbc8e1c36	-0.017347436
5	0x3b9ce0bd	0.004787533
6	0xbdaea014	-0.08526626
7	0xbd9a186c	-0.07524189
8	0x3d7d7268	0.061876684
9	0x3d70b063	0.058761965
10	0xbb7f4c03	-0.0038955219
11	0x3cb0f177	0.021599514
12	0xbd32e385	-0.04367401
13	0x3c80c79c	0.015720181
14	0xbc11bc2f	-0.008894964
15	0x3d347127	0.044053223
16	0x3d868fa6	0.065703675
17	0x3da63b9a	0.08116837
18	0xbc9fc27f	-0.019501923
19	0x3d1b030e	0.03784471
20	0x3d66b946	0.056329034
21	0x3d88afb2	0.06674136
22	0xbd3deaa1	-0.046366338
23	0x3d2c1c6f	0.042019304
24	0x3d2bdafb	0.041956883
25	0x3c988daf	0.018622248
26	0x3c868201	0.016419413
27	0x3d8ad9f6	0.06779854
28	0xbcf8ad3f	-0.030356048
29	0xbd257940	-0.040398836
30	0xbcebbf80	-0.028777838
31	0x3da6c61c	0.08143255
32	0xbd5badff	-0.053632732
33	0xbd561df7	-0.05227467
34	0x3d1c979a	0.038230516
35	0x3ce4f165	0.027947137
36	0xbdca92d8	-0.098912895
37	0x3d9d0da2	0.07668616
38	0x3d17bbfc	0.03704451
39	0xbdb6609d	-0.08905146
40	0xbd9bcce6	-0.07607441
41	0x3d96d7b3	0.0736536
42	0x3d955185	0.07290939
43	0xbdb42d0e	-0.08797656
44	0xbd1ed910	-0.038781226
45	0x3b3f4627	0.0029186101
46	0x3d3c22e1	0.0459317
47	0xbd8bc07b	-0.06823822
48	0x3db20644	0.08692601
49	0xbd00d0d7	-0.031449165
50	0x3d38e980	0.045144558
51	0xbd987a8b	-0.07445248
52	0xbcd9f71d	-0.02660709
53	0xbd3dbbcb	-0.04632167
54	0xbcb6c4fb	-0.022310724
55	0xbd5b3f52	-0.053527184
56	0xbba9fd81	-0.0051876907
57	0x3dc6f416	0.097145244
58	0xbd56550c	-0.0523272
59	0xbced5e47	-0.028975619
60	0x3dc2a40f	0.09503948
61	0xbd9e76da	-0.07737513
62	0x3dd38395	0.10327832
63	0xbcd19129	-0.025581913
64	0xbd47938d	-0.0487247
65	0x3b18d0d6	0.0023317835
66	0x3da919ad	0.082568504
67	0x3b333a7f	0.0027348099
68	0x3d5d89a9	0.05408636
69	0x3d25ef17	0.040511217
70	0xbd8ca3f6	-0.068672106
71	0x3cce3083	0.025169617
72	0x3d40bcef	0.04705518
73	0x3d7a9e1d	0.061185945
74	0xbd39d8ef	-0.0453729
75	0x3da0a03c	0.07843062
76	0xbd3657bc	-0.044517264
77	0x3c0f1860	0.008733839
78	0x3d8bf18a	0.06833179
79	0xbd12ed2d	-0.03587072
80	0xbd34e30c	-0.04416184
81	0x3cabd98f	0.020977763
82	0xbccdb4f0	-0.025110692
83	0x3bd4da23	0.0064957305
84	0x3c31817d	0.010834095
85	0x3d4a611d	0.04940902
86	0x3d773109	0.060349498
87	0xbd4f5e13	-0.050626826
88	0xbd478deb	-0.048719328
89	0x3d154989	0.03644708
90	0xbc50b60c	-0.012738716
91	0x3d53ec89	0.05173925
92	0xbde39365	-0.11112098
93	0x3d07f866	0.033195876
94	0xbbe7b2a4	-0.007070856
95	0xbda3466a	-0.07972415
96	0x3d9ceb1d	0.07662032
97	0x3da71e17	0.08160036
98	0xbd7fbc32	-0.062435336
99	0x3e04b668	0.12960207
100	0x3bcfb33d	0.0063385055
