ANN_MODELS/N_GRAM_ANN/gallant-forest-2.pth (torch, 83287 bytes, 5 tensors)

embeddings.weight f4 [101, 20]
0	0xbf1947e0	-0.598753
1	0xbdeea208	-0.11651999
2	0xbee1b338	-0.44082046
3	0x3ff2e6c0	1.8976669
4	0xbf38521f	-0.72000307
5	0xbb9afae7	-0.004729617
6	0x3e51900a	0.20465103
7	0x3f125567	0.57161564
8	0x3e919942	0.2843724
9	0xbf8d3e8e	-1.1034715
10	0x3d7d38da	0.061821796
11	0x3f6b4868	0.9190736
12	0xbed456ae	-0.4147238
13	0xbe41506d	-0.18878336
14	0xc00c6db2	-2.1941953
15	0x3f37ab9b	0.71746224
16	0xbfbac75e	-1.4592092
17	0xbf7efc5d	-0.99603826
18	0x3f872f21	1.0561258
19	0x3f4a8846	0.79114187
20	0x3f898fff	1.0747069
21	0x3df00989	0.11720569
22	0xbf0f9624	-0.5608847
23	0x3ea0e546	0.31424922
24	0xbf2075c9	-0.62679726
25	0xbe2eff23	-0.17089514
26	0x3f6e2756	0.9302877
27	0x3f1078b2	0.56434166
28	0x3fe41c66	1.7821167
29	0xbf748615	-0.9551709
30	0x3d876009	0.06610114
31	0xbf68f383	-0.9099657
32	0xbf6d8922	-0.92787373
33	0x3ec69583	0.38785943
34	0xbf8a9675	-1.0827166
35	0xbe7d540c	-0.24739093
36	0xbf98ca0d	-1.1936661
37	0x3f5e6858	0.86877966
38	0xbedfe659	-0.4373043
39	0xbf058ef4	-0.52171254
40	0x3ebd5537	0.36979076
41	0xbf501c74	-0.81293416
42	0xbf073df5	-0.52828914
43	0xbf613457	-0.8797049
44	0x3f3ceebe	0.7380179
45	0xbf7b8851	-0.9825488
46	0x3fc53cfd	1.5409237
47	0xbf0c7720	-0.5486927
48	0x3fc07c13	1.5037864
49	0x3f86493c	1.0491099
50	0xbd849936	-0.06474535
51	0xbdbacdd2	-0.09121288
52	0x3d9daad0	0.076985955
53	0xbf69e8e1	-0.9137097
54	0x3e97ab09	0.29622677
55	0x3e2468e0	0.16055632
56	0x3fa9f60c	1.3278213
57	0xbe9abb94	-0.30221236
58	0xbfa3b309	-1.2789012
59	0x3f4abde9	0.7919603
60	0xbf55f575	-0.8357766
61	0xbe927336	-0.28603524
62	0xbf0af25a	-0.5427605
63	0x3eb45747	0.35222837
64	0xbf17a583	-0.59236926
65	0x3f7ed28f	0.99540037
66	0xbf8641e4	-1.0488858
67	0x3d8f2b6f	0.06990706
68	0x3e8c2393	0.2737089
69	0x3f510845	0.81653243
70	0x3fc48ce2	1.5355494
71	0x3f4d5c68	0.80219126
72	0x3e05c91d	0.13065
73	0xbf30ae7f	-0.6901626
74	0xbeb4e96d	-0.3533434
75	0xbd15e811	-0.03659827
76	0xc0167a83	-2.3512275
77	0xbf2d008c	-0.6757896
78	0x400ac76a	2.1684213
79	0xbf117d76	-0.56832063
80	0x3f96543d	1.1744457
81	0x3dc84088	0.09777933
82	0xbf5c4cea	-0.8605486
83	0x3fd90db8	1.6957312
84	0x3f3cbd51	0.73726374
85	0xbe8ae3ec	-0.27127016
86	0x4018dadd	2.3883584
87	0xbf04d171	-0.5188208
88	0xbfd4af46	-1.6615989
89	0xbee9a124	-0.45630753
90	0xbe818a0a	-0.25300628
91	0x3f33acaf	0.7018537
92	0x3f8e173a	1.1100838
93	0xbf61bf69	-0.88182694
94	0x3f7944fa	0.97370875
95	0x3ef7dd99	0.48411253
96	0x3f7e0850	0.99231434
97	0x3edf5442	0.4361897
98	0xbf6686ef	-0.9004964
99	0xbda53cb2	-0.08068217
100	0xbc6cb4ae	-0.014447374
101	0xbe1aac1d	-0.15104719
102	0x3f14f1cd	0.5818146
103	0xbf24c3de	-0.6436137
104	0x3f50ac1b	0.8151261
105	0xbfcf1302	-1.6177676
106	0x3fd77eb6	1.6835544
107	0x3def1e80	0.11675739
108	0x3f4445e4	0.76669145
109	0xbf8d1c63	-1.1024288
110	0xbf861f2a	-1.047826
111	0xbfa02056	-1.2509868
112	0x39aa7cfa	0.00032518042
113	0x3f8a607a	1.0810692
114	0xbef17da5	-0.47166172
115	0xbe89b4fa	-0.26895887
116	0x3f9b672f	1.2140864
117	0x3ea933e6	0.33047408
118	0xbf9bd5e0	-1.2174644
119	0x3f80d78b	1.0065778
120	0x3e67af81	0.22625543
121	0x3f8114de	1.0084493
122	0xbf472a1e	-0.7779864
123	0x3fb94b9f	1.4476203
124	0x3dcafba8	0.09911281
125	0x3e172177	0.1475886
126	0x3f3e869e	0.7442416
127	0xbd3fe0a0	-0.04684508
128	0x3e82018c	0.25391805
129	0xbf7ecf1f	-0.9953479
130	0x3ce916f7	0.028453333
131	0x3f8c08d7	1.0940198
132	0x3edba75a	0.42901117
133	0xbfac2d45	-1.3451315
134	0xbecf1f47	-0.4045355
135	0x3f26e71a	0.65196383
136	0x3deca45e	0.11554788
137	0xbcaaa243	-0.020829326
138	0x3f118c14	0.5685437
139	0xbf31832b	-0.6934077
140	0xbe31ae72	-0.17351702
141	0x3f819a17	1.012515
142	0xbe6dfe34	-0.23241502
143	0x3ecd233b	0.4006594
144	0x3febd3b2	1.8423979
145	0x3ef94fc7	0.48693678
146	0xbfab53cd	-1.3384949
147	0xbed2a015	-0.41137758
148	0xbea5f84b	-0.32415995
149	0x3ef305e3	0.4746543
150	0x3f9eebba	1.2415688
151	0x3f595ad0	0.84904194
152	0xbf35f72d	-0.71080285
153	0xbeae5156	-0.3404643
154	0xbf450790	-0.76964664
155	0xc0216847	-2.5219896
156	0xbe9273e3	-0.2860404
157	0x3f844266	1.0332763
158	0xbc36e6e3	-0.011163446
159	0xbf5d8be1	-0.86541563
160	0xbf2bee2f	-0.67160314
161	0x3e090821	0.13382007
162	0x3fef53b3	1.8697418
163	0xbfb146db	-1.3849748
164	0xc0113331	-2.2687495
165	0xbef6a4df	-0.48172662
166	0xbdef0890	-0.11671555
167	0xbea766b7	-0.32695553
168	0xbfe52e78	-1.7904806
169	0x3f08ac6b	0.5338809
170	0x3fb3dca1	1.4051706
171	0xbe836b29	-0.25667694
172	0xbf395621	-0.7239705
173	0x3f10cb14	0.5655987
174	0x3f25ef2f	0.6481809
175	0x3f012cbb	0.5045888
176	0xbf67ca0e	-0.90542686
177	0x3f25b704	0.64732385
178	0x3ca55462	0.020181838
179	0xbd160e37	-0.03663465
180	0xbf68acf2	-0.90888894
181	0xbebc60a5	-0.36792484
182	0xbf5c41ee	-0.860381
183	0xbf13c47a	-0.57721674
184	0x3c81120e	0.01575568
185	0x3ee4e272	0.44704014
186	0xbf8655c8	-1.0494928
187	0x3f3d9f47	0.7407116
188	0x3f447c6c	0.7675235
189	0xbf0ecf63	-0.55785197
190	0xbf30d555	-0.6907552
191	0xbf431387	-0.7620167
192	0x3ee485f1	0.4463344
193	0x3dcfd983	0.10148909
194	0xbeb6f35d	-0.35732546
195	0x3f55ca9e	0.83512294
196	0xbff9420c	-1.9473281
197	0x3dac184a	0.0840307
198	0xbfc50d2d	-1.5394646
199	0x3f0db0e7	0.55348057
200	0xbf958934	-1.1682496
201	0x3fbf4d73	1.4945511
202	0xbf226c6d	-0.63446695
203	0x3f07d553	0.5305988
204	0xbf7128ff	-0.9420318
205	0x3ebcba7d	0.3686103
206	0x3fabab6f	1.3411692
207	0xbde3fe55	-0.11132494
208	0xbdbd8977	-0.09254735
209	0xbf7856c4	-0.97007394
210	0x3ffe302a	1.9858449
211	0x3eadf1e1	0.339736
212	0x3eda9a7b	0.42695984
213	0xbf151817	-0.58239883
214	0x3eeb02f2	0.45900685
215	0x3fb203c2	1.3907397
216	0xbe402e96	-0.18767771
217	0xbef4a83e	-0.4778461
218	0xbed2fc4c	-0.41208112
219	0x40080879	2.1255171
220	0xbfc2a20f	-1.5205706
221	0xbfc3d756	-1.530009
222	0xbe0268d4	-0.12735301
223	0xbf7b9774	-0.98277974
224	0x3f87dcb3	1.0614227
225	0xbf75d779	-0.9603191
226	0x3f57ed8f	0.8434686
227	0x3e865a86	0.2624094
228	0xbe070a51	-0.13187529
229	0xbfc77703	-1.5583194
230	0x3f99cfbf	1.2016524
231	0xbf94e011	-1.163088
232	0x3eaaaee0	0.33336544
233	0xbef698b5	-0.4816338
234	0xbf3ae9ff	-0.730133
235	0xbf64ff96	-0.89452493
236	0xbf2e415c	-0.6806848
237	0xc002d3e4	-2.0441828
238	0x3eb0d577	0.3453786
239	0x3f6812ef	0.9065389
240	0x3f045880	0.5169754
241	0x3f972f81	1.1811372
242	0xbe7df5d0	-0.24800801
243	0x3f394cb3	0.7238266
244	0xbf358635	-0.7090791
245	0x3ff56717	1.9172086
246	0xbdad535f	-0.084631674
247	0x3e3a4d4c	0.18193549
248	0xbf0e4bdc	-0.555845
249	0x3fb7be3f	1.4354934
250	0x3f839cf1	1.028227
251	0xbea5b6f4	-0.32366145
252	0x3f399e58	0.7250724
253	0xbf3c8d0d	-0.73652726
254	0x3f79069f	0.9727573
255	0xbf2bf5d5	-0.67171985

linear1.weight f4 [128, 40]
0	0x3e33696d	0.17520685
1	0x3dec635b	0.11542388
2	0xbe260bba	-0.16215411
3	0x3da6b528	0.081400216
4	0xbd046013	-0.032318186
5	0xbe01ef3f	-0.12688921
6	0xbda2302d	-0.07919345
7	0x3e016518	0.1263622
8	0xbda9735e	-0.08273958
9	0x3de6588b	0.11247357
10	0x3d84bb6d	0.06481061
11	0x3dec9b9f	0.1155312
12	0xbbb50591	-0.005524345
13	0xbcfffba2	-0.031247918
14	0xbe50f41f	-0.20405625
15	0x3de7a7bd	0.113112904
16	0xbcda92d9	-0.02668135
17	0xbd063be1	-0.03277195
18	0x3dc5b5ff	0.096538536
19	0xbe125e68	-0.14293826
20	0xbd979aeb	-0.07402595
21	0x3d226a44	0.039652124
22	0x3c6f36ae	0.014600439
23	0x3e00bf26	0.12572917
24	0x3dfb6251	0.12274612
25	0x3da75b9f	0.08171772
26	0x3e0ed396	0.13947901
27	0x3d39e466	0.045383833
28	0x3de2b31b	0.11069318
29	0xbd0fe0e7	-0.035126593
30	0x3e19e652	0.15029266
31	0xbe3d6844	-0.18496805
32	0x3ca99831	0.020702453
33	0x3e4130c4	0.18866259
34	0x3d24c9cb	0.040231507
35	0x3db8e3e9	0.090278454
36	0x3b7ce430	0.0038588159
37	0xbd271d7a	-0.040799595
38	0xbe384cb8	-0.17998016
39	0x3dc11395	0.09427563
40	0x3e158c83	0.14604382
41	0x3bf793d9	0.0075554666
42	0xbe43b005	-0.19110115
43	0xbcd42650	-0.025897175
44	0xbe0fc90e	-0.1404154
45	0xbd827f2a	-0.06371911
46	0xbdaebf95	-0.08532635
47	0xbc4fd66f	-0.012685402
48	0xbd87a845	-0.06623892
49	0x3cafac6b	0.02144452
50	0x3e21da42	0.15805915
51	0x3e04bdcf	0.12963031
52	0xbce4d12c	-0.027931772
53	0xbd177a1a	-0.03698168
54	0xbdd0f4fa	-0.102029756
55	0x3da576ae	0.08079277
56	0xbdbbde93	-0.09173312
57	0xbce398c8	-0.027782813
58	0x3d4da01a	0.050201513
59	0xbb244c1e	-0.0025069783
60	0xbdf13b09	-0.11778838
61	0xbd0a7350	-0.033801377
62	0xbdd8aab0	-0.10579431
63	0xbe251465	-0.16121061
64	0x3e1686df	0.14699887
65	0x3d8b8ac4	0.06813577
66	0xbc41a290	-0.011818543
67	0xbddea354	-0.10870996
68	0xbdaa7869	-0.08323748
69	0xbe03f790	-0.12887406
70	0x3e3f55ce	0.18685076
71	0xbbd4f803	-0.006499292
72	0x3e0dad4a	0.13835636
73	0x3d28b0c6	0.04118421
74	0xbbd2e2c7	-0.0064357254
75	0x3e28ceb8	0.16485107
76	0x3dea5ce9	0.114435025
77	0xbe31b63d	-0.17354675
78	0x3d2ac406	0.04169085
79	0xbdddcceb	-0.108301006
80	0x3e2cb29f	0.16865014
81	0xbe4f8bbc	-0.20268148
82	0x3dfc983a	0.123337224
83	0xbd9778e5	-0.07396106
84	0xbc941539	-0.018076526
85	0xbdc862b8	-0.09784454
86	0xbdf73dc0	-0.12072325
87	0x3d5b6ed7	0.053572502
88	0x3d2b7bb0	0.041866004
89	0xbe4a3000	-0.19744873
90	0x3df7e723	0.12104633
91	0x3e3019be	0.1719732
92	0x3e71c915	0.23611863
93	0x3e43454b	0.19069402
94	0xbcf6ba6d	-0.030118192
95	0xbe345290	-0.1760962
96	0x3d7058f5	0.058678586
97	0x3d92be45	0.07165197
98	0x3d755fd0	0.059905827
99	0xbd437785	-0.047721405
100	0xbe463c0b	-0.19358842
101	0xbda7c772	-0.08192338
102	0x3e1c7e27	0.15282498
103	0xbd782526	-0.060582303
104	0x3d59c358	0.05316481
105	0x3d8bb5e9	0.06821806
106	0xbdb654c7	-0.08902889
107	0xbe0a02c5	-0.13477619
108	0xbe34c44f	-0.17653011
109	0xbe0c1ae3	-0.13682131
110	0xbe0f15fd	-0.13973232
111	0x3e41de1e	0.18932387
112	0x3d8bf537	0.068338804
113	0xbd92d96f	-0.071703784
114	0x3e2b326b	0.16718452
115	0x3c47134a	0.012150595
116	0xbd71834b	-0.0589631
117	0xbd846bc8	-0.0646587
118	0x3ccf4ab2	0.025304172
119	0xbcf708a4	-0.030155487
120	0xbd1c9985	-0.038232345
121	0xbd967ced	-0.073480465
122	0xbdbb6c6c	-0.09151539
123	0x3dd2827b	0.102787934
124	0x3d3f87e8	0.04676047
125	0x3e345e6f	0.17614149
126	0xbe16a87a	-0.14712706
127	0xbd8b5c06	-0.068046615
128	0xbdff452d	-0.12464366
129	0xbc741ca7	-0.014899409
130	0x3e58700a	0.2113649
131	0x3d96b591	0.0735885
132	0x3d9815e0	0.07426047
133	0x3e054846	0.13015851
134	0xbe161da8	-0.1465975
135	0xbdfdb64a	-0.123882845
136	0xbd2cf85d	-0.042229045
137	0xbdaf2e2d	-0.08553729
138	0xbe4c6df2	-0.19963816
139	0xbe937e5e	-0.28807348
140	0x3e080b2d	0.13285513
141	0xbc7236fe	-0.014783619
142	0x3d476f64	0.048690215
143	0xbe3e3a2f	-0.18576883
144	0x3d233c30	0.03985232
145	0x3d30859f	0.04309618
146	0xbcb17a91	-0.02166489
147	0x3e20f0e7	0.15716897
148	0x3e0fc660	0.14040518
149	0x3cd2eb3a	0.02574693
150	0x3e7bdb1a	0.245953
151	0x3e130f8a	0.14361396
152	0xbe636385	-0.22205932
153	0xbda9462b	-0.082653366
154	0xbe112cee	-0.14177296
155	0x3db3118b	0.087435804
156	0x3e281935	0.16415866
157	0xbda5607b	-0.08075043
158	0xbdc6fba1	-0.09715963
159	0x3b53f5d6	0.0032342575
160	0xbdf3214b	-0.118715845
161	0x3d8047f4	0.06263724
162	0xbe1da298	-0.15394056
163	0xbdecf106	-0.11569409
164	0x3d8025de	0.062572226
165	0xbdc4aa4a	-0.096027926
166	0xbdc7b283	-0.09750845
167	0x3e220561	0.15822364
168	0x3d9f9110	0.0779134
169	0xbc4fe0c4	-0.012687866
170	0xbdb2920d	-0.08719263
171	0xbdc918e3	-0.098192
172	0xbc33d17d	-0.010975239
173	0x3e47d180	0.19513512
174	0xbe00dd47	-0.1258441
175	0xbc3d6d91	-0.011561767
176	0x3e6786ea	0.2261006
177	0xbe32cc12	-0.17460659
178	0x3c2b06d2	0.010438638
179	0x3e546984	0.20743376
180	0xbd70551b	-0.058674913
181	0x3dcf722b	0.10129198
182	0x3e3831b5	0.17987712
183	0x3ddc5eda	0.10760279
184	0xbe11c79a	-0.14236298
185	0xbd8be5be	-0.06830929
186	0x3d18aa50	0.037271798
187	0xbcdca88e	-0.026935842
188	0xbda75033	-0.08169594
189	0x3d1d2840	0.038368464
190	0xbd9d6e6e	-0.076870784
191	0xbe50d7bf	-0.203948
192	0x3e356daa	0.17717615
193	0x3cba5527	0.022745682
194	0x3e16dc82	0.14732555
195	0x3cbcc462	0.023042861
196	0x3bb4947e	0.0055108657
197	0x3e437ee1	0.19091369
198	0x3e19fe13	0.15038328
199	0xbe85b1c6	-0.26112193
200	0xbe0dcffc	-0.13848871
201	0xbdbcf4c6	-0.09226374
202	0xbd294028	-0.04132095
203	0xbe0a0ff5	-0.1348265
204	0x3b4544a7	0.0030100734
205	0xb9a83504	-0.00032082957
206	0xbe1b5d0c	-0.15172213
207	0x3dcd94e9	0.10038168
208	0xbe5ab83c	-0.21359342
209	0x3d8fef4f	0.07028066
210	0x3daa2672	0.08308114
211	0x3e12dead	0.14342757
212	0x3d993ecb	0.0748268
213	0x3dc7c9bc	0.09755275
214	0x3e426f47	0.18987761
215	0x3cc8d0af	0.02451357
216	0xbe3ccba3	-0.18437056
217	0x3d9d36d9	0.07676477
218	0xbe09881b	-0.13430826
219	0xbd90f966	-0.07078819
220	0x3e3b8c1d	0.18315168
221	0x3dc860f9	0.09784121
222	0xbd8fadf6	-0.07015602
223	0xbd640f14	-0.055678442
224	0xbda9e8f7	-0.08296388
225	0x3e691b05	0.22764213
226	0x3e249cac	0.1607539
227	0xbdbc6b58	-0.09200162
228	0x3dd69fd4	0.104797035
229	0xbd7c065a	-0.061529495
230	0xbda2e13a	-0.07953115
231	0xbdffb55d	-0.12485764
232	0xbdaba70c	-0.08381471
233	0x3d230b5b	0.03980575
234	0x3d5cfdd0	0.053952992
235	0xbca820e9	-0.020523505
236	0xbe31ba67	-0.17356263
237	0x3e558b95	0.20854028
238	0xbd2516c5	-0.040304918
239	0x3d911f23	0.07086017
240	0x3d1ea126	0.038727902
241	0xbe3d806c	-0.1850602
242	0xbe46ead8	-0.19425523
243	0xbd51cff0	-0.051223695
244	0x3e209e2c	0.15685338
245	0x3d4fa64e	0.05069571
246	0x3e478d8f	0.19487594
247	0xbdd93cef	-0.10607325
248	0x3d470925	0.048592705
249	0xbc8a6973	-0.016895985
250	0xbd9787f3	-0.07398977
251	0xbd86048d	-0.06543837
252	0x3e4503ac	0.19239682
253	0x3e3a6fc4	0.18206698
254	0x3daa995f	0.083300345
255	0xbd85a883	-0.06526282

linear1.bias f4 [128]
0	0xbd180810	-0.037117064
1	0x3ce05940	0.027386308
2	0x3d36a525	0.044591088
3	0x3e43d5eb	0.19124572
4	0x3e19adf9	0.15007772
5	0x3e199aa2	0.15000394
6	0x3d45064d	0.048101712
7	0x3e6737e0	0.22579908
8	0x3e5173a4	0.2045427
9	0xbc6c898b	-0.01443709
10	0x3e2bc659	0.16774882
11	0x3e00e792	0.12588337
12	0x3e44ab0a	0.19205871
13	0x3e45c346	0.19312772
14	0x3e5be710	0.21474862
15	0xbd625ea9	-0.055266056
16	0x3d59d9f1	0.05318636
17	0x3bb37e25	0.005477684
18	0x3e444c20	0.19169664
19	0x3d9c5574	0.076334864
20	0x3e38b774	0.18038732
21	0x3e562b47	0.20914946
22	0x3e63a2e8	0.22230113
23	0xbde18e94	-0.11013523
24	0x3de456cc	0.11149368
25	0x3e4cb0c7	0.1998931
26	0x3ca88fb7	0.020576341
27	0xbd697d65	-0.05700435
28	0x3e124729	0.14284958
29	0x3d03ec7d	0.032207955
30	0xbd037187	-0.03209069
31	0x3c703c7e	0.01466286
32	0x3df075db	0.11741229
33	0x3d452344	0.048129335
34	0x3e877695	0.26457658
35	0x3e60bdf5	0.21947463
36	0x3d9d0c0e	0.07668315
37	0x3e10ae6f	0.14129041
38	0xbd52adce	-0.051435284
39	0xbc09735c	-0.00838932
40	0x3e68c77d	0.22732349
41	0x3e2f1bac	0.171004
42	0x3cd03a0c	0.025418304
43	0x3d13cbbb	0.036082964
44	0x3e3cf29f	0.18451928
45	0x3d6afe0b	0.05737118
46	0x3dec80ac	0.1154798
47	0xbdbc96f4	-0.092084795
48	0xbd26a988	-0.04068902
49	0x3df5f5ec	0.120097965
50	0x3d8e6eca	0.06954725
51	0x3d606281	0.05478144
52	0x3e5ed643	0.21761422
53	0x3e77dc7d	0.24205203
54	0x3d91b295	0.0711414
55	0x3d97ce49	0.07412393
56	0xbd3dbb0c	-0.04632096
57	0x3d1a8113	0.03772075
58	0x3d961831	0.07328833
59	0x3c523050	0.012828901
60	0xbdaa22d2	-0.08307423
61	0x3d94654a	0.07245882
62	0xbd848b1d	-0.06471846
63	0x3da6330d	0.08115206
64	0x3c1babb8	0.00950139
65	0x3d18a713	0.03726871
66	0x3e33b3ce	0.17549059
67	0x3e141056	0.14459357
68	0x3d751434	0.05983372
69	0xbd20e605	-0.039281864
70	0x3e3f6ac9	0.18693079
71	0x3e3a88cf	0.18216251
72	0x3dba76f5	0.091047205
73	0x3e06cac3	0.13163285
74	0x3e1b6b35	0.15177615
75	0xbdccdf06	-0.10003476
76	0x3e65b1b6	0.22431073
77	0x3dc84aa6	0.09779863
78	0x3e588178	0.21143138
79	0xbdbb4ef5	-0.09145919
80	0x3e0c6852	0.1371167
81	0xbbeb1e85	-0.007175269
82	0x3dadd367	0.084875874
83	0xbc936d64	-0.017996497
84	0xbdf13af5	-0.11778823
85	0x393e5725	0.00018152276
86	0x3e284c52	0.16435364
87	0x3dae3067	0.08505326
88	0x3b714ba2	0.0036818762
89	0xbc9edc56	-0.019392174
90	0xbdd613ab	-0.1045297
91	0x3d99d2af	0.07510888
92	0x3caf6120	0.021408617
93	0xbc5d01ad	-0.013489169
94	0x3d4142dc	0.047182903
95	0xbd788122	-0.060670026
96	0x3e642bfb	0.22282402
97	0xbd5e83bd	-0.054324854
98	0x3e4b508a	0.19854942
99	0x3e55ddad	0.20885344
100	0x3c83d007	0.016090406
101	0xbd321b2c	-0.043482944
102	0x3b89946c	0.0041986015
103	0x3e05dab8	0.13071716
104	0xbdcb7c6f	-0.09935843
105	0xbd29e83d	-0.041481245
106	0x3df61109	0.12014968
107	0xbd9ae792	-0.075637
108	0x3c57c503	0.01316953
109	0xbd4a7b7c	-0.04943417
110	0xbc24c998	-0.010057829
111	0x3c80b6af	0.01571211
112	0x3e3951bf	0.1809759
113	0x3dfece91	0.12441743
114	0x3d68dba5	0.056850094
115	0xbd589bd2	-0.052882977
116	0x3d457946	0.04821136
117	0x3e489773	0.19589023
118	0x3e3a4747	0.18191253
119	0x3e0f942b	0.14021365
120	0x3d7a4a79	0.06110618
121	0x3d93c522	0.072153345
122	0x3dfa407a	0.12219329
123	0xbd90df07	-0.07073789
124	0x3cd8422e	0.026398744
125	0x3d2d3b80	0.04229307
126	0x3e4faad3	0.20280008
127	0x3e1635d1	0.14668967

linear2.weight f4 [101, 128]
0	0x3d20b1d0	0.039232075
1	0x3d0c4ed3	0.03425486
2	0x3c89bad5	0.016812721
3	0x3cc9c9f0	0.024632424
4	0x3d5a235a	0.05325637
5	0x3d1122b2	0.03543348
6	0xbd313d3d	-0.043271292
7	0xbda61417	-0.081093006
8	0xbd961e39	-0.07329983
9	0x3d5355c5	0.051595468
10	0x3e2d8a28	0.16947234
11	0x3b861261	0.0040915464
12	0x3cf7a662	0.030230705
13	0x3baeb84a	0.0053320276
14	0xbd4c847f	-0.049931046
15	0x3d678b4c	0.05652933
16	0xbd104946	-0.03522613
17	0x3d35cbb9	0.04438374
18	0xbcd76438	-0.026292905
19	0xbd86573c	-0.065596074
20	0xbc50c65f	-0.012742608
21	0xbd822470	-0.06354606
22	0x3c8e7904	0.01739169
23	0xbdb1ae67	-0.08675843
24	0xbd5e73b5	-0.054309566
25	0x3dc31266	0.095249936
26	0x3cb8cd6b	0.022558888
27	0xbd88643e	-0.06659745
28	0x3cdf566a	0.027262885
29	0xbd68c1cf	-0.056825455
30	0xbda862e7	-0.08221989
31	0xbdea1a51	-0.11430801
32	0x3d712db7	0.058881488
33	0x3d15e7e6	0.03659811
34	0x3de2144a	0.11039026
35	0xbd45a22f	-0.048250373
36	0xbda47ef8	-0.0803203
37	0x3dbe8881	0.0930338
38	0x3be65796	0.007029484
39	0xbd123690	-0.035696566
40	0x3dfc3b79	0.12316031
41	0x3da3f7ce	0.08006249
42	0xbddaed8f	-0.10689842
43	0xbc50042d	-0.012696308
44	0xbd2a5b52	-0.041590996
45	0xbd120ecb	-0.03565864
46	0x3d6838fa	0.056694962
47	0xbca714af	-0.020395605
48	0xbd910be8	-0.07082349
49	0x3d94f421	0.072731264
50	0x3d8a61ee	0.0675696
51	0x3d0b2e85	0.03397991
52	0xbd8f6991	-0.07002557
53	0xbd3c092e	-0.045907192
54	0x3c31c21a	0.0108495
55	0xbdacc356	-0.08435695
56	0x3c81b6e0	0.015834272
57	0xbd8b16d6	-0.06791465
58	0xbd03bdd9	-0.032163475
59	0x3dc20212	0.09473051
60	0xbd6b903d	-0.057510603
61	0xbd80ac08	-0.06282812
62	0x3cc620a0	0.024185479
63	0x3c9ca768	0.019122794
64	0x3dad2ea7	0.08456164
65	0xbd92cb06	-0.0716763
66	0x3de445f5	0.11146156
67	0x3e07cf5f	0.132627
68	0xbc6143cf	-0.013749077
69	0x3c465ab8	0.01210659
70	0xbcf9d896	-0.030498784
71	0xbd789642	-0.060690172
72	0x3d6c811b	0.057740312
73	0x3cc86b71	0.024465295
74	0x3dd02d2b	0.10164865
75	0xbced8824	-0.028995581
76	0x3d199d7e	0.037503712
77	0x3dd1e05d	0.10247872
78	0x3dae6059	0.085144706
79	0xbd9b6a03	-0.075885795
80	0xbdd52d6a	-0.10409053
81	0x3d345fa7	0.044036534
82	0xbdf10d22	-0.11770083
83	0x3d26c56f	0.04071563
84	0x3c80e1f4	0.015732743
85	0xbbc0805d	-0.005874677
86	0x3cdd1161	0.026985826
87	0xbcda82c5	-0.026673684
88	0xbdc18f21	-0.09451128
89	0x3d0162f0	0.031588495
90	0xbd593dc9	-0.05303744
91	0x3d92f24d	0.071751215
92	0x3da9e81d	0.08296225
93	0x3d8328d4	0.06404272
94	0x3d25ec2a	0.040508427
95	0x3d32e677	0.04367682
96	0xbd8bd19c	-0.06827089
97	0xbd961daf	-0.073298804
98	0xbd54fcce	-0.051998906
99	0xbda77c5b	-0.08178016
100	0xbd3e110c	-0.046402976
101	0xbda05f2c	-0.078306526
102	0x3d4114a0	0.04713881
103	0x3dbc3b5a	0.09191008
104	0x3d4be6ed	0.049780775
105	0x3cf60b9c	0.030034833
106	0xbdc98f2d	-0.09841762
107	0xbda290f2	-0.079378024
108	0xbc10cb65	-0.008837556
109	0x3ccf5ed2	0.025313769
110	0xbd6f0549	-0.05835465
111	0xbbdbaa38	-0.0067036413
112	0xbd10e3e4	-0.035373583
113	0x3e03b76a	0.12862936
114	0x3c4c102b	0.012455027
115	0xbdb8ff7c	-0.09033105
116	0xbc9b59b5	-0.018963674
117	0xbd1ce140	-0.038300753
118	0x3b0ba38f	0.0021307205
119	0x3d36012f	0.044434723
120	0x3d2f56d7	0.042807426
121	0x3c693eca	0.0142361615
122	0xbd64bc56	-0.055843674
123	0x3de75dc5	0.11297182
124	0xbd36633a	-0.044528224
125	0xbdd359ab	-0.10319837
126	0x3d96a3d8	0.073554695
127	0x3dee48f0	0.116350055
128	0x3da8f3b6	0.08249609
129	0x3e26dd15	0.16295274
130	0xbd3390be	-0.04383921
131	0x3dac9077	0.08425992
132	0xbda6c7f1	-0.081436045
133	0x3d6cb25a	0.057787277
134	0x3e0f5373	0.13996677
135	0xbc1cfbbe	-0.009581504
136	0xbde12306	-0.10993008
137	0x3da97953	0.08275094
138	0xbc6fbc2a	-0.014632264
139	0x3d9b4b8c	0.07582769
140	0xbd832c51	-0.06404937
141	0xbcce61f3	-0.02519319
142	0x3d52144f	0.0512889
143	0x3ddb086b	0.10694965
144	0xbda19072	-0.07888879
145	0xbdb8574b	-0.09001025
146	0x3de1746f	0.11008536
147	0x3c208f49	0.009799787
148	0x3d677f96	0.05651816
149	0xbddb42b8	-0.10706085
150	0xbbe52c64	-0.006993817
151	0x3d968827	0.07350188
152	0x3d651eb8	0.0559375
153	0xbdab7e1e	-0.08373664
154	0xbd58c5bb	-0.052922945
155	0x3dcafc8a	0.09911449
156	0xbd4b907f	-0.04969835
157	0x3dacbfdf	0.08435034
158	0x3baabfea	0.005210866
159	0xbcfd9b49	-0.030957835
160	0x3d135086	0.035965465
161	0xbd9ad0f1	-0.07559384
162	0xbde52b31	-0.11189879
163	0x3c8120a8	0.015762642
164	0xbdd9e8d7	-0.10640114
165	0x3d30dd1a	0.04317961
166	0x3da95261	0.08267666
167	0x3d7917a4	0.06081356
168	0x3d61879f	0.05506098
169	0x3db9d5c0	0.09073973
170	0x3d1dc714	0.038519934
171	0x3de61780	0.11234951
172	0xbbaab582	-0.0052096257
173	0xbdb3ce07	-0.08779531
174	0x3d26ff11	0.040770594
175	0x3c2ebd15	0.010665198
176	0xbcd3375c	-0.025783233
177	0xbbbfe156	-0.0058557196
178	0x3d655e5c	0.05599819
179	0xbdd176eb	-0.1022776
180	0x3d542a97	0.05179843
181	0xbdc06628	-0.09394485
182	0x3d6ee34b	0.058322232
183	0x3db9a82c	0.09065279
184	0xbda50787	-0.08058076
185	0x3ca3f72e	0.020015325
186	0x3d599b9e	0.053126924
187	0xbd024dc3	-0.03181244
188	0xbc66fb53	-0.014098006
189	0x3d710e4d	0.05885153
190	0x3dcbc154	0.09948984
191	0x3d9372d0	0.07199633
192	0xbd8ce6c6	-0.06879954
193	0x3e299502	0.16560748
194	0x3cb2e006	0.021835338
195	0xbc1aedcd	-0.00945611
196	0xbd9d8d7d	-0.076930024
197	0xbdbf0c56	-0.09328525
198	0x3d2948ea	0.041329302
199	0xbdb4ff02	-0.088377014
200	0xbdb27213	-0.08713164
201	0xbd69c473	-0.057072114
202	0x3cf90108	0.030396
203	0x3ddd6f84	0.108122855
204	0xbd8dfb91	-0.06932748
205	0x3d3a1f31	0.045439903
206	0xbdec98dd	-0.11552594
207	0xbd9a39e4	-0.07530573
208	0xbd439282	-0.047747143
209	0xbdc07b33	-0.093984984
210	0xbdc21075	-0.09475795
211	0xbd74f13d	-0.059800375
212	0xbda1f0b3	-0.07907238
213	0x3d8be5c4	0.06830934
214	0xbca52f4d	-0.020164156
215	0xbdd35209	-0.10318381
216	0xbddec9a3	-0.10878303
217	0xbd1586f3	-0.03650565
218	0x3d8d246b	0.06891712
219	0xbd900c3d	-0.07033584
220	0xbc39f950	-0.011350945
221	0xbca7e7c3	-0.020496255
222	0xbd19bb4f	-0.037532147
223	0xbda01d7e	-0.07818125
224	0x3d6abe02	0.05731011
225	0xbb4e8d3e	-0.0031517292
226	0x3d6301ee	0.055421762
227	0xbbb61140	-0.0055562556
228	0xbd9088ee	-0.07057367
229	0xbd2fd327	-0.04292598
230	0xbd6df8d2	-0.05809862
231	0xbdc04eb3	-0.09390011
232	0x3cd3d644	0.025859006
233	0xbdb078b7	-0.086167745
234	0xbce1de7d	-0.027571911
235	0x3d783e08	0.060606033
236	0x3d01346c	0.031544134
237	0x3d5983ed	0.05310433
238	0xbc2bad64	-0.010478351
239	0x3e08b8e8	0.13351786
240	0xbd22bbd5	-0.03972991
241	0x3d794f37	0.06086656
242	0x3c8d2387	0.017228855
243	0x3c085164	0.008320186
244	0xbd3c13d1	-0.045917336
245	0x3ceb5026	0.028724741
246	0xbab3ab08	-0.0013707587
247	0xbdcafc46	-0.099113986
248	0x3d8ef928	0.069811165
249	0xbdcc1a55	-0.0996596
250	0xbcfcc3e6	-0.03085513
251	0x3cba5e54	0.022750057
252	0xbcb2be73	-0.021819329
253	0x3d029cb1	0.031887714
254	0x3d1e3f09	0.038634334
255	0xbd1ca0b8	-0.03823921

linear2.bias f4 [101]
0	0x3d224da8	0.03962484
1	0xbd831e98	-0.0640232
2	0x3ced78f1	0.028988333
3	0x3d2ea0c1	0.042633776
4	0xbd9e45af	-0.07728135
5	0x3d9c439a	0.076300815
6	0x3cf29d81	0.02961612
7	0x3d89c594	0.06727138
8	0xbcdc0845	-0.026859412
9	0x3d50d592	0.050984927
10	0x3c404e16	0.011737367
11	0x3aaca974	0.001317306
12	0xbd187cc0	-0.037228346
13	0x3da336ba	0.07969423
14	0xbd8be30b	-0.068304144
15	0xbc3b4f64	-0.011432502
16	0xbd6d6218	-0.057954878
17	0xbd14cbc2	-0.03632713
18	0xbd037e55	-0.0321029
19	0x3cc47830	0.023983091
20	0xbcfab329	-0.030603008
21	0x3d59da22	0.053186543
22	0xbc82d931	-0.015972706
23	0x3dbd5bc2	0.09246017
24	0x3ceaa60b	0.028643629
25	0x3dc643e6	0.09680919
26	0xbd895610	-0.06705868
27	0x3d0f044c	0.034916207
28	0x3d38e92c	0.045144245
29	0x3d3f7db5	0.046750743
30	0x3e2a4587	0.16628085
31	0x3cc34aa0	0.023839295
32	0x3cc2c351	0.023774775
33	0xbc19d110	-0.009388223
34	0xbd6c7d9c	-0.057736978
35	0x3d406622	0.0469724
36	0x3c526e3f	0.0128436675
37	0x3c27452d	0.010209364
38	0xbcb72169	-0.022354798
39	0x3c8b3142	0.016991261
40	0xbd6503aa	-0.055911697
41	0x3d57b0ac	0.05265872
42	0xbcbbbfa1	-0.022918524
43	0xbcb2804a	-0.021789689
44	0x3bda6f99	0.0066661355
45	0xbd8ae8c4	-0.06782678
46	0xbbc4691b	-0.005993975
47	0xbda1f672	-0.07908334
48	0xbd22b344	-0.039721742
49	0x3b24d5dc	0.0025151884
50	0xbcbe5209	-0.023232477
51	0x3b44cf00	0.0030030608
52	0x3c6d7316	0.014492771
53	0x3d4fa79f	0.050696965
54	0x3c62d450	0.013844565
55	0xbcabde2a	-0.02097996
56	0x3d4b5ae0	0.049647212
57	0x3d054562	0.03253687
58	0x3d9afe72	0.07568063
59	0x3d927f88	0.07153231
60	0xbd0fc2d1	-0.0350979
61	0xbbc05998	-0.0058700554
62	0x3d0601e7	0.032716658
63	0xbda74dcc	-0.081691355
64	0x3cebfab0	0.02880606
65	0xbda78708	-0.08180052
66	0x3d72cc73	0.05927701
67	0x3d07938a	0.03309969
68	0x3c97883f	0.018497584
69	0xbd48d737	-0.04903337
70	0x3d8f1265	0.0698593
71	0x3d743b77	0.059627023
72	0xbca56d0d	-0.020193601
73	0x3d76d605	0.0602627
74	0x3d08e342	0.033419855
75	0xbc752c6e	-0.014964206
76	0x3c462ca7	0.012095607
77	0x3d8b7750	0.068098664
78	0xbd08d4a9	-0.033405934
79	0x3d85ac19	0.06526966
80	0xbdba717e	-0.09103678
81	0xbd95f387	-0.0732184
82	0xbddcefb9	-0.10787911
83	0x3b849e52	0.0040471936
84	0x3de6d648	0.1127134
85	0xbbbc4c6d	-0.0057464154
86	0x3de69046	0.11257987
87	0xbc485b8b	-0.012228857
88	0x3cdf7a59	0.02728002
89	0xbcf36b90	-0.029714376
90	0xbbbb9bbb	-0.0057253516
91	0x3e81ea38	0.25374007
92	0xbd0235ac	-0.031789467
93	0xbd239d3c	-0.039944872
94	0xbd13337a	-0.035937764
95	0xbcfd03e2	-0.03088564
96	0x3c7c2877	0.015390507
97	0xbc7e93a5	-0.015538131
98	0xbdee2e0b	-0.11629876
99	0x3d25b17b	0.04045246
100	0x3cbc4c2f	0.022985546
