ANN_MODELS/N_GRAM_ANN/skilled-cherry-1.pth (torch, 83287 bytes, 5 tensors)

embeddings.weight f4 [101, 20]
000000 ab 80 1b bf dc 11 fa bd 72 88 d8 be c3 3d f2 3f
       -0.60743207 -0.12210438 -0.422916 1.8925098
000010 05 9e 34 bf e8 d7 20 3c f9 3b 57 3e 34 de 0f 3f
       -0.7055362 0.009817101 0.21018972 0.5619843
000020 9f 81 92 3e d7 1e 8c bf 61 9b 5d 3d a3 de 68 3f
       0.28614518 -1.0946912 0.05410326 0.90964717
000030 b0 c9 d0 be 44 69 41 be 71 44 0c c0 fc 12 38 3f
       -0.40778875 -0.18887812 -2.1916773 0.7190397
000040 88 be ba bf 2b 60 7b bf 9f 8a 88 3f 72 1c 46 3f
       -1.4589396 -0.98193616 1.0667304 0.77387154
000050 43 25 8a 3f 2b ca f2 3d 9f fd 0e bf ce 7a 9d 3e
       1.0792621 0.11854967 -0.55855745 0.30757755
000060 0d e2 20 bf dc 42 36 be b1 3c 6f 3f 22 5a 0f 3f
       -0.62844926 -0.17798942 0.9345198 0.55996907
000070 08 b5 e4 3f 62 91 78 bf d7 8d 79 3d 6d 2f 6c bf
       1.7867746 -0.97096837 0.060926285 -0.92259866
000080 0a 8f 6c bf 79 1d c5 3e e2 11 88 bf f8 e1 77 be
       -0.9240576 0.38499048 -1.0630457 -0.24207294
000090 07 6b 98 bf 26 af 5a 3f 6b 8b e2 be 34 ea 02 bf
       -1.1907662 0.85423505 -0.44246992 -0.51138616
0000a0 36 c6 b7 3e ed 67 4d bf 12 fe 0a bf d5 fa 64 bf
       0.3589341 -0.80236703 -0.5429393 -0.8944524
0000b0 cf c1 3a 3f 56 94 75 bf 39 95 c3 3f 7a 5a 09 bf
       0.7295198 -0.9592947 1.5279914 -0.5365368
0000c0 e1 b4 c2 3f 0e 4e 86 3f e5 9a 41 bd 78 0e a3 bd
       1.521145 1.049257 -0.04726686 -0.07961744
0000d0 a4 61 b0 3d fa 0e 6c bf 55 e3 92 3e 4e 25 24 3e
       0.086123735 -0.9221035 0.28689066 0.16029856
0000e0 4f 7f a8 3f 34 62 9a be c2 c3 a1 bf 86 92 4c 3f
       1.3163851 -0.30153048 -1.2637866 0.7991108
0000f0 05 44 55 bf ec de 8a be 4e 84 09 bf 43 7e b4 3e
       -0.83306915 -0.271232 -0.53717506 0.3525258
000100 54 d8 18 bf b6 c6 76 3f f3 44 85 bf 24 9a ae 3d
       -0.5970509 0.9639696 -1.0411667 0.08525494
000110 d2 3d 9b 3e 48 66 51 3f 4c 29 c4 3f 4f 83 50 3f
       0.30320603 0.81796694 1.5325103 0.8145036
000120 78 ec 0d 3e 72 b5 2f bf e9 ad af be 8e 6c dd bc
       0.13859737 -0.6863624 -0.3431237 -0.027029302
000130 37 48 16 c0 3f c5 2b bf 3c a2 0b 40 c1 42 0f bf
       -2.3481576 -0.6709785 2.181777 -0.55961233
000140 91 19 94 3f ca 4d b7 3d 77 e9 5b bf 8c 3c d7 3f
       1.1570302 0.08950384 -0.85903114 1.6815352
000150 d2 57 3a 3f df 35 86 be a4 f1 19 40 41 fa 04 bf
       0.72790253 -0.26212975 2.4053736 -0.5194436
000160 43 04 d5 bf 4e d0 e8 be 9f 26 87 be 44 8d 32 3f
       -1.6641926 -0.45471424 -0.26396653 0.69746804
000170 2e 5c 8f 3f a4 0d 66 bf 0e f2 79 3f 64 40 00 3f
       1.1200006 -0.89864564 0.9763497 0.5009825
000180 ff 0d 7a 3f 1d 26 e2 3e 13 65 65 bf 65 45 b9 bd
       0.97677606 0.44169703 -0.8960735 -0.09046439
000190 37 da 8f bb 25 ea 24 be 4a 34 15 3f 1b 08 25 bf
       -0.004390027 -0.16104944 0.5828291 -0.6446549
0001a0 d9 0b 50 3f b4 c7 d0 bf 6f 4a d7 3f 3a 7b 01 3e
       0.8126808 -1.6310945 1.681959 0.12644663
0001b0 56 8e 46 3f 28 46 8c bf 72 ee 87 bf a0 2f a0 bf
       0.7756094 -1.095891 -1.0619643 -1.2514534
0001c0 11 c0 63 3b 57 a4 8c 3f 66 42 f7 be 5f 03 8b be
       0.0034751932 1.0987653 -0.48292845 -0.2715101
0001d0 1e d7 9c 3f 11 78 a5 3e 35 fc 9b bf 85 59 7d 3f
       1.2253149 0.32318166 -1.2186342 0.9896472
0001e0 75 1b 80 3e 4f 33 80 3f de 80 47 bf de 2d b7 3f
       0.25020948 1.0015658 -0.7793101 1.4310873
0001f0 5f 74 ce 3d 43 e6 f6 3d ef cf 44 3f 66 70 4a bd
       0.1008079 0.12055638 0.7687978 -0.049423598
000200 0c 24 8b 3e 14 31 7c bf e6 cd 14 3d 43 d7 8b 3f
       0.2717594 -0.9851239 0.036329173 1.0925068
000210 f3 bb de 3e 56 11 ac bf 67 40 cb be e5 5c 25 3f
       0.4350277 -1.344279 -0.39697573 0.6459487
000220 48 c0 35 3e f0 c1 0e bd 06 89 0e 3f 89 fc 28 bf
       0.1774913 -0.034852922 0.5567783 -0.6601034
000230 7f 06 3b be 87 4f 81 3f 20 e6 6a be 5d 00 d4 3e
       -0.18264197 1.0102395 -0.22939348 0.41406527
000240 11 bf ea 3f 01 ea f8 3e 8c 78 aa bf 8a a0 d3 be
       1.8339559 0.4861603 -1.3318038 -0.4133342
000250 d3 f0 a5 be b8 f4 e5 3e d6 4b a2 3f e8 60 5a 3f
       -0.32410297 0.44913268 1.2679393 0.8530412
000260 6f a2 39 bf 13 46 ac be 87 39 47 bf 5e 6f 21 c0
       -0.7251348 -0.33647212 -0.77822155 -2.5224223
000270 01 ee 9e be 22 f2 84 3f 63 3c e2 3c f4 81 5f bf
       -0.31040958 1.0386393 0.027616685 -0.8730767
000280 2b 69 2e bf e0 67 11 3e 00 56 ee 3f ef 6f b0 bf
       -0.68129224 0.14199781 1.8619995 -1.378416
000290 97 02 11 c0 5d 39 fd be 5b 6c 07 be c5 5a a8 be
       -2.265783 -0.49457827 -0.13224928 -0.32881752
0002a0 c5 dd e7 bf 1d 16 09 3f 0e 59 b5 3f 38 aa 85 be
       -1.8114554 0.5354937 1.4167802 -0.2610643
0002b0 91 59 3b bf e1 04 12 3f 7c ed 25 3f 09 68 01 3f
       -0.7318354 0.57038695 0.648155 0.5054937
0002c0 47 51 69 bf 30 92 2b 3f b1 de e0 3c b6 00 51 bd
       -0.91139644 0.6701994 0.027449938 -0.05102607
0002d0 51 46 6a bf 03 02 b9 be bc da 58 bf 82 d4 10 bf
       -0.91513544 -0.36134347 -0.8470876 -0.5657426
0002e0 3b b5 44 3c ee 81 e6 3e 10 a5 85 bf ed 13 3d 3f
       0.012006099 0.45021003 -1.0440998 0.7385853
0002f0 ac 3f 43 3f ea 4c 0d bf 44 c7 32 bf 58 b4 43 bf
       0.7626903 -0.55195487 -0.69835305 -0.7644706
000300 91 04 e9 3e 1b fc d5 3d 9e 1d b7 be 45 1d 56 3f
       0.45511296 0.10448476 -0.35764784 0.8363841
000310 d6 17 f8 bf 20 af cb 3d 81 8a c3 bf 6f d7 0e 3f
       -1.9382274 0.09945512 -1.5276643 0.55797476
000320 53 24 98 bf 70 07 c1 3f 62 25 20 bf b4 94 09 3f
       -1.1886085 1.5080395 -0.6255704 0.5374253
000330 cd b8 6e bf eb 60 b7 3e 8b 90 aa 3f 7a 38 e6 bd
       -0.93250734 0.3581613 1.3325361 -0.11241241
000340 fd 72 ab bd e1 2c 75 bf 5d a8 fe 3f 84 36 b4 3e
       -0.08371542 -0.95771605 1.989513 0.35197842
000350 18 17 df 3e ef fc 13 bf ea 29 f2 3e 1b 27 b2 3f
       0.43572307 -0.5780782 0.47297603 1.3918184
000360 8c 52 39 be 8c 9e ff be 18 40 d4 be b5 72 08 40
       -0.18097895 -0.4992565 -0.4145515 2.1320012
000370 cd 99 c2 bf b1 85 c3 bf 30 bd 0b be a9 be 79 bf
       -1.5203186 -1.5275174 -0.13646388 -0.9755655
000380 22 fe 87 3f 6b 4a 76 bf 56 89 57 3f 8e 58 85 3e
       1.062443 -0.962073 0.84193933 0.26044124
000390 72 4e 1b be 43 2c c6 bf c5 b1 99 3f 34 fd 95 bf
       -0.15166643 -1.5482258 1.2007376 -1.1717896
0003a0 b0 90 a2 3e 6a 18 f8 be b3 43 3c bf df 77 63 bf
       0.31751013 -0.48456126 -0.735408 -0.88854784
0003b0 17 2d 31 bf 5f b3 01 c0 fc 85 b6 3e 43 0f 69 3f
       -0.69209427 -2.026573 0.35649097 0.9103891
0003c0 3f 98 03 3f a0 5c 97 3f 57 ab 86 be a6 5f 39 3f
       0.51404184 1.1825142 -0.26302597 0.7241157
0003d0 9f be 32 bf 99 5e f7 3f a8 d3 df bd b0 87 2e 3e
       -0.69822115 1.9325744 -0.10929042 0.17043948
0003e0 5f 1a 0f bf 7b b9 b8 3f 72 5d 81 3f 66 92 a8 be
       -0.55899614 1.4431604 1.0106642 -0.32924193
0003f0 71 2c 3a 3f ae 41 3a bf 0b a6 78 3f 77 0a 2a bf
       0.7272406 -0.7275647 0.9712836 -0.6642222

linear1.weight f4 [128, 40]
000000 52 9d db 3d 90 c9 b1 3d 26 c0 ee bd bf d6 a2 3d
       0.10723366 0.08681023 -0.11657743 0.07951116
000010 73 09 20 be 9c e6 aa bd 24 2e aa bd 29 57 df 3d
       -0.15628605 -0.083447665 -0.08309582 0.10905296
000020 61 cd 0d be 34 b2 fc 3d 2d b9 95 3d 7d 69 85 3d
       -0.13847877 0.12338677 0.0731071 0.06514261
000030 8d 03 bc 3d a1 2b e7 bd 6f 76 2a be 7d 10 0f 3e
       0.09180365 -0.112876184 -0.16646741 0.13971134
000040 21 0c dd bc 51 51 14 bd b6 01 9b 3d 44 f6 15 be
       -0.026983323 -0.036210362 0.07568686 -0.14644724
000050 c7 8c 1f be f4 68 6f 3c f2 7f b7 bb 96 22 12 3e
       -0.15581046 0.014612425 -0.005599969 0.14271006
000060 89 c5 06 3e 30 20 23 3e 48 69 90 3d cd 4b fa 3d
       0.13161291 0.15930247 0.07051331 0.12221489
000070 17 2c c4 3d 25 93 95 bd ed c6 04 3e c0 f3 88 be
       0.09578722 -0.07303456 0.12966509 -0.26748466
000080 2f df 20 3d f8 ba 1e 3e 0b 48 ae 3c ca 12 83 3d
       0.039275344 0.1550101 0.021274587 0.06400068
000090 2b 1f 2a 3c b6 ac 62 bd 79 ac 1d be d4 50 eb 3d
       0.010383408 -0.05534049 -0.15397824 0.11490026
0000a0 c6 7e 50 3e 7a 78 e2 3d 4d c4 dc bd 8e 50 11 bc
       0.2036086 0.11058135 -0.10779629 -0.008869303
0000b0 58 22 cc bd 20 a1 ef bd cb fa 01 be f5 22 da 3d
       -0.09967488 -0.11700654 -0.12693326 0.10651199
0000c0 92 f9 31 3a 36 15 d2 3d 4e 56 10 3e f4 ad 8b 3d
       0.0006789203 0.10257952 0.14095423 0.06820288
0000d0 32 1f 94 bd 1b 26 ef 3d a0 08 94 bd 7f 4a a2 bc
       -0.072325125 0.1167719 -0.072282076 -0.019810913
0000e0 16 a1 0a 3d 0c f9 69 bd 03 20 1b bc b2 d3 2c 3d
       0.03384503 -0.057122275 -0.009468081 0.042194076
0000f0 29 3b 31 bd 7b d9 f0 3c 5d ce ba bd 19 5e 00 be
       -0.04326931 0.029400578 -0.09121392 -0.12535895
000100 7b 7b 05 3e 45 19 bf 3c 63 83 8f bd ab eb 23 be
       0.13035385 0.02332748 -0.07007482 -0.16007869
000110 2d 74 b9 b9 35 6a aa bd 54 60 5a 3e 31 df c5 3d
       -0.00035372507 -0.08321039 0.21325809 0.09661711
000120 3c bc 36 3e c8 ca 67 3d d6 c3 80 3d a1 db 38 3e
       0.17845243 0.05658987 0.06287353 0.18052532
000130 75 ac 1f 3e 97 c4 3e be b3 6c 9d bd 26 bf d5 bc
       0.15593131 -0.1862968 -0.07686748 -0.026092123
000140 58 49 02 3e 1e 7a 54 be a5 4e f1 3d 6f 49 82 bd
       0.12723291 -0.20749709 0.117825784 -0.063616626
000150 cd 75 96 bd ba 12 e2 bd fb d4 36 bd 36 91 39 3d
       -0.073466875 -0.11038728 -0.044636708 0.0453045
000160 bf 7e a6 3c 1d a4 83 be 59 17 24 3e 1c cf 53 3c
       0.02032411 -0.25711146 0.16024531 0.012927797
000170 6d 6e 1f 3e c3 c6 17 3e 25 53 08 3c d0 a2 2f be
       0.15569468 0.14821915 0.008320604 -0.17151952
000180 a7 48 85 3e 72 45 2b 3d 8a 22 ff 3d b4 36 59 bd
       0.26031992 0.041814275 0.1245776 -0.053030685
000190 51 12 7c be 6c b4 96 bd 98 22 01 3e 3a 83 82 3d
       -0.24616362 -0.073586315 0.12610853 0.06372686
0001a0 d6 e0 9c 3d fb 42 29 3e 4c 24 7a bd 7d 4d 47 be
       0.076600716 0.16529457 -0.06106977 -0.19463153
0001b0 b8 e4 32 be 8f 1f 9b bd d2 3e 25 be 8c ee 54 3e
       -0.17470062 -0.07574379 -0.16137245 0.20794123
0001c0 c0 76 01 3d c4 e4 d8 bd 47 36 0e 3e 32 ce ab 3d
       0.03160739 -0.105905086 0.13887893 0.08388938
0001d0 55 5f 44 be 92 52 4c bd 06 21 1d bd 7f 19 3a be
       -0.19176991 -0.049883433 -0.03836157 -0.18173788
0001e0 78 2c 6f bd 04 cd ce bd 45 d2 b0 bd f4 20 70 3d
       -0.058392018 -0.100976974 -0.08633856 0.058625177
0001f0 bf 57 b3 3c e6 38 bf 3d ae 8f 11 be d3 80 c2 bd
       0.021892427 0.093370244 -0.14214966 -0.094972275
000200 0e b0 2d be dc f2 27 3d 5b 38 86 3e 2d 5d a3 3d
       -0.16961691 0.041003093 0.2621487 0.07976756
000210 cc 7b cb 3a d7 4c e7 3d 1f a4 e1 bd 48 c7 0c be
       0.0015524565 0.11293953 -0.11017632 -0.13747895
000220 6b 05 22 bd 7c 4c 0a bd 66 12 62 be cd 5d 4b be
       -0.03955595 -0.033764347 -0.22077331 -0.19860001
000230 ca 86 13 3e ff ba 24 bc e9 22 ad 3d 23 fa 16 be
       0.14406887 -0.010054349 0.08453924 -0.14743857
000240 66 b3 01 bc b6 31 44 3d fc 09 a1 bb 5b cc 83 3e
       -0.007916307 0.04789897 -0.0049145203 0.25741848
000250 5e 4d da 3d 49 a4 ae bc 55 a2 39 3e e3 8a df 3d
       0.10659288 -0.021318572 0.18128331 0.109151624
000260 08 f9 22 be 4f 64 c4 bd e9 63 35 be b7 04 d3 3d
       -0.1591531 -0.09589445 -0.17713894 0.10303634
000270 22 9b 27 3e a9 b6 f8 bd 3e b1 20 be f9 bd 05 be
       0.16367772 -0.12144215 -0.15692613 -0.1306075
000280 8f dd 14 be 6e ab da 3c 39 b9 59 be 2a 79 9c bd
       -0.14537643 0.026693072 -0.21262063 -0.07640298
000290 22 1b 57 3d f5 15 8b bd a6 fc 1a be 6d fb 2d 3e
       0.05251611 -0.06791297 -0.1513544 0.16990443
0002a0 0e 5c 98 3d e7 bf a1 ba 0d 9c 19 bd e1 78 e9 bd
       0.07439433 -0.0012340517 -0.037502337 -0.11400009
0002b0 18 2e 14 3d 01 b8 2e 3e 4a 08 ef bd 5a 40 0e 3c
       0.03617677 0.1706238 -0.11671503 0.008682335
0002c0 cc 63 5d 3e 89 cf 18 be 07 f1 e8 3b 92 1f 0d 3e
       0.216201 -0.14922918 0.007108811 0.13781574
0002d0 a9 ba cb 3b 6c 36 36 3e 8a 19 05 3e a4 bf ff 3c
       0.00621732 0.17794198 0.12998024 0.031219311
0002e0 89 be 2b be 83 14 84 bd 26 97 b9 bd 84 61 b8 3d
       -0.16771902 -0.06449225 -0.090620324 0.09002975
0002f0 3e 21 26 bd 76 6f 4b 3d 62 f6 17 bc 6f 6a c3 bd
       -0.040559046 0.049666844 -0.009275051 -0.09541785
000300 ab de 3a 3e e2 14 06 3e bf 4c 6d 3e b2 67 0e ba
       0.18249004 0.13093904 0.23173808 -0.0005432322
000310 74 02 0b ba 83 47 65 3d 4e 08 d7 3d 2d 1d 0f be
       -0.0005302795 0.055976402 0.10499631 -0.13975973
000320 78 b5 23 be df ef 1e be 5a 53 e7 bc 92 59 09 be
       -0.15987194 -0.15521191 -0.028237987 -0.13413075
000330 e6 e7 e5 bd 26 66 0a bd a4 80 e9 bd fa ab 63 3d
       -0.11225872 -0.033788823 -0.114014894 0.05558393
000340 af e4 84 be 35 c2 c6 3d 12 e0 30 3e a9 ca 83 bc
       -0.25955722 0.09705011 0.17272976 -0.016087847
000350 03 59 ac 3d 7e 85 3d bd e1 d1 6c 3e 2f 45 e5 3d
       0.08415415 -0.046269886 0.23126937 0.11194836
000360 a2 e6 37 be 91 7e 4f 3e 8d 30 82 be 02 f3 0c be
       -0.17959073 0.20263125 -0.25427666 -0.13764575
000370 26 a6 e8 3d 0a 2c 41 3e cf 1e 42 3d 0b 92 a7 bd
       0.11359815 0.18864456 0.047392663 -0.08182152
000380 d3 03 cc bd b3 46 48 3e 41 5d 27 3e 45 f4 7c bd
       -0.09961667 0.1955822 0.16344167 -0.06175639
000390 b7 7f aa 3d 7f dd 81 bd 24 8c 07 bd 14 e1 9e bd
       0.08325141 -0.06341075 -0.033092633 -0.07757774
0003a0 c1 10 99 bd 36 88 de 3c c3 bd 00 3e c8 70 9b 3d
       -0.07473899 0.02716456 0.12572388 0.07589871
0003b0 98 ac 89 be c4 d6 7e 3d 9e 84 9e bd ac 71 b3 3d
       -0.2688949 0.062216535 -0.077401385 0.087619156
0003c0 db c9 68 3c d0 eb 4c be 2d a9 6d be 43 fc df bb
       0.014208282 -0.2001183 -0.23209067 -0.006835492
0003d0 ef 53 0a 3e f8 2b 44 3d 5d a4 3d 3e 48 e9 7f bd
       0.1350858 0.047893494 0.18519731 -0.062478334
0003e0 fb 3c 88 3d 21 17 66 3d bb c4 da bd 72 b2 fc bd
       0.06652256 0.0561744 -0.106820546 -0.12338723
0003f0 a2 96 3e 3e 77 86 28 3e 75 8e b8 3d a8 6c 90 bd
       0.1861215 0.16457544 0.090115465 -0.070519745

linear1.bias f4 [128]
000000 de 3f 5a bd 43 87 1c 3d e0 e7 e6 3d bd ac 52 3e
       -0.053283565 0.038214933 0.112746954 0.20573707
000010 01 cd cc 3d d0 66 2c 3e cf e4 5d 3d 98 76 6b 3e
       0.10000039 0.16836095 0.054173287 0.22994459
000020 52 4d 02 3e fd ab da 3c 48 e8 4d 3e be 34 88 3d
       0.12724808 0.026693339 0.2010814 0.06650685
000030 31 55 3f 3e 05 92 57 3e fd e8 73 3e 16 c6 31 3c
       0.18684842 0.21051796 0.23819347 0.01085045
000040 9a 43 31 bd 4b 5c 44 bc 19 c7 4f 3e 2f 59 24 3e
       -0.04327736 -0.011984895 0.20290793 0.16049646
000050 63 be 35 3e 50 a2 d8 3d 55 a7 80 3e 5e 3e d1 bd
       0.17748408 0.10577834 0.25127664 -0.10216974
000060 4b 39 01 3e 41 9c 4c 3e ee d2 ba 3c a5 8d 1b bd
       0.12619512 0.19981481 0.022805657 -0.03797688
000070 91 b8 b4 3d c5 9c 40 3d 3f cb 81 bd 03 c4 3c 3d
       0.08824266 0.047024507 -0.06337594 0.04608537
000080 b4 aa 13 3d 52 71 d6 bc 47 12 82 3e 31 6d 6a 3e
       0.036051467 -0.026177082 0.2540457 0.22893216
000090 c6 57 64 3d bb 6c 20 3e ca af e9 bc ab 16 6b 3b
       0.05574777 0.15666477 -0.028526206 0.0035871665
0000a0 b7 ff 61 3e dd b5 14 3e 90 47 b5 3d 3d 1d 72 3d
       0.22070204 0.145225 0.0885154 0.059109915
0000b0 1a 9a 45 3e c5 a0 03 3e f6 37 b5 3d 2e ec 81 bd
       0.19297066 0.12854297 0.08848564 -0.06343876
0000c0 06 12 49 bd 1d 54 11 3e 52 62 b3 3d f4 40 3c 3d
       -0.049089454 0.14192243 0.087589875 0.04596038
0000d0 99 ad 50 3e 11 7c 82 3e cb 57 17 bd ac 50 f8 3d
       0.20378722 0.2548528 -0.03694896 0.12124762
0000e0 26 c6 b9 bc f6 f1 cf 39 6a c8 3f bb 68 95 1a bd
       -0.022677492 0.00039662392 -0.0029263743 -0.03774014
0000f0 cf cb fa bd a2 3e f7 3c 7a 67 03 be ab 54 83 3d
       -0.12245905 0.030181233 -0.12832442 0.064126335
000100 a8 60 16 3c a9 62 2b bd 7b c2 23 3e cc e5 38 3e
       0.009178318 -0.041842137 0.15992157 0.1805641
000110 84 40 0d 3d 37 b4 23 3d 67 c0 55 3e ea 93 82 3e
       0.034485355 0.03996679 0.20874177 0.25503474
000120 3d 58 a5 3d 91 b9 ef 3d 95 ab 49 3e 67 05 af bd
       0.08073471 0.11705316 0.1969436 -0.08545952
000130 f0 43 44 3e 6c 64 6d 3d c8 60 1f 3e d1 5f b4 bd
       0.19166541 0.057957098 0.15564263 -0.08807338
000140 91 dc 10 3e d9 9a 90 3b a5 5e af 3d 7b df 47 bd
       0.1414664 0.0044129905 0.08562974 -0.048797112
000150 ca e6 a7 bd 5d fd b1 3c ed ad 2e 3e 26 0d e4 3d
       -0.081983164 0.021727258 0.17058535 0.1113532
000160 dd 91 df 3c 93 de 18 bd 47 0d a4 bd ea 08 e5 3d
       0.027291233 -0.03732164 -0.08010345 0.11183341
000170 fc 28 f2 3d f9 7e 69 3c 9c 26 14 3d eb 82 1b bd
       0.118242234 0.014251464 0.036169633 -0.03796665
000180 42 5e 57 3e 9f b0 83 bd f6 10 7a 3e ae 44 6f 3e
       0.2103205 -0.06430172 0.24420533 0.23366043
000190 e1 cd 34 3d 86 23 83 bd 34 cc e5 3b 12 c3 0f 3e
       0.044141654 -0.0640326 0.0070128683 0.14039257
0001a0 4f ab f3 bd 6a 07 39 bd 61 0b d5 3d 66 a5 14 bd
       -0.11897909 -0.045173086 0.10402561 -0.03629055
0001b0 10 67 83 bc 31 91 d8 bb 69 28 05 bd 24 53 12 bb
       -0.016040355 -0.006609105 -0.03250924 -0.0022327388
0001c0 db 50 43 3e 21 fd 96 3d 93 ae c7 3c 29 7a 23 be
       0.19073813 0.07372499 0.024375236 -0.15964569
0001d0 f8 5f 99 3d a5 9d 65 3e 1e 95 40 3e 0c 6c f5 3d
       0.07489008 0.22423418 0.18806884 0.11983499
0001e0 f7 cb 7d bc 57 09 fc 3d 9b 87 00 3e 10 99 c3 bd
       -0.015490524 0.12306469 0.1255173 -0.09550679
0001f0 97 c0 74 3b 56 a7 e9 bc 14 64 64 3e b6 99 45 3e
       0.0037346238 -0.028522175 0.22303802 0.19296917

linear2.weight f4 [101, 128]
000000 f0 95 e4 3d d1 ac 92 3d c1 24 72 3c 36 61 bc 3c
       0.11161411 0.07161868 0.014779271 0.022995573
000010 46 e9 c5 3a b2 7d 1d 3d b5 d5 32 bd b6 5e 8a bd
       0.0015099428 0.03844995 -0.04366084 -0.06756346
000020 04 86 94 3c c5 24 dd 3c 4a 9f 16 3d 79 a0 29 bd
       0.01813031 0.026995072 0.036773004 -0.041412804
000030 6e 37 aa bd 7b d5 0c bd 80 9c a2 bd 4a ae 01 3e
       -0.083113536 -0.03438328 -0.07940006 0.12664142
000040 e4 0c d5 bc 64 09 c4 3c cc 4d b6 3c 0d 8d 94 bd
       -0.026007123 0.023930259 0.022253893 -0.07253466
000050 87 96 4a bd 7f 14 66 bd 47 5b 89 3d fc 8a d9 bc
       -0.04945996 -0.05617189 0.06706863 -0.02655553
000060 12 07 fa 3d 9e 08 e8 bc 89 72 e5 3d cc 42 22 bd
       0.1220838 -0.028324421 0.112034865 -0.039614484
000070 1c 4f 4d 3d 46 54 7e bd 18 a1 86 bd d7 79 e5 bd
       0.050124273 -0.06209209 -0.06573695 -0.1120488
000080 84 03 0c 3e 19 57 3c 3d 4f 16 65 3d 0f 09 08 bb
       0.13673216 0.0459815 0.05592948 -0.0020757352
000090 95 d5 90 bd c5 85 23 3d 2d 9d 8b 3c 50 18 0a bc
       -0.070719875 0.039922494 0.01704272 -0.008428648
0000a0 76 7b f5 3c 19 6c a2 bd 86 de e9 bd 27 42 b6 bc
       0.029966097 -0.07930774 -0.11419396 -0.02224834
0000b0 f2 4d 2b bc 2d 1f 34 bd 31 e3 9f 3d 87 05 e3 ba
       -0.010455595 -0.043975044 0.07807005 -0.0017320373
0000c0 5a e4 9e bd bf 25 3b 3d d9 0d 0f 3d 8f b5 4b 3d
       -0.07758398 0.045690294 0.034925316 0.049733695
0000d0 59 74 50 bd 01 08 6c bd 83 f3 aa bb a0 7c 02 3c
       -0.050892208 -0.05762482 -0.005217017 0.007964283
0000e0 a8 05 7c 3c 00 14 65 bd 29 ea 95 bd 89 88 1b 3d
       0.015382208 -0.055927277 -0.07320053 0.037972007
0000f0 35 23 d8 bc ed 3b 98 bd 33 e7 32 3d ee 18 86 bd
       -0.026383976 -0.07433305 0.04367752 -0.06547724
000100 0d 5c 91 3d f0 4b 9b 3c 16 8c 84 bd 6e b4 25 3d
       0.070976354 0.018957108 -0.06472032 0.040455274
000110 0a fb 45 3d e4 49 b1 3c 58 3e 05 bd 34 20 d5 3c
       0.048335113 0.02164168 -0.03253016 0.026016332
000120 4a fa c9 3d 41 e4 c2 3c 6a f0 4c 3d 13 4e 38 3d
       0.09862192 0.02379048 0.050033964 0.044996332
000130 44 74 24 3d 2b ab 35 3d 14 09 5b 3d 33 ac b1 3c
       0.040149942 0.04435269 0.053475454 0.021688556
000140 cf 12 b6 bd d8 ea 2f 3d 70 94 df bc 18 87 0b 3e
       -0.08890306 0.042948574 -0.02729246 0.13625753
000150 b1 6d 9f 3c de e5 4c bc e2 ae a8 3d c0 1e 1b bd
       0.019461485 -0.0125059765 0.08236481 -0.037871122
000160 a5 56 ba bd d6 02 a9 bc 56 e0 64 bd 3b 4f 60 3c
       -0.090985574 -0.020631235 -0.055878006 0.013690765
000170 52 45 06 3e e8 bb 07 3d a2 6b 93 3c 3b c4 48 3d
       0.13112381 0.033138186 0.01799566 0.049015265
000180 99 2f 97 bd ec fa 95 bd 2c 8c 74 3d 24 3c b0 bd
       -0.073821254 -0.0732325 0.05970399 -0.08605221
000190 64 c7 d3 bc 87 99 a1 bd 9c 4c e0 3c e5 2f 3b 3c
       -0.025851913 -0.07890611 0.02738028 0.011424993
0001a0 1a 98 53 3d 93 7c 30 3d dc 16 af bd b9 4a 0c bd
       0.051658727 0.043087553 -0.08549282 -0.03425095
0001b0 3f b3 c7 3d 72 26 b3 3c c5 b3 75 bd ed 9f 7f 3b
       0.09750985 0.021868918 -0.059985895 0.0039005235
0001c0 d6 56 90 3d bf e0 8f 3d 16 b4 a1 bd 57 1f af bd
       0.07047813 0.07025289 -0.07895677 -0.085508995
0001d0 02 99 0c bd 25 11 82 3c 89 95 01 3d 0f 7e dd bc
       -0.034325607 0.015877316 0.03163675 -0.027037648
0001e0 c5 ee 4f 3d b5 ec bc bd 4d ee 16 3d 35 e5 97 3d
       0.050764818 -0.09224836 0.036848355 0.07416765
0001f0 4f 82 50 bd bf 13 c2 bd 65 4d 01 3c 0a 68 19 3d
       -0.050905522 -0.094764225 0.007891987 0.037452735
000200 3e c6 b2 3d 9b 3c a6 3d ef c2 9b bd e0 b7 16 3e
       0.08729218 0.08117028 -0.0760554 0.1471858
000210 27 9f a1 bd c1 73 90 3d 6a 99 87 3d 55 e4 ce bc
       -0.07891684 0.07053328 0.06621058 -0.025255362
000220 96 b6 dc bd 72 2f 97 3d 72 08 5d 3c 86 6f 5e 3d
       -0.10777013 0.07382096 0.013490783 0.054305576
000230 a1 70 05 bd 92 83 ce bc 13 00 37 bd 0a 18 46 bd
       -0.032578114 -0.025209222 -0.044677805 -0.04836277
000240 28 c5 85 bd 78 9f bc bd 7a 51 79 3d 9e 25 a4 3c
       -0.06531745 -0.09210104 0.060868718 0.020037469
000250 58 00 10 3d 72 56 9e bd a4 69 85 bc c0 2d 81 3d
       0.035156578 -0.07731332 -0.016285725 0.06307554
000260 37 e5 77 bc 09 67 bc bc f3 70 5f bd 6b 49 5f bd
       -0.015130333 -0.02299835 -0.054551076 -0.054513376
000270 8d 23 03 bd 6c 40 3c 3d 54 fa 58 3c cc be 1a bd
       -0.032016326 0.045959875 0.013243277 -0.037779614
000280 ef 7b 78 bc a2 e3 a8 bd 49 88 b1 bd 4a 59 ce 3d
       -0.015166267 -0.082465425 -0.086685725 0.10075624
000290 25 c1 a1 bd 26 e1 49 3d 85 ea 7c 3d 55 8b 8e bb
       -0.078981675 0.049286984 0.061747093 -0.0043501058
0002a0 02 18 b6 3d 54 6a 01 3d 23 05 f9 3d e8 4b f9 3c
       0.08891298 0.031595543 0.12159183 0.030431703
0002b0 57 d2 5a bb 37 74 ca bd 00 21 82 3d aa ce 37 3c
       -0.0033389532 -0.098854475 0.063539505 0.011218706
0002c0 68 65 32 3d 03 01 83 bb 41 2b 61 3d 7d d7 dc bd
       0.04355374 -0.0039979233 0.05497289 -0.10783289
0002d0 87 3e 80 3d 78 90 d2 bd f4 e5 15 3e 53 65 1d 3d
       0.06261926 -0.102814615 0.14638501 0.03842671
0002e0 86 10 b9 bd e8 a1 a4 3c cc db aa 3d e5 a0 87 3c
       -0.09036355 0.020096734 0.08342704 0.016556213
0002f0 37 81 5e bb 30 0c e6 3c 8d fd ec 3c 3e f8 78 3c
       -0.003395153 0.028081983 0.028929496 0.015195904
000300 be dc 76 bd 8e 86 61 3c fb ea e1 3d ad 64 77 bc
       -0.06026911 0.0137649905 0.11031147 -0.015099687
000310 f0 fd 0b bd e8 46 ea bb 84 cb 8a 3c 32 2c b2 bd
       -0.03417772 -0.007149566 0.016942747 -0.08699836
000320 0c 6d b0 bd d3 8d 4d bd ba 0c b7 3c 51 77 e3 3c
       -0.08614549 -0.050184082 0.022344936 0.027766855
000330 fb bb 4d bd b8 88 18 3d 46 21 61 bd 43 3f d4 bd
       -0.0502281 0.03723976 -0.054963373 -0.10363629
000340 59 6e c3 3d 86 14 8a bd 6c a8 28 bc 73 1b c6 bd
       0.095425315 -0.06742196 -0.010294061 -0.09673204
000350 92 3f 9a bd ec 4a 0f 3e 74 3c 95 bd 68 f8 e0 bd
       -0.07531656 0.13993424 -0.07286921 -0.1098488
000360 e3 7c db bd 9a f4 06 bd 5e f0 53 bc fe c9 a1 bd
       -0.107171796 -0.032948114 -0.012935726 -0.07899855
000370 6e b4 10 bd 6b b4 9b 3d 9f a4 fe bc c7 c5 0b bb
       -0.03532832 0.07602771 -0.031084357 -0.0021327601
000380 74 9a 6c 3c 3b e6 7a bd 4e cc e0 3d f4 db 24 bd
       0.014441121 -0.06125472 0.10976468 -0.040248826
000390 34 d3 99 bd b0 3c 25 bd 93 bb 6b bd 28 25 21 bd
       -0.07510987 -0.04034108 -0.05755193 -0.039342076
0003a0 2e cb 9b 3d 26 2f 9e bd 34 73 f3 3c da 73 2d 3d
       0.07607113 -0.077238366 0.029718019 0.042346813
0003b0 11 ca 0c 3d 70 4b 4e 3d e8 80 3f bc 75 5d c6 3d
       0.034372393 0.05036491 -0.0116884485 0.09685794
0003c0 9c 21 e8 bd e0 b0 18 3d 7a 28 8a 3d e6 3c 85 3c
       -0.113345355 0.037278056 0.067460015 0.01626439
0003d0 1a 01 3c bd da 83 81 3d ce 97 c4 bc 87 ab 80 3d
       -0.045899488 0.06323977 -0.023998167 0.06282716
0003e0 77 f4 b9 3d 62 d7 87 bd f0 f4 6b bd 6a 5f c5 3c
       0.09079831 -0.06632878 -0.057606637 0.024093349
0003f0 2f 5f 9e bc e2 4d 33 3e fe ce 95 bd 66 e9 3c bd
       -0.019332496 0.17510179 -0.07314871 -0.046121024

linear2.bias f4 [101]
000000 e0 1a 36 3d 0a 44 87 bd 3a 03 e5 3c 21 a5 1e 3d
       0.044459224 -0.06604774 0.02795564 0.038731698
000010 90 65 a0 bd 32 fd 80 3d 4f cf d2 3d e2 33 64 3d
       -0.078318715 0.06298293 0.10293447 0.05571354
000020 8c 37 18 bc d9 73 ad bc 57 f8 46 3c 71 41 67 3d
       -0.009290587 -0.021173405 0.01214417 0.056458894
000030 b4 47 b5 bd c3 92 98 3d cf 70 8f bd 3a 19 bc bc
       -0.08851567 0.074498676 -0.070039384 -0.022961248
000040 eb d8 79 bd 1f b4 4b bd 1a f2 18 3d fb a6 6b 3d
       -0.060997885 -0.049732324 0.03734026 0.05753229
000050 60 f8 64 bc 14 8a 8d 3d a5 9d 2a 3d 59 a6 cf 3d
       -0.013975233 0.06911102 0.041654248 0.1013915
000060 3a b6 69 3c f9 bb 81 3d e6 b3 7a bd 9c 91 d1 3c
       0.014264638 0.06334681 -0.06120672 0.025582127
000070 e8 eb 4a 3d 06 b3 23 3d 05 15 a5 3c 54 66 d3 3c
       0.049541384 0.039965652 0.020151624 0.02580563
000080 2f 35 01 3d b6 e1 84 bc dd eb 85 bd 49 dc 1c 3d
       0.03154486 -0.016220909 -0.06539128 0.038296018
000090 2f cb 67 3c 7f e6 51 3d 74 2b 0a bc 3a 7b f7 ba
       0.014147564 0.05124521 -0.008433212 -0.0018881329
0000a0 59 c0 76 bd 33 d1 a2 3d 73 02 16 3d 68 1b e8 3c
       -0.06024203 0.07950058 0.03662343 0.02833338
0000b0 db fc 1f bc 55 7a 9f bd 45 4d 01 3d fa b2 9f 3c
       -0.009764875 -0.07787005 0.03156783 0.019494522
0000c0 a2 e0 56 bd cb f8 08 3e 5b 73 28 bb 5f 2d 42 3e
       -0.05246032 0.13376157 -0.0025703523 0.1896262
0000d0 5d 9e bc bd f5 1d d9 3b 43 4d fc 3b f2 89 8e bc
       -0.09209893 0.0066258856 0.00769964 -0.017399762
0000e0 fd c4 06 bd 45 67 42 3d 64 9e aa 3d 59 79 5b 3d
       -0.032902706 0.047461767 0.08330992 0.053582523
0000f0 b9 10 0a bd 91 42 23 bc 07 cf 19 3d 64 8c a7 bd
       -0.033707354 -0.009964601 0.037550952 -0.08181074
000100 07 e0 3a bc 85 bd 9a bd 55 a1 52 bb 5c 90 4a 3d
       -0.011405951 -0.07555679 -0.0032139618 0.049454078
000110 a9 9d 05 3d 14 55 cf bd b4 e4 e4 3d 99 e5 e9 3c
       0.03262106 -0.10123649 0.11176434 0.028551864
000120 a0 94 8e bc 77 bf 48 3d 06 6c 37 3d ad f7 52 3b
       -0.017404854 0.04901072 0.044780754 0.0032191083
000130 54 e5 dd bc 9e a4 76 3d 7b 20 dd 3c 96 f2 6d 3d
       -0.027086891 0.060215585 0.026993027 0.058092676
000140 77 64 c6 bd 90 ee 02 be 89 13 07 bd b5 83 86 3d
       -0.09687131 -0.12786317 -0.032977615 0.0656809
000150 76 06 98 3d e0 59 9e bd a4 58 99 3d b7 d0 4b bd
       0.07423107 -0.07731986 0.0748761 -0.049759593
000160 6f e4 d3 3c 0f f0 cb bd fd f7 a5 bd 48 7d 99 3d
       0.025865762 -0.09957897 -0.08103941 0.074945986
000170 47 5d 99 bd 7d 98 06 bd 63 85 3e 3d 99 70 58 3c
       -0.07488494 -0.032860268 0.046513926 0.013210439
000180 9e 69 02 3c d6 04 d2 bb 1e b0 36 bd f3 04 31 3d
       0.007959751 -0.006409268 -0.044601552 0.04321761
000190 83 9e 3d 3d
       0.046293747
