NEURAL_MODELS/RNN/fragrant-sea-2.pth (torch, 14471 bytes, 14 tensors)

rnn.weight_ih_l0 f4 [12, 88]
-0.81169415 -0.30153102 -0.6061033 -0.13624363 -0.25303692 -1.0171927 -0.0012190529 -0.48777327
-0.50383365 -0.38157624 0.306757 -0.6256145 -0.2186192 -0.30400628 -0.47504932 -0.54278725
-0.33618873 -0.4078027 -0.11522342 -0.78047097 -0.39770997 -0.40785354 -0.18440896 -0.49164838
-0.44160223 -0.5937177 -0.48992473 -0.3213898 -0.053236417 -0.06194291 0.051233515 -0.18188676
-0.46095714 -0.8032238 -0.1707838 0.33321086 -0.41145188 -0.33570644 -0.269818 -0.44007474
-0.13577573 0.17056638 -0.7263252 -0.28918287 -0.13548917 -0.5574225 -0.08124614 -0.09236939
-0.3185583 -0.77544576 -0.34271112 -0.5450704 0.28605413 -0.7829354 -0.2475135 -0.26042968
-1.0743897 -0.42600214 0.02473027 -0.19927934 -0.6756836 -0.5027104 0.39813548 -0.40472746
-0.6266889 -0.6264477 0.34314165 -0.8027368 -0.13001186 -0.31714827 0.074460156 -0.44070828
-0.7865131 -0.12939653 -0.29460666 -0.23010278 0.1382461 -0.17850007 -0.5866409 -0.021954117
0.24505177 -0.45326942 -0.5151171 -0.43191883 0.15229371 -0.8105344 -0.03383474 -0.26046067
0.74591607 0.32983464 0.020408968 -0.39002165 -0.18379875 0.48064607 -0.18222938 0.2410351
0.23386858 0.43821228 0.25585443 -0.028016297 -0.17009906 0.16749452 0.5049769 0.16497515
0.09038872 0.306273 -0.0016839685 0.23098113 0.34307072 0.18099444 0.29038665 0.21779452
0.015263678 0.59356254 0.011850091 0.26017216 -0.29609257 -0.38371354 0.2200856 0.46272808
0.09796531 -0.0008885215 0.3896582 -0.41789234 -0.21442564 -0.03660644 -0.019780599 0.32859847
-0.46461812 -0.2230085 0.071906514 0.11195713 -0.5076268 0.5511869 -0.2931759 -0.07247172
-0.043288797 0.598041 0.19204225 0.6641521 0.24944887 0.68745154 -0.11282545 0.048244514
0.57151663 0.26938665 0.31229365 0.28800684 0.5332174 0.44430774 -0.23977154 0.19001257
0.4145136 0.6740116 -0.22115341 0.70017785 0.19165137 -0.030613756 -0.18208756 0.21800198
0.47792867 -0.5729316 0.6368011 0.38947228 0.1927614 0.31720045 -0.0432085 -0.07651517
0.23215799 0.3145354 0.29104158 0.048156746 -0.15964524 0.28478116 0.001260573 0.09337716
0.36095816 0.12393414 0.3027662 0.08196881 0.3525386 0.54177 0.32589686 0.4930393
-0.024653265 -0.023056127 -0.039732452 0.026485182 0.36098105 0.45044172 -0.034267124 0.08669571
0.18079476 0.57052755 0.055545144 0.8112583 0.75215 -0.15141901 0.2738454 0.27919698
0.7991134 0.37366045 0.5190508 0.08562388 -0.049484514 0.036734175 0.23447874 0.051645603
0.1590144 0.2936485 0.8368369 -0.09975567 0.07358165 0.2679312 0.23365603 0.51912194
0.29072055 0.047928534 0.4622761 0.22020681 0.49826556 0.4110035 0.023661658 0.5492455
0.2577194 0.2439696 0.009385543 0.61300224 -0.19304952 0.7226648 -0.07245995 0.070208915
0.5973764 0.6379648 0.36278075 0.49880916 0.51443285 0.53571385 -0.6609728 0.14270574
-0.29122353 0.8841476 -0.4684112 0.33207104 0.2467681 0.4768329 -0.19415487 0.18237416
0.85398006 -0.3791398 0.06007871 0.72222966 -0.11523596 0.69466406 0.2395118 0.39073613
00000000: 30cb 4fbf 4662 9abe 9629 1bbf 7383 0bbe
00000010: 0e8e 81be 5f33 82bf a1c8 9fba 6bbd f9be
00000020: 3efb 00bf f65d c3be 410f 9d3e 4628 20bf
00000030: b6dd 5fbe b6a6 9bbe aa39 f3be 1bf4 0abf
00000040: ee20 acbe 84cb d0be 42fa ebbd f2cc 47bf
00000050: a4a0 cbbe 2ed2 d0be b4d5 3cbe 56b9 fbbe
00000060: b019 e2be e2fd 17bf 6ad7 fabe 348d a4be
00000070: 6e0e 5abd d9b7 7dbd 3cda 513d 8640 3abe
00000080: 9302 ecbe 13a0 4dbf f3e1 2ebe 9d9a aa3e
00000090: d2a9 d2be b7e1 abbe 9625 8abe 7a51 e1be
000000a0: cb08 0bbe f4a8 2e3e 73f0 39bf c70f 94be
000000b0: acbd 0abe 3eb3 0ebf 6064 a6bd 2a2c bdbd
000000c0: 131a a3be 9d83 46bf d577 afbe bc89 0bbf
000000d0: b075 923e 746e 48bf 2e74 7dbe 0a57 85be
000000e0: 9a85 89bf f41c dabe 2397 ca3c e20f 4cbe
000000f0: 9af9 2cbf a1b1 00bf 6ad8 cb3e 7038 cfbe
00000100: af6e 20bf e05e 20bf 43b0 af3e 2980 4dbf
00000110: d421 05be 4261 a2be 917e 983d 84a4 e1be
00000120: ec58 49bf 8680 04be afd6 96be 10a0 6bbe
00000130: 6390 0d3e b9c8 36be 192e 16bf 1fd9 b3bc
00000140: daee 7a3e ee12 e8be b7de 03bf 7724 ddbe
00000150: e2f2 1b3e 2f7f 4fbf 4c96 0abd 1a5b 85be
00000160: 5bf4 3e3f 16e0 a83e b530 a73c ebb0 c7be
00000170: bd35 3cbe 3e17 f63e 579a 3abe e8d1 763e
00000180: 3f7b 6f3e 5c5d e03e 5aff 823e 6f82 e5bc
00000190: 732e 2ebe af83 2b3e 2b46 013f 3fef 283e
000001a0: b91d b93d d1cf 9c3e 9bb8 dcba 5186 6c3e
000001b0: f7a6 af3e 9b56 393e 8fad 943e 8705 5f3e
000001c0: 8114 7a3c b7f3 173f e226 423c 4935 853e
000001d0: 7299 97be 1a76 c4be 1f5e 613e b2ea ec3e
000001e0: 09a2 c83d abeb 68ba 4881 c73e fcf5 d5be
000001f0: 6592 5bbe a2f0 15bd ec0a a2bc 0f3e a83e
00000200: 6de2 edbe 575c 64be b943 933d c849 e53d
00000210: d4f3 01bf 961a 0d3f 271b 96be 0e6c 94bd
00000220: 984f 31bd 3719 193f b9a6 443e df05 2a3f
00000230: 866f 7f3e d3fc 2f3f 0811 e7bd 0a9c 453d
00000240: ea4e 123f 0ced 893e f4e4 9f3e a275 933e
00000250: ef80 083f 4e7c e33e ac86 75be a892 423e
00000260: 203b d43e 068c 2c3f 0a76 62be db3e 333f
00000270: 4240 443e b3c9 fabc 2975 3abe e93b 5f3e
00000280: 11b3 f43e a5ab 12bf 6605 233f e968 c73e
00000290: 3f63 453e 1968 a23e 65fb 30bd fcb3 9cbd
000002a0: d3ba 6d3e c90a a13e 6703 953e 0240 453d
000002b0: 0b7a 23be d6ce 913e d039 a53a 863c bf3d
000002c0: 82cf b83e 2fd1 fd3d 2c04 9b3e 43df a73d
000002d0: f07f b43e 70b1 0a3f f4db a63e a66f fc3e
000002e0: a5f5 c9bc 34e0 bcbc 7fbe 22bd 74f7 d83c
000002f0: 82d2 b83e 4ca0 e63e af5b 0cbd 858d b13d
00000300: 4322 393e 180e 123f 4e83 633d a0ae 4f3f
00000310: e78c 403f 960d 1bbe 7735 8c3e e8f2 8e3e
00000320: b292 4c3f 6c50 bf3e 83e0 043f 935b af3d
00000330: 46b0 4abd 9376 163d 321b 703e 578a 533d
00000340: acd4 223e 1959 963e f13a 563f b34c ccbd
00000350: fab1 963d 472e 893e 8743 6f3e 2de5 043f
00000360: 53d9 943e b650 443d 74af ec3e e57d 613e
00000370: aa1c ff3e 0d6f d23e 18d6 c13c 5a9b 0c3f
00000380: ccf3 833e 2bd3 793e d2c5 193c b7ed 1c3f
00000390: c6ae 45be 8f00 393f e265 94bd b1c9 8f3d
000003a0: a9ed 183f a951 233f 66be b93e ea63 ff3e
000003b0: dfb1 033f 8b24 093f 8335 29bf 7421 123e
000003c0: 401b 95be 7f57 623f 98d3 efbe 3705 aa3e
000003d0: c7b0 7c3e 7123 f43e 89d0 46be 4bc0 3a3e
000003e0: 709e 5a3f 9d1e c2be 1815 763d 0be4 383f
000003f0: d500 ecbd 81d5 313f 9542 753e 910e c83e

rnn.weight_hh_l0 f4 [12, 12]
0.038681086 -0.13507618 0.01604721 -0.29699057 0.13157913 -0.21852417 -0.21821915 -0.049596366
-0.016817283 -0.40736723 0.5128101 -0.10904635 0.14423573 -0.19006836 0.08795232 -0.05285173
-0.14886053 -0.20230296 0.15760677 -0.121696465 -0.16075458 0.0976414 0.048061874 0.067296125
0.042571094 0.43651345 0.16768326 0.27350575 -0.09806536 0.1530565 -0.4120439 0.056094375
-0.27224392 0.41630816 -0.5599342 -0.19011454 0.05354274 0.2240921 0.122582935 -0.13660257
-0.37559542 -0.1347171 -0.3638964 0.36076826 -0.15698902 0.1488194 -0.023229102 -0.359282
-0.12923944 -0.19739257 0.11760152 0.25959712 0.23525974 -0.1297124 0.16903543 -0.0036042375
0.42403758 -0.3478651 -0.13829587 0.16924356 0.17620775 -0.11593108 -0.29832068 0.1887805
-0.056207493 0.08916037 0.3079487 -0.44796425 0.05810772 -0.2326749 0.2592004 -0.18168972
0.032355666 0.112717666 0.24369623 -0.3094424 0.32312736 -0.037694216 0.03743829 -0.17649761
0.31979284 -0.35703608 -0.2188797 0.059506956 0.13027644 -0.13147461 -0.25182238 -0.0732582
-0.36986578 -0.17765723 0.021113181 0.35526574 0.12602098 0.08178146 -0.06130005 -0.19706672
-0.13756526 0.2546311 -0.045120113 0.31457624 -0.44489348 -0.395821 -0.12372662 0.23637909
0.28958312 -0.041269396 -0.18003196 0.13910815 -0.08888714 -0.1289063 0.024427023 -0.07863276
-0.22619088 -0.13801607 0.04709272 -0.18420257 -0.4476708 0.2976498 -0.24689952 -0.2866237
0.2653675 -0.3524028 -0.16125403 -0.19647825 -0.03745061 -0.03985332 -0.1312525 -0.19139412
-0.0149652455 -0.3967637 0.12961441 0.27533215 0.13028334 0.20444286 -0.24096666 0.095862545
-0.3687235 -0.19156212 -0.21985278 0.24331157 0.095505536 0.14483315 -0.13145064 -0.07132526
00000000: 0f70 1e3d 6951 0abe 7075 833c 260f 98be
00000010: aebc 063e cdc4 5fbe d774 5fbe 8f25 4bbd
00000020: 66c4 89bc 7092 d0be 8647 033f b153 dfbd
00000030: 88b2 133e 48a1 42be 5920 b43d 0e7b 58bd
00000040: e56e 18be 8228 4fbe ab63 213e ff3b f9bd
00000050: d99c 24be 37f8 c73d 87dc 443d 8dd2 893d
00000060: 075f 2e3d b17e df3e 29b5 2b3e f208 8c3e
00000070: 7ed6 c8bd d8ba 1c3e 6bf7 d2be 37c3 653d
00000080: 8e63 8bbe 5826 d53e d957 0fbf 63ad 42be
00000090: a24f 5b3d 6678 653e c30c fb3d 8be1 0bbe
000000a0: 0b4e c0be 48f3 09be a150 babe 9eb6 b83e
000000b0: bbc1 20be 1d64 183e f54a bebc cff3 b7be
000000c0: 5857 04be 4721 4abe 11d9 f03d eae9 843e
000000d0: eee7 703e 54d3 04be a017 2d3e 1235 6cbb
000000e0: 741b d93e 601b b2be 6f9d 0dbe 2f4e 2d3e
000000f0: ce6f 343e 466d edbd 7dbd 98be ad4f 413e
00000100: d439 66bd b699 b63d 74ab 9d3e 925b e5be
00000110: 5c02 6e3d 5442 6ebe eab5 843e df0c 3abe
00000120: 6087 043d 85d8 e63d 818b 793e 3c6f 9ebe
00000130: f370 a53e 4065 1abd e458 193d cabb 34be
00000140: e3bb a33e 6fcd b6be 0022 60be 91bd 733d
00000150: 3067 053e 48a1 06be ddee 80be 6508 96bd
00000160: 0c5f bdbe c7eb 35be 8df5 ac3c 64e5 b53e
00000170: a50b 013e 0a7d a73d c315 7bbd dccb 49be
00000180: e8dd 0cbe 025f 823e decf 38bd 2310 a13e
00000190: 14c9 e3be 0da9 cabe 6264 fdbd 5c0d 723e
000001a0: 3d44 943e 190a 29bd 4c5a 38be 5e72 0e3e
000001b0: 760a b6bd 0300 04be 2e1b c83c 360a a1bd
000001c0: 959e 67be 1654 0dbe 4ce4 403d 999f 3cbe
000001d0: 1b35 e5be 8e65 983e 3ad3 7cbe 57c0 92be
000001e0: 40de 873e 246e b4be c71f 25be 9831 49be
000001f0: d065 19bd 3c3d 23bd 0e67 06be d2fc 43be
00000200: ca30 75bc 9d24 cbbe a4b9 043e 56f8 8c3e
00000210: ff68 053e 7859 513e f7bf 76be 9553 c43d
00000220: 54c9 bcbe dc28 44be 1621 61be ab26 793e
00000230: 6898 c33d 244f 143e ff9a 06be fa12 92bd

rnn.bias_ih_l0 f4 [12]
-0.1156897 -0.19579406 -0.21255068 -0.08271602 0.1665153 -0.025788337 0.32827753 -0.48646584
-0.25918883 -0.18075076 0.014243405 -0.09670296
00000000: b9ee ecbd 3d7e 48be e3a6 59be 0467 a9bd
00000010: fd82 2a3e 1042 d3bc fe13 a83e 0d12 f9be
00000020: 66b4 84be ba16 39be 2c5d 693c 340c c6bd

rnn.bias_hh_l0 f4 [12]
0.10897374 -0.036833286 0.22326064 -0.1400569 0.34641242 0.45166433 -0.0433537 -0.09884285
-0.1154348 -0.07545291 -0.30217126 0.117235206
00000000: a02d df3d 80de 16bd 709e 643e 136b 0fbe
00000010: f85c b13e 8c40 e73e a693 31bd 1f6e cabd
00000020: 1569 ecbd 0e87 9abd 31b6 9abe 0319 f03d

rnn.weight_ih_l1 f4 [12, 12]
-0.21609484 0.09376032 0.30035067 -0.12786034 0.34585023 0.02590614 -0.03169095 -0.24877027
0.023655491 -0.070082165 -0.1130959 -0.19877854 0.12602843 0.15965822 0.027436858 -0.26711163
0.05074856 -0.1305635 0.1770965 -0.037058 0.05714532 -0.029095635 -0.046387777 -0.2554622
0.0148752695 0.17826937 -0.10814306 -0.31690267 -0.09825204 0.31294537 0.1589578 -0.32797357
-0.28381684 0.024627205 -0.015176938 -0.24749912 0.52745867 -0.32608128 -0.20817971 0.07007753
0.20393354 -0.30087566 0.099777535 0.23308326 0.5605818 -0.19647093 0.48387218 0.1590708
0.28229055 -0.10257206 0.087305374 -0.4001502 -0.18282287 0.15560752 0.33331448 0.06989806
-0.095302045 0.0011700306 0.38532326 -0.42626843 -0.09957059 0.27751598 0.26538906 0.14003907
-0.11935742 0.043651104 -0.31605163 0.25344726 0.23869714 -0.055179138 -0.021530604 -0.27152637
-0.16958307 -0.20237276 -0.033276193 -0.03024784 -0.17580311 -0.0026373826 0.3394464 0.09125215
0.23980825 -0.17439647 -0.015019949 0.04829733 -0.5095201 0.26126295 0.48138502 0.08824463
-0.35708985 -0.22516221 -0.49741507 0.29094586 0.13621184 0.3755304 -0.7496664 0.037316937
-0.014515241 0.33790016 -0.2857475 0.056298092 -0.006643498 0.094187856 0.027316323 0.34440282
0.14224084 0.22609448 -0.27696973 -0.029245175 0.38092336 -0.3011557 -0.46791553 -0.29002094
-0.083764374 0.009422461 0.120310694 -0.22382689 0.13895853 -0.34142557 0.37419125 0.1800162
0.27013776 -0.09313029 0.0021715737 -0.013958624 -0.2524023 -0.1712082 0.1316106 -0.014540677
0.1863026 -0.046231404 -0.29397509 0.12624756 0.016290473 0.32297164 -0.22782919 0.029886326
0.11843334 -0.22118774 -0.26537007 0.2883831 0.15843555 0.038158916 0.27579376 0.2681918
00000000: f747 5dbe 6905 c03d 90c7 993e d2ed 02be
00000010: 4813 b13e 1d39 d43c 5fce 01bd a2bd 7ebe
00000020: 29c9 c13c 3d87 8fbd d39e e7bd 9a8c 4bbe
00000030: 990d 013e 727d 233e 43c3 e03c dbc2 88be
00000040: b9dd 4f3d 70b2 05be c958 353e 21ca 17bd
00000050: 3611 6a3d f859 eebc 1c01 3ebd f1cb 82be
00000060: 67b7 733c 3f8c 363e 1c7a ddbd 1141 a2be
00000070: 5e38 c9bd 603a a03e d5c5 223e 27ec a7be
00000080: 7150 91be febe c93c b1a8 78bc 6970 7dbe
00000090: 8807 073f 20f4 a6be 102d 55be cf84 8f3d
000000a0: f4d3 503e 600c 9abe 2a58 cc3d 61ad 6e3e
000000b0: 4a82 0f3f ad2f 49be 18be f73e 75e3 223e
000000c0: 6388 903e 4d11 d2bd 29cd b23d 7de0 ccbe
000000d0: eb35 3bbe 9457 1f3e 32a8 aa3e b726 8f3d
000000e0: b82d c3bd b65b 993a 1749 c53e db3f dabe
000000f0: aaeb cbbd 9316 8e3e 13e1 873e 6766 0f3e
00000100: aa71 f4bd 80cb 323d 85d1 a1be d7c3 813e
00000110: 066d 743e 8503 62bd f360 b0bc 8105 8bbe
00000120: 2fa7 2dbe ce3a 4fbe 9e4c 08bd 51ca f7bc
00000130: bb05 34be f0d7 2cbb ebcb ad3e 68e2 ba3d
00000140: 4b90 753e fd94 32be 3b16 76bc 6cd3 453d
00000150: e96f 02bf 42c4 853e 1978 f63e 9ab9 b43d
00000160: 7bd4 b6be ec90 66be 30ad febe dbf6 943e
00000170: 1e7b 0b3e 8545 c03e 23ea 3fbf a5d9 183d
00000180: 55d1 6dbc 4001 ad3e 7f4d 92be d498 663d
00000190: b3b1 d9bb 90e5 c03d 7bc6 df3c 9155 b03e
000001a0: 95a7 113e 5085 673e face 8dbe 9493 efbc
000001b0: 6308 c33e 1431 9abe a092 efbe a07d 94be
000001c0: a88c abbd aa60 1a3c 7465 f63d e032 65be
000001d0: 254b 0e3e 55cf aebe ff95 bf3e 2b56 383e
000001e0: 7f4f 8a3e 18bb bebd f650 0e3b b6b2 64bc
000001f0: e03a 81be 3451 2fbe eec4 063e 053c 6ebc
00000200: 1cc6 3e3e 245d 3dbd e783 96be 0a47 013e
00000210: 9973 853c 8a5c a53e 0e4c 69be 2bd4 f43c
00000220: 2e8d f23d 0a7f 62be 96de 87be f3a6 933e
00000230: ee3c 223e 864c 1c3d d734 8d3e 7050 893e

rnn.weight_hh_l1 f4 [12, 12]
0.436389 0.42466095 0.027826302 0.19822986 0.060112286 -0.08287871 0.105448455 0.4131833
-0.18172352 0.17412227 0.014539784 -0.25457096 0.33762625 0.36883876 -0.093062915 -0.07670768
-0.23011467 -0.05004499 0.11638297 0.37342584 -0.33789477 -0.25010082 -0.1256376 -0.04740615
0.42124957 0.20054543 0.30841237 0.19906737 -0.07887306 -0.3291895 0.090016015 0.38670906
0.08483567 -0.12413462 0.067034595 -0.017510632 0.057849165 0.15816066 -0.11101813 -0.14071333
0.20706293 0.015981002 0.23514216 -0.15553786 -0.17665666 0.24316573 -0.25733578 0.024487667
0.0070843194 -0.24641395 0.3396201 0.20247579 0.16822374 -0.0053969407 -0.19597499 -0.21190518
-0.12965405 0.09747909 0.19112341 0.07107095 0.075268224 -0.018542659 -0.039418302 -0.31254786
-0.18620756 0.24150157 0.17193203 0.0045126677 0.16111304 0.10034495 0.31989142 0.3807435
-0.09689435 -0.24328315 -0.05448898 -0.078032345 -0.07835624 -0.24276198 0.00039702666 0.1607378
0.052720007 -0.15048346 0.20720501 0.34222677 0.28407854 -0.12131836 -0.033938512 -0.20327286
0.08834781 0.21066472 -0.16178392 0.17796558 -0.0019358433 -0.27015424 0.21420802 -0.06025626
-0.37537032 -0.4336604 -0.31460774 -0.011006613 0.098979585 -0.15866175 0.088565685 0.13560762
0.097967036 -0.2651535 0.09816437 0.21379921 -0.16541083 -0.02673155 -0.07773473 0.110095575
0.012674983 -0.23940492 0.17121029 -0.16749083 -0.014653902 0.15853712 -0.13308188 0.07917095
-0.12672305 0.054074965 0.08808435 0.3135546 0.10851517 -0.15197496 -0.07404888 -0.18013933
0.03331725 -0.20130935 0.16924348 0.3191261 -0.19848673 -0.4775877 0.11993015 0.060773678
-0.090442024 0.13685448 0.33432427 -0.16188872 0.41791758 0.17477866 0.36558834 0.15450226
00000000: 616e df3e 296d d93e fcf3 e33c c5fc 4a3e
00000010: 4d38 763d 50bc a9bd 5cf5 d73d c38c d33e
00000020: bb15 3abe 1c4d 323e 4638 6e3c 2057 82be
00000030: 59dd ac3e 6fd8 bc3e c597 bebd eb18 9dbd
00000040: 2ea3 6bbe fafb 4cbd 325a ee3d ac31 bf3e
00000050: 8b00 adbe 370d 80be 25a7 00be f32c 42bd
00000060: 06ae d73e c85b 4d3e 3ae8 9d3e 51d8 4b3e
00000070: 3388 a1bd 878b a8be 515a b83d bbfe c53e
00000080: 53be ad3d 4b3a febd 6f49 893d 7572 8fbc
00000090: 3ff3 6c3d def4 213e 795d e3bd 2817 10be
000000a0: 4e08 543e 97ea 823c 1bc9 703e 5145 1fbe
000000b0: 7ce5 34be 7000 793e 84c1 83be 5c9a c83c
000000c0: 9423 e83b f053 7cbe b0e2 ad3e d055 4f3e
000000d0: d842 2c3e d2d8 b0bb abad 48be acfd 58be
000000e0: 08c4 04be 1ea3 c73d dbb5 433e a58d 913d
000000f0: 3a26 9a3d c6e6 97bc 1675 21bd 4606 a0be
00000100: 32ad 3ebe 304c 773e f30e 303e 00df 933b
00000110: d1fa 243e a781 cd3d cfc8 a33e d0f0 c23e
00000120: 8c70 c6bd 381f 79be d62f 5fbd 6ccf 9fbd
00000130: 3d79 a0bd 9996 78be 0428 d039 7398 243e
00000140: eff0 573d 5618 1abe 8d2d 543e 5938 af3e
00000150: be72 913e c375 f8bd 1c03 0bbd c326 50be
00000160: b2ef b43d 7eb8 573e afaa 25be 9c3c 363e
00000170: 1fbc fdba a851 8abe 5959 5b3e 45cf 76bd
00000180: 8a30 c0be bc08 debe 4414 a1be 1555 34bc
00000190: cfb5 ca3d 3a78 22be ed61 b53d b9dc 0a3e
000001a0: f1a2 c83d 33c2 87be 670a c93d 2eee 5a3e
000001b0: 7561 29be 20fc dabc 6333 9fbd ca79 e13d
000001c0: bbaa 4f3c 9026 75be c051 2f3e b782 2bbe
000001d0: eb16 70bc 8e57 223e 9e46 08be 6124 a23d
000001e0: b0c3 01be b67d 5d3d 9165 b43d 3b8a a03e
000001f0: 343d de3d 539f 1bbe f0a6 97bd 7276 38be
00000200: ab77 083d 0a24 4ebe 2a4e 2d3e 7f64 a33e
00000210: 1b40 4bbe 6086 f4be f09d f53d d2ed 783d
00000220: ab39 b9bd 9523 0c3e 8d2c ab3e 28c6 25be
00000230: 4bf9 d53e 2df9 323e 652e bb3e d735 1e3e

rnn.bias_ih_l1 f4 [12]
0.37070137 0.41483274 0.011338839 0.22208908 0.050273735 -0.21296161 0.11714632 0.13041839
0.0043333406 0.16535814 -0.2692993 -0.21748838
00000000: 92cc bd3e f564 d43e 8ac6 393c 526b 633e
00000010: d5eb 4d3d 9c12 5abe 69ea ef3d 668c 053e
00000020: b2fe 8d3b a553 293e 99e1 89be 46b5 5ebe

rnn.bias_hh_l1 f4 [12]
0.16432776 0.4198831 0.45308438 -0.0035270746 0.18526703 -0.0548544 0.1084184 0.23203366
-0.42343894 0.17714639 -0.21570371 -0.27427563
00000000: 8945 283e ebfa d63e adfa e73e 7e26 67bb
00000010: a4b6 3d3e 02af 60bd 770a de3d 3b9a 6d3e
00000020: fdcc d8be dd65 353e 6fe1 5cbe db6d 8cbe

rnn.weight_ih_l2 f4 [12, 12]
-0.20183583 -0.39255112 -0.2749703 -0.058032412 0.0019262114 0.26660296 0.20242307 0.10133364
0.15426536 0.046152294 -0.10330005 0.17577787 0.38765302 -0.09300004 -0.13882454 0.12586968
0.26079425 0.008105816 -0.26730156 -0.22116707 -0.21161754 0.24037755 -0.010464064 0.12752053
0.11722047 -0.08191504 0.08293111 -0.09215966 -0.35996404 0.2049781 0.15889645 -0.08219746
-0.11587306 -0.34708938 -0.07679543 0.39282343 0.46261325 -0.07042899 0.21180968 0.0057708584
-0.11878099 0.08610108 -0.32287508 -0.16654724 -0.26659673 0.108306624 -0.051382236 -0.2841602
-0.15505801 0.16080652 -0.19045764 0.0948451 0.006404072 -0.06806755 -0.12869637 0.3075133
-0.07168792 -0.20667014 -0.10254308 0.20846023 -0.4507504 -0.21887772 -0.32557198 0.04199215
-0.43748444 0.17191727 0.09972348 -0.19316657 0.46155855 0.17283154 0.15701488 0.16393408
0.28570268 0.32287386 -0.042202473 0.23323178 -0.014686418 -0.012327271 -0.12311245 -0.06580318
-0.3612213 0.114769734 0.1014866 -0.033696465 0.46089688 0.350198 0.3340925 0.38026485
-0.022807904 -0.26514277 -0.15106611 0.32150683 -0.39465228 0.041589446 0.07471318 -0.2894972
0.07528306 0.03480993 0.38076013 -0.39604333 0.09460096 -0.092880495 0.2388861 0.9182339
0.11922749 -0.25980318 0.004769896 -0.44663876 -0.06615136 0.050228715 0.38135737 -0.3267683
-0.444329 0.089445345 0.24724986 0.57832664 0.023052609 -0.18186238 0.027750723 -0.22019874
-0.10960725 -0.3353974 -0.36445475 -0.15349588 0.027532572 0.13638118 0.41256544 0.022943204
0.15107448 0.027784232 0.22893013 -0.001625375 -0.002046311 0.026829274 0.34753266 0.21168728
0.28404427 -0.31311914 0.13266872 0.07162841 -0.2180478 0.24256699 -0.2433773 -0.2708324
00000000: 0dae 4ebe 76fc c8be e8c8 8cbe 65b3 6dbd
00000010: ee78 fc3a 2f80 883e fe47 4f3e 0388 cf3d
00000020: bdf7 1d3e 300a 3d3d fa8e d3bd 1dff 333e
00000030: 757a c63e ce76 bebd 0528 0ebe fbe3 003e
00000040: d386 853e 42ce 043c c0db 88be 9f79 62be
00000050: 45b2 58be 8825 763e 7771 2bbc be94 023e
00000060: 4911 f03d 13c3 a7bd c9d7 a93d 34be bcbd
00000070: 354d b8be c7e5 513e c0b5 223e 2457 a8bd
00000080: db4e edbd b3b5 b1be ec46 9dbd 2720 c93e
00000090: a5db ec3e 133d 90bd a3e4 583e 7819 bd3b
000000a0: 7343 f3bd c355 b03d e24f a5be 5c8b 2abe
000000b0: 5e7f 88be ddcf dd3d 2e76 52bd 727d 91be
000000c0: 87c7 1ebe 77aa 243e 5407 43be 263e c23d
000000d0: 40d9 d13b 0067 8bbd fbc8 03be 6272 9d3e
000000e0: 1ed1 92bd 56a1 53be 1b02 d2bd 9976 553e
000000f0: c2c8 e6be 7b21 60be 5fb1 a6be f6ff 2b3d
00000100: f6fd dfbe 150b 303e d33b cc3d 75cd 45be
00000110: 6751 ec3e c0fa 303e 82c8 203e 56de 273e
00000120: 9f47 923e b94f a53e 80dc 2cbd 50d4 6e3e
00000130: 4d9f 70bc 52f8 49bc 6122 fcbd d1c3 86bd
00000140: 00f2 b8be 650c eb3d 35d8 cf3d 4e05 0abd
00000150: adfa eb3e 274d b33e 2c0e ab3e 13b2 c23e
00000160: a4d7 babc cbc0 87be 13b1 1abe 8b9c a43e
00000170: dd0f cabe b259 2a3d 3903 993d fa38 94be
00000180: 012e 9a3d db94 0e3d fef2 c23e 31c6 cabe
00000190: 26be c13d 2138 bebd 8f9e 743e 6011 6b3f
000001a0: 8b2d f43d ec04 85be ca4c 9c3b d6ad e4be
000001b0: 5d7a 87bd a0bc 4d3d 4641 c33e 2d4e a7be
000001c0: 177f e3be 1f2f b73d 112f 7d3e 370d 143f
000001d0: d3d8 bc3c 223a 3abe 7c55 e33c c77b 61be
000001e0: c479 e0bd 35b9 abbe d099 babe 062e 1dbe
000001f0: fd8b e13c 82a7 0b3e c73b d33e 63f3 bb3c
00000200: 45b3 1a3e c29b e33c a96c 6a3e 890a d5ba
00000210: 671b 06bb 11c9 db3c cdef b13e 8dc4 583e
00000220: 406e 913e 2751 a0be 4fda 073e eab1 923d
00000230: ec47 5fbe 7b63 783e e637 79be 8baa 8abe

rnn.weight_hh_l2 f4 [12, 12]
0.2903923 -0.42219618 0.28948125 0.021069424 -0.11544254 -0.15777875 0.021402428 -0.37404537
0.2964005 -0.30121732 0.41944468 -0.12665232 -0.14794806 0.4424231 -0.33936092 0.26723558
-0.33982188 -0.38621667 0.245033 0.016143197 -0.032911845 -0.10048626 -0.24100764 0.40715083
0.39250904 -0.3415707 0.037774734 -0.4580269 0.1408121 0.25026008 -0.38775674 -0.109335616
-0.03462545 -0.31213173 0.19838302 -0.43905956 -0.40287963 -0.085679114 -0.35766995 0.1441917
-0.43794155 -0.13264619 0.16960806 0.04067952 -0.27293482 0.19442892 -0.010315241 0.16315484
0.26668528 -0.05365509 0.32626218 -0.40580544 -0.039924547 -0.008932187 -0.39748788 -0.3743526
0.2784071 0.28237584 0.20664197 -0.16665246 -0.008136955 0.03562464 0.31553382 -0.23875341
0.0842322 0.01805809 -0.36529064 -0.3886073 -0.019693393 0.039287396 0.08634149 -0.0538345
-0.14895879 0.13885677 -0.23883581 0.13450359 -0.28229827 -0.35816404 0.29773122 0.12840697
-0.18325979 -0.17962036 -0.22405562 0.18003152 0.08195987 0.22932956 -0.41932374 0.065826155
-0.21827762 -0.19505289 0.014822257 -0.004411439 -0.22852764 0.092069566 0.11005316 -0.06687839
0.2016108 -0.025899265 0.25248787 -0.123837136 0.36719343 -0.19935735 0.059248846 -0.1428113
0.5500435 0.5010325 0.089707725 -0.23845834 -0.22647636 0.028550193 0.33238155 0.08392219
-0.04289183 0.15313753 -0.14399156 -0.15866552 0.42774096 0.14090407 -0.20216905 -0.30439234
0.08938727 -0.21421959 0.032696307 -0.13266909 0.33262622 0.32701388 -0.2447408 -0.26077217
0.1357296 -0.010255747 -0.09936415 -0.11911347 -0.1657075 0.12985802 -0.32626292 0.1778689
-0.28835696 -0.26322958 -0.07091044 0.15011665 0.06304873 -0.004681593 -0.34814903 0.010783105
00000000: 4dae 943e 192a d8be e336 943e c999 ac3c
00000010: 236d ecbd c190 21be 2554 af3c e082 bfbe
00000020: cec1 973e 2839 9abe 74c1 d63e 25b1 01be
00000030: b27f 17be 4885 e23e b7c0 adbe 1ad3 883e
00000040: 22fd adbe 31be c5be eee9 7a3e bd3e 843c
00000050: 92ce 06bd becb cdbd b5ca 76be 1376 d03e
00000060: f2f6 c83e 5be2 aebe aeb9 1a3d 8082 eabe
00000070: 0c31 103e 1722 803e 0d88 c6be 5aeb dfbd
00000080: 6ad3 0dbd bbcf 9fbe eb24 4b3e 6acc e0be
00000090: 3d46 cebe 8878 afbd 8420 b7be fda6 133e
000000a0: e039 e0be 67d4 07be bcad 2d3e 929f 263d
000000b0: 1dbe 8bbe 6018 473e 4201 29bc 1012 273e
000000c0: f98a 883e 71c5 5bbd d60b a73e bbc5 cfbe
000000d0: ec87 23bd 4f58 12bc 8883 cbbe 25ab bfbe
000000e0: 608b 8e3e 9193 903e f499 533e f1a6 2abe
000000f0: dd50 05bc 24eb 113d a68d a13e c67b 74be
00000100: ef81 ac3d 8fee 933c 6007 bbbe 89f7 c6be
00000110: 0a54 a1bc d2eb 203d cfd3 b03d 9181 5cbd
00000120: a788 18be 7830 0e3e 6091 74be 4fbb 093e
00000130: 6689 90be 4761 b7be 3a70 983e 1e7d 033e
00000140: 74a8 3bbe 66ee 37be d66e 65be 2f5a 383e
00000150: 94da a73d 5ed5 6a3e 9ab1 d6be ddcf 863d
00000160: 2b84 5fbe f2bb 47be 0dd9 723c d58d 90bb
00000170: 2603 6abe f88e bc3d 8d63 e13d 8af7 88bd
00000180: 1073 4e3e b22a d4bc 1746 813e 539e fdbd
00000190: c700 bc3e 5524 4cbe ebae 723d 203d 12be
000001a0: a7cf 0c3f aa43 003f afb8 b73d 6c2e 74be
000001b0: 6be9 67be 18e2 e93c ea2d aa3e 66df ab3d
000001c0: 58af 2fbd 16d0 1c3e 8672 13be 3779 22be
000001d0: dd00 db3e 2849 103e 6705 4fbe 50d9 9bbe
000001e0: ac10 b73d 615c 5bbe 90ec 053d 68da 07be
000001f0: fc4d aa3e 5d6e a73e 559d 7abe ee83 85be
00000200: b3fc 0a3e b807 28bc 6e7f cbbd c3f1 f3bd
00000210: 3aaf 29be 80f9 043e ef0b a7be 4423 363e
00000220: 86a3 93be 07c6 86be 7e39 91bd 2eb8 193e
00000230: b11f 813d 0c68 99bb 9740 b2be 9fab 303c

rnn.bias_ih_l2 f4 [12]
-0.10687215 0.40671346 -0.35310555 0.4295308 -0.14451264 0.06979838 0.30789283 0.1559133
0.016527973 0.17788687 -0.19685274 0.111971065
00000000: c9df dabd bf3c d03e 40ca b4be 76eb db3e
00000010: 1ffb 13be 74f2 8e3d 21a4 9d3e bca7 1f3e
00000020: ac65 873c fa27 363e c493 49be 1651 e53d

rnn.bias_hh_l2 f4 [12]
-0.20442566 -0.115562975 -0.0503833 0.26065254 -0.35098597 -0.43140945 0.16003843 0.40281036
0.043440066 0.18212336 -0.31298488 0.40100878
00000000: f654 51be 48ac ecbd b85e 4ebd 4074 853e
00000010: 6fb4 b3be b3e1 dcbe 1de1 233e 293d ce3e
00000020: 36ee 313d 8c7e 3a3e 8e3f a0be 0651 cd3e

fc.weight f4 [88, 12]
0.26845708 -0.16122448 0.25735557 0.14691374 0.17621714 -0.18582487 0.05822288 0.08945857
0.0016716247 -0.04804653 0.24302669 0.16810896 0.08858156 0.06623653 0.0541303 -0.19889297
-0.0684289 0.095585056 0.10773492 0.06736204 0.39495248 0.041579224 0.17090808 0.23599711
-0.16490123 -0.09948083 0.23079588 -0.0647257 -0.12149544 -0.17776257 0.10078685 0.20073624
-0.034525223 0.15696009 -0.06956194 0.05610629 0.25703245 -0.28813758 0.29320022 -0.28665724
0.34927714 0.50205505 -0.40381932 -0.22315688 0.28654063 0.06028667 0.4813857 -0.64067656
-0.008953127 0.05271534 -0.3320008 0.33364418 -0.08100041 -0.020314401 -0.19538835 -0.17502701
0.561133 0.21073204 -0.27235398 0.20614032 0.33703843 -0.30555627 0.10470802 -0.3846514
0.13777636 0.2571863 -0.04889579 0.06497805 0.02283701 -0.19550121 0.4524914 -0.053456794
-0.0055371285 0.23473324 -0.4032135 0.12747307 -0.3418877 0.06835156 0.2518229 0.09355645
0.30001354 0.08642459 -0.046103157 -0.053886924 0.058545943 -0.34856924 0.28447163 -0.07366665
-0.04141058 -0.056867573 -0.315278 -0.05743591 0.1157466 0.01749803 -0.009426885 -0.12941876
0.35459307 -0.053203527 0.5743161 -0.48785847 0.22329243 0.14790142 -0.12943542 -0.068160616
0.015761828 0.21903247 0.31352845 -0.2710655 0.42125887 -0.31715274 0.20359491 -0.524077
0.029633256 0.34147 -0.34902823 -0.17510962 0.05518887 0.24947347 0.40621403 -0.3216514
-0.33710012 0.053229365 -0.298584 -0.0550749 -0.14795537 -0.0014918682 -0.25209105 -0.12762263
0.21771184 -0.123596705 -0.30126715 -0.053755034 -0.004791295 -0.50165826 0.2386569 -0.24236968
0.074425906 0.53646594 -0.08622499 -0.203984 0.027795004 0.09251074 0.4559816 -0.18372487
0.06645606 0.022333708 -0.31351465 -0.14306758 -0.15268637 -0.032747716 -0.1182203 0.36195415
0.20714971 0.3572569 0.1331285 0.17099929 0.03654579 0.1239993 -0.024234897 0.13499406
0.13954085 0.16023315 0.05909866 -0.018012343 0.3013143 0.031145727 -0.031815078 0.3824414
0.26362976 -0.334236 0.3148667 -0.08855417 0.034644376 0.1448293 -0.041235205 -0.30376348
0.2970336 -0.113082655 0.4203105 -0.19866095 0.25028303 -0.15991098 0.39994252 -0.19446738
0.31008422 0.1752116 -0.18791819 -0.25453034 0.4740234 0.44087628 0.104696706 -0.21470048
0.049538843 -0.4824589 0.15445556 -0.06774091 0.07827576 0.34233022 -0.14449489 -0.21010837
0.24169399 -0.012736964 -0.02911298 -0.04040253 -0.053473476 -0.11081851 0.085538976 -0.26945528
-0.20883785 0.02873231 -0.06462551 0.07062538 0.25966918 0.06805028 0.16678242 0.2318378
0.28755763 -0.20502235 0.38955465 -0.4043077 0.17703882 0.39083204 -0.15327103 -0.0024970071
0.08601796 -0.17376737 -0.16118252 0.020959506 0.43253165 -0.07476809 -0.004303537 -0.21710564
0.03799217 0.088178374 -0.34914523 -0.2287254 0.12890334 0.1177766 0.44736975 -0.08006561
0.15881881 -0.24216974 0.26548794 -0.23081979 0.2769789 0.22357729 -0.2865589 -0.3201361
0.13910492 0.24725743 0.14258166 -0.49848768 0.43302625 -0.24360122 0.23016293 -0.5993799
00000000: 3573 893e 0818 25be 1cc4 833e 8e70 163e
00000010: 4472 343e e048 3ebe 1d7b 6e3d 0e36 b73d
00000020: 6b1a db3a 70cc 44bd fddb 783e c124 2c3e
00000030: 406a b53d 05a7 873d bcb7 5d3d 99aa 4bbe
00000040: 7324 8cbd 19c2 c33d 20a4 dc3d 1cf5 893d
00000050: 3637 ca3e fa4e 2a3d 8702 2f3e 3aa9 713e
00000060: dedb 28be 9bbc cbbd c155 6c3e e88e 84bd
00000070: 9ad2 f8bd 6407 36be 5669 ce3d cd8d 4d3e
00000080: 526a 0dbd 25ba 203e 7e76 8ebd b6cf 653d
00000090: c299 833e c586 93be 571e 963e bdc4 92be
000000a0: 74d4 b23e ae86 003f 68c1 cebe 3d83 64be
000000b0: 74b5 923e 28ef 763d 3078 f63e 6103 24bf
000000c0: 23b0 12bc 0aec 573d 02fc a9be 69d3 aa3e
000000d0: 8be3 a5bd 636a a6bc e213 48be 483a 33be
000000e0: 6aa6 0f3f 24ca 573e fb71 8bbe 7316 533e
000000f0: 4d90 ac3e df71 9cbe 2971 d63d 07f1 c4be
00000100: 3f15 0d3e ecad 833e f446 48bd 3613 853d
00000110: ae14 bb3c 7831 48be f4ac e73e 83f5 5abd
00000120: cd70 b5bb e95d 703e 0072 cebe 4d88 023e
00000130: e80b afbe e7fb 8b3d eeee 803e 869a bf3d
00000140: 609b 993e 60ff b03d aad6 3cbd 89b8 5cbd
00000150: dfcd 6f3d ab77 b2be 44a6 913e 8ade 96bd
00000160: 249e 29bd f9ed 68bd 1e6c a1be eb41 6bbd
00000170: 8e0c ed3d 0758 8f3c 3973 1abc 5a86 04be
00000180: 398d b53e f1eb 59bd 6106 133f 96c8 f9be
00000190: c5a6 643e 7873 173e b88a 04be cb97 8bbd
000001a0: f31e 813c 0c4a 603e cd86 a03e 19c9 8abe
000001b0: 3eaf d73e d861 a2be 2f7b 503e e929 06bf
000001c0: 71c1 f23c 28d5 ae3e d4b3 b2be f04f 33be
000001d0: b90d 623d f975 7f3e 49fb cf3e 7eaf a4be
000001e0: 6398 acbe 0907 5a3d 01e0 98be 3896 61bd
000001f0: 9d81 17be ca8a c3ba 1412 81be 82af 02be
00000200: daef 5e3e 4520 fdbd b03f 9abe 3d2e 5cbd
00000210: 4c00 9dbb ad6c 00bf 7962 743e c22f 78be
00000220: 9c6c 983d d555 093f ba96 b0bd 2fe1 50be
00000230: 59b2 e33c 4576 bd3d 6c76 e93e 5f22 3cbe
00000240: 1d1a 883d 2ef5 b63c fe84 a0be 4f80 12be
00000250: d159 1cbe 7822 06bd 7c1d f2bd 0e52 b93e
00000260: 0e1f 543e 60ea b63e d652 083e 701a 2f3e
00000270: 0ab1 153d 58f3 fd3d 4388 c6bc e23b 0a3e
00000280: cce3 0e3e 2914 243e 7011 723d 9f8e 93bc
00000290: de45 9a3e 5325 ff3c 8750 02bd 5ccf c33e
000002a0: 7bfa 863e fb20 abbe 3536 a13e e45b b5bd
000002b0: 43e7 0d3d 224e 143e 3fe6 28bd e386 9bbe
000002c0: ca14 983e e197 e7bd f032 d73e c76d 4bbe
000002d0: 1925 803e b4bf 23be 44c5 cc3e 7522 47be
000002e0: 5cc3 9e3e ab6a 333e a06d 40be cd51 82be
000002f0: 32b3 f23e 89ba e13e 3a6b d63d 71da 5bbe
00000300: 3ee9 4a3d da04 f7be 9929 1e3e bfbb 8abd
00000310: 0b4f a03d e845 af3e 78f6 13be a626 57be
00000320: a17e 773e b3ae 50bc 587e eebc 207d 25bd
00000330: 0107 5bbd d1f4 e2bd 0f2f af3d 0bf6 89be
00000340: 97d9 55be 0560 eb3c 615a 84bd 0aa4 903d
00000350: 5cf3 843e f25d 8b3d 03c9 2a3e e366 6d3e
00000360: c13a 933e 61f1 51be b573 c73e 6b01 cfbe
00000370: aa49 353e 231b c83e 15f3 1cbe d4a4 23bb
00000380: 2f2a b03d 13f0 31be 080d 25be 45b3 ab3c
00000390: ca74 dd3e 0320 99bd af04 8dbb f150 5ebe
000003a0: ad9d 1b3d dd96 b43d 2ac3 b2be fe36 6abe
000003b0: 3dff 033e dc34 f13d a60d e53e 70f9 a3bd
000003c0: 66a1 223e 58fb 77be 09ee 873e 065c 6cbe
000003d0: 2ed0 8d3e 72f1 643e d9b7 92be e1e8 a3be
000003e0: 8571 0e3e 0d31 7d3e ed00 123e c739 ffbe
000003f0: 9eb5 dd3e 9972 79be d5af 6b3e f670 19bf

fc.bias f4 [88]
-0.10036894 0.102125615 0.11155302 -0.45727876 0.3439944 -0.08358399 0.10979595 -0.20524499
-0.2049594 -0.08788805 -0.13949153 -0.4381994 0.29634598 0.16052437 -0.32962853 -0.1290458
-0.28667644 -0.32385477 -0.19628856 -0.046311926 -0.08297588 -0.39679986 0.076014474 0.2832656
-0.28090107 -0.013803458 -0.13724174 0.18159823 -0.17756742 -0.2359936 0.06735835 -0.037894454
-0.114863336 -0.06656036 -0.1366991 -0.1989311 0.009148137 -0.18233201 -0.1938005 0.3009171
-0.34966913 0.053327315 -0.31029662 0.052746475 -0.39989173 -0.16787083 0.41021398 0.40384263
-0.0033136657 -0.21042746 -0.3610564 0.06526459 -0.21446508 -0.3640867 -0.11564786 -0.10690819
-0.04220927 -0.35686025 -0.13366088 -0.09277616 -0.094829254 -0.05480677 -0.23614067 -0.24870895
-0.10268179 0.042819735 -0.18084614 -0.42141587 -0.101305634 0.0949709 -0.19157021 0.19171426
-0.31876418 -0.092581235 -0.012475503 -0.005328862 0.004843686 -0.4353048 0.16140907 -0.3364856
-0.2637524 -0.4351234 -0.36929274 -0.34169528 -0.17687447 0.0051705623 0.21609204 0.033074424
00000000: 3b8e cdbd 3c27 d13d e975 e43d 7120 eabe
00000010: 0920 b03e 152e abbd b3dc e03d be2b 52be
00000020: e1e0 51be a6fe b3bd ded6 0ebe ac5b e0be
00000030: a9ba 973e 8060 243e 12c5 a8be 9524 04be
00000040: 41c7 92be 4bd0 a5be deff 48be 93b1 3dbd
00000050: 42ef a9bd 5a29 cbbe 7aad 9b3d 3008 913e
00000060: 44d2 8fbe e627 62bc 1989 0cbe e3f4 393e
00000070: 3cd4 35be 4ea8 71be 2df3 893d 3737 1bbd
00000080: 783d ebbd cc50 88bd d9fa 0bbe 98b4 4bbe
00000090: 11e2 153c 3eb5 3abe a373 46be ce11 9a3e
000000a0: d507 b3be be6d 5a3d 33df 9ebe b00c 583d
000000b0: 9cbe ccbe 55e6 2bbe 9107 d23e 76c4 ce3e
000000c0: 162a 59bb 4c7a 57be 62dc b8be 71a9 853d
000000d0: bc9c 5bbe 9269 babe c9d8 ecbd aef2 dabd
000000e0: a1e3 2cbd 63b6 b6be 66de 08be 6d01 bebd
000000f0: d735 c2bd 107d 60bd dcce 71be 8fad 7ebe
00000100: d54a d2bd bf63 2f3d bb2f 39be d2c3 d7be
00000110: 5479 cfbd 1a80 c23d fb2a 44be be50 443e
00000120: 0f35 a3be 3b9b bdbd 0d66 4cbc bc9d aebb
00000130: c8b7 9e3b 45e0 debe 6b48 253e d747 acbe
00000140: 8e0a 87be 7fc8 debe f013 bdbe aff2 aebe
00000150: 951e 35be d26d a93b 3b47 5d3e 0c79 073d
