NEURAL_MODELS/RNN/hearty-puddle-5.pth (torch, 27079 bytes, 6 tensors)

rnn.weight_ih_l0 f4 [30, 88]
000000 a9 77 30 be c7 07 46 3d 74 78 51 be 9b cc ca 3d
       -0.17233147 0.04834726 -0.20456105 0.09902307
000010 5c 7d 0c be 8d 3a 62 be 04 06 a8 3d 2f 72 f8 bd
       -0.13719696 -0.22092648 0.082042724 -0.12131154
000020 ed 61 de bc e8 38 cd 3c 3b d0 83 bd d7 5e 71 be
       -0.027146304 0.02505155 -0.06436201 -0.23571335
000030 fb 19 b5 3d 8e a6 75 3d f2 42 52 3e a4 36 3a be
       0.08842846 0.059973292 0.2053335 -0.18184906
000040 60 8a 97 3c ce 14 c9 bd 34 89 29 3b fd 8f f6 3b
       0.0184986 -0.09818421 0.0025869133 0.007524489
000050 8a 8e a2 3d 9b 51 cc bd a5 85 3e be b6 b8 e4 bd
       0.079373434 -0.099765025 -0.18605669 -0.11168043
000060 fe c0 70 bd ef 3e 95 bd 38 75 48 be 9e 89 53 be
       -0.0587778 -0.07287394 -0.19575965 -0.20657966
000070 dd d7 c7 bd 67 6f 8c 3d 14 3c 73 bd 1f 35 72 3d
       -0.097579695 0.06857186 -0.059383467 0.05913269
000080 a8 ee dd 3c e6 5e fa bd 6b 51 5c bd 3a 5f 01 be
       0.02709134 -0.12225132 -0.053788584 -0.12633982
000090 cf 42 78 bc e7 3b 0f bd ce 27 5d 3d b9 f2 38 be
       -0.015152647 -0.034969237 0.05399304 -0.18061341
0000a0 7b 58 90 ba 97 00 7f 3c 13 81 60 bd 1a 52 77 3c
       -0.0011012697 0.0155641055 -0.054810595 0.015095258
0000b0 1e bc e3 bd 5c fc 92 3d 8f b9 08 be 53 ee 82 bc
       -0.11119865 0.0717704 -0.13352035 -0.015982782
0000c0 84 0f 82 3d bb cf f7 bd 3e 34 f6 bc 50 c1 0f be
       0.063506156 -0.12100168 -0.030054208 -0.14038587
0000d0 3a eb d6 bd 19 25 f3 bd d4 9a c4 bd 2c 51 5e be
       -0.10494085 -0.1187231 -0.095998436 -0.21710652
0000e0 d3 05 28 be 3d e8 c3 3d 37 c4 2e 3d 8b 71 14 be
       -0.16408472 0.0956578 0.042667594 -0.14496438
0000f0 97 6d 32 3d 94 c5 13 bc 77 d2 43 3d 3c 6c 25 be
       0.043561544 -0.009019274 0.047808137 -0.1615457
000100 12 c5 36 be cd 93 b4 3b 32 f7 9d bd f8 16 70 be
       -0.17848614 0.0055107833 -0.077131644 -0.23446262
000110 70 5b bb 3d c7 3b 52 bd 76 a0 26 3e 27 7c cd bd
       0.091483 -0.05132654 0.16272148 -0.10033446
000120 5f 39 70 bd 4c 45 b5 3d d6 b1 4f ba f3 2e cf 3d
       -0.058648463 0.08851108 -0.0007922923 0.10116377
000130 f9 25 35 3d 3c 55 af 3d 59 59 3a be e3 5d 2d 3e
       0.044225667 0.08561179 -0.18198146 0.16930346
000140 9a e0 be 3d e7 d6 55 be f3 1e ff bd 11 fa 42 3d
       0.09320183 -0.2088276 -0.12457075 0.047601763
000150 e4 fb 5c bd 3e 94 a7 bd 06 70 e3 3d e4 87 22 be
       -0.05395116 -0.08182572 0.11105351 -0.1587215
000160 2c e2 b3 3d 7b 7f 0f 3e e4 a8 99 3d 87 bc 28 be
       0.08783373 0.14013474 0.075029165 -0.16478167
000170 bd 1d 81 bd 21 34 04 3e 3b 65 c4 bd 45 27 d6 bd
       -0.063045 0.1291051 -0.09589621 -0.10456709
000180 10 eb 94 3d 58 15 b5 3d 99 fc 2c 3e a7 50 81 be
       0.07271397 0.088419616 0.16893233 -0.25256845
000190 a6 67 60 bd 9e d1 67 3c 18 69 bc bd 74 b2 a7 3d
       -0.054786347 0.014149098 -0.091997325 0.08188334
0001a0 fd 2d ae bd 98 2a 10 3e 94 0e 12 be 7e 06 89 bc
       -0.08504865 0.14078748 -0.14263374 -0.016726729
0001b0 b9 89 b7 bc 67 d3 0f 3e 61 8c 2e 3e 33 1c 9d 3c
       -0.022404538 0.14045487 0.17045738 0.019178485
0001c0 ea 94 01 be 37 26 e3 3d 32 6a 7e bd 17 68 6a 37
       -0.12654462 0.11091273 -0.062112994 1.3971722e-05
0001d0 03 f3 55 3d c9 2e f6 bd e3 02 de 3d f7 20 04 3c
       0.052233707 -0.12020642 0.10840394 0.0080645
0001e0 ec 41 91 bd ff e0 94 bd 3a db f2 3d 86 42 80 bc
       -0.07092652 -0.07269477 0.118582204 -0.01565672
0001f0 6a 39 f9 bd 91 d2 d9 bd 1b 43 f1 3b ff d6 8b 3e
       -0.12169154 -0.106358655 0.007362736 0.27312467
000200 d9 47 86 be 5b dc 4c bd bb 3d 2d be 1e 79 bb bc
       -0.2622669 -0.050014835 -0.1691808 -0.022884902
000210 6f 78 8f bd 2a d7 20 3d c1 ef bb bd d0 dc ea bc
       -0.07005393 0.039267696 -0.09176589 -0.028669745
000220 45 fa 5b be 2d 2e ae 3d 77 9c f7 bd aa 55 52 3e
       -0.21482189 0.08504901 -0.1209039 0.20540491
000230 54 90 3d 3e 2e c9 e1 bd 16 ba b0 3d 73 48 67 be
       0.18512088 -0.110247 0.08629243 -0.22586231
000240 6c 3a 3c 3e 21 bd 38 bd 51 b7 fc 3d c3 ff 3b 3e
       0.18381661 -0.045102242 0.12339652 0.18359284
000250 a5 83 d0 bd 18 0b 9f 3c 48 31 b5 3d 65 50 78 3d
       -0.10181359 0.01941447 0.0884729 0.060623545
000260 74 0d 60 3e 76 c0 40 3e 5f 98 bc 3d 62 1c f9 3d
       0.21880132 0.18823418 0.0920875 0.12163617
000270 f9 73 f3 3b d5 a7 9a bd 1c 00 25 be 66 31 45 3e
       0.0074295965 -0.07551543 -0.16113323 0.19257125
000280 b7 83 32 3e 47 9e 8f bd c0 16 b8 3d 51 bb d0 3d
       0.17433058 -0.07012611 0.08988714 0.10191978
000290 d3 56 e5 3d d2 40 50 bd c1 18 50 bd 9b d7 a8 bd
       0.11198201 -0.050843067 -0.050804857 -0.082442485
0002a0 3c 92 01 3e 92 8b 3a bd d5 87 ca bd 45 d0 99 3b
       0.1265344 -0.04554326 -0.09889189 0.004694017
0002b0 2d 3b e0 3d 0d ff 1d bc 17 ee b0 bc 08 1c fb bd
       0.10948787 -0.009643328 -0.021597905 -0.12261206
0002c0 34 0a 24 3c 6c 3d 2e be 7f 7f f6 3c 1a bb 1e bd
       0.010012198 -0.17015618 0.030090092 -0.038752653
0002d0 c3 7b 1a 3b e5 92 68 bd 44 cf 1c 3d 45 d9 6b 3c
       0.0023572303 -0.056780715 0.0382836 0.014395063
0002e0 6d 19 b0 3b b8 a8 c7 bd 86 05 1d 3e 5f e3 89 bb
       0.0053741247 -0.097489774 0.15334138 -0.004208013
0002f0 ea fa 09 be d7 03 dd 3d 6b 6b 8a 3c cf 3b ca 3d
       -0.13474622 0.10791748 0.016896924 0.09874689
000300 3e 03 9f 3d ed 23 05 3e 43 70 c8 bd ba fd 20 be
       0.0776429 0.13001986 -0.09787037 -0.15721789
000310 95 b6 54 3e 63 ba c6 bd f5 61 4b 3e 11 c6 75 bd
       0.20772775 -0.09703519 0.19861586 -0.060003344
000320 ac 3b 4f 3e 4d ac 30 be 21 14 b2 3d de 82 9b bd
       0.20237607 -0.17253228 0.086952455 -0.0759332
000330 e4 38 e6 bc f5 4d c0 bd 2c 8a 8a 3c a9 de 2e 3e
       -0.0281033 -0.09389869 0.016911589 0.17077126
000340 6b d6 96 be 1d 66 07 3d e1 18 46 3e 35 ed 6e 3e
       -0.29460463 0.033056367 0.19345428 0.23332675
000350 d1 bb 0e 3e fe 95 1b 3e 01 08 ba bd 14 03 4d 3e
       0.13938834 0.15193936 -0.09083558 0.20020705
000360 2a 85 0b 3e e0 19 00 3e d6 e1 88 3e 11 4a d2 bc
       0.13625017 0.1250987 0.267348 -0.025670083
000370 4a 43 45 3e 69 56 0c 3e 5b 55 70 3e 41 c9 58 3e
       0.1926395 0.13704838 0.2347006 0.21170522
000380 f2 72 63 3d 85 08 5c 3d f7 78 b9 bd 35 8e 9a bc
       0.055529542 0.053719062 -0.09056275 -0.018866638
000390 19 23 3e be cd 64 84 3e 61 a0 99 3d b8 27 01 3e
       -0.18568076 0.25858155 0.07501293 0.12612808
0003a0 12 a4 88 be 2f 89 06 bd b9 eb 22 3e 72 84 31 3e
       -0.26687676 -0.032845672 0.15910234 0.1733568
0003b0 7f 14 06 3e 63 ee 12 bd 9a 50 ac bd 61 e9 af bd
       0.13093756 -0.035871875 -0.08413811 -0.08589435
0003c0 f0 2f 07 bd 4d 65 d3 3c d3 d9 f9 3c cf 95 c2 bc
       -0.0330047 0.02580514 0.030499374 -0.023753075
0003d0 1f fa cf bd d5 2a 2b 3e c3 a4 f0 bd cd 49 55 bd
       -0.10155129 0.16715558 -0.11750176 -0.052072335
0003e0 47 6d f8 3d 10 3d 55 be 9a 1e 1e bd 78 7d 4d 3e
       0.12130218 -0.20824075 -0.038603403 0.20067394
0003f0 91 80 ee bd ac 0a 60 3e 55 21 aa bc fb 54 bb 3c
       -0.11645616 0.21879071 -0.020767847 0.02286767

rnn.weight_hh_l0 f4 [30, 30]
000000 da a0 16 3e 8e 27 2c 3d b9 13 da 3d c1 17 39 be
       0.14709798 0.04202991 0.10648293 -0.18075468
000010 39 17 bc 3d 33 73 b3 3d c5 6c 34 3e a3 cc 69 3e
       0.09184117 0.08762207 0.17619617 0.22831969
000020 61 97 94 3d 94 10 5e bb 4f fb 70 3d 90 58 5d 3d
       0.07255436 -0.0033884393 0.058833417 0.054039538
000030 e7 dc 62 3d 61 ec 4c be 4c eb e5 bd 70 7d 56 3e
       0.05538645 -0.20012046 -0.1122652 0.20946288
000040 46 57 b8 bd c5 b1 5b 3e a8 d7 9c bd 1c 52 3a 3e
       -0.09001021 0.21454532 -0.07658321 0.18195385
000050 73 3d 03 bc 87 d2 0b 3e 94 3d 6a be b5 99 b4 3d
       -0.008010256 0.13654529 -0.22875053 0.0881838
000060 21 b9 f0 bd 01 4a b3 3d bb 71 a3 b9 62 e5 33 bd
       -0.117540605 0.087543495 -0.00031174519 -0.04391993
000070 37 a2 dc bd e7 b9 1f bd be e5 70 be 44 31 86 bd
       -0.107731275 -0.03899565 -0.2352514 -0.065523654
000080 e8 7a 7c bc c6 4a a6 bc db 88 92 bd 02 06 20 3e
       -0.0154101625 -0.020299327 -0.07155009 0.15627292
000090 c2 4b 49 be 42 98 9c bd da e7 19 3d 7e 57 34 be
       -0.19657806 -0.076462284 0.037574627 -0.176115
0000a0 96 8f 00 bd e7 b6 56 3e d8 44 0e 3e d6 93 31 3e
       -0.031386934 0.20968209 0.1389345 0.17341551
0000b0 33 14 00 bd 25 94 1b be 59 49 e7 bc a9 b4 f2 3a
       -0.031269263 -0.15193231 -0.028233217 0.0018516976
0000c0 3c f8 c2 bd 1b db b9 3d 2d a3 5d be 53 38 e1 bd
       -0.09520003 0.09074994 -0.21644278 -0.10997071
0000d0 26 1b 2d bd 78 cf 6b be fb c2 47 3e ca 65 96 bd
       -0.04226222 -0.23028362 0.19507973 -0.073436335
0000e0 a5 71 14 3e 3e 01 da 3c ea a2 e7 3d 3e 86 19 3d
       0.14496477 0.02661192 0.1131037 0.03748154
0000f0 ab f2 5e 3d 8d 83 ca 3c 33 2d f1 3c d8 f9 fc bb
       0.054430645 0.024720931 0.029440498 -0.0077202134
000100 56 d6 3c 3e ba 10 c5 3d 8d 40 4e be 50 fa 67 bd
       0.18441138 0.09622331 -0.20141812 -0.0566352
000110 f5 c5 31 3d 49 3d 24 be 12 1c 8b bd 54 bf 0d 3e
       0.043401677 -0.16039003 -0.06792463 0.13842517
000120 55 c5 6e 3e fe 91 1d 3c 7f b6 eb bd 96 3b 29 bd
       0.23317464 0.009617327 -0.11509418 -0.04131659
000130 58 2a 8e bd 35 eb 02 be 32 10 87 bd 6b dc 63 bd
       -0.0694167 -0.12785037 -0.06594886 -0.05563013
000140 fc 90 22 be 1b 54 81 bd 9d 19 39 3d 14 64 e8 bc
       -0.1587562 -0.0631487 0.045190442 -0.028368033
000150 4e c4 e0 bd 42 4b 4c be 4e 67 ae 3d 1e 15 b5 3d
       -0.10974942 -0.19950584 0.085157976 0.088419184
000160 45 1d f3 3b 45 92 35 be 67 c2 c7 3c 11 ae e5 bd
       0.0074192607 -0.17731579 0.02438469 -0.11214841
000170 d4 92 f8 bc 97 f4 02 3e 48 b4 3c bc 16 2b 8a 3d
       -0.03034345 0.12788616 -0.011517592 0.06746499
000180 81 4b 72 3c e1 88 8d 3b a7 63 69 3e cb c0 29 be
       0.014788509 0.0043192958 0.2279192 -0.16577451
000190 9e 5b 0a be a3 62 33 bd 97 b2 07 3e 6a 6a 47 3e
       -0.13511512 -0.04379524 0.1325172 0.19474187
0001a0 33 6a ef 3d 9c f5 ab bd 0d ba fe bd db 39 e6 3d
       0.11690178 -0.08396456 -0.1243783 0.11241504
0001b0 65 12 35 3d 76 14 98 bd 49 af bc 3d f0 d5 ed 3d
       0.044206996 -0.074257776 0.092131205 0.11613071
0001c0 c2 fa c1 3d 1e 8b 79 bd 68 40 39 3e 2a 37 23 be
       0.094716564 -0.060923688 0.18090975 -0.15939012
0001d0 6c 6b e6 bd ac 0f 9a 3d 0e f0 c8 bd 35 c8 9c bc
       -0.11250958 0.075225204 -0.09811412 -0.019138435
0001e0 e8 69 ed bd 72 2f 45 3e 36 a5 e6 bd 7c f2 85 3d
       -0.11592466 0.1925638 -0.1126198 0.06540391
0001f0 b9 69 3a 3e 3e 7f ec bd d8 4d 88 bc 80 74 0e be
       0.18204392 -0.11547707 -0.016638681 -0.13911629
000200 b0 a4 59 bc 42 e3 95 bd d1 91 21 be 8a 3a d9 3d
       -0.0132838935 -0.073187366 -0.15778281 0.106068686
000210 b0 4b 23 3e 32 17 c6 bc f6 98 c7 bd 67 34 3a be
       0.15946841 -0.024180982 -0.09745972 -0.18184052
000220 02 b1 ae bd 31 97 8e 3d 07 ab 17 3d 1b 74 28 be
       -0.08529855 0.06962431 0.03702834 -0.1645054
000230 09 ee 09 be fe ed 81 3c 9f aa f2 3d 3b cf 4b 3d
       -0.1346971 0.015860554 0.1184895 0.049758177
000240 7f 78 3f 3e bc c0 25 be 72 f8 5d 3e 14 f2 62 3e
       0.1869831 -0.16186804 0.21676806 0.22162658
000250 85 93 d8 3d f6 24 3c be 69 a1 e3 bd 68 90 8f 3a
       0.10575012 -0.18373474 -0.11114771 0.0010953071
000260 9c 75 ae 3d 14 6a 34 3d c2 07 51 3e bd 68 d1 bc
       0.08518526 0.044046476 0.20413116 -0.025562638
000270 19 52 4d be e7 ee 6e bd cc 8d c2 bd f4 87 87 3d
       -0.20050849 -0.058333304 -0.09499702 0.06617728
000280 07 89 1c be c6 e0 4a 3d 62 a2 01 3e 87 f9 82 bd
       -0.15286647 0.049530767 0.126596 -0.0639525
000290 77 98 25 be 00 92 27 be 45 21 ef 3c c3 19 21 be
       -0.16171442 -0.16364288 0.029190669 -0.15732484
0002a0 db 8c 4b bd bc f3 75 3d 45 f1 17 3c 3a 5e d1 3d
       -0.049694877 0.060046896 0.009273832 0.102230504
0002b0 65 43 78 3e a2 44 3b be 16 fa e8 bd bf 46 53 be
       0.24244459 -0.182879 -0.11375825 -0.20632456
0002c0 84 3c d3 bd 28 6a 44 3d cb b4 e6 bd 32 55 6a be
       -0.10314277 0.0479528 -0.11264952 -0.22884062
0002d0 10 2b 3e 3e b7 97 c4 bc 9a ef 37 be 38 e3 a6 3d
       0.18571115 -0.023998125 -0.17962494 0.08148807
0002e0 1e 4c 7b be 09 37 27 be 1b 49 ad bd 21 00 d4 bd
       -0.24540755 -0.16329588 -0.084612094 -0.10351587
0002f0 4a ac fd bc f6 f1 49 bd 7a c1 71 3d 8a a4 2c be
       -0.030965943 -0.049303018 0.059022404 -0.16859642
000300 f0 56 8e bd c6 19 04 be ba 9e d9 bd b6 82 d5 bd
       -0.06950176 -0.12900457 -0.10625978 -0.10425322
000310 b0 5a c2 bd 25 5c 13 bd 29 f7 80 be 41 c6 c2 bd
       -0.094899535 -0.035976548 -0.25188568 -0.0951047
000320 98 25 ea bd 74 27 a6 3d 1a 0d 32 be 63 e6 1e 3e
       -0.11432952 0.08112994 -0.1738781 0.15517573
000330 86 bf cc bd 98 f5 26 3e e5 ce d1 3c 9a fe 05 3b
       -0.09997468 0.16304624 0.02561135 0.0020445944
000340 77 45 fd 3d 75 0a 11 3d 7d a0 29 3e 41 41 60 be
       0.12366765 0.035410363 0.16565128 -0.21899892
000350 b6 38 b7 bd 56 bb 46 be db a7 3f be e7 6d 68 be
       -0.08946364 -0.194074 -0.18716376 -0.22698174
000360 79 a4 d5 bd 79 94 bf 3d 2d 42 b6 bd 2c 28 31 3e
       -0.10431761 0.09354491 -0.08899341 0.1730048
000370 81 d2 6b 3e 05 fc 10 bd c1 27 d5 3d 9b 2f 8e bd
       0.2302952 -0.035396595 0.10407973 -0.06942674
000380 18 e1 7c 3c d6 a3 3a bc 6c 60 55 be 53 60 8e 3c
       0.015434526 -0.011391601 -0.20837563 0.017379915
000390 e1 d2 0b bc 22 8d cd 3d c8 99 4a 3e 19 7b 14 bd
       -0.008534164 0.100366846 0.19785225 -0.036250208
0003a0 96 cc 69 be de 3a 5c 3e d9 58 09 bd dd 5c 60 bd
       -0.2283195 0.21506831 -0.033531997 -0.05477606
0003b0 72 c2 63 be 41 df 8a 3d a5 42 f3 3d 73 73 10 bd
       -0.22242144 0.067808636 0.11877946 -0.03526635
0003c0 b0 1c 79 be 39 c9 48 3e d2 98 36 bd 95 03 f0 3c
       -0.2432735 0.1960801 -0.044579335 0.029298583
0003d0 8b d6 89 3d 5d 49 56 3d fd eb 38 be 87 3c 93 3c
       0.06730374 0.05231606 -0.18058772 0.017973198
0003e0 0c 0c 01 3e 3e e5 23 be da ce f4 bd ba 87 d6 3d
       0.12602252 -0.16005418 -0.11953516 0.104751065
0003f0 d8 70 b5 bd c6 46 04 be 95 6f 7a 3d af 88 0c bd
       -0.08859414 -0.12917623 0.06114157 -0.03431004

rnn.bias_ih_l0 f4 [30]
000000 41 60 f4 bd 30 39 e9 bd 2e 7f 99 bc e0 3f 11 3e
       -0.119324215 -0.11387861 -0.018737402 0.14184523
000010 9a 32 27 bc bb c9 0f 3e 4b 7b 05 be e0 42 ec 3c
       -0.010204935 0.14041798 -0.13035314 0.028840482
000020 b3 8b d3 3d 33 8b 10 bd 98 e9 f4 bd a8 11 2e 3e
       0.1032938 -0.035289 -0.11958617 0.16998923
000030 ff 01 f8 3d a0 1d 71 bd ea 2f 12 3e bd 3b 3a be
       0.12109756 -0.058866143 0.1427609 -0.18186851
000040 4b 5d 51 3e 00 d5 d6 bd 66 49 f2 3d 54 6e 1c be
       0.20445745 -0.10489845 0.11830406 -0.15276462
000050 85 68 f2 bd 27 27 cc bd 30 be 2c 3c 0d 9b 02 be
       -0.11836342 -0.09968405 0.010543391 -0.1275446
000060 66 de 9b ba 01 3f 64 be b4 c0 52 3e c5 6f da 3d
       -0.0011891841 -0.22289659 0.20581323 0.106658496
000070 f7 3b 48 be 97 d3 31 bd
       -0.19554125 -0.04341468

rnn.bias_hh_l0 f4 [30]
000000 c6 69 3e be dd 1f 65 3e e3 89 fa bc 0b 1c 38 3e
       -0.18595037 0.22375436 -0.030583328 0.17979448
000010 dc 71 65 3e b8 dd d5 bd 89 84 f7 bd f2 34 0a be
       0.22406715 -0.1044268 -0.12085826 -0.1349676
000020 e5 9d 7b 3c 4c 65 b4 bd e2 44 65 be db e2 44 3e
       0.015357469 -0.08808383 -0.22389558 0.19227163
000030 f8 c6 58 3d 45 67 90 bc 89 c7 37 be 70 e5 64 bd
       0.052924126 -0.017627368 -0.1794721 -0.05588287
000040 55 91 55 3e a9 79 4b be 30 ef 0e 3d 07 26 30 be
       0.20856221 -0.19870628 0.034896076 -0.17202006
000050 38 13 36 be 21 12 41 bd f0 b8 05 3e 44 d9 12 be
       -0.17780769 -0.04713643 0.1305883 -0.14340693
000060 b9 02 33 3e 13 48 96 3d b8 24 fc 3d 25 49 5a 3e
       0.17481507 0.07337966 0.12311691 0.21316965
000070 cc 4d e6 bd d6 7d 50 be
       -0.11245307 -0.20360503

fc.weight f4 [88, 30]
000000 37 93 9b 3c 25 77 2b bd 1d ad 61 3e b8 23 8e bd
       0.018991096 -0.041861672 0.22038694 -0.069404066
000010 3b d7 0a 3d 29 80 6b bd fd ea e7 3d 09 97 44 3e
       0.033896666 -0.05749527 0.11324117 0.1919824
000020 04 2b 80 3e 91 76 b3 3d 20 df 43 3e c4 83 45 3d
       0.25032818 0.08762849 0.19128084 0.048221365
000030 ff bb 1f 3e 21 c1 a7 bd 07 f7 a6 3d 18 e1 bf 3c
       0.15599059 -0.08191133 0.081525855 0.023422763
000040 37 05 08 3d e9 f0 2b be 5e 5c 76 3b a3 b6 b9 3c
       0.0332081 -0.16791119 0.0037591676 0.022670096
000050 04 9e e2 bd 7b 69 59 3d f6 33 b0 3d 20 e1 03 be
       -0.11065295 0.05307911 0.08603661 -0.12878847
000060 c4 16 19 be 5e 29 80 bc ac a7 eb bd f2 28 b2 bd
       -0.1495009 -0.015644725 -0.1150659 -0.08699216
000070 6a 93 12 3e 92 43 b7 3d 3c c7 12 3e d0 c8 54 be
       0.14314047 0.08948435 0.14333814 -0.20779729
000080 be 61 50 be 66 f3 93 bd 12 d0 57 be 39 cd d7 bc
       -0.20349786 -0.07224159 -0.21075466 -0.026342975
000090 5c 8c bf bd e4 d3 aa bd 9c 02 85 be 87 9c 01 3e
       -0.09352943 -0.08341196 -0.25978553 0.12657367
0000a0 af f9 81 bc 83 01 69 3d 23 64 83 3d 76 d6 c4 bd
       -0.015866129 0.056886207 0.06415584 -0.09611218
0000b0 72 52 e9 bc 7a d7 4c 3e 4e 1e b5 bc fe 75 44 3e
       -0.028481696 0.20004073 -0.022109177 0.19185635
0000c0 bb d0 2b be 12 f8 6b bd 39 c8 25 3e 12 ab e7 3d
       -0.16778843 -0.057609625 0.1618966 0.11311926
0000d0 fa 65 3d be 01 ca 2e 3e c0 fb 47 be e1 46 19 3d
       -0.18495932 0.17069246 -0.19529629 0.03742111
0000e0 86 11 4c bd 79 75 16 bd 40 43 12 3e 97 3a a5 3d
       -0.0498214 -0.036733124 0.14283466 0.08067816
0000f0 60 fc 3d bd 67 f4 3f 3e 27 32 2b 3e a1 ca 36 3d
       -0.04638326 0.18745576 0.1671835 0.044626836
000100 2f 3e 5f 3e 91 08 32 3e 22 5c 67 be 40 c3 14 be
       0.21801065 0.1738608 -0.2259374 -0.14527607
000110 70 7a 73 3e aa 2b 01 bc cb 32 da bd c4 d9 2f 3e
       0.23777175 -0.0078839455 -0.10654219 0.17172915
000120 c4 d5 a1 3c d6 08 5b 3e b5 89 89 bd 6b 08 aa 3a
       0.019755252 0.2139009 -0.06715719 0.001297248
000130 e6 2a 9d 3d 2b c6 4b be ff 31 30 3e ae f6 42 be
       0.07674198 -0.19899814 0.17206572 -0.19039413
000140 98 79 2b bd c8 89 59 3e fd 45 54 3e e0 d3 ae bd
       -0.041864008 0.21243966 0.20729823 -0.08536506
000150 c3 e7 55 3e 68 c2 fa bd 24 68 a9 3c e3 bd 72 3e
       0.20889191 -0.12244111 0.020679541 0.23705249
000160 5f 7e 5e be e2 58 c7 bd aa 78 04 3e 4a 9a 28 be
       -0.21727894 -0.0973375 0.12936655 -0.16465107
000170 5b 63 bc 3d c1 a5 ac 3b c7 81 d9 bc 87 4f c5 ba
       0.09198638 0.005268783 -0.02655114 -0.0015053608
000180 52 56 aa bd d1 1b 2c 3e d2 d6 d7 3c 9d 1a 92 bc
       -0.083172455 0.16807486 0.026347551 -0.017834956
000190 9f 9b 0c 3e eb a5 84 be 6d bf 41 3d a1 83 86 bd
       0.1373124 -0.25907835 0.0473017 -0.06568075
0001a0 b0 01 07 3e a0 64 e3 3d f2 b5 0e be 4c 16 84 3e
       0.13184237 0.11103177 -0.13936594 0.2579826
0001b0 c2 45 b9 3d d6 aa 03 3e 33 ad 4d 3e fd cf c1 3c
       0.09046508 0.12858137 0.20085602 0.023658747
0001c0 b8 06 a5 bc 64 1f 2b 3e 9e 28 97 bd 6a bf 0c bd
       -0.020144805 0.16711193 -0.07380794 -0.034362234
0001d0 e4 ad 32 be e4 48 17 be 7d ab 08 3e c8 da 83 3e
       -0.17449147 -0.147739 0.13346668 0.25752854
0001e0 e7 3a 17 3e 2b 0d 37 be 73 78 0c be f5 3f 02 3a
       0.14768563 -0.17876117 -0.13717823 0.0004968637
0001f0 1d 2b 36 be 97 77 13 be d0 61 98 3d 18 6d 24 3e
       -0.17789884 -0.14401089 0.07440531 0.16057241
000200 b4 a7 36 be 17 b5 7c 3d 2a 63 a8 bd 72 bd ac 3c
       -0.17837411 0.06169614 -0.08222039 0.021086428
000210 3d 88 47 bc 56 63 14 3e fa 2a ab bd a7 f0 92 bd
       -0.012178478 0.14491019 -0.083578065 -0.07174807
000220 d1 88 49 bb 06 ae bd 3c bd 2e a6 3d 8a 9e 39 bd
       -0.0030751715 0.02315427 0.08114383 -0.04531721
000230 eb 3c 50 3e e3 c7 f7 bd 33 8f 17 3e 15 03 26 3e
       0.20335738 -0.12098672 0.1480072 0.16212113
000240 f1 c1 14 be bf 2f 0c 3e aa 3a 77 3c 7f fd b5 3d
       -0.14527108 0.13690089 0.01508967 0.08886241
000250 4f e4 5e 3e 50 0d 09 3e aa 90 bd 3d 47 08 ea bd
       0.2176678 0.13383985 0.09256108 -0.1142736
000260 a6 e5 00 bc 3b 80 cb bd 6d c4 87 3c c9 93 4e be
       -0.007867252 -0.099365674 0.016573155 -0.20173563
000270 21 1d 35 3e 6c c7 07 3d cb 68 dc bc 8a 64 be 3d
       0.17686893 0.033149168 -0.026905438 0.0929652
000280 5d 9c f9 bc ec 28 e9 bb ec aa 1c be 06 11 c5 bd
       -0.030470068 -0.007115474 -0.15299577 -0.096223876
000290 6a b3 89 3e 1c 18 ce 3d 0d a0 b5 3d 54 6b 5e 3d
       0.26894695 0.10063192 0.08868418 0.054301575
0002a0 1b 16 8e 3d 1d dd 44 3e 94 4a 6a 3d 68 f6 95 3d
       0.0693781 0.19224973 0.05720003 0.07322389
0002b0 6e 36 d3 bd 1e 16 00 3e 67 02 0a be f1 9b 76 3e
       -0.10313116 0.12508437 -0.13477479 0.24082924
0002c0 c0 e4 95 bd 1a da d5 bd ba c7 c5 bd bb b6 26 3d
       -0.07319021 -0.1044199 -0.096572354 0.04070161
0002d0 05 ab 85 bd 05 16 8b bc 9c 57 d5 bc 16 25 95 39
       -0.0652676 -0.016978273 -0.026042752 0.00028447126
0002e0 61 eb 14 be c7 8e bf 3c e7 27 9b bd b7 49 1b 3e
       -0.14542915 0.023383511 -0.0757597 0.15164839
0002f0 7e 45 97 bc 8d 03 87 3c 73 00 f3 bd 5a ff 06 3e
       -0.018465754 0.016481185 -0.1186532 0.13183346
000300 32 e0 12 3d 9f a5 c6 bc 00 d1 5e 3c f9 48 a7 bb
       0.03585834 -0.024248896 0.013599634 -0.0051051346
000310 4f d8 9b 3d 14 74 ad 3d 71 a7 c3 3c ed 38 10 bd
       0.07609617 0.08469406 0.023883553 -0.03521054
000320 23 e9 1c 3e 94 61 02 be 28 d1 c1 3c 7a 05 02 be
       0.1532331 -0.12732536 0.023659304 -0.12697402
000330 54 2c f7 3d ef 54 a8 bd 5f 39 e3 bd cf 93 47 bc
       0.12069002 -0.08219325 -0.11094927 -0.012181236
000340 6d bb 09 3e b5 41 8d 3c 29 9b 29 3e 44 d3 d4 bd
       0.13450404 0.017243246 0.16563095 -0.10391858
000350 8c 11 bf bd 22 c1 53 bd 27 d2 6e bd ad f7 96 bd
       -0.09329519 -0.051697858 -0.058305886 -0.07371459
000360 22 03 f0 3d f9 c5 d3 3c 44 cd 30 bc a0 fe 0a 3e
       0.117193475 0.025851237 -0.010791127 0.13573694
000370 75 46 d2 bc 59 37 89 ba 92 ed 51 bd 14 a4 27 bd
       -0.025668362 -0.0010468765 -0.051251955 -0.04092796
000380 4f 9e 9b bc 9b c0 83 3e 54 28 82 be 0a 0d 0e 3e
       -0.018996386 0.25732884 -0.25421393 0.13872162
000390 4e e6 ab bd 7d 57 fe 3c 75 f1 b3 3d 6c 1c 36 be
       -0.083935365 0.031047577 0.08786289 -0.1778428
0003a0 68 9f cb bd 3c 8b 3f 3d 9e ff 2e be 8a 30 18 3e
       -0.09942514 0.046763644 -0.17089698 0.14862266
0003b0 8c e0 07 be 4b a5 f0 bb 1f 4a 12 bd 60 7a de 3d
       -0.13269252 -0.007343923 -0.03571522 0.10863185
0003c0 f4 15 1d 3d cb f6 17 be fe 80 e1 3d 34 50 53 be
       0.038351014 -0.14840238 0.110109314 -0.20636064
0003d0 d8 9e 77 be f4 e0 5a be 58 96 ea 3d 46 2f ea 3d
       -0.24181688 -0.21374875 0.11454457 0.11434798
0003e0 04 4a 6d be 95 f5 f9 3d 99 bf e5 3d 40 c8 5e be
       -0.23172766 0.12205044 0.11218185 -0.21756077
0003f0 33 ec 3a be 5e e6 2f be 93 db 2f 3e ec 58 12 3e
       -0.18254165 -0.17177722 0.17173605 0.14291734

fc.bias f4 [88]
000000 64 25 38 be 9a 5a b4 bd 21 ab 2d bd 1e 91 d4 bd
       -0.17983013 -0.088063434 -0.04239953 -0.103792414
000010 99 09 33 3d 57 4d 21 bd 42 13 12 3e 82 d1 83 bc
       0.043710325 -0.039380398 0.14265159 -0.016091112
000020 e2 5a 90 bd c9 f3 11 3e 8f 9c b4 bd f9 1c 5c be
       -0.070485845 0.14253153 -0.08818924 -0.21495427
000030 f3 c4 89 bd 2e 4a d3 bd d4 e6 33 bd 23 0e e9 bd
       -0.06727018 -0.10316883 -0.043921307 -0.113796495
000040 09 66 15 3e 7f 8c 57 be 22 8c c9 3d 81 16 82 3d
       0.14589705 -0.21049689 0.09841181 0.063519485
000050 1c 93 55 be 45 8d a0 bd 9f b6 b4 bd d9 77 5b be
       -0.20856899 -0.07839445 -0.08823895 -0.21432437
000060 2a 8c 69 be bc 90 af 3d ce a7 e6 3b 79 a5 8d bd
       -0.22807375 0.08572528 0.007039047 -0.06916327
000070 94 4c 89 3d 32 7b 45 be f0 4c 80 be 89 3e 6a be
       0.06704059 -0.19285277 -0.250587 -0.22875418
000080 dc 87 98 bd b8 c5 8f bd d0 9a 17 be 5d 9b e4 3b
       -0.07447788 -0.07020134 -0.1480515 0.0069765286
000090 5b 65 0e 3c 77 07 d0 bb 37 97 17 3d d3 82 a7 3c
       0.008691157 -0.006348546 0.037009444 0.020448124
0000a0 b8 c8 35 bd e6 83 62 be 9a db b3 bc 8e 85 44 be
       -0.044380873 -0.22120628 -0.0219553 -0.19191572
0000b0 9c f1 82 bd 06 61 d1 3c 25 64 d2 bb e9 d4 78 bd
       -0.063937396 0.02555896 -0.0064206296 -0.060749922
0000c0 c4 ae fa 3d ef b4 4f bc 2b db 40 3d 4c 78 bf bb
       0.12240365 -0.012677415 0.047084015 -0.005843198
0000d0 77 c6 79 3c 52 41 b1 3d 46 c6 01 3d f9 83 6f be
       0.015245072 0.08655037 0.03168323 -0.23390187
0000e0 b9 66 ea bd 2f 91 4a be bf b8 6a be 60 fd 27 3e
       -0.11445374 -0.19781946 -0.22922038 0.16405249
0000f0 cc 9e 34 3d c4 df 02 3d 7f ba 04 bc db 77 49 3d
       0.044096753 0.03195168 -0.008101105 0.04918657
000100 f4 ff 35 3e 4f d7 2e bd f8 06 fa bd 34 8a 8b 3d
       0.1777342 -0.042685803 -0.122083604 0.068134695
000110 d9 ba 5a be 75 36 9c 3d 07 ec 68 be 2f 68 a1 3c
       -0.21360339 0.07627574 -0.22746287 0.019702999
000120 cc f7 3d bd 9c 9c 70 bd 2f e6 1d be 70 5e 03 3e
       -0.046378896 -0.058743104 -0.1541984 0.12828994
000130 ba 2f ff bd f3 87 4f 3e 43 83 23 3d 83 05 34 be
       -0.12460275 0.20266704 0.039920103 -0.17580228
000140 21 4e d6 3c fe 44 3f 3c 4c 39 fe bd 7c 79 1d bd
       0.026160302 0.011674164 -0.12413272 -0.038445935
000150 f7 59 b1 3c 34 29 07 be b4 7c f8 bd bc 90 a3 bb
       0.021649344 -0.13199311 -0.1213316 -0.004991619
