NEURAL_MODELS/RNN/lilac-microwave-6.pth (torch, 4103 bytes, 6 tensors)

rnn.weight_ih_l0 f4 [12, 17]
000000 20 7d 94 bf de 1c 45 3e e5 27 29 bf bc 53 8a 3f
       -1.1600685 0.19249293 -0.660765 1.0806804
000010 ef f9 1b bf 67 40 02 bf 94 d0 41 3f 6a 36 9b 3e
       -0.60928243 -0.5087952 0.7570889 0.30314952
000020 66 39 24 bf 46 22 2c 3f a0 ea 53 bc a1 3d 14 bf
       -0.64150083 0.672398 -0.012934357 -0.5790654
000030 67 9c 1b bf 03 f7 1c 3f 28 70 8b 3e 8f fd 8a 3e
       -0.60785526 0.6131441 0.27234006 0.27146575
000040 ee 7c 74 3f 25 f9 a0 3e e6 b3 68 3f 5f 3a 53 bf
       0.9550313 0.31440082 0.90899503 -0.8251094
000050 65 91 9e 3f 52 2f ed 3e 9e 78 57 bf a1 89 8f bd
       1.2388121 0.46325165 -0.8416842 -0.070086725
000060 57 89 dc 3e 13 0e 4f 3f b2 5d 8a bf c8 f2 6c be
       0.43073532 0.8088085 -1.0809844 -0.23139489
000070 c3 2a 76 3e fb 18 18 3f b3 2e 83 be 56 37 b1 be
       0.2403975 0.5941312 -0.25621566 -0.3461253
000080 f2 e0 82 bf 46 42 a7 be d6 21 7c be 22 15 57 bf
       -1.0224898 -0.3266775 -0.24622282 -0.8401662
000090 2a 59 67 3e 64 4c 6d 3f 37 9b 9a be de 6e a8 be
       0.22592607 0.9269469 -0.30196545 -0.32897085
0000a0 cb 36 6c bf 1f b0 69 be b1 bd 16 bf ff e0 5a be
       -0.9227111 -0.22821091 -0.58883196 -0.21374892
0000b0 2c 02 50 bd 67 0f fd 3e ae 21 8c bf cd b8 47 bf
       -0.05078332 0.49425814 -1.0947778 -0.7801636
0000c0 60 6d 74 be a7 5a 83 be e2 19 a3 be 91 1d a1 3e
       -0.23869848 -0.256551 -0.31855685 0.3146787
0000d0 a1 3a 1b bf 63 78 0c 3f 8b 0b 42 bf e2 9e 56 bf
       -0.60636336 0.54871196 -0.75798863 -0.83836186
0000e0 1d 15 15 bf 24 91 09 bf 9b 3d 8d 3e 70 37 4a bf
       -0.5823534 -0.5373709 0.27586064 -0.7899084
0000f0 d0 0c 1d bf 90 1d e2 3c a5 f9 0f 3f 0a 82 2f bf
       -0.61347675 0.027601987 0.562403 -0.685578
000100 f3 3b 86 3e 9f 69 50 3f 5a 3a 1f 3f b2 53 0b 3f
       0.26217613 0.81411165 0.6219841 0.54424584
000110 aa 03 55 3f 97 72 b2 be ec 60 6a 3e 93 ec 53 be
       0.83208716 -0.3485305 0.22888535 -0.20695715
000120 1f 80 92 be 8e 25 1c 3f d7 27 85 3f 5a e2 7d 3f
       -0.28613374 0.60994804 1.0402783 0.9917351
000130 96 92 1f 3f e0 48 3d 3f 39 a5 4d be 8f 1d 48 3f
       0.6233305 0.73939323 -0.20082559 0.781701
000140 40 c1 2e 3f 7e 72 37 3e f6 ff 46 bf 5d d1 d7 be
       0.68263626 0.17914769 -0.77734315 -0.4215192
000150 b8 1a 25 3f c9 17 2a bf 51 9f b5 be 13 83 ec bd
       0.64493895 -0.66442543 -0.3547311 -0.11548438
000160 d2 1a f2 3e f2 61 53 3f 1f 61 06 3f aa b4 89 bf
       0.47286087 0.8257133 0.52491945 -1.0758259
000170 f9 e4 bd be 42 e5 a6 be 3a 95 4d 3f d0 20 90 bd
       -0.37088755 -0.32596785 0.80305827 -0.070375085
000180 8b 46 9c be 25 fd 20 3f df 3d ad be bf 93 ec 3d
       -0.3052257 0.6288627 -0.33836266 0.11551618
000190 d1 e8 59 be 71 03 4f bf a7 1e b3 3c 40 54 3b bf
       -0.21280219 -0.80864626 0.021865202 -0.7317543
0001a0 f2 57 1d 3f b8 5c 11 3d a7 c0 97 3e 4a c0 55 bf
       0.6146232 0.035488814 0.2963917 -0.83496535
0001b0 52 f2 86 bf 2c ac 46 be 56 6d 3c bf c5 3b c9 be
       -1.05427 -0.19401616 -0.73604333 -0.39303413
0001c0 10 f8 8a be 0c c7 df 3e f6 0b 99 bf bd e5 41 3f
       -0.27142382 0.43706548 -1.1956775 0.7574118
0001d0 73 6d 93 3e ad c5 8e bf 28 24 6a 3f 24 63 b1 bb
       0.2879444 -1.1154076 0.9146142 -0.00541343
0001e0 72 88 35 bf b1 0d 20 bf 62 a6 10 3f 6d df 8c be
       -0.70911324 -0.6252089 0.5650388 -0.2751421
0001f0 02 6b a5 3d d0 ef 86 bf d9 e4 6c 3f 6d 16 5f 3d
       0.08077051 -1.0541935 0.92536694 0.054464746
000200 6e f9 42 bf a0 a1 86 bd d2 d7 ac 3d 1c 3c 56 3f
       -0.7616185 -0.06573796 0.08439602 0.8368547
000210 1b a0 70 bf ba de 04 3f 64 b8 44 3f ae e0 23 bf
       -0.939943 0.51902354 0.7684386 -0.6401471
000220 24 5b 75 bf 6f fc 35 be 3f a0 06 bf c4 2b 60 3f
       -0.95842195 -0.17772077 -0.52588266 0.8756678
000230 1d 28 90 3f bb 41 41 bf fc 05 29 3f 7a d2 95 bf
       1.1262242 -0.7549092 0.66024756 -1.1704857
000240 1b dd 90 3f 3a a4 9b 3d 34 3e e0 3d ca 8b f1 be
       1.1317476 0.07599683 0.10949364 -0.47176963
000250 9d 78 7d bf dd ca 4d bf 38 bb d0 3e 44 d6 1a bf
       -0.99012166 -0.8038767 0.40767837 -0.60483193
000260 cd a7 28 bf d5 be b9 be 11 5a db 3e 3e 21 07 bf
       -0.65881044 -0.36278406 0.42842153 -0.527851
000270 14 6d d8 3e a8 5a 04 be 35 f4 6f bf 0d 23 84 3f
       0.4227072 -0.12925208 -0.93732005 1.0323197
000280 76 71 07 bf 9c 2e e4 3e 25 69 98 3f 20 47 95 3d
       -0.529075 0.4456681 1.1907088 0.07288957
000290 df 2a 02 bf 87 2d 5d bf 22 f5 fe be ff fd c0 3e
       -0.50846666 -0.86397594 -0.49796396 0.37693784
0002a0 7b 08 83 3f 87 3d 9f be 10 8b 2e bf b5 65 18 3f
       1.0236963 -0.3110163 -0.6818094 0.5953019
0002b0 ef 39 0d 3f 2c cb 93 3e 13 52 5a 3e f0 5c 89 3e
       0.55166525 0.28865945 0.21320371 0.26828718
0002c0 8b 34 18 3f 63 98 0e bf e7 d8 77 3e 84 80 69 bf
       0.59455174 -0.55701274 0.24203835 -0.91211724
0002d0 00 20 76 3b ee cf 1f bf f6 b4 79 be c4 aa 48 3f
       0.0037555695 -0.6242665 -0.24385437 0.7838557
0002e0 43 03 63 bd 3e 17 83 bf 3d 59 13 bf a2 f7 b9 be
       -0.055423032 -1.0241468 -0.5755804 -0.3632174
0002f0 b9 6a 3c 3f c6 d2 06 bf 4c a0 40 3f 03 ac 3a 3f
       0.73600346 -0.52665365 0.75244594 0.7291872
000300 00 54 25 3f af d8 41 3f a5 27 bf 3e c0 8e 26 3f
       0.645813 0.7572126 0.37334934 0.6506157
000310 1c 33 30 be f4 d6 7e be e7 0b de 3e a8 76 3a bf
       -0.17206997 -0.24886686 0.43368456 -0.72837305
000320 62 37 81 3f 5c 0c 37 bf 81 3c 3d bf 61 71 91 bf
       1.0095026 -0.71503234 -0.73920447 -1.1362725

rnn.weight_hh_l0 f4 [12, 12]
000000 40 02 4c be f3 27 6e bf 73 80 39 3f fc 48 8b 3f
       -0.19922733 -0.9302971 0.7246162 1.0881648
000010 3a 70 0f bc 17 71 24 be 3c a0 05 3f fd 55 49 bd
       -0.008754784 -0.16058765 0.52197623 -0.04915427
000020 c8 2c ba 3e d4 15 ab bc d1 13 99 be 31 2f ba 3e
       0.3636229 -0.020884432 -0.2989793 0.3636413
000030 b7 3e 0a 3f 2b a3 40 3f 43 51 0a be 0c 2d 0f bf
       0.54001945 0.75248975 -0.13507561 -0.5592811
000040 b1 7b ae 3d 2c 9c 25 3f de 16 2d 3e 42 32 5d 3f
       0.08519686 0.64691424 0.16903254 0.8640481
000050 36 53 3c bf 39 b5 e5 be 75 0b ef bd 2f 2d 83 be
       -0.7356447 -0.44864824 -0.11672107 -0.2562041
000060 59 4b dc 3e 5b 32 bd 3d d1 d8 ed bd 00 09 08 3f
       0.43026236 0.0923812 -0.1161362 0.5313873
000070 6a 45 ec be de f2 8a 3e e5 d0 e4 3e ed 20 4e be
       -0.4614671 0.27138418 0.44690624 -0.20129748
000080 d6 f3 35 3f fe 7f 11 bf d8 9d ec be 22 80 e9 be
       0.7107519 -0.56835926 -0.46214175 -0.4560557
000090 af 65 ae bd 16 d8 1f 3f 30 2f bb bd 91 7f 1e bf
       -0.08515488 0.62439096 -0.0913986 -0.619134
0000a0 65 85 1f bf 85 f7 21 3f 65 d1 e7 be 80 26 09 be
       -0.6231292 0.6326831 -0.45276943 -0.13393593
0000b0 f8 88 47 3f a8 3a b1 3d 0a c2 14 3e 98 1e 00 be
       0.7794337 0.08653766 0.14527145 -0.1251167
0000c0 a9 6f 68 bf c5 ab 68 3f 0a e8 d7 bd 68 22 b1 3e
       -0.9079538 0.908871 -0.10542305 0.34596562
0000d0 9b 55 6f 3e a4 95 64 be ff 4d d0 3d e6 05 27 3f
       0.233725 -0.22322708 0.101711266 0.65243375
0000e0 a8 5b 04 3f 57 d2 56 be 60 78 8b be 81 84 00 3f
       0.51702356 -0.20978676 -0.27240276 0.50202185
0000f0 20 0a 80 3e 66 2a 17 bf 97 00 8a 3e f2 a8 0b 3f
       0.25007725 -0.5904907 0.26953575 0.54554665
000100 45 df b9 3d d2 c7 31 3e 64 e6 b3 bd 41 b4 c8 be
       0.090757884 0.17361382 -0.08784178 -0.39200023
000110 cc 10 01 3f 49 52 84 bf ef 78 5c 3e 34 53 6e 3c
       0.50416255 -1.0337611 0.21530508 0.014546204
000120 b1 3e 06 bf 41 9c 09 be b4 e7 01 be 36 38 17 be
       -0.5243941 -0.13438512 -0.12686044 -0.14767537
000130 7b 8c b7 be a3 09 d5 be 59 12 89 3f ab d1 34 3e
       -0.35849366 -0.41608915 1.0708724 0.17658107
000140 82 1b 94 3f b7 7b 0d bf 7e fc 33 3e 20 76 6e bf
       1.1570895 -0.552669 0.17576787 -0.93148994
000150 d7 81 6d 3f 56 64 4f bf 83 f1 f1 3d 9a 0f f5 3e
       0.92776245 -0.81012475 0.11813643 0.47863466
000160 17 2e 03 3f 62 04 18 be a2 55 d8 3d 11 75 e5 be
       0.512422 -0.14845422 0.10563208 -0.44815877
000170 9c d0 5d bf a8 49 51 3f 47 c1 d1 be 0c eb 6b bf
       -0.8664644 0.81753016 -0.4096777 -0.9215553
000180 4e f3 07 be c5 13 56 bf d5 5a c7 be 30 9c c2 be
       -0.13276407 -0.83623916 -0.38936487 -0.38009787
000190 63 36 65 3e 57 a9 76 3e 06 1d 18 3f b7 03 60 bc
       0.22384028 0.24088036 0.59419286 -0.013672761
0001a0 d2 50 ab 3e af bd 31 3f 28 0b 76 3f 1d fb 07 3f
       0.33460099 0.6943006 0.96110773 0.53117543
0001b0 90 b9 83 bf 2d 67 ec 3e 8f 28 00 be b7 db b4 3e
       -1.0291004 0.46172467 -0.12515472 0.3532388
0001c0 b9 a0 10 3e f2 c0 39 bf 61 60 02 be 07 c0 34 3f
       0.14123811 -0.72560036 -0.12732078 0.7060551
0001d0 3e cd 26 bf e6 b0 99 3e df 14 ed be 46 9b 67 bf
       -0.65156925 0.30017775 -0.46304986 -0.90471303
0001e0 23 4d b9 be 7c 67 85 be dc d2 e7 bd 84 25 a1 3e
       -0.36191663 -0.26055515 -0.11319515 0.31473935
0001f0 84 e6 c8 3e 65 c6 24 bf 6c 97 f5 3e 80 cf 43 bf
       0.3923837 -0.64365226 0.47967088 -0.76488495
000200 7b 55 26 bd 51 03 05 3e 05 fa d8 3e 4f 2c c4 3e
       -0.040608864 0.12989546 0.4237825 0.38315055
000210 48 e8 13 3f d2 df 2f 3f 13 2a 18 bf 57 e8 e2 be
       0.5777631 0.687009 -0.594392 -0.44317886
000220 86 ad 2f be 0c 10 bc 3d 68 7f 56 3d 13 f7 06 3f
       -0.17156038 0.09182748 0.052367598 0.52720755
000230 12 a3 b0 be f1 01 34 bf 8c 46 63 3f c3 8d b4 3e
       -0.34499413 -0.7031546 0.8877952 0.35264406

rnn.bias_ih_l0 f4 [12]
000000 ce 12 d6 3e 2a 7a 92 3e b5 d9 fe bd 9c a8 6c 3e
       0.41811222 0.2860883 -0.12443868 0.23111194
000010 b3 1b df 3e fc 50 d9 be 53 f6 5f 3e e2 f9 93 be
       0.4357582 -0.424446 0.21871309 -0.28901583
000020 d7 95 ec be 10 0f bb bc a6 7d a6 be eb c4 a3 3e
       -0.4620807 -0.02283433 -0.32517737 0.31986174

rnn.bias_hh_l0 f4 [12]
000000 70 f7 84 3e 05 cf 40 3e bb ea c9 be e3 8f 80 3b
       0.2597003 0.18828972 -0.39436898 0.0039234026
000010 2a da b5 3e f5 96 d1 be 26 21 c9 3d 66 2e 35 be
       0.35518008 -0.40935484 0.09820776 -0.17693481
000020 46 75 9e be dc 50 b4 be 28 74 01 bf d2 e4 75 3e
       -0.30948848 -0.3521794 -0.50567865 0.2401307

fc.weight f4 [17, 12]
000000 d8 56 08 3f 06 ce 82 3f 0d 98 06 3f 0c 34 53 bf
       0.53257513 1.0219123 0.5257576 -0.8250129
000010 15 6e 74 bf 19 e6 8e 3f 35 6c 87 3f cd b6 07 3f
       -0.9548047 1.116397 1.0579897 0.53013307
000020 28 d5 50 3f 38 c4 2c bd 07 97 0a 3f 46 24 cd 3e
       0.8157525 -0.042179316 0.541367 0.40066737
000030 ef 90 0d bf b0 3e 89 3f f2 c3 2c 3e 0e f0 5e 3f
       -0.55299276 1.0722256 0.16871622 0.87085044
000040 a0 f6 3f 3f 9b 41 00 bf a5 3d 03 3e dc d1 0a bf
       0.74985695 -0.50100106 0.12816484 -0.5422647
000050 84 58 62 bf 45 a6 76 bf f7 00 92 bf 1e 73 4d 3d
       -0.88416314 -0.9634746 -1.1406544 0.050158612
000060 fa 9c 24 3f c2 88 7f 3f 44 c1 05 bf 06 b7 61 bf
       0.6430203 0.9981805 -0.52248025 -0.88169897
000070 da ae 5e 3f e2 7b 78 bf 46 af 3b bf df 40 6f bf
       0.8698555 -0.9706403 -0.7331432 -0.9345836
000080 23 c7 15 3f 83 2e 3d 3f 0d 79 81 3c 40 d5 62 3f
       0.58506984 0.73899096 0.015804792 0.88606644
000090 56 f5 26 3d 31 38 42 bf 20 46 1f bf 3b 3c 3e 3f
       0.040761314 -0.7586699 -0.6221638 0.74310654
0000a0 b1 58 69 3f 79 24 86 bf 56 cb 12 3f da df 24 bf
       0.9115096 -1.047988 0.57341516 -0.6440407
0000b0 f6 c8 c9 be 75 9c 10 bf d8 9b 31 3f 63 7f 16 be
       -0.39411134 -0.56488734 0.69378424 -0.14697032
0000c0 95 c8 0c bf 45 f8 71 bf 04 a5 53 bf 4a ef a1 bf
       -0.54993564 -0.94519454 -0.8267367 -1.265115
0000d0 c0 89 34 3f 9c ba 9c 3f 56 c9 4a bf c1 26 61 3f
       0.7052269 1.2244449 -0.79213464 0.8794976
0000e0 59 f7 92 bf e4 70 94 bf e7 2b 4a 3f f7 c6 fa be
       -1.1481735 -1.1596951 0.7897324 -0.48979923
0000f0 9a 0d 77 be 39 5a 4f bf 83 1c 8a 3f 24 ca 51 3f
       -0.24126282 -0.80997044 1.0789951 0.8194907
000100 60 28 2f 3e 44 19 10 3f 81 e7 68 3f d0 d0 4c bf
       0.17105246 0.5628855 0.90978247 -0.8000612
000110 9e a9 4a bf 2c 65 20 bf 8d 3a 5d 3f ef 1b 83 3e
       -0.79165065 -0.62654376 0.86417466 0.2560725
000120 71 3c 46 3f ec 9b 85 bf 52 9a 8c 3f 43 d1 6e bf
       0.77435976 -1.0438209 1.0984595 -0.9328806
000130 da 50 ae bc 7c 31 69 3f cb 08 04 3f c6 f8 05 be
       -0.021278787 0.9109113 0.51575917 -0.13083181
000140 e8 09 7d 3f 65 1d 42 3e 8f 2e 0e 3f b1 8d 0f be
       0.9884324 0.18956526 0.5553979 -0.14018895
000150 a1 ed f7 3e bd 14 57 3f b1 6b 94 3f 21 4d 4c bf
       0.48423484 0.8401602 1.1595365 -0.7980519
000160 19 ec 8b be 36 05 e2 3e 5a 1d 1e 3e 94 54 77 3f
       -0.27328566 0.441446 0.15440884 0.9661343
000170 1d e9 b2 bd 44 8d 12 3f 1f 9d c2 3e 36 8f b8 3c
       -0.08735869 0.57246804 0.380105 0.022529226
000180 88 49 61 bf 89 bb 6c 3f 80 24 8f 3d c1 76 11 3f
       -0.88002825 0.92473656 0.06989384 0.5682183
000190 03 f8 81 bf ce 34 f0 be 43 ac 7b 3f f4 d1 2b 3f
       -1.0153812 -0.46915287 0.98309726 0.6711724
0001a0 ee 72 7e 3f 64 d9 94 3e cd 84 21 bf 86 db b4 be
       0.9939412 0.29072106 -0.6309326 -0.35323733
0001b0 0b 99 a7 3e 7f ad 80 3f 82 52 ca bd f5 11 5c bf
       0.3273395 1.0052947 -0.09879018 -0.859649
0001c0 13 dc 73 bf 4d 22 43 bf f7 e9 70 bf 35 a1 6e 3f
       -0.9525768 -0.76224214 -0.94107 0.9321473
0001d0 b3 09 52 bd 8f 15 1a bf 87 f5 74 3f d0 59 43 3f
       -0.05127878 -0.60189146 0.95687145 0.7630892
0001e0 73 60 81 3f b8 33 43 bf c8 72 35 bd 78 b6 09 3e
       1.0107559 -0.7625079 -0.044298917 0.13448513
0001f0 57 35 54 bf b8 c4 b0 bd 23 b3 2d bf 49 07 41 3f
       -0.8289389 -0.08631271 -0.67851466 0.7540174
000200 2c 61 8d 3f bc 61 3e bf fa 42 18 3f b5 f7 8b bf
       1.104528 -0.7436788 0.594772 -1.0934969
000210 f9 b9 76 bf 75 d7 41 3f b6 d0 2e be 65 47 5a bf
       -0.9637752 0.75719386 -0.17071804 -0.8526519
000220 a3 d9 79 bf ff bf 9e 3f 09 44 bf bd ac 75 2a 3f
       -0.9759771 1.2402343 -0.093391486 0.66585803
000230 85 79 54 3f 90 7a 58 bf bb 5f da 3e 3d 31 a0 3e
       0.82997924 -0.84562016 0.42651162 0.31287566
000240 b7 49 74 bf 88 b4 2d be ba 9d e1 bd 53 86 21 3f
       -0.9542498 -0.16963398 -0.11016412 0.6309559
000250 61 f7 53 bf 9d 30 57 3f ed 87 14 bf c3 3c 9f bf
       -0.82799345 0.84058553 -0.58019906 -1.2440418
000260 6e c3 8c 3f 95 52 78 bf 6f ab ac be 2a dc ff 3e
       1.099714 -0.9700101 -0.33724543 0.4997266
000270 95 84 92 bf df 63 67 3f f9 e1 c3 be f3 12 85 3f
       -1.1446711 0.90386766 -0.3825834 1.0396408
000280 6f fb 82 bf 9f f9 32 bf 41 fe eb be ac 73 4f 3f
       -1.0232981 -0.6991214 -0.46092418 0.81035876
000290 0c 72 53 bf 8a 3b be bd 3f da 31 3e e2 30 fa bd
       -0.82595897 -0.092887 0.1736841 -0.12216355
0002a0 a7 14 82 3f 56 91 90 bf b7 52 4c bf d7 25 be be
       1.0162553 -1.1294353 -0.7981371 -0.37138245
0002b0 4f 87 3b 3d 07 01 34 bd 97 23 a0 be f6 0e 2b 3f
       0.045783337 -0.043946292 -0.31277153 0.66819704
0002c0 14 34 0f bf f6 8f 9c 3f 2a f3 86 bf 9d e9 09 bf
       -0.5593884 1.2231433 -1.0542958 -0.5387209
0002d0 47 7e 13 bf 7b 59 d9 be 46 6d 3a 3f a2 ab 91 3e
       -0.5761456 -0.4245108 0.7282299 0.28451258
0002e0 d1 bd 0a bf 39 77 37 3f 54 4d 09 3f 90 2c 47 3e
       -0.54195887 0.71666294 0.5363362 0.19450593
0002f0 3b fc 8e 3d be e5 ba bd 4e ed f0 be 1e be 48 be
       0.06981703 -0.09125851 -0.4705605 -0.19603774
000300 8d 4c 90 bf ba 89 39 bf dc de e3 3d f9 ce 83 3e
       -1.1273361 -0.7247578 0.111264914 0.25743845
000310 68 85 9f 3e a2 7a 8e be e9 dd 1f bf 79 78 5f bf
       0.31156468 -0.27827936 -0.62447983 -0.872932
000320 cb 29 1c bf 91 42 43 3f 83 a0 56 3f 89 8f 85 bf
       -0.6100127 0.7627345 0.8383867 -1.0434428

fc.bias f4 [17]
000000 8f 7b 2d bf 2a fd 15 bd 6e 53 8d 3e aa 9d 78 3e
       -0.6776666 -0.03661839 0.27602714 0.24278894
000010 3d 1b b5 bd 26 d7 1d bf 0d ed 78 be 7c bd 27 bc
       -0.08843086 -0.61656415 -0.24309178 -0.010238048
000020 6f 9c 89 bc 52 ec eb bd 56 85 f6 be be ce 47 bf
       -0.016798226 -0.11519684 -0.48148602 -0.7804984
000030 88 c9 64 3d 92 ff d5 bd 22 88 14 3f c1 bb dd be
       0.055856258 -0.10449137 0.5802022 -0.43307307
000040 f7 23 b0 be
       -0.3440244
