NEURAL_MODELS/RNN/lyric-durian-7.pth (torch, 4103 bytes, 6 tensors)

rnn.weight_ih_l0 f4 [12, 17]
0.3464225 0.636837 -0.63289064 -0.51934546 -0.8072461 0.63465685 0.87388307 -0.09204081
0.47076878 -0.0041373987 -0.63727033 -0.76465094 -0.3064315 0.15542334 -0.07203541 0.5341239
0.6073288 -0.92282957 -0.56254333 0.2936681 0.67823464 -0.34195247 -0.9394903 0.5122678
0.037213713 0.6379471 0.5382555 -0.2343323 0.39309767 0.5353012 0.22582144 0.5505635
-0.7967588 -0.7027416 -0.6580288 -0.33903864 -0.06793177 0.5695438 0.90108174 0.22215575
0.2678474 0.18562734 0.039682925 -0.5799729 -0.89297736 1.0969485 -0.5308154 0.40210813
0.899827 -0.2584572 0.5071649 -1.1173652 -0.7116194 0.30001724 0.33982545 -1.0333896
0.05773641 1.1526562 0.13984203 -0.16199063 0.754829 -0.6230767 0.12980907 0.17535637
0.5300548 -0.7253567 0.01634341 -0.050594386 0.8750872 0.24325432 -0.44071642 -0.5799057
-0.7945097 1.022022 0.36073503 0.2495696 1.0404743 -0.32461712 -0.9887427 -0.7076671
0.8112045 -0.2094735 0.5335665 0.9529786 1.0149913 0.8899467 0.7396795 0.47520995
-0.65014404 -0.59841806 -0.93116707 -1.0211816 -0.1975503 0.8625828 -0.6012672 0.286847
-0.111965664 0.7985939 0.5588905 -0.032236643 -0.36984685 -0.1087014 -0.71465164 -0.49101132
0.42144153 1.0753708 0.632095 -1.0362376 -0.5868138 0.13142854 0.5171853 0.08049085
-0.8522843 0.9121017 0.54901934 -0.5842705 -0.16388771 -0.9790649 0.72457427 0.7866308
-0.9106314 -0.3631275 0.70100397 -0.7422895 -0.78605896 -0.7129059 -0.051465586 0.3658491
-0.63773143 -0.04554358 -0.5499139 -0.27865216 -0.8103938 0.693328 0.2632118 -0.49981633
-0.89614785 0.7452357 -0.66437614 -0.20569998 0.95072806 0.45195585 0.6495906 -0.2370421
0.7712615 -0.87246794 -0.35302457 0.58775556 -0.6211948 0.522104 -0.11715961 -0.28159264
0.7725151 0.47984022 0.31745654 0.77157384 0.6663302 0.86601734 0.40071008 -0.002813209
0.19491017 -0.52409166 0.6973546 -0.6768504 0.90850705 0.37510708 0.34668842 -0.22667696
0.55627567 -1.0103254 -0.73973215 0.7158386 -0.71152216 -0.6119746 0.5577051 -0.078133985
0.03445299 -0.13523853 0.59189254 -0.19800076 0.6795213 -0.3656322 -0.7400877 -0.6902066
-0.53192794 -0.92257303 0.30957907 -0.7294791 -0.720158 0.7559478 0.7908675 0.3991541
-0.61529905 0.041522067 -0.15793005 -0.7544512 0.43068334 -0.536419 0.697787 0.09043414
0.23590182 0.8198183 -0.48785827 -0.3639451
00000000: 4a5e b13e c007 233f 1f05 22bf d3f3 04bf
00000010: aea7 4ebf df78 223f cdb6 5f3f e47f bcbd
00000020: 9b08 f13e 0493 87bb 2624 23bf 2ac0 43bf
00000030: 97e4 9cbe 4c27 1f3e 4d87 93bd 58bc 083f
00000040: e679 1b3f 8f3e 6cbf d702 10bf aa5b 963e
00000050: c9a0 2d3f 6514 afbe 7082 70bf fc23 033f
00000060: 686d 183d 8050 233f 1dcb 093f cef4 6fbe
00000070: 1944 c93e 8009 093f bc3d 673e bbf1 0c3f
00000080: 62f8 4bbf e0e6 33bf 9374 28bf 7996 adbe
00000090: d01f 8bbd 9fcd 113f 4bad 663f cc7c 633e
000000a0: 4b23 893e 1815 3e3e 908a 223d 1b79 14bf
000000b0: 2a9a 64bf cf68 8c3f 85e3 07bf 1ee1 cd3e
000000c0: 105b 663f 8154 84be 8fd5 013f d305 8fbf
000000d0: b02c 36bf dc9b 993e 9afd ad3e 1c46 84bf
000000e0: 047d 6c3d 3d8a 933f c032 0f3e dfe0 25be
000000f0: 793c 413f f481 1fbf abec 043e 9f90 333e
00000100: acb1 073f fab0 39bf 9de2 853c 0f3c 4fbd
00000110: b705 603f a917 793e 95a5 e1be b374 14bf
00000120: fd64 4bbf 9ed1 823f 43b2 b83e 2c8f 7f3e
00000130: 432e 853f 3734 a6be 3e1e 7dbf ac29 35bf
00000140: 19ab 4f3f 3980 56be d097 083f 68f6 733f
00000150: 3ceb 813f 8cd3 633f a35b 3d3f b84e f33e
00000160: d76f 26bf ed31 19bf f760 6ebf 14b6 82bf
00000170: a04a 4abe 3ad2 5c3f a6ec 19bf 9cdd 923e
00000180: 414e e5bd a670 4c3f 7313 0f3f 920a 04bd
00000190: 915c bdbe d79e debd 69f3 36bf d665 fbbe
000001a0: 2fc7 d73e c0a5 893f fad0 213f 6fa3 84bf
000001b0: 6e39 16bf 3495 063e 4166 043f 63d8 a43d
000001c0: 4e2f 5abf 7f7f 693f 888c 0c3f c092 15bf
000001d0: 2ed2 27be ffa3 7abf b37d 393f a360 493f
000001e0: 241f 69bf d9eb b9be ff74 333f af06 3ebf
000001f0: 293b 49bf 0081 36bf 94cd 52bd 9350 bb3e
00000200: 5e42 23bf e88b 3abd 28c7 0cbf 7fab 8ebe
00000210: f875 4fbf f27d 313f b2c3 863e ede7 ffbe
00000220: f269 65bf c4c7 3e3f 8e14 2abf 04a3 52be
00000230: ea62 733f c266 e73e 924b 263f 2abb 72be
00000240: 6571 453f 0f5a 5fbf a3bf b4be 2677 163f
00000250: 9f06 1fbf 9ca8 053f 61f1 efbd e92c 90be
00000260: 8dc3 453f 9ead f53e aa89 a23e dd85 453f
00000270: 9e94 2a3f 50b3 5d3f df29 cd3e d15d 38bb
00000280: 8896 473e df2a 06bf d585 323f 1146 2dbf
00000290: eb93 683f 090e c03e 2581 b13e 011e 68be
000002a0: 1568 0e3f 5852 81bf 165f 3dbf 3341 373f
000002b0: 5126 36bf 5eaa 1cbf c3c5 0e3f b604 a0bd
000002c0: 941e 0d3d f87b 0abe 4586 173f b6c0 4abe
000002d0: 1cf5 2d3f 2534 bbbe 6376 3dbf 61b1 30bf
000002e0: 6e2c 08bf bf2d 6cbf 2681 9e3e 24bf 3abf
000002f0: 465c 38bf cc85 413f 4b76 4a3f ed5d cc3e
00000300: 3d84 1dbf 0b13 2a3d 6ab8 21be b723 41bf
00000310: 8782 dc3e c152 09bf 2ba2 323f 8935 b93d
00000320: 3f90 713e 9ddf 513f 8fc8 f9be 0357 babe

rnn.weight_hh_l0 f4 [12, 12]
-0.5389052 -0.80348283 0.63106257 0.15528055 -0.79278415 0.057216488 0.13765201 0.87400216
-0.15411471 0.6342967 -0.7093009 0.67664254 0.33105916 0.82918966 0.7260186 -0.881267
0.5082143 -0.31308284 0.87048805 0.9199199 0.18266396 -0.11064808 0.25086302 -0.60464084
-0.72002244 0.66944265 0.20217916 0.7110121 -0.057387467 -0.5651039 -0.043243684 0.29759276
0.27677664 0.5077069 -0.7773451 0.44769907 0.28637078 0.80558306 0.32175896 -0.37329763
-0.08991818 0.16907303 0.18392818 -1.003839 0.9517549 -0.5365999 0.41140088 0.57367504
-0.8158254 0.51543605 0.35632494 0.13869235 0.17704433 0.5626014 0.5074001 0.8704404
0.22197935 -0.06825323 -0.13827227 -0.057334375 1.0210608 -0.8187497 -0.1642178 -0.090344615
0.044038057 -0.76314807 0.26295635 -0.028997011 -0.05288201 -0.7954368 -0.021244325 0.89574754
0.9247098 -0.45211548 -0.9010268 0.31371713 -0.5355153 -1.0288324 0.49026996 -0.31295422
-0.41902807 -0.21836577 0.13530897 0.21728773 0.21522892 -0.7436505 -0.9545423 -0.08393194
0.73352236 0.3376032 -0.32760364 0.560392 -0.7027011 0.14797497 -0.6149878 -0.31527656
-1.0894163 0.5165314 0.9889442 0.43143174 -0.028547823 -0.72088677 -0.013855858 0.18719684
0.43418658 0.65168417 -0.009361183 0.7796716 -0.44750375 0.19430797 -0.124482915 -0.036180176
0.5538373 0.22819716 -0.12696916 -0.044283446 0.24915056 -0.32591623 -0.50672716 -0.652582
-1.1581421 -0.026432335 0.31785685 -0.1620393 -0.4234039 -0.10009816 -0.3793191 -0.14919098
0.42502436 0.3438478 0.71577257 -0.5520514 0.099056885 -0.936504 -0.90145326 -0.50813264
-0.33723354 0.582246 -0.15745468 -0.58940476 -0.33272266 -0.5310222 0.9128628 -0.27917477
00000000: b1f5 09bf 0db1 4dbf 518d 213f dd01 1f3e
00000010: e7f3 4abf d65b 6a3d a6f4 0c3e 9bbe 5f3f
00000020: 3fd0 1dbe 4561 223f be94 35bf 7238 2d3f
00000030: 9680 a93e c645 543f 5bdc 393f b79a 61bf
00000040: 551a 023f 654c a0be 4ed8 5e3f df7f 6b3f
00000050: 430c 3b3e 769b e2bd 1e71 803e bec9 1abf
00000060: 6453 38bf 9860 2b3f 0e08 4f3e e404 363f
00000070: 1f0f 6bbd a6aa 10bf 4a20 31bd 145e 983e
00000080: abb5 8d3e 14f9 013f 1700 47bf d038 e53e
00000090: 319f 923e b13a 4e3f 97bd a43e de20 bfbe
000000a0: 0627 b8bd 7b21 2d3e ab57 3c3e cc7d 80bf
000000b0: 36a6 733f 9c5e 09bf 23a3 d23e 5edc 123f
000000c0: efd9 50bf 9ef3 033f 3970 b63e 5e05 0e3e
000000d0: 1c4b 353e a506 103f f9e4 013f 2fd5 5e3f
000000e0: 8e4e 633e 59c8 8bbd 3f97 0dbe 73d7 6abd
000000f0: 1fb2 823f 9599 51bf b628 28be 9906 b9bd
00000100: 4061 343d ac5d 43bf 37a2 863e 248b edbc
00000110: ce9a 58bd bfa1 4bbf 9408 aebc b64f 653f
00000120: c8b9 6c3f ae7b e7be b1a9 66bf 889f a03e
00000130: 8817 09bf c8b0 83bf aa04 fb3e 893b a0be
00000140: d98a d6be 479b 5fbe 6f8e 0a3e ad80 5e3e
00000150: f864 5c3e e15f 3ebf e25c 74bf 82e4 abbd
00000160: 1fc8 3b3f 54da ac3e aabb a7be da75 0f3f
00000170: 38e4 33bf c086 173e d76f 1dbf ee6b a1be
00000180: fe71 8bbf 673b 043f 722b 7d3f 9fe4 dc3e
00000190: 20dd e9bc 098c 38bf ae03 63bc 87b0 3f3e
000001a0: b44d de3e c6d4 263f a65f 19bc 8f98 473f
000001b0: 361f e5be abf8 463e e6f0 febd aa31 14bd
000001c0: 48c8 0d3f 84ac 693e 3404 02be 8f62 35bd
000001d0: 5321 7f3e 7ede a6be dfb8 01bf 9d0f 27bf
000001e0: 003e 94bf a088 d8bc 22be a23e a1ed 25be
000001f0: 65c8 d8be 4400 cdbd 1d36 c2be 85c5 18be
00000200: cb9c d93e d20c b03e df3c 373f 3e53 0dbf
00000210: 56de ca3d babe 6fbf a4c5 66bf fb14 02bf
00000220: e0a9 acbe 130e 153f cd3b 21be 3be3 16bf
00000230: a05a aabe 12f1 07bf 60b1 693f ffef 8ebe

rnn.bias_ih_l0 f4 [12]
0.12274094 0.41216704 -0.013686518 0.36567575 0.25532055 -0.11598385 -0.05309134 -0.1322951
-0.14101966 0.40457803 -0.17017956 0.3444742
00000000: 9a5f fb3d 8f07 d33e 6b3d 60bc da39 bb3e
00000010: 60b9 823e f188 edbd 4e76 59bd 5e78 07be
00000020: 7567 10be da24 cf3e 8d43 2ebe ec5e b03e

rnn.bias_hh_l0 f4 [12]
-0.03567104 0.31436852 -0.2836168 0.13848734 0.17474233 -0.1008927 -0.17359671 -0.020214034
0.011572343 0.07523285 -0.3506809 0.26474303
00000000: cc1b 12bd e9f4 a03e 3936 91be a0cf 0d3e
00000010: a7ef 323e d5a0 cebd 56c3 31be e797 a5bc
00000020: ed99 3d3c ae13 9a3d 728c b3be 668c 873e

fc.weight f4 [17, 12]
-0.4107992 -0.013720916 -0.40027705 -0.5588448 -0.4625377 0.19652005 0.6136399 0.18443596
-0.2030187 -0.5918398 0.30240667 -0.049188394 -0.42204005 1.1690032 0.63458854 -0.5867807
-0.3911918 0.7237345 0.8171207 0.88739634 -0.17656395 -0.97253567 -0.8799965 -0.030759247
0.72404575 -0.8214538 0.732264 -1.1710057 0.4999404 -0.91775525 0.48093367 -0.18666966
0.61277163 -0.42547533 0.8036561 -0.41004205 0.60477626 -1.0227829 0.6355958 -0.22172384
0.4637608 -0.11050372 1.2166598 0.42438325 0.9496437 -1.029183 -0.8099596 -0.8928644
-0.83719194 -0.9925246 -0.77996874 0.31017342 -0.763095 0.5903182 -0.6118806 -0.23502232
-0.73588717 -0.4889683 0.8039515 0.63898796 -0.82985634 -0.8665564 0.5521197 0.16002527
0.58617336 -0.7324728 0.55501634 -0.59175754 0.55596936 -0.6640546 1.0583177 0.58909357
1.0979569 0.7250994 0.9955416 -1.2516376 -0.3964824 0.46994424 -0.8302546 0.7866234
1.0574443 -0.75744903 -0.004122459 -0.7376726 0.6502829 -0.8908325 0.9281972 -0.7665595
-0.6215719 0.84905833 0.5413913 0.9157561 -0.29409435 -0.21493101 -0.27470344 0.7124758
-1.0061157 -0.2754816 0.8716287 -0.9026739 -1.2239751 -1.0797044 0.29584348 -0.6881975
0.78221565 1.1440145 0.77893615 0.58042747 -0.9430587 -0.2843495 -0.75877243 -1.062159
-1.0902929 0.20172028 -0.42755744 0.9839483 -0.62745893 0.03809172 -0.4531048 -0.68382144
0.8967806 -0.28938255 0.8628337 0.7224718 0.7704772 -0.87041813 -0.8346265 -0.7488197
0.854664 0.5809346 -0.2632154 -0.67677736 -0.3289683 0.9832118 -1.137924 0.3229171
-0.9183795 1.1660029 0.32805237 -0.775753 0.6322972 -0.78861254 1.2433451 0.6952675
0.8847781 -0.6230638 0.8910526 -0.049367946 0.13172121 0.8782262 0.7131024 -0.41830677
0.56013966 -0.95358914 0.8764878 -0.48415667 -0.77971846 0.8077468 -0.6548989 1.0067574
-0.17305045 0.69441056 0.7875077 -0.6636251 -0.8506409 0.8474101 -1.070384 0.73562634
0.68353003 -0.47498682 -1.0553733 -0.89634615 0.6848972 -0.28099304 -0.7789826 0.9124459
-0.8351208 0.7391954 -0.7351659 0.72983545 -0.26477754 -0.8654125 0.66926175 0.92881405
-1.1905311 1.1674743 0.58976847 -0.659474 0.57329303 -0.1381627 -1.0662851 -0.6155581
-0.48419258 1.0913752 -0.8410131 0.9117974 -0.6211004 -0.86134183 -0.79670084 -0.77621305
-0.8473827 0.6562316 0.28276956 -0.4664553
00000000: 4654 d2be b1cd 60bc 1df1 ccbe 7410 0fbf
00000010: bed1 ecbe 8d3c 493e 8117 1d3f c8dc 3c3e
00000020: 22e4 4fbe d082 17bf 0cd5 9a3e c579 49bd
00000030: a215 d8be e6a1 953f 6574 223f 4337 16bf
00000040: 4b4a c8be aa46 393f d22e 513f 682c 633f
00000050: 2ecd 34be 19f8 78bf 7347 61bf d1fa fbbc
00000060: 105b 393f cc4a 52bf a775 3b3f 84e3 95bf
00000070: 30f8 ff3e 02f2 6abf f03c f63e 5526 3fbe
00000080: 9ade 1c3f e7d7 d9be 68bc 4d3f 08f1 d1be
00000090: 9ed2 1a3f 8dea 82bf 68b6 223f 930b 63be
000000a0: 0e72 ed3e c64f e2bd 82bb 9b3f c348 d93e
000000b0: d91b 733f 45bc 83bf 8359 4fbf c392 64bf
000000c0: 3652 56bf 1816 7ebf 08ac 47bf 0dcf 9e3e
000000d0: 325a 43bf 181f 173f 35a4 1cbf b1a9 70be
000000e0: 1a63 3cbf 0e5a fabe c4cf 4d3f b794 233f
000000f0: 7771 54bf a4d6 5dbf b757 0d3f aadd 233e
00000100: 750f 163f 5683 3bbf 8d15 0e3f 6c7d 17bf
00000110: 0254 0e3f 7bff 29bf f476 873f d6ce 163f
00000120: da89 8c3f 1da0 393f d0db 7e3f a935 a0bf
00000130: beff cabe 889c f03e 918b 54bf 2760 493f
00000140: 565a 873f 2ee8 41bf b115 87bb 1dd8 3cbf
00000150: f178 263f 990d 64bf 559e 6d3f 3e3d 44bf
00000160: 561f 1fbf e35b 593f 9f98 0a3f fe6e 6a3f
00000170: 8993 96be e016 5cbe eea5 8cbe d064 363f
00000180: 66c8 80bf ed0b 8dbe 0f23 5f3f a315 67bf
00000190: 37ab 9cbf c133 8abf cc78 973e b62d 30bf
000001a0: 493f 483f 116f 923f 5c68 473f e596 143f
000001b0: 4c6c 71bf 4296 91be e93e 42bf d3f4 87bf
000001c0: b88e 8bbf c38f 4e3e cfe8 dabe 09e4 7b3f
000001d0: 26a1 20bf 1006 1c3d 5afd e7be ec0e 2fbf
000001e0: 6a93 653f f329 94be abe2 5c3f e9f3 383f
000001f0: fe3d 453f b9d3 5ebf 15aa 55bf a6b2 3fbf
00000200: 43cb 5a3f 21b8 143f 2bc4 86be 4841 2dbf
00000210: 886e a8be c5b3 7b3f 7ea7 91bf 6455 a53e
00000220: eb1a 6bbf 953f 953f 7bf6 a73e c097 46bf
00000230: 3bde 213f 83e2 49bf ef25 9f3f 0dfd 313f
00000240: d180 623f 1c81 1fbf 061c 643f 0b36 4abd
00000250: ede1 063e 6fd3 603f e18d 363f 4e2c d6be
00000260: 5065 0f3f 6b1e 74bf 8161 603f 62e3 f7be
00000270: a19b 47bf 7fc8 4e3f 74a7 27bf 6ddd 803f
00000280: 2334 31be e4c4 313f 1b9a 493f 56e3 29bf
00000290: 9ac3 59bf deef 583f 5802 89bf 0252 3c3f
000002a0: d3fb 2e3f 7931 f3be 7916 87bf f176 65bf
000002b0: 6c55 2f3f 52de 8fbe 676b 47bf 0e96 693f
000002c0: 7aca 55bf e93b 3d3f d533 3cbf 7fd6 3a3f
000002d0: ec90 87be ac8b 5dbf bd54 2b3f c2c6 6d3f
000002e0: 5363 98bf cc6f 953f 11fb 163f 4ad3 28bf
000002f0: 55c3 123f 867a 0dbe 087c 88bf 3795 1dbf
00000300: 17e8 f7be 2fb2 8b3f a24c 57bf 8e6b 693f
00000310: 7000 1fbf e680 5cbf 96f4 4bbf e6b5 46bf
00000320: 13ee 58bf cbfe 273f 2cc7 903e 3bd3 eebe

fc.bias f4 [17]
-0.7060319 -0.30429524 -0.42113864 -0.60805863 0.10432387 -0.566817 -0.16833402 -0.15585592
0.1502933 -0.27910158 0.37086797 0.10623739 -0.43878737 0.07395855 0.18082942 0.18607116
0.3277352
00000000: 82be 34bf 96cc 9bbe 7c9f d7be bba9 1bbf
00000010: c1a7 d53d eb1a 11bf c15f 2cbe b298 1fbe
00000020: 7de6 193e 67e6 8ebe 68e2 bd3e fd92 d93d
00000030: bda8 e0be 9577 973d 592b 393e 7089 3e3e
00000040: e8cc a73e
