NEURAL_MODELS/RNN/revived-river-1.pth (torch, 11207 bytes, 6 tensors)

rnn.weight_ih_l0 f4 [12, 88]
0	0xbf5ca7ca	-0.86193526
1	0x3eeb73b6	0.45986718
2	0xbf4cb0b3	-0.7995712
3	0xbf209394	-0.62725186
4	0x3d211cc3	0.03933407
5	0xbc6ca176	-0.014442792
6	0xbf53e09d	-0.8276461
7	0xbee81e33	-0.4533554
8	0x3e7bf042	0.2460337
9	0x3eb5ad31	0.35483697
10	0xbf878280	-1.05867
11	0x3e2fec22	0.17179921
12	0xbe08910d	-0.13336582
13	0x3ea1e775	0.316219
14	0xbd23b7d8	-0.03997025
15	0xbe96d146	-0.29456538
16	0xbf89c6f1	-1.0763837
17	0xbf37c4d0	-0.7178469
18	0x3eb795a7	0.35856363
19	0xbfa8a17f	-1.3174285
20	0xbe477e0e	-0.1948168
21	0x3d8f9f25	0.07012776
22	0x3ee61db9	0.44944552
23	0xbe9d84d0	-0.3076539
24	0xbed985ae	-0.42484802
25	0x3e1a5dc1	0.15074827
26	0x3ebc4ea3	0.36778745
27	0xbd987e48	-0.07445961
28	0xbf588c07	-0.84588665
29	0x3f055add	0.5209177
30	0x3f1c3824	0.61023164
31	0x3e7fb52a	0.24971452
32	0x3e5e1b06	0.21689996
33	0xbf02dfbc	-0.5112264
34	0xbceab5ef	-0.028651206
35	0xbf5a129d	-0.8518465
36	0xbf893d36	-1.0721805
37	0xbe7a6d12	-0.2445567
38	0x3e5e416c	0.21704644
39	0xbfb46f5a	-1.4096482
40	0xbf411d97	-0.75435776
41	0xbd39ace6	-0.045330904
42	0x3f195f5b	0.59911126
43	0x3eb87450	0.3602624
44	0xbf653eea	-0.89549124
45	0x3efcd2e1	0.49379638
46	0xbf40c599	-0.7530151
47	0x3ec0d455	0.37661996
48	0x3ed1258d	0.4084896
49	0x3c220836	0.009889653
50	0xbf39d177	-0.72585243
51	0xbe9e6b61	-0.309413
52	0x3e0c23f4	0.1368559
53	0x3d7d8f0e	0.061904006
54	0xbf37cc7d	-0.717964
55	0x3cac8f78	0.021064505
56	0xbfa61977	-1.2976521
57	0xbeaa4237	-0.33253643
58	0x3ed5dae7	0.41768572
59	0x3f065643	0.52475375
60	0xbd87c625	-0.0662959
61	0x3ea74df3	0.32676658
62	0x3ed15d31	0.40891412
63	0x3edafd71	0.42771485
64	0xbf470bfb	-0.77752656
65	0x3ebb20ca	0.36548454
66	0x3dece4e3	0.11567094
67	0xbb44386d	-0.002994086
68	0xbf4b665f	-0.7945308
69	0xbf211b08	-0.6293187
70	0x3f0e4408	0.5557256
71	0x3dfb2cbc	0.12264392
72	0x3f010cb6	0.5041002
73	0x3f0087a1	0.50206953
74	0xbf56cfdb	-0.8391091
75	0x3f026daf	0.50948614
76	0x3ed1ce40	0.4097767
77	0xbf6faef6	-0.93626344
78	0x3d39059d	0.04517137
79	0x3ee6b977	0.45063373
80	0xbf42903d	-0.7600134
81	0x3c07e031	0.0082931975
82	0xbe9146c9	-0.28374317
83	0xbf08a212	-0.533723
84	0x3d37a73e	0.04483723
85	0xbe9ae895	-0.3025557
86	0xbd1d4a89	-0.03840116
87	0x3e66080b	0.22464006
88	0x3f71ea37	0.9449801
89	0x3f186f98	0.5954528
90	0x3f595127	0.84889454
91	0x3f4380c8	0.7636838
92	0xbeaad4f7	-0.33365604
93	0xbdead2c2	-0.1146598
94	0x3f103639	0.5633274
95	0x3f13aab5	0.57682353
96	0xbe8a07bb	-0.26959023
97	0xbdae5d30	-0.08513868
98	0x3fabe3b4	1.3428864
99	0xbf2c71a0	-0.6736088
100	0xbea501a3	-0.3222781
101	0xbda51926	-0.08061437
102	0x3e4a24ed	0.19740649
103	0x3f52d900	0.82362366
104	0x3bce6d94	0.006299684
105	0x3f82155f	1.0162772
106	0xbec7fb84	-0.3905908
107	0x3ece66fb	0.40312943
108	0xbeb61fed	-0.35571232
109	0x3f5d963e	0.86557376
110	0x3f6421e9	0.8911424
111	0x3eeaeceb	0.4588388
112	0xbcb64bfa	-0.022253025
113	0xbd495118	-0.049149603
114	0x3f09cdab	0.5382945
115	0xbdad89ad	-0.08473525
116	0x3c6e9fb8	0.014564447
117	0xbe8d7494	-0.27628005
118	0x3ea57a6f	0.32319972
119	0xbdc709c3	-0.09718659
120	0xbec3b494	-0.38223708
121	0x3e5aaab6	0.21354184
122	0x3de46404	0.11151889
123	0x3f3c36ae	0.73520935
124	0xbed7718d	-0.4207882
125	0x3d811bd7	0.06304138
126	0xbe9f663e	-0.31132692
127	0x3f95650c	1.1671462
128	0xbee2f7a7	-0.4432957
129	0x3f2460bf	0.6421012
130	0xbdb748e6	-0.08949451
131	0xbe69cf84	-0.22833067
132	0x3dfa1aa7	0.12212115
133	0xbe0859a5	-0.13315447
134	0x3ec7cee1	0.39025024
135	0xbd1acb97	-0.037791815
136	0xbe342e88	-0.17595875
137	0xbe52ff72	-0.20605257
138	0xbe3e8fec	-0.1860959
139	0x3f0d8584	0.55281854
140	0xbd34cce4	-0.04414071
141	0x3c5ac89c	0.013353493
142	0x3f061109	0.52369744
143	0xbeb309c1	-0.3496838
144	0x3f93ad50	1.1537266
145	0xbe04a21f	-0.1295247
146	0xbe43467a	-0.19069853
147	0xbeadecf9	-0.33969858
148	0xbc52abba	-0.012858326
149	0x3f197cf8	0.5995631
150	0x3c9403ee	0.01806828
151	0xbea03bbf	-0.31295583
152	0x3d83e088	0.0643931
153	0x3e7e5426	0.24836788
154	0x3ea946db	0.3306187
155	0xbe172c4b	-0.1476299
156	0x3f4eb553	0.8074543
157	0xbc9230c4	-0.017845519
158	0xbf1a1555	-0.601888
159	0x3f3ae31b	0.73002785
160	0x3ede5696	0.43425435
161	0xbef538f2	-0.47895008
162	0x3f9279b7	1.1443394
163	0xbde106ca	-0.10987623
164	0xbd624324	-0.05523981
165	0x3f64de98	0.8940215
166	0xbdddd1bc	-0.10831019
167	0xbeb1bd41	-0.34714702
168	0xbde72fb4	-0.112883955
169	0xbedddc33	-0.4333206
170	0xbf047f27	-0.5175652
171	0x3f95a910	1.1692219
172	0x3f89b352	1.0757849
173	0x3e46e136	0.19421849
174	0xbe6abb8b	-0.22923104
175	0x3e5d9609	0.21639265
176	0x3f1566d6	0.5836004
177	0x3f067652	0.5252429
178	0x3dca9358	0.09891385
179	0xbef3927f	-0.47572705
180	0xbea4c7f4	-0.32183802
181	0x3ec0b0d6	0.37634915
182	0x3f9c15a1	1.2194101
183	0x3f423a73	0.75870436
184	0xbedd8181	-0.43262866
185	0xbed382af	-0.4131064
186	0x3f2a2d4c	0.6647537
187	0xbeca0ee1	-0.39464477
188	0x3f1e2923	0.6178152
189	0x3dd3ab38	0.10335392
190	0x3f5ca2db	0.86186
191	0x3f8ece3d	1.1156689
192	0x3e8c4450	0.27395868
193	0x3fa2ff07	1.2734078
194	0xbf0de5ae	-0.5542859
195	0xbd3d6140	-0.046235323
196	0x3ed8a7d4	0.42315543
197	0xbe5e0762	-0.21682504
198	0x3f9668b7	1.1750706
199	0xbe4be226	-0.19910488
200	0x3fa67527	1.3004502
201	0xbef772ff	-0.48329923
202	0x3f86053d	1.0470349
203	0xbecf5960	-0.40497875
204	0x3f8eddda	1.1161454
205	0x3f756acf	0.958661
206	0x3eca5d09	0.39524105
207	0x3e937cff	0.28806302
208	0xbf3ac776	-0.72960603
209	0xbddd40df	-0.10803389
210	0x3f684f4e	0.9074601
211	0xbde0bf78	-0.1097402
212	0xbe60df94	-0.21960288
213	0x3e5dc177	0.21655832
214	0xbf1917a2	-0.59801686
215	0x3e5e9f65	0.21740492
216	0xbe4fb971	-0.20285584
217	0x3eba19b3	0.36347732
218	0xbe72659d	-0.23671575
219	0xbf161e98	-0.5864043
220	0x3f626e73	0.8844978
221	0xbed8b9a8	-0.42329144
222	0x3f08b445	0.5340007
223	0xbe71d9e4	-0.23618275
224	0xbf06e1c3	-0.52688235
225	0x3f50195a	0.81288683
226	0x3e974a66	0.2954895
227	0xbf10fd0f	-0.56636137
228	0xbefd58aa	-0.49481708
229	0x3efaa606	0.4895479
230	0x3f02a57e	0.5103377
231	0x3f85dec0	1.0458603
232	0xbe0cab7b	-0.1373729
233	0x3e557bfd	0.20848079
234	0xbe8e3e23	-0.27781782
235	0xbea7c3a2	-0.32766443
236	0xbec5b030	-0.38610983
237	0x3f364672	0.7120124
238	0x3f0c7b98	0.5487609
239	0x3f73d8ab	0.95252484
240	0x3f09eb30	0.5387449
241	0x3f184df0	0.59493923
242	0x3f83846a	1.0274785
243	0xbeeb055b	-0.45902523
244	0x3e7aa098	0.24475324
245	0x3faa0f23	1.3285869
246	0xbef2a75f	-0.4739332
247	0x3f087925	0.5330985
248	0x3f9c387f	1.2204741
249	0xbf0955b8	-0.5364642
250	0x3e6dff96	0.2324203
251	0x3e85aeb4	0.2610985
252	0xbeec9e00	-0.46214294
253	0x3f4a34bd	0.7898672
254	0x3f312e84	0.692116
255	0x3f97e145	1.1865622

rnn.weight_hh_l0 f4 [12, 12]
0	0x3e9f1632	0.3107162
1	0xbed09a4e	-0.40742725
2	0xbda5015e	-0.080569014
3	0xbef12a46	-0.47102565
4	0x3ea21e32	0.31663662
5	0x3c7ce96c	0.0154365115
6	0x3cd90e91	0.026496204
7	0xbea90525	-0.33011737
8	0x3c8b50db	0.017006328
9	0xbecc01fe	-0.3984527
10	0x3c99d719	0.018779324
11	0x3e71408f	0.23559783
12	0xbe2eae39	-0.17058648
13	0x3e187a15	0.1489032
14	0x3e5ed41f	0.21760605
15	0x3ddf169f	0.108929865
16	0xbeb58989	-0.35456493
17	0xbedfa271	-0.4367862
18	0xbd53b6a2	-0.051687844
19	0x3db46ac5	0.08809427
20	0xbda0ea8b	-0.078572355
21	0x3ddd4de6	0.108058736
22	0x3eed59d3	0.46357593
23	0xbe8e5e94	-0.27806532
24	0x3dc99430	0.09842718
25	0x3eaf79a7	0.342725
26	0x3e9f84e4	0.31156075
27	0x3eb2f8dd	0.34955493
28	0x3ac47821	0.0014989414
29	0x3d248402	0.040164955
30	0xbea9f853	-0.3319727
31	0x3dec1633	0.11527672
32	0xbe8dd413	-0.27700862
33	0x3e8c3cf5	0.27390257
34	0xbe8255b5	-0.25456014
35	0xbe9e0e0c	-0.30870092
36	0xbdb381da	-0.087650016
37	0x3eb4b04a	0.35290748
38	0x3ebefef2	0.37303883
39	0x3c6ce199	0.014458084
40	0xbe944008	-0.28955102
41	0xbe7f2ab1	-0.24918629
42	0xbf011e76	-0.50437105
43	0x3ebe0dc8	0.3711989
44	0xbe7c90d9	-0.2466463
45	0x3e3da7e6	0.1852108
46	0x3e0e9993	0.13925771
47	0xbef13c5e	-0.4711637
48	0xbe15f2b8	-0.14643371
49	0xbe830242	-0.2558766
50	0x3dabbdf3	0.08385839
51	0x3dc9dfd7	0.09857147
52	0xbd11fd17	-0.035641756
53	0x3cc43c0c	0.023954414
54	0xbdbfaf5c	-0.09359619
55	0xbce3fbe8	-0.02783008
56	0xbe016bdb	-0.126388
57	0xbe8a47a0	-0.2700777
58	0x3e5b8574	0.21437627
59	0xbbc48cd9	-0.0059982357
60	0x3efc37bd	0.49261275
61	0xbec23800	-0.3793335
62	0xbeeeffdb	-0.46679577
63	0x3d806c29	0.0627063
64	0x3d1201a8	0.03564611
65	0x3e90fe1f	0.2831888
66	0x3ea0c901	0.31403354
67	0xbefb7b7b	-0.49117646
68	0x3d7b88c6	0.061409734
69	0xbe8f0717	-0.27935097
70	0x3c92074b	0.017825743
71	0x3e4fd435	0.20295794
72	0x3d6c3cbb	0.057675105
73	0x3d759824	0.059959546
74	0x3e2331a2	0.15936902
75	0xbec4fffa	-0.38476545
76	0x3e8470e8	0.2586739
77	0x3d8fb0c6	0.07016139
78	0xbeb216ef	-0.34783122
79	0xbe0d297f	-0.13785361
80	0x3e9dac89	0.30795696
81	0xbec3b538	-0.38224196
82	0x3e01189c	0.12607044
83	0x3cfa424c	0.030549191
84	0xbd876514	-0.06611076
85	0x3d86ea91	0.06587709
86	0x3d94d727	0.072675996
87	0x3e0188f4	0.126499
88	0xbee46b64	-0.44613183
89	0xbeb131a2	-0.3460818
90	0xbe056265	-0.13025816
91	0x3ed42c5d	0.41440096
92	0x3df22ab3	0.118245505
93	0x3e13b344	0.14423853
94	0x3e27153c	0.16316694
95	0xbec99a93	-0.39375743
96	0xbdde1e70	-0.10845649
97	0x3e16071f	0.14651154
98	0xbe4e5a3a	-0.20151606
99	0x3d3f85c8	0.046758443
100	0x3e82c4a4	0.2554065
101	0xbe719d59	-0.2359518
102	0x3e8168aa	0.25275165
103	0x3dc6c602	0.09705736
104	0x3f419ef5	0.75633174
105	0xbf220750	-0.6329241
106	0xbee2dca0	-0.4430895
107	0x3ded095d	0.115740515
108	0x3c671df7	0.014106265
109	0xbe3937cf	-0.18087696
110	0x3b805340	0.003916174
111	0x3d0c9487	0.034321334
112	0xbe8142df	-0.2524633
113	0xbe798208	-0.24366009
114	0x3db715b2	0.08939685
115	0xbe68b41b	-0.22724955
116	0xbf42dcf8	-0.7611842
117	0x3e99b86c	0.30023515
118	0xbe076376	-0.13221535
119	0xbdd920c3	-0.10601952
120	0xbe0b7a38	-0.13620842
121	0xbd13de8b	-0.036100905
122	0x3e112474	0.14174062
123	0xbd94d366	-0.072668836
124	0xbd87f2f3	-0.06638136
125	0xbe0722fe	-0.13196942
126	0xbe7fb5dc	-0.24971718
127	0xbcee31c5	-0.029076466
128	0xbefbe959	-0.49201468
129	0x3d4c99a3	0.049951207
130	0xbd7fc96f	-0.06244796
131	0xbe228830	-0.15872264
132	0x3eedde49	0.46458653
133	0xbe24d3f9	-0.16096486
134	0xbedbd8f5	-0.42938963
135	0xbe9af810	-0.30267382
136	0xbd19a2f1	-0.03750891
137	0x3e5c11f6	0.21491227
138	0x3e4c3173	0.19940738
139	0xbdca3465	-0.09873275
140	0xbe3ab344	-0.18232447
141	0x3c97b3ea	0.018518407
142	0xbee93721	-0.45549873
143	0x3e851eb2	0.2599998

rnn.bias_ih_l0 f4 [12]
0	0x3e583e99	0.21117629
1	0xbed39c9b	-0.41330418
2	0xbed5c55e	-0.41752142
3	0xbe1151d8	-0.14191377
4	0x3dea9bb9	0.11455483
5	0x3c7422f0	0.014900908
6	0x3e770f3e	0.24126908
7	0xbf03ec14	-0.515321
8	0xbea11145	-0.31458488
9	0xbdbefddc	-0.093257636
10	0xbccfc201	-0.025361063
11	0x3e318dd7	0.17339264

rnn.bias_hh_l0 f4 [12]
0	0x3edf265c	0.43583953
1	0xbe82394c	-0.2543434
2	0x3c95d4b9	0.01828991
3	0xbe4c096b	-0.19925468
4	0x3e96c268	0.29445195
5	0x3efc15c6	0.49235362
6	0xbe057daf	-0.13036226
7	0xbe02c34e	-0.12769815
8	0xbe2eee49	-0.17083086
9	0x3c454439	0.012040191
10	0xbeaefd3a	-0.34177572
11	0x3ec65035	0.38733068

fc.weight f4 [88, 12]
0	0xbf19b8a3	-0.6004736
1	0x3f0b30ed	0.5437153
2	0x3f083c5a	0.5321709
3	0x3e8ce9ab	0.27522025
4	0xbd892db3	-0.066981696
5	0xbec4bb9d	-0.38424388
6	0xbedaa015	-0.42700258
7	0x3ea4d92d	0.32196942
8	0x3ebab729	0.36467865
9	0x3ddebf89	0.10876376
10	0x3ea7d7c5	0.32781807
11	0xbf0eabbe	-0.5573081
12	0xbe531b6c	-0.2061593
13	0x3f08cd54	0.53438306
14	0x3e3ec53a	0.18629923
15	0x3da023e6	0.07819347
16	0xbe8d3086	-0.27576083
17	0xbef576d9	-0.47942236
18	0xbe2cca64	-0.16874081
19	0x3eda751a	0.42667466
20	0x3eab9a30	0.33516073
21	0x3e1e5599	0.1546234
22	0x3e84c9ca	0.25935203
23	0xbf13194a	-0.57460463
24	0xbeab5405	-0.3346254
25	0x3f1c540a	0.61065733
26	0x3dc0badc	0.094106406
27	0x3daa2d75	0.083094515
28	0xbf0623f6	-0.5239862
29	0xbdde23e7	-0.108466916
30	0xbe3ae048	-0.18249619
31	0x3e595c93	0.2122672
32	0x3e616411	0.22010829
33	0x3e57b97b	0.21066849
34	0x3ecb48a2	0.39703852
35	0xbf10db00	-0.5658417
36	0xbd88cb5c	-0.06679413
37	0x3d6e2fa2	0.058150895
38	0x3d8bd74a	0.068281725
39	0x3ea66d29	0.32505158
40	0xbe02ccbd	-0.12773414
41	0xbee40090	-0.4453168
42	0xbe27fa6f	-0.16404127
43	0x3ec90fd3	0.39269885
44	0xbe1b5169	-0.15167774
45	0x3e070003	0.13183598
46	0x3e066690	0.13125062
47	0xbea0dd8c	-0.31419027
48	0xbe179781	-0.14803888
49	0x3e66ac8b	0.22526757
50	0x3f21c430	0.63189983
51	0x3df9f79f	0.12205433
52	0xbf09a97c	-0.5377424
53	0xbe71fc02	-0.2363129
54	0xbd6c6738	-0.057715625
55	0x3f011118	0.5041671
56	0x3ea38c17	0.31942818
57	0x3e96bb91	0.29439977
58	0x3f270ae5	0.65251
59	0xbf1470bb	-0.57984513
60	0xbe0e6249	-0.1390468
61	0x3e8f9306	0.28041857
62	0x3ed7effc	0.4217528
63	0x3e212d20	0.1573987
64	0xbc929aea	-0.017896134
65	0xbd1f676b	-0.038916986
66	0xbe54acd9	-0.20769061
67	0x3e561e7a	0.20910063
68	0xbe40acfd	-0.1881599
69	0xbd91d8af	-0.07121407
70	0x3e2c18a1	0.1680627
71	0xbed5b796	-0.41741627
72	0xbeef8476	-0.46780747
73	0x3e376392	0.17909077
74	0x3ef70b53	0.48250827
75	0x3ef40b04	0.47664654
76	0xbf0e16de	-0.5550364
77	0xbf073b7f	-0.5282516
78	0xbd890146	-0.06689696
79	0x3efeacb9	0.49741152
80	0x3f16942e	0.58819854
81	0x3e52d89f	0.20590447
82	0x3ecdeb2d	0.40218487
83	0xbea2e92d	-0.31818524
84	0xbf022e55	-0.5085195
85	0x3eab3a2c	0.3344282
86	0x3ef882f9	0.48537424
87	0x3e4f612d	0.20251913
88	0xbef37135	-0.47547308
89	0xbf004377	-0.50102943
90	0xbf036614	-0.51327634
91	0x3f296a4d	0.6617783
92	0x3f018725	0.5059684
93	0x3e01bb9d	0.12669225
94	0x3e77ab21	0.24186374
95	0xbe82dcc6	-0.25559062
96	0xbca086fb	-0.019595614
97	0x3ea798c5	0.3273374
98	0xbdf0e426	-0.11762266
99	0x3dda34f9	0.10654635
100	0xbe3d785b	-0.18502943
101	0x3d90b4e5	0.07065753
102	0x3d4a1d70	0.04934448
103	0x3e1a1288	0.15046132
104	0xbf3eba99	-0.74503475
105	0x3ec4d23e	0.38441652
106	0xbe22cb37	-0.15897833
107	0xbe1af381	-0.15131952
108	0x3f1608df	0.58607286
109	0xbf217195	-0.6306394
110	0xbf219929	-0.6312433
111	0xbf01909a	-0.5061127
112	0x3ddbe381	0.10736752
113	0x3ea6a21b	0.32545552
114	0x3ecb5c11	0.3971868
115	0xbf0d6dc3	-0.5524561
116	0x3f0b745b	0.5447442
117	0xbf0b3861	-0.543829
118	0xbebe6f44	-0.37194264
119	0x3edefcac	0.43552148
120	0xbe6a3b5f	-0.22874211
121	0x3ee0168e	0.43767208
122	0x3e8cb957	0.27485153
123	0x3e9520ba	0.2912653
124	0xbf1edb9f	-0.62053865
125	0xbf03bea8	-0.51462793
126	0xbe3d5f33	-0.18493347
127	0x3eb4c145	0.35303703
128	0x3efef8eb	0.49799284
129	0x3df7c9ef	0.12099063
130	0x3e87eddc	0.2654866
131	0xbee2feac	-0.44334924
132	0xbd5f703b	-0.05455039
133	0x3eae2a06	0.34016436
134	0xbd931f92	-0.07183756
135	0x3dd943db	0.106086455
136	0x3e0c7062	0.13714746
137	0xbe95345b	-0.29141507
138	0xbe7b34f1	-0.24531914
139	0x3e533a74	0.20627767
140	0x3e8f3d64	0.27976525
141	0xbd0c0577	-0.0341849
142	0x3e1c276a	0.1524941
143	0xbcff77b6	-0.031185012
144	0x3af96658	0.0019027693
145	0x3edc6c4c	0.43051374
146	0x3e929b78	0.28634238
147	0x3ec3bf55	0.38231912
148	0xbd8d4c7c	-0.06899354
149	0xbe80bb65	-0.2514297
150	0x3cb0ab59	0.02156608
151	0x3efc1cbd	0.49240676
152	0x3e2348e1	0.1594577
153	0x3e5e2cd6	0.21696791
154	0x3e4affd5	0.19824155
155	0xbea1b4f6	-0.31583375
156	0xbe0079f6	-0.12546524
157	0x3eec0f9d	0.46105662
158	0x3e7bce6e	0.24590465
159	0x3e2433f4	0.16035444
160	0xbedd56cd	-0.43230286
161	0xbe8a0940	-0.26960182
162	0xbdd6e5ed	-0.104930736
163	0x3f121401	0.57061774
164	0xbe1ec164	-0.1550346
165	0xbd5cb0f0	-0.05387968
166	0x3e904717	0.28179237
167	0xbe3b66e9	-0.18300976
168	0xbd8d6de2	-0.06905724
169	0x3e99b1a1	0.30018333
170	0x3f0f3265	0.5593627
171	0x3ec93363	0.39297017
172	0xbeb017f2	-0.3439327
173	0xbf01e5f6	-0.5074152
174	0xbdff55a2	-0.12467505
175	0x3f068a79	0.5255504
176	0x3e98e066	0.29858702
177	0x3db498c0	0.08818197
178	0x3f0f1ff5	0.5590814
179	0xbdbd6af4	-0.09248915
180	0xbeb60289	-0.3554881
181	0x3ee595f1	0.4484096
182	0x3ebbf5aa	0.36710864
183	0x3e13803f	0.14404391
184	0xbda9199c	-0.08256838
185	0xbec01224	-0.3751384
186	0xbdd6ac28	-0.10482055
187	0x3ea3c2ed	0.31984654
188	0x3de85d78	0.11345953
189	0x3eb8d194	0.36097395
190	0x3dc99fd8	0.09844941
191	0xbeaa843e	-0.33304018
192	0xbebe0c4b	-0.37118754
193	0x3dbecea4	0.09316757
194	0x3f088223	0.5332357
195	0x3ef5e302	0.48024756
196	0xbe2c023a	-0.16797724
197	0xbe968c07	-0.29403707
198	0xbeaadfd9	-0.33373907
199	0x3e869e54	0.2629267
200	0x3e7b6a60	0.24552298
201	0x3e39826a	0.18116155
202	0x3edf2b49	0.4358771
203	0xbe754ada	-0.23954335
204	0xbddcd970	-0.107836604
205	0x3f1453eb	0.5794055
206	0x3edb7671	0.428638
207	0x3e499755	0.19686635
208	0xbed2af02	-0.41149145
209	0xbe82f62c	-0.2557844
210	0xbe7cd9c0	-0.2469244
211	0x3f0ae4e0	0.54255486
212	0x3ec5582f	0.3854384
213	0x3e9fd3eb	0.31216368
214	0x3f239cb0	0.6391096
215	0xbe334fc4	-0.17510897
216	0xbea8319d	-0.32850352
217	0x3e123e1e	0.14281508
218	0x3dc3e19b	0.09564515
219	0x3e653948	0.22385132
220	0xbeb48f79	-0.3526571
221	0xbf038368	-0.51372385
222	0xbde72b37	-0.112875395
223	0x3f00c9fb	0.503082
224	0x3e444781	0.19167902
225	0x3de376ee	0.111066684
226	0x3ee03c7f	0.43796155
227	0xbc159caa	-0.00913159
228	0xbdf84b78	-0.121237695
229	0x3e9806dd	0.29692736
230	0x3eaf3bea	0.34225398
231	0x3e8403c5	0.25784126
232	0xbe4cc7d2	-0.199981
233	0xbe4af409	-0.19819655
234	0xbf157e2b	-0.5839564
235	0x3e928802	0.2861939
236	0x3ec2e95e	0.3806867
237	0x3d402571	0.046910707
238	0x3f1b2cda	0.60615313
239	0xbedc3b40	-0.43013954
240	0xbed4b418	-0.4154365
241	0x3d7da8ff	0.061928745
242	0xbc80cfc4	-0.01572407
243	0x3eb2f97d	0.3495597
244	0xbd8a7878	-0.06761259
245	0xbf0486a2	-0.51767933
246	0xbe5379d5	-0.20651944
247	0x3f07a2c1	0.5298272
248	0xbdb840f7	-0.08996766
249	0x3c0f34b7	0.008740596
250	0x3e404b14	0.1877864
251	0xbe851f03	-0.26000223
252	0xbf0a5f58	-0.54051733
253	0x3e4ede43	0.20201974
254	0x3e023b45	0.12717922
255	0x3eaac801	0.33355716

fc.bias f4 [88]
0	0xbd93e219	-0.07220859
1	0xbe03721b	-0.12836497
2	0xbbf9d33c	-0.007624058
3	0xbea87f57	-0.32909653
4	0xbe909d08	-0.28244805
5	0xbe1b83fa	-0.15187064
6	0xbefa143e	-0.4884357
7	0xbedca8cb	-0.4309753
8	0x3d8f1397	0.06986158
9	0x3f18fb53	0.5975849
10	0xbe494402	-0.19654849
11	0xbe6567f0	-0.2240293
12	0x3d22ce77	0.03974768
13	0xbe661326	-0.22468242
14	0xbf09b347	-0.5378918
15	0xbe1822c1	-0.14857008
16	0xbdc97e10	-0.09838498
17	0xbe65b4ff	-0.22432326
18	0xbda0bbd6	-0.07848327
19	0xbeee1113	-0.46497402
20	0xbf05650a	-0.521073
21	0xbeedeaa3	-0.46468076
22	0xbeb1936a	-0.3468278
23	0xbf11bda4	-0.56929994
24	0xbe90d84d	-0.28290024
25	0x3e6c8c96	0.23100504
26	0xbd7f9e37	-0.062406745
27	0xbe744a68	-0.23856509
28	0xbeee4fbc	-0.46545208
29	0xbeffa7ad	-0.49932614
30	0xbd2b4219	-0.041811083
31	0xbe384cd5	-0.17998059
32	0xbefaef1b	-0.49010548
33	0xbdf0178f	-0.117232434
34	0xbe30c391	-0.17262103
35	0xbeb82479	-0.35965326
36	0xbeabe213	-0.33570918
37	0xbea53989	-0.32270458
38	0x3e9af4c6	0.30264872
39	0xbe4929c0	-0.19644833
40	0xbea772a4	-0.3270465
41	0xbece8f03	-0.40343484
42	0x3bf6be1b	0.0075299866
43	0x3c8cd368	0.01719065
44	0xbe042cce	-0.12907717
45	0xbd2e07a5	-0.04248776
46	0xbdfdc411	-0.12390912
47	0xbcd50c7b	-0.026006928
48	0xbe388319	-0.1801876
49	0xbcebb799	-0.02877407
50	0xbe81ea23	-0.25373945
51	0xbf04b083	-0.51831836
52	0x3c13db49	0.00902445
53	0x3d63570b	0.055502933
54	0xbe62e2d3	-0.22156839
55	0xbed4e8a1	-0.41583732
56	0xbf0c671b	-0.54844826
57	0xbed7c3e5	-0.42141643
58	0xbe50e80e	-0.20401022
59	0xbe94441b	-0.2895821
60	0x3d848ed7	0.06472557
61	0xbec2779c	-0.3798188
62	0xbc12fcd1	-0.008971409
63	0xbea13e20	-0.3149271
64	0xbeb10924	-0.34577286
65	0xbd4e21bf	-0.05032515
66	0xbe531d32	-0.20616606
67	0xbeb15aa6	-0.34639472
68	0xbedbf75c	-0.42962158
69	0xbed1b1fc	-0.40956104
70	0xbe83ac9e	-0.25717634
71	0xbe33db8e	-0.17564222
72	0xbe6312e8	-0.22175181
73	0xbe156849	-0.14590563
74	0xbecc988e	-0.3996014
75	0xbd22a631	-0.039709274
76	0xbd947c7b	-0.07250305
77	0xbeb63e3a	-0.3559435
78	0xbdbc9b5e	-0.092093214
79	0xbda5bc81	-0.08092595
80	0xba8a67be	-0.0010559482
81	0xbebaa95d	-0.3645734
82	0x3ec250c2	0.37952238
83	0xbf064e6e	-0.52463424
84	0xbee8559a	-0.4537781
85	0xbeb5e156	-0.3552348
86	0xbe6e6ad7	-0.23282944
87	0xbea9946b	-0.33121046
